checkpoints/state_size_37__action_size_4__hidden_layers_[256-256]__drop_p_0.25__seed_0__GAMMA_0.99__LR_0.0005__UPDATE_EVERY_100__BUFFER_SIZE_10000__BATCH_SIZE_64__TAU_0.001.pth (torch, 308311 bytes, 6 tensors)

hidden_layers.0.weight f4 [256, 37]
-0.049800627 0.026969321 0.06636002 0.0949026 -0.0790443 -0.04698989 0.2104797 0.18112825
-0.06080373 -0.07104777 -0.18786436 -0.10060227 -0.08009049 -0.032797076 -0.09557491 -0.11778954
-0.0013558912 0.12724783 0.005399598 -0.07567128 -0.13199075 0.07039637 0.083009966 -0.112087846
-0.09266591 0.045652244 0.19127975 -0.006308173 -0.05777241 -0.07306748 -0.030083641 0.10414133
-0.07070292 -0.08540066 -0.14484356 -0.034538202 -0.029601928 -0.08029546 0.1440336 0.11817058
0.15411948 -0.018809924 -0.029397953 0.23294199 -0.07460113 0.18410116 0.46840912 0.060879648
0.10561437 -0.0055812816 -0.18729337 0.15270454 -0.18073665 -0.14648886 -0.16881464 -0.07796647
0.19711272 -0.0905807 0.01613429 -0.076760754 0.10310822 0.19837213 -0.026542258 -0.07410536
0.114259765 0.06885653 0.12817034 -0.13114709 0.10279594 -0.08511896 0.19498438 0.0842688
-0.038890675 0.0010519569 -0.12664878 -0.081528455 -0.0038692423 0.081629045 -0.012183059 -0.11621808
0.03148938 0.05404353 -0.0926999 -0.104757 -0.075987265 0.046601616 0.10753439 -0.112027176
0.1558444 0.05211102 0.17016427 0.016028961 -0.11940468 0.14215755 -0.020632718 0.026582215
0.0075428043 -0.11707982 -0.020838536 0.08640569 0.08685084 -0.09542427 0.12753893 0.07326599
-0.11502051 0.028696353 0.18378277 0.08577253 -0.07361075 -0.11094998 -0.056008186 -0.11142593
-0.103651956 0.114861704 -0.007362328 0.0047496725 0.0015716206 0.07960701 0.14385453 -0.03387182
-0.12799148 0.01717063 -0.11478123 -0.12272742 0.12108654 -0.11110156 -0.13241443 -0.059193127
-0.026768949 0.03643009 -0.102992356 0.05945689 0.018001199 0.018798755 -0.022780366 -0.02569383
0.018463938 0.045795206 -0.02148722 -0.08815248 -0.026798962 -0.115390405 0.09434146 0.014058113
0.13583013 0.10500838 -0.011748015 -0.05533677 -0.08734117 0.04699483 -0.0008949586 -0.1277629
0.05946904 0.13790068 -0.1594498 -0.06532106 -0.09809427 -0.19716941 0.15997122 -0.100636594
0.06074835 0.025181701 0.12210126 -0.07167713 -0.06669949 -0.121646605 0.05171724 0.1317505
-0.0004768721 0.073929764 0.01325978 0.117957726 0.11343458 0.14213002 -0.029611155 -0.1526888
0.06882797 0.020383237 0.12173193 0.12786536 0.19188398 0.030589337 -0.024915298 -0.10340461
-0.022650214 -0.1362456 -0.1328564 -0.11469282 0.095045224 -0.016339453 -0.17104946 -0.12860656
0.20982963 0.025015373 0.2560963 -0.12987936 -0.17559716 -0.05073521 -0.022257442 0.09102971
0.007915566 -0.114193186 -0.10082646 -0.047203988 -0.17358996 -0.1187152 -0.034602042 -0.04075191
-0.20493229 -0.03727179 -0.084977955 -0.00020851419 0.011566042 -0.10569454 -0.043258544 -0.17993172
-0.005365458 0.12590438 0.13070545 0.101569705 -0.02601787 0.06075403 0.040799428 -0.10176807
0.0031727047 0.051831614 -0.15438734 0.10790137 0.07089153 0.05189803 0.15348381 -0.05982183
0.04574658 0.021413907 0.058726102 -0.011655125 0.025492372 -0.19675893 0.09766092 0.15964597
0.03873133 0.14570662 0.077913314 -0.03174375 -0.12859999 0.010440104 0.08189412 -0.09134825
0.12791717 -0.045323774 -0.07199104 0.012965869 0.032112457 -0.12408307 -0.11681003 0.08411514
00000000: befb 4bbd c4ee dc3c c3e7 873d 4b5c c23d
00000010: fae1 a1bd 7978 40bd fe87 573e af79 393e
00000020: 550d 79bd 7e81 91bd 845f 40be 9008 cebd
00000030: 7c06 a4bd 3a56 06bd c7bc c3bd a43b f1bd
00000040: 29b8 b1ba 414d 023e 1cef b03b 8bf9 9abd
00000050: 9528 07be f92b 903d 2101 aa3d 508e e5bd
00000060: a0c7 bdbd d9fd 3a3d d7de 433e cab4 cebb
00000070: c3a2 6cbd 67a4 95bd f871 f6bc 0d48 d53d
00000080: b1cc 90bd 8be6 aebd df51 14be ee77 0dbd
00000090: be7f f2bc f271 a4bd 8b7d 133e 6b03 f23d
000000a0: 7fd1 1d3e 4517 9abc fad3 f0bc 5888 6e3e
000000b0: 7ac8 98bd 0485 3c3e 52d3 ef3e f05c 793d
000000c0: 594c d83d 2fe3 b6bb d5c9 3fbe 945e 1c3e
000000d0: 0713 39be 2d01 16be bfdd 2cbe e2ac 9fbd
000000e0: ebd7 493e 6082 b9bd 0f2c 843c be34 9dbd
000000f0: 672a d33d 1022 4b3e 266f d9bc 8dc4 97bd
00000100: 0601 ea3d a704 8d3d 163f 033e 6c4b 06be
00000110: ae86 d23d d952 aebd fca9 473e 1f95 ac3d
00000120: d44b 1fbd d1e1 893a 38b0 01be 64f8 a6bd
00000130: 1d93 7dbb 212d a73d 749b 47bc bf03 eebd
00000140: 02fb 003d c05c 5d3d 72d9 bdbd d78a d6bd
00000150: 369f 9bbd 56e1 3e3d fe3a dc3d 816e e5bd
00000160: ad95 1f3e 5d72 553d 8b3f 2e3e 2b4f 833c
00000170: 718a f4bd c091 113e f205 a9bc f2c2 d93c
00000180: a129 f73b 8bc7 efbd 94b5 aabc 77f5 b03d
00000190: dade b13d cd6d c3bd 9199 023e 7b0c 963d
000001a0: e08f ebbd 9d14 eb3c 8d31 3c3e 82a9 af3d
000001b0: 3cc1 96bd be39 e3bd d768 65bd 4733 e4bd
000001c0: 7a47 d4bd 9d3c eb3d af3f f1bb 24a3 9b3b
000001d0: d6fe cd3a 0009 a33d 9a4e 133e 2dbd 0abd
000001e0: 3310 03be 6ca9 8c3c 6c12 ebbd 8358 fbbd
000001f0: 38fc f73d 3789 e3bd a697 07be 7e74 72bd
00000200: 8e4a dbbc b837 153d a8ed d2bd 1189 733d
00000210: 4077 933c d9ff 993c e49d babc de7b d2bc
00000220: af41 973c c193 3b3d f705 b0bc 4a89 b4bd
00000230: 7f89 dbbc ce51 ecbd 1836 c13d 0054 663c
00000240: 0e17 0b3e a20e d73d bf7a 40bc cfa8 62bd
00000250: eddf b2bd a77d 403d a89b 6aba 47d4 02be
00000260: cf95 733d d635 0d3e cf46 23be 0cc7 85bd
00000270: a6e5 c8bd c7e6 49be 7fcf 233e 8f1a cebd
00000280: 43d3 783d db49 ce3c 3a10 fa3d 76cb 92bd
00000290: be99 88bd db21 f9bd 75d5 533d 9ae9 063e
000002a0: b104 fab9 7d68 973d 8c3f 593c d293 f13d
000002b0: 6450 e83d 888a 113e 1893 f2bc 745a 1cbe
000002c0: aef5 8c3d bffa a63c 974e f93d 23ef 023e
000002d0: 3c7d 443e 7d96 fa3c 2b1b ccbc ccc5 d3bd
000002e0: f18c b9bc f783 0bbe 820b 08be 12e4 eabd
000002f0: 12a7 c23d 51da 85bc 9727 2fbe 70b1 03be
00000300: 94dd 563e 0aed cc3c 0e1f 833e 18ff 04be
00000310: becf 33be b9cf 4fbd 3d55 b6bc c96d ba3d
00000320: 4ab0 013c 1ede e9bd 1a7e cebd f858 41bd
00000330: 91c1 31be f420 f3bd dfba 0dbd 7aeb 26bd
00000340: c5d9 51be 4eaa 18bd ec08 aebd 9aa4 5ab9
00000350: 7f7f 3d3c 6176 d8bd df2f 31bd 0540 38be
00000360: b9d0 afbb 14ed 003e a6d7 053e c703 d03d
00000370: 6e23 d5bc 38d9 783d 4d1d 273d c76b d0bd
00000380: 27ed 4f3b 634d 543d b717 1ebe 65fb dc3d
00000390: 942f 913d 0793 543d dc2a 1d3e bc07 75bd
000003a0: c460 3b3d 386c af3c c88a 703d 23f5 3ebc
000003b0: 61d5 d03c 2c7b 49be 7302 c83d 3c7a 233e
000003c0: bea4 1e3d 1e34 153e 0491 9f3d bc05 02bd
000003d0: b7af 03be f80c 2b3c 1bb8 a73d cb14 bbbd
000003e0: b8fc 023e 6ca5 39bd 0a70 93bd cc6e 543c
000003f0: 5a88 033d 441f febd 193a efbd 8f44 ac3d

hidden_layers.0.bias f4 [256]
0.063717656 0.013875456 0.09337093 -0.14823376 0.15337943 -0.14252108 -0.16141905 -0.19239399
-0.17390002 -0.10320721 0.092709444 -0.0322703 0.0035924425 0.052755576 -0.14658459 -0.17242368
-0.12916465 -0.11240672 -0.15802522 0.01378194 -0.18718758 0.10130966 0.0154755525 -0.00039071284
0.016909365 -0.09668553 -0.118034884 0.04669401 0.052547067 -0.09017821 -0.059518676 0.072365135
-0.060615197 -0.10290846 0.048590694 -0.086247675 -0.02084126 -0.12404958 -0.13359745 -0.070042245
-0.0068978923 -0.042348173 -0.03179026 -0.12407347 -0.15667832 -0.055098716 0.025530348 0.06408369
-0.08431538 0.062236197 -0.16771083 -0.1254912 -0.21486102 -0.06125527 -0.08099022 0.063188955
0.01249652 0.00023195164 0.019562175 -0.027355729 -0.07076432 -0.11702957 -0.063618556 -0.17306238
-0.039273128 -0.0025238586 0.084291905 0.14667715 0.031279888 -0.080479264 -0.14364846 0.027720312
0.04708821 -0.014007718 -0.006206608 -0.012998378 -0.031958867 0.06718202 -0.05904068 -0.18821104
-0.15486594 -0.16239853 -0.19179577 -0.111150764 0.05974989 0.09716445 0.0014396874 0.014478297
0.06386421 0.13440719 0.1175961 -0.11434961 0.027293263 -0.043150496 -0.1406097 0.12128038
0.024042094 0.10661985 -0.16281088 0.020270078 -0.041312564 -0.019852774 -0.08945219 0.024782922
-0.14355128 -0.036866765 0.097419694 -0.031829152 0.03557084 0.13383825 -0.05510621 0.109575756
-0.055618916 -0.13286546 0.07239033 -0.0074745254 0.057198778 -0.037335426 0.12329072 -0.112779215
0.05095274 -0.035055213 -0.03200565 -0.0076084537 -0.111600555 -0.1512727 0.14509664 -0.060738984
-0.0465022 0.08003523 0.13229388 -0.14338575 -0.08698341 0.08666948 0.049114708 -0.22469836
-0.12444831 -0.0409305 0.01690247 -0.04740774 -0.115407474 -0.010437838 0.10611519 0.010847099
0.16275504 -0.085361205 -0.12698837 -0.06746828 -0.0007454111 -0.16073346 -0.10245521 0.013450921
-0.12805517 0.009640844 -0.027118519 0.06438011 -0.22286569 0.07410113 0.014882708 0.07729105
-0.07323582 -0.16656733 0.07383615 -0.12574647 -0.055484686 -0.00626096 0.014957738 0.088213585
0.05581917 -0.1529962 -0.15915166 0.12420219 0.12383083 0.038616735 -0.08542677 0.043657728
0.04675334 -0.19888237 -0.20669706 0.07226376 0.05629335 -0.02594026 0.123065464 0.08489273
0.08787017 0.10140147 -0.122037634 0.061548673 -0.06853035 0.12599593 -0.016892845 -0.18378918
-0.07477963 -0.01637429 -0.0993061 0.053929813 -0.069407225 0.055972908 0.009967317 -0.07764747
0.09938798 -0.0014740308 0.100539945 -0.037122082 -0.105371185 -0.06654482 -0.08675408 0.015902648
-0.23772751 0.030414755 0.08015818 -0.02985426 -0.2050751 0.078750774 -0.1471512 0.1477733
-0.06554025 0.038074564 0.0037076965 0.026624277 0.035521224 -0.18461989 -0.088632464 -0.109809086
-0.11349824 0.019532172 0.048723146 0.048894584 0.10146031 0.13631721 -0.034990028 -0.11490194
0.07984235 -0.10940155 0.14417277 0.014581726 0.0081434585 0.14461231 -0.14037243 -0.039427105
-0.07790538 0.14519085 -0.15951094 0.022204846 0.08147058 -0.041611787 -0.1124012 -0.13601023
0.010239995 -0.046007965 0.1530283 -0.030333994 0.064945035 0.071756534 -0.13455927 -0.17551984
00000000: 677e 823d e155 633c 4239 bf3d 97ca 17be
00000010: 7f0f 1d3e 0cf1 11be 094b 25be ee02 45be
00000020: d912 32be 4d5e d3bd 73de bd3d dd2d 04bd
00000030: 2f6f 6b3b 3b16 583d 451a 16be d58f 30be
00000040: bd43 04be 7f35 e6bd 5dd1 21be a5cd 613c
00000050: 1aae 3fbe 707b cf3d 2c8d 7d3c 97d8 ccb9
00000060: 8285 8a3c 1003 c6bd 46bc f1bd 3842 3f3d
00000070: 983b 573d 5aaf b8bd dbc9 73bd 2c34 943d
00000080: a447 78bd acc1 d2bd 0907 473d 9fa2 b0bd
00000090: 4abb aabc b50d febd c5cd 08be 4f72 8fbd
000000a0: b707 e2bb 4775 2dbd 8136 02bd 3b1a febd
000000b0: 4870 20be 31af 61bd 0525 d13c 4f3e 833d
000000c0: 8bad acbd 62eb 7e3d 63bc 2bbe c480 00be
000000d0: 8704 5cbe cee6 7abd 33de a5bd 3669 813d
000000e0: 34be 4c3c 0b38 7339 db40 a03c 1f19 e0bc
000000f0: e2ec 90bd 33ad efbd 724a 82bd 4437 31be
00000100: dcdc 20bd 5267 25bb 3ca1 ac3d 8932 163e
00000110: 571f 003d 50d2 a4bd 9518 13be b515 e33c
00000120: 91df 403d a180 65bc cd60 cbbb 26f7 54bc
00000130: 4de7 02bd ba96 893d a4d4 71bd 65ba 40be
00000140: 2d95 1ebe cd4b 26be 1c66 44be 03a3 e3bd
00000150: 4dbc 743d 28fe c63d e5b3 bc3a 6136 6d3c
00000160: 3dcb 823d 0aa2 093e 39d6 f03d 2130 eabd
00000170: 1f96 df3c 93be 30bd fdfb 0fbe d961 f83d
00000180: edf3 c43c 825b da3d e5b7 26be 6f0d a63c
00000190: 5d37 29bd 49a2 a2bc b632 b7bd 8e05 cb3c
000001a0: 1bff 12be 9b01 17bd fa83 c73d 495f 02bd
000001b0: bbb2 113d e50c 093e 0db7 61bd 4169 e03d
000001c0: a9d0 63bd e20d 08be 6241 943d ddec f4bb
000001d0: 4449 6a3d 08ed 18bd d87f fc3d caf8 e6bd
000001e0: d2b3 503d 0e96 0fbd 5b18 03bd 5650 f9bb
000001f0: d58e e4bd 3be7 1abe 3794 143e 71c9 78bd
00000200: 1779 3ebd 83e9 a33d 0c78 073e b7d3 12be
00000210: 5c24 b2bd c57f b13d 812c 493d 5417 66be
00000220: c1de febd bda6 27bd 0c77 8a3c 9e2e 42bd
00000230: c15a ecbd 7703 2bbc ec52 d93d 08b8 313c
00000240: 42a9 263e dbd1 aebd 3d09 02be cf2c 8abd
00000250: b167 43ba 5097 24be 0ad4 d1bd 4061 5c3c
00000260: e520 03be a1f4 1d3c a827 debc b8d9 833d
00000270: e736 64be 55c2 973d 9ad6 733c c54a 9e3d
00000280: a9fc 95bd a090 2abe 6837 973d afc3 00be
00000290: e943 63bd bd28 cdbb 4d11 753c 53a9 b43d
000002a0: a4a2 643d 09ab 1cbe a7f8 22be b85d fe3d
000002b0: 059b fd3d 952c 1e3d 3bf4 aebd 72d2 323d
000002c0: 6e80 3f3d d2a7 4bbe 65a8 53be 06ff 933d
000002d0: db93 663d ab80 d4bc bf09 fc3d 3ddc ad3d
000002e0: 47f5 b33d 93ab cf3d deee f9bd 761a 7c3d
000002f0: a459 8cbd 1405 013e dd62 8abc 3b33 3cbe
00000300: 1026 99bd 6023 86bc ff60 cbbd 82e5 5c3d
00000310: 6025 8ebd d943 653d f54d 233c a305 9fbd
00000320: ed8b cb3d 4434 c1ba e3e7 cd3d 530d 18bd
00000330: d9cc d7bd a748 88bd 20ac b1bd 4546 823c
00000340: d76e 73be 5d28 f93c f929 a43d ec90 f4bc
00000350: 35ff 51be 1648 a13d ceae 16be e251 173e
00000360: f739 86bd 13f4 1b3d d3fc 723b 281b da3c
00000370: b47e 113d ff0c 3dbe f084 b5bd 96e3 e0bd
00000380: c471 e8bd ef01 a03c ec91 473d b045 483d
00000390: 6cca cf3d bd96 0b3e b451 0fbd b551 ebbd
000003a0: 6384 a33d eb0d e0bd 07a2 133e 31e8 6e3c
000003b0: 246c 053c 4015 143e cabd 0fbe 517e 21bd
000003c0: db8c 9fbd e9ac 143e d656 23be f0e6 b53c
000003d0: 0cda a63d 1f71 2abd 9a32 e6bd 4446 0bbe
000003e0: a7c5 273c d972 3cbd 73b3 1c3e ff7e f8bc
000003f0: e701 853d 17f5 923d e8c9 09be 79bb 33be

hidden_layers.1.weight f4 [256, 256]
0.018935995 -0.03696826 -0.06819584 -0.031857874 -0.035391264 0.058123205 0.0006251263 0.018653857
-0.013871599 0.013475399 -0.031256076 -0.022702683 -0.041039735 0.073429875 0.0045264424 0.032469302
0.06465702 -0.00814548 -0.007927192 0.0030053775 0.0005972063 -0.0819406 -0.009247338 -0.06224896
-0.03664834 0.09529886 0.0494815 -0.06945409 -0.020638222 -0.06971704 0.100226 -0.019999724
-0.063908614 -0.0011207309 -0.06255488 -0.0015980706 0.04457467 -0.021520037 0.07003824 -0.011836909
-0.09177302 -0.0091774305 -0.044178445 0.042705588 0.047808852 -0.030669848 -0.012699149 0.0321993
-0.042950395 0.018227093 0.045947123 -0.028933726 0.03243964 -0.056572277 -0.013707971 0.077381834
-0.07741267 -0.004120335 -0.02108105 0.017164562 0.020955438 -0.013704171 0.024854574 -0.022091597
0.049196795 0.00639023 -0.06948864 0.057775237 0.086287975 -0.018745735 0.032941923 -0.040148333
0.042398427 0.019284807 0.033783525 -0.002431621 -0.016576786 -0.017497968 -0.069024324 0.08047762
-0.022725413 0.03268869 0.078245506 -0.056132615 0.008172115 0.031630933 -0.03372679 -0.069449924
-0.050044958 -0.036765296 -0.083259545 0.03710871 -0.033078026 0.10152556 -0.02663289 0.04562963
-0.012216038 0.0029377514 0.025339654 0.00403105 -0.00967155 0.07489495 -0.042588633 0.0044156113
0.06626081 -0.026964016 -0.0054879687 -0.010890781 -0.0063655768 -0.008020873 -0.08714251 0.031538293
0.024949562 0.06785414 -0.012905712 0.003143157 -0.07122627 0.0388181 -0.03017435 0.08815142
-0.016136464 -0.041905046 -0.034827624 -0.033950172 -0.008128723 -0.031474844 0.03914573 0.049831778
-0.005885435 -0.035134535 0.017242085 -0.11168525 -0.060920335 -0.015633259 -0.0076348493 -0.023015566
0.06921832 -0.016730344 0.027362857 -0.0036358668 -0.016198225 -0.016731527 0.02582871 0.092487365
0.061224338 0.09236671 0.07552879 -0.0517539 0.035696376 -0.04213475 -0.041238863 0.009664526
0.0032591382 0.05961337 0.0062592486 -0.059565034 0.005995517 0.02435189 -0.034307316 0.026641715
-0.043119323 -0.026468141 -0.004712493 -0.006005299 -0.003897247 -0.0072956216 0.0066711167 0.0076022767
0.06850627 0.035735164 -0.010321392 0.040651046 0.056772206 -0.0010965228 -0.014278866 -0.05189388
0.0055125183 -0.019694604 0.035346854 0.011695349 0.017168414 -0.029676596 -0.10390291 0.084735155
0.019158438 -0.016820133 -0.0031302173 -0.043775555 -0.006805058 0.07155112 -0.06700902 -0.0267654
0.04866557 -0.024233963 -0.060506165 -0.032951634 0.006916074 0.061628766 0.023137443 0.009846313
-0.044813883 -0.04233842 0.032229368 0.017718863 -0.016167428 0.035188884 -0.052632596 -0.029498292
0.0305177 0.090072416 0.07023942 -0.046103097 0.049683884 0.067433074 -0.022383818 0.075219415
-0.01831507 -0.06231506 0.027849097 -0.031105854 -0.032175995 0.047061834 -0.072177105 -0.021889511
-0.108611405 -0.002738127 0.046135303 -0.049311396 -0.0100480225 -0.0061714523 -0.05572088 -0.039153848
0.005448421 0.0678014 0.04522362 -0.0087375855 -0.05449267 0.11758465 -0.008410135 -0.057049066
0.04527224 -0.049391888 0.09193057 -0.034433547 0.046646968 0.004332019 0.061600994 -0.049620703
-0.06731733 0.07679255 0.08068452 -0.018771742 0.004504446 0.046001066 -0.0077424985 -0.04453135
00000000: a91f 9b3c 086c 17bd 43aa 8bbd 677d 02bd
00000010: 6ef6 10bd 9912 6e3d 84df 233a f9cf 983c
00000020: b445 63bc ecc7 5c3c 5f06 00bd fafa b9bc
00000030: 4819 28bd 6762 963d 8d52 943b 88fe 043d
00000040: e66a 843d 9f74 05bc 0ee1 01bc def5 443b
00000050: d68d 1c3a 79d0 a7bd 2682 17bc c4f8 7ebd
00000060: 921c 16bd 0c2c c33d 1dad 4a3d f23d 8ebd
00000070: 7d11 a9bc cfc7 8ebd 4a43 cd3d 76d6 a3bc
00000080: 85e2 82bd 7de5 92ba c61c 80bd 5a76 d1ba
00000090: ee93 363d ca4a b0bc 3570 8f3d 98ef 41bc
000000a0: 7ef3 bbbd ef5c 16bc 75f4 34bd 0eec 2e3d
000000b0: 37d3 433d 553f fbbc 1710 50bc 6ae3 033d
000000c0: c1ec 2fbd fc50 953c 0d33 3c3d 6c06 edbc
000000d0: 6edf 043d 55b8 67bd 6697 60bc 5e7a 9e3d
000000e0: 898a 9ebd e003 87bb 2bb2 acbc b29c 8c3c
000000f0: bdaa ab3c 7687 60bc d29b cb3c 70f9 b4bc
00000100: 9482 493d 2265 d13b 0f50 8ebd baa5 6c3d
00000110: c0b7 b03d a890 99bc 1cee 063d 9472 24bd
00000120: f9a9 2d3d 2cfb 9d3c 9860 0a3d d55b 1fbb
00000130: 0acc 87bc e657 8fbc a05c 8dbd 73d1 a43d
00000140: a52a babc 93e4 053d 2e3f a03d 50eb 65bd
00000150: 56e4 053c 708f 013d 1a25 0abd c33b 8ebd
00000160: f1fb 4cbd 3597 16bd fb83 aabd 4dff 173d
00000170: d37c 07bd a2ec cf3d 382d dabc 23e6 3a3d
00000180: c725 48bc 4a87 403b 1b95 cf3c e616 843b
00000190: 6c75 1ebc 8662 993d 6b71 2ebd d5b0 903b
000001a0: bfb3 873d a4e3 dcbc 6bd4 b3bb 3f6f 32bc
000001b0: 5496 d0bb fb69 03bc c677 b2bd 4c2e 013d
000001c0: 0663 cc3c 1df7 8a3d 7b72 53bc 6dfd 4d3b
000001d0: 14df 91bd baff 1e3d 3330 f7bc bb88 b43d
000001e0: 9e30 84bc a0a4 2bbd 69a7 0ebd 560f 0bbd
000001f0: 562e 05bc c4eb 00bd 4657 203d 681c 4c3d
00000200: 9bda c0bb 3be9 0fbd 463f 8d3c 3dbb e4bd
00000210: 9a87 79bd 5211 80bc c22d fabb 248b bcbc
00000220: 56c2 8d3d 130e 89bc 1228 e03c b947 6ebb
00000230: 24b2 84bc 8e10 89bc bb96 d33c 046a bd3d
00000240: 5fc6 7a3d c22a bd3d d7ae 9a3d e6fb 53bd
00000250: 5d36 123d 7d95 2cbd 15ea 28bd f657 1e3c
00000260: 4497 553b 262d 743d 621a cd3b 77fa 73bd
00000270: 0b76 c43b 9d7d c73c d485 0cbd ba3f da3c
00000280: e39d 30bd b7d3 d8bc 426b 9abb 19c8 c4bb
00000290: f468 7fbb 1c10 efbb 6299 da3b 851c f93b
000002a0: 044d 8c3d 095f 123d 0e1b 29bc b681 263d
000002b0: f989 683d 33b9 8fba e8f1 69bc ad8e 54bd
000002c0: 5ba2 b43b 9456 a1bc ddc7 103d d99d 3f3c
000002d0: c6a4 8c3c 551c f3bc 0dcb d4bd a089 ad3d
000002e0: 28f2 9c3c 60ca 89bc 5524 4dbb ff4d 33bd
000002f0: f7fc debb 6589 923d 063c 89bd 1d43 dbbc
00000300: 8c55 473d 4e86 c6bc 50d5 77bd 4bf8 06bd
00000310: 3ca0 e23b 726e 7c3d bc8a bd3c 6e52 213c
00000320: c38e 37bd 0d6b 2dbd f102 043d 2627 913c
00000330: 8e71 84bc 3822 103d 4795 57bd 67a6 f1bc
00000340: 4100 fa3c e377 b83d afd9 8f3d 9ad6 3cbd
00000350: 5481 4b3d 5a1a 8a3d 455e b7bc a30c 9a3d
00000360: 7c09 96bc 143e 7fbd ca23 e43c b4d1 febc
00000370: faca 03bd e9c3 403d 97d1 93bd a251 b3bc
00000380: a86f debd 2672 33bb 5ff8 3c3d bffa 49bd
00000390: 76a0 24bc e539 cabb 943b 64bd c95f 20bd
000003a0: ab88 b23b 76db 8a3d 673c 393d 1728 0fbc
000003b0: b533 5fbd 39d0 f03d aaca 09bc 48ac 69bd
000003c0: 626f 393d 264f 4abd 1846 bc3d 310a 0dbd
000003d0: e410 3f3d 9cf3 8d3b 5351 7c3d 143f 4bbd
000003e0: abdd 89bd 6a45 9d3d ed3d a53d 32c7 99bc
000003f0: 089a 933b 9d6b 3c3d c9b4 fdbb 8166 36bd

hidden_layers.1.bias f4 [256]
0.08763441 0.02111209 -0.0130034955 -0.06929901 -0.02270506 0.0034090816 -0.053726837 0.0073347962
-0.06720425 0.02506417 0.0065668225 -0.06930136 0.021768667 -0.07974848 0.025296299 0.09904576
-0.033158645 0.024684286 0.00894579 0.022541605 0.011379741 -0.026707929 -0.040759493 0.0030455496
0.0031523409 -0.013934331 0.021452567 0.008299747 -0.072285555 -0.08187171 -0.008812671 -0.047960065
-0.031998135 0.06485907 -0.053880334 0.04397717 0.085422836 -0.03141634 -0.052654516 0.0077821366
0.018158076 -0.029338673 0.017299196 0.0442669 -0.027674647 0.09639116 -0.04033109 0.013070401
-0.044663686 0.09887676 -0.017095752 -0.085958496 -0.09660456 -0.006839185 -0.08011746 0.021257415
-0.019191075 -0.02512938 -0.077756494 0.05910125 -0.055268947 -0.040125363 -0.06323738 -0.057762176
-0.011037709 0.07142879 0.0009663725 -0.07158574 0.0023674658 0.028400373 -0.033232156 -0.055624023
0.02799681 -0.03408665 0.019410307 -0.06704584 -0.05068759 0.02064311 0.018505318 -0.033986643
-0.05361646 0.0992934 -0.011773065 0.101318814 0.01688981 -0.0015299863 -0.061255902 -0.041247837
-0.04733059 -0.032717638 -0.060813747 -0.0061000767 0.05644268 -0.07632303 0.014425283 -0.037381288
0.022228071 0.011320871 0.014396119 -0.032025527 0.011961395 0.023358447 -0.06395001 -0.041045036
0.0068704966 0.033795975 -0.04939057 0.079573706 -0.015650675 0.019463135 -0.028171957 -0.002896536
-0.030489044 -0.03951201 -0.041536905 0.06712311 -0.03522461 -0.020817328 0.058537178 -0.011656159
-0.07007943 -0.010224014 -0.095960364 -0.040119898 -0.07376643 -0.02315095 -0.07587835 0.025469504
-0.081889294 -0.009516411 -0.034825463 0.078768924 -0.057618465 0.033304602 -0.013528755 -0.031344272
-0.0017258583 0.055123936 -0.0091200145 -0.01716612 -0.017207202 -0.067664035 0.10065008 0.081903495
-0.03671172 -0.05641287 0.008983896 -9.932588e-05 0.002854061 -0.024339486 0.10228116 -0.08048155
0.061410055 0.004032312 -0.044763323 -0.022382196 -0.059425965 -0.022464518 -0.0037485384 -0.06431588
-0.0509487 0.03226166 0.013453226 0.050278004 -0.02200386 -0.023137253 -0.055782694 0.046231173
-0.011423505 -0.001545363 -0.068289384 -0.07811594 -0.040871758 0.03668332 0.02360891 -0.017467735
-0.03787318 -0.015320981 0.02161323 -0.069277726 -0.024837404 0.0070511764 -0.030562224 0.06074198
-0.07185457 0.056492593 -0.052256227 -0.043664683 -0.021457596 -0.022260662 -0.0216388 -0.067254186
0.035923067 0.04716477 -0.046441924 -0.06739648 -0.07590361 -0.024454188 -0.05221365 -0.01790521
0.034381375 0.030422399 0.0383125 -0.07890061 -0.0553379 -0.07885748 -0.06917159 0.04116835
-0.05550614 -0.02933092 0.014205044 -0.051305473 0.009730638 0.021745117 -0.062813506 0.0069828094
-0.062178627 -0.0134682385 0.034910623 -0.08735851 0.0081829615 -0.039538622 0.098833725 0.045901444
0.024642847 0.026447278 -0.0038836442 -0.078028694 -0.08635154 -0.034313682 -0.060627196 -0.079161085
0.022373745 0.01822378 -0.0640214 0.010778353 0.044469938 -0.034732953 0.01329848 0.06444483
0.03556259 -0.072335854 -0.036768436 0.01086282 0.024084667 -0.07360691 -0.07274403 -0.087694496
0.016896559 0.010228362 -0.019395377 0.08426106 0.0046546767 0.016495222 -0.04131529 0.00812254
00000000: ab79 b33d 43f3 ac3c 9d0c 55bc a4ec 8dbd
00000010: f6ff b9bc e66a 5f3b ac10 5cbd bb58 f03b
00000020: 62a2 89bd 6053 cd3c 802e d73b dfed 8dbd
00000030: 3454 b23c 2c53 a3bd 2f3a cf3c 81d8 ca3d
00000040: 5cd1 07bd b336 ca3c 5d91 123c 2ca9 b83c
00000050: 1872 3a3c 96ca dabc 6df3 26bd d897 473b
00000060: 8197 4e3b d24c 64bc 4bbd af3c a9fb 073c
00000070: 730a 94bd 5bac a7bd 0563 10bc c671 44bd
00000080: 7a10 03bd d5d4 843d a0b1 5cbd 6821 343d
00000090: 2bf2 ae3d 6cae 00bd 43ac 57bd 4b01 ff3b
000000a0: 3fc0 943c a857 f0bc 0bb7 8d3c 3551 353d
000000b0: f1b5 e2bc ba68 c53d 3732 25bd 3c25 563c
000000c0: 45f1 36bd e67f ca3d 640c 8cbc 020b b0bd
000000d0: 9dd8 c5bd 3e1b e0bb 9f14 a4bd 0824 ae3c
000000e0: 9a36 9dbc 21dc cdbc cc3e 9fbd 2714 723d
000000f0: b161 62bd 7e5a 24bd 9982 81bd 0898 6cbd
00000100: 82d7 34bc 4249 923d 2954 7d3a 8b9b 92bd
00000110: 7c27 1b3b e6a7 e83c 711e 08bd 04d6 63bd
00000120: 9159 e53c 719e 0bbd 5d02 9f3c 544f 89bd
00000130: ca9d 4fbd bd1b a93c 7798 973c 9435 0bbd
00000140: ef9c 5bbd 575a cb3d d0e3 40bc 3d80 cf3d
00000150: 805c 8a3c d289 c8ba 78e7 7abd 7ef3 28bd
00000160: b9dd 41bd ee02 06bd d617 79bd 27e3 c7bb
00000170: 7130 673d 404f 9cbd 0658 6c3c 1f1d 19bd
00000180: a517 b63c 2d7b 393c b3dd 6b3c 332d 03bd
00000190: baf9 433c 375a bf3c 39f8 82bd d71e 28bd
000001a0: e721 e13b a66d 0a3d c44d 4abd 8af7 a23d
000001b0: d835 80bc 2771 9f3c e0c8 e6bc cfd3 3dbb
000001c0: 29c4 f9bc 58d7 21bd 9a22 2abd d777 893d
000001d0: ae47 10bd 1a89 aabc aec4 6f3d 79f9 3ebc
000001e0: ce85 8fbd 9f82 27bc de86 c4bd c354 24bd
000001f0: db12 97bd 10a7 bdbc 1c66 9bbd 6ca5 d03c
00000200: 93b5 a7bd b9ea 1bbc 25a5 0ebd 9a51 a13d
00000210: 5701 6cbd 686a 083d b6a7 5dbc da62 00bd
00000220: 3236 e2ba a3c9 613d 1d6c 15bc f69f 8cbc
00000230: 1ef6 8cbc 7193 8abd a121 ce3d 05bd a73d
00000240: 075f 16bd 2e11 67bd 3131 133c 2d4d d0b8
00000250: 330b 3b3b 9a63 c7bc c978 d13d 83d3 a4bd
00000260: 1c89 7b3d 7c21 843b bf59 37bd de5a b7bc
00000270: a468 73bd 8207 b8bc 0aaa 75bb 0bb8 83bd
00000280: 96af 50bd cd24 043d eb6a 5c3c 4ff0 4d3d
00000290: 7041 b4bc 568a bdbc 657c 64bd e65c 3d3d
000002a0: a729 3bbc c78d caba 4edb 8bbd 40fb 9fbd
000002b0: 2569 27bd 4041 163d 7967 c13c 7f18 8fbc
000002c0: e820 1bbd da04 7bbc 3b0e b13c 7be1 8dbd
000002d0: d077 cbbc 8e0d e73b a15d fabc 95cc 783d
000002e0: 7d28 93bd c764 673d a00a 56bd bdd9 32bd
000002f0: d7c7 afbc fe5b b6bc da43 b1bc 90bc 89bd
00000300: 1124 133d d92f 413d e339 3ebd 2a07 8abd
00000310: 5a73 9bbd 2654 c8bc fbdd 55bd f2ad 92bc
00000320: 7cd3 0c3d 6538 f93c 91ed 1c3d a596 a1bd
00000330: fea9 62bd 0880 a1bd d6a9 8dbd 25a0 283d
00000340: 685a 63bd 6647 f0bc 46bc 683c b025 52bd
00000350: 416d 1f3c d122 b23c 5ea4 80bd 0dd0 e43b
00000360: 04af 7ebd e3a9 5cbc 71fe 0e3d 05e9 b2bd
00000370: d411 063c 40f3 21bd 5669 ca3d 2703 3c3d
00000380: ccdf c93c f6a7 d83c bd84 7ebb 82cd 9fbd
00000390: 14d9 b0bd 818c 0cbd 3954 78bd 351f a2bd
000003a0: 2549 b73c 094a 953c a71d 83bd b097 303c
000003b0: 1c26 363d 2444 0ebd dee1 593c a7fb 833d
000003c0: 14aa 113d d224 94bd 809a 16bd f8f9 313c
000003d0: 354d c53c 38bf 96bd d2fa 94bd 2c99 b3bd
000003e0: a76a 8a3c dc94 273c 0ee3 9ebc 1091 ac3d
000003f0: 4286 983b fd20 873c 393a 29bd 6714 053c

output.weight f4 [4, 256]
0.028548209 -0.030252554 0.034633536 -0.05079905 0.029943885 0.00019343854 0.024763452 0.0052492246
-0.015227137 -0.014392803 0.0542536 -0.0045578927 0.03196508 0.007808129 -0.016725508 0.03353234
-0.027785905 0.02984978 0.008525569 0.01936245 -0.00041771363 0.045882467 -0.020668663 -0.004143276
0.0068547465 0.004903569 0.06099038 0.04512772 -0.039325107 0.042528186 0.024176694 -0.044746146
0.0026431642 0.029927067 0.00011596641 -0.03169914 0.019829027 0.0026372168 -0.006225586 -0.01737446
0.0042597633 0.02476146 0.0070251906 0.028376535 -0.055119615 0.032704208 -0.04442085 -0.018569253
-0.04566282 0.0323993 0.043294843 0.012515893 -0.02218897 -0.008359189 0.025611117 -0.043051682
-0.00760865 0.04173838 -0.020108113 0.038936347 -0.0077838763 0.027555944 -0.0075094467 0.0022688662
0.021335213 0.036321104 -0.04037602 -0.068099946 0.012240358 -0.012206449 0.009697606 0.00024643194
-0.035054166 -0.044150095 0.020438738 -0.006661221 -0.03042467 -0.018186625 -0.016986419 0.018998124
-0.03339994 0.031095043 -0.00861197 0.051147174 0.0063444464 0.007151769 -0.026991887 0.017936736
0.0026702133 -0.0011352035 -0.0058163865 0.02234377 0.021962037 0.0017244819 -0.019790765 -0.046949625
-0.014470173 -0.025635758 -0.03996156 0.01031294 0.03693671 0.0004604305 -0.04831578 -0.024104178
-0.0029415102 -0.06993584 -0.03944454 0.046826765 -0.03917343 0.006798732 0.003576045 0.042811483
0.032121487 0.00070160005 0.0015410194 0.029310603 2.8868571e-05 -0.048636153 0.030466974 -0.027533296
-0.0061929217 -0.011607026 -0.002807057 -0.0027717021 0.0114615755 0.023343481 -0.027234824 -0.07811842
0.023087034 -0.0076706256 0.02092148 0.036665738 0.019236187 0.025099546 0.0049429485 0.03960722
0.03079355 0.015907055 0.035064235 0.028059775 0.056688637 0.049060248 0.039659537 0.016663983
-0.0045641684 -0.013264605 -0.032883372 -0.04601494 0.023351083 0.010783146 0.030366518 0.016357489
0.04078593 0.032917093 0.039426807 -0.0022746809 -0.0043541417 0.0027955475 -0.017267914 -0.012130985
-0.018807804 0.031522334 -0.015020598 0.038032915 -0.038019437 0.035914265 -0.0023484426 -0.059534717
-0.00014840743 0.0171942 -0.009107215 -0.019578852 -0.019974468 -0.027612457 0.009366103 -0.027487572
0.026677644 0.048756156 -0.021785662 0.04292514 0.029358646 0.04543616 0.023398448 0.031494927
-0.028103832 0.037104715 -0.00015271458 -0.011146934 -0.0332228 -0.027452163 -0.0722128 -0.011156788
0.0020844168 0.039163467 -0.017269738 -0.004672484 0.032553907 0.024780385 0.0011248413 0.016021878
0.003645391 -0.0014016246 0.04269138 0.02691065 0.015878692 -0.020189853 -0.016261188 -0.00425501
-0.002533547 -0.0076665026 -0.01881856 -0.030711865 0.021329056 -0.00879882 0.034849815 0.053223383
-0.036974095 0.0069323336 0.009293152 -0.00066783966 0.0026679893 0.008266328 0.032680072 0.031640995
0.041181795 -0.005619294 -0.033325754 -0.044756144 0.053979184 -0.038332306 -0.009749735 0.040061776
0.0078510055 0.0058440203 0.008146289 -0.010494673 -0.0074238423 -0.025227081 0.015676398 0.021659961
-0.0020486836 0.023049714 -0.042219568 -0.046094827 0.037031684 0.021776378 -0.013524507 -0.03450126
0.018204978 -0.031263158 -0.0021865154 0.026095124 -0.048306562 -0.0006469533 0.0073860893 0.02326876
00000000: efdd e93c 34d4 f7bc e5db 0d3d aa12 50bd
00000010: e14c f53c c3d5 4a39 b9dc ca3c b001 ac3b
00000020: 3e7b 79bc cbcf 6bbc 0639 5e3d 605a 95bb
00000030: d1ed 023d 55db ff3b ef03 89bc 3559 093d
00000040: 449f e3bc 8787 f43c d4ae 0b3c 009e 9e3c
00000050: 9300 dbb9 41ef 3b3d 5451 a9bc 51c4 87bb
00000060: c89d e03b 1eae a03b 0cd1 793d d8d7 383d
00000070: 5d13 21bd 0932 2e3d 340e c63c bc47 37bd
00000080: f038 2d3b 9c29 f53c fe32 f338 f5d6 01bd
00000090: 7c70 a23c 28d5 2c3b 0000 ccbb e254 8ebc
000000a0: 7c95 8b3b 8cd8 ca3c 9233 e63b e875 e83c
000000b0: 1bc5 61bd d9f4 053d a3f2 35bd 8c1e 98bc
000000c0: f008 3bbd 21b5 043d ef55 313d 760f 4d3c
000000d0: a5c5 b5bc fbf4 08bc 68ce d13c f656 30bd
000000e0: fb51 f9bb ddf5 2a3d c5b9 a4bc b87b 1f3d
000000f0: e30f ffbb 01bd e13c ce11 f6bb 42b1 143b
00000100: 2fc7 ae3c 70c5 143d 5361 25bd fc77 8bbd
00000110: c88b 483c 8ffd 47bc b5e2 1e3c 8933 8139
00000120: f594 0fbd bbd6 34bd 246f a73c 5f46 dabb
00000130: 283d f9bc 1efc 94bc 1a27 8bbc f4a1 9b3c
00000140: 60ce 08bd 08bb fe3c 3819 0dbc b37f 513d
00000150: 13e5 cf3b 6359 ea3b 171e ddbc 10f0 923c
00000160: bffe 2e3b 1ccb 94ba 6397 bebb 480a b73c
00000170: bbe9 b33c 0308 e23a 3e20 a2bc 404e 40bd
00000180: 4e14 6dbc 1502 d2bc bcae 23bd 9bf7 283c
00000190: f34a 173d f065 f139 c4e6 45bd 2076 c5bc
000001a0: 5ac6 40bb 863a 8fbd 9990 21bd 6ccd 3f3d
000001b0: 5274 20bd e6c7 de3b 145c 6a3b 185b 2f3d
000001c0: d291 033d 95eb 373a 08fc c93a ca1c f03c
000001d0: c92a f237 b436 47bd e095 f93c 828d e1bc
000001e0: feed cabb 652b 3ebc 9af6 37bb 72a5 35bb
000001f0: 55c9 3b3c d43a bf3c 911b dfbc 8dfc 9fbd
00000200: 0521 bd3c df59 fbbb 8663 ab3c d02e 163d
00000210: 3595 9d3c 909d cd3c 75f8 a13b 2e3b 223d
00000220: c142 fc3c 834f 823c 849f 0f3d 9ddd e53c
00000230: 5832 683d 66f3 483d 0a72 223d e882 883c
00000240: 058f 95bb c953 59bc b7b0 06bd 297a 3cbd
00000250: c54a bf3c cbab 303c 34c3 f83c 2400 863c
00000260: 260f 273d 13d4 063d 017e 213d d012 15bb
00000270: 30ad 8ebb 8135 373b 7175 8dbc 0ac1 46bc
00000280: d312 9abc 901d 013d f418 76bc 67c8 1b3d
00000290: 45ba 1bbd d61a 133d 54e8 19bb adda 73bd
000002a0: d19d 1bb9 dada 8c3c 6e36 15bc d463 a0bc
000002b0: 7fa1 a3bc 8533 e2bc 4974 193c 9e2d e1bc
000002c0: 138b da3c 89b4 473d d877 b2bc 46d2 2f3d
000002d0: 8b81 f03c 441b 3a3d 1aae bf3c d300 013d
000002e0: 023a e6bc 1dfb 173d 0222 20b9 a1a1 36bc
000002f0: a114 08bd 5ce3 e0bc 4ee4 93bd f6ca 36bc
00000300: b69a 083b df69 203d 4479 8dbc a31b 99bb
00000310: 3f57 053d 3c00 cb3c 696f 933a 5040 833c
00000320: 83e7 6e3b b8b6 b7ba 28dd 2e3d b973 dc3c
00000330: 0814 823c 3165 a5bc 2f36 85bc 9c6d 8bbb
00000340: de09 26bb 4937 fbbb 6129 9abc 7397 fbbc
00000350: 46ba ae3c ed28 10bc aebe 0e3d c300 5a3d
00000360: 2672 17bd a128 e33b 4e42 183c f611 2fba
00000370: 6fd9 2e3b 7e6f 073c 8adb 053d fd99 013d
00000380: 3eae 283d 0e22 b8bb 9680 08bd 3852 37bd
00000390: 4719 5d3d 5602 1dbd 5abd 1fbc d117 243d
000003a0: 81a1 003c 327f bf3b 0378 053c d9f1 2bbc
000003b0: b443 f3bb 06a9 cebc ca6b 803c 3b70 b13c
000003c0: 3543 06bb c1d2 bc3c 6dee 2cbd eecd 3cbd
000003d0: 89ae 173d 6064 b23c e595 5dbc 3151 0dbd
000003e0: 9b22 953c cc0d 00bd a44b 0fbb 71c5 d53c
000003f0: 1add 45bd 4d98 29ba 0207 f23b 209e be3c

output.bias f4 [4]
0.05641325 0.04067644 0.04939163 0.05123773
00000000: 9411 673d 579c 263d e14e 4a3d a7de 513d
