checkpoints/state_size_37__action_size_4__hidden_layers_[64-64]__drop_p_0.0__seed_0__GAMMA_0.99__LR_0.0005__UPDATE_EVERY_25__BUFFER_SIZE_10000__BATCH_SIZE_64__TAU_0.001.pth (torch, 29527 bytes, 6 tensors)

hidden_layers.0.weight f4 [64, 37]
0	0x3c8cad67	0.017172528
1	0xbd5fc2db	-0.054629188
2	0x39da54dc	0.00041643425
3	0xbd5afc72	-0.053463407
4	0x3ce2a538	0.027666673
5	0x3e866d47	0.26255247
6	0xbe1b73fe	-0.15180966
7	0xbe28186d	-0.16415568
8	0xbe88f6c7	-0.26750776
9	0xbf5476cd	-0.82993776
10	0x3d98a474	0.07453242
11	0x3cf9cfba	0.03049456
12	0x3d5bb400	0.05363846
13	0x3d28fcb9	0.04125664
14	0x3cd27d7f	0.025694607
15	0x3daa89f2	0.08327092
16	0x3de29bf1	0.110649
17	0x3dab28fc	0.083574265
18	0x3df98d7e	0.121851906
19	0xbe0d8133	-0.13818817
20	0x3e23281c	0.1593327
21	0x3df7a8f8	0.12092775
22	0x3dcc3c96	0.09972493
23	0x3deed145	0.11661009
24	0xbc8833d4	-0.016626276
25	0x3e45d146	0.19318113
26	0xbe0af93e	-0.13571641
27	0xbe0eb81e	-0.13937423
28	0xbe854b4b	-0.26034006
29	0xbf4ece99	-0.80783993
30	0xbcfa8571	-0.030581208
31	0x3baa54ea	0.005198111
32	0x3d80f01c	0.06295797
33	0x3de63410	0.11240399
34	0x3e3380ef	0.17529653
35	0x3d6d6994	0.057962015
36	0x3d363d8e	0.044492297
37	0xbb00ff03	-0.0019683249
38	0xbb9d7344	-0.0048050005
39	0x3d8201e5	0.063480176
40	0x3d899380	0.067175865
41	0x3dfd97c5	0.12382463
42	0xbe124120	-0.14282656
43	0x3cb2b8af	0.02181658
44	0x3d90d6b2	0.070722
45	0xbe3a798e	-0.18210432
46	0x3f4ec25b	0.8076531
47	0xbde22984	-0.11043075
48	0xbdddee2f	-0.108364455
49	0xbdc4a3e5	-0.09601573
50	0xbe4588c5	-0.19290455
51	0xbe5a35a5	-0.21309526
52	0xbdab2a36	-0.083576605
53	0x3c88f5e3	0.01671881
54	0x3c935847	0.01798643
55	0xbbe666e2	-0.0070313076
56	0xbd94285d	-0.07234261
57	0xbddde429	-0.10834534
58	0xbdc6bcb1	-0.09703959
59	0xbd914d15	-0.0709478
60	0xbdbe662c	-0.092968315
61	0xbe051ae0	-0.12998533
62	0xbde44c8e	-0.11147414
63	0xbd5c55d5	-0.053792793
64	0xbe2559cc	-0.16147536
65	0xbe40ce56	-0.18828711
66	0xbe9af6a1	-0.30266288
67	0xbc232d18	-0.009959482
68	0xbe2c5bc8	-0.16831887
69	0xbe0d9947	-0.13828002
70	0xbd199e15	-0.037504274
71	0x3df1ed7e	0.11812876
72	0x3cb1c9f2	0.02170274
73	0x3daf4e98	0.085599124
74	0xbd3dc1c0	-0.046327353
75	0x3dd38dba	0.103297666
76	0x3cfb80b6	0.030701023
77	0xbc117313	-0.0088775335
78	0x3d81e91f	0.063432924
79	0x3e7fb2a4	0.2497049
80	0xbda8f6ec	-0.082502216
81	0xbe97914c	-0.2960304
82	0xbec7b2af	-0.39003512
83	0xbfb47df1	-1.4100934
84	0x3e159c4d	0.14610405
85	0xbd2ef644	-0.042715326
86	0x3d8b3f7a	0.067992166
87	0xbce04b55	-0.027379671
88	0xbb301cf8	-0.0026872735
89	0x3e397046	0.18109235
90	0x3e0f06fa	0.13967505
91	0x3e1a1c3b	0.15049832
92	0x3dfca202	0.12335588
93	0xbe2d736f	-0.16938566
94	0x3e1e6291	0.15467288
95	0x3e0e4091	0.13891818
96	0x3b9a616e	0.0047113216
97	0x3cd0cc6a	0.025488097
98	0xbdaf3938	-0.085558355
99	0x3db7b50e	0.0897008
100	0x3dc3c321	0.09558702
101	0x3d5c6f8e	0.053817324
102	0xbd8cdbc9	-0.06877858
103	0xbda39b45	-0.079886
104	0x3e456009	0.19274916
105	0xbc870d7c	-0.016485922
106	0xbdb0f735	-0.08640901
107	0xbd483d93	-0.048886847
108	0xbe2df1e4	-0.16986805
109	0xb9b51d1b	-0.00034544696
110	0x3d25b5c5	0.040456552
111	0x3de12a38	0.10994381
112	0xbdd8a962	-0.10579182
113	0x3dbd36ce	0.09238969
114	0xbe9cb66a	-0.3060792
115	0xbd0543b7	-0.03253528
116	0xbdfc658b	-0.12324055
117	0x3d001d89	0.031278167
118	0xbe6555ab	-0.22395961
119	0xbe093581	-0.13399316
120	0xbe270d04	-0.16313559
121	0xbdf0a757	-0.117506675
122	0xbe74f1a2	-0.239203
123	0x3dc2beb6	0.095090315
124	0xbd87475b	-0.06605407
125	0xbd0f500c	-0.034988448
126	0x3dfeb411	0.12436689
127	0x3cab581c	0.020916037
128	0xbe31f9b0	-0.17380404
129	0xbe85629e	-0.260518
130	0xbca5f61d	-0.020258958
131	0x3e017e4b	0.12645833
132	0xbe0df270	-0.13862014
133	0x3e36914e	0.17828867
134	0xbe91c4de	-0.2847051
135	0xbe9be8e7	-0.30451128
136	0x3d855532	0.0651039
137	0xbe84eab4	-0.25960314
138	0xbd9d5872	-0.07682885
139	0xbdd07d2e	-0.10180126
140	0xbe9d76f1	-0.30754808
141	0xbd5a4670	-0.05328983
142	0xbd2d4865	-0.04230537
143	0xbeabca88	-0.33552957
144	0xbd4051ed	-0.04695313
145	0xbec5df87	-0.386471
146	0x3c9162b5	0.017747262
147	0xbce8356b	-0.028345784
148	0x3d9cdf07	0.076597266
149	0xbd0fe123	-0.035126816
150	0x3dd15019	0.102203555
151	0xbc55cde8	-0.01304958
152	0x3de370ba	0.11105485
153	0x3d98c3af	0.07459199
154	0x3acddf55	0.0015706817
155	0xbda21240	-0.07913637
156	0xbc80dc25	-0.015729973
157	0x3e807cfa	0.2509535
158	0x3e087da0	0.13329172
159	0xbd072a11	-0.032999102
160	0xbde62315	-0.1123716
161	0xbc53b0df	-0.012920587
162	0xbe8453c3	-0.25845155
163	0x3e050d1f	0.12993287
164	0x3e31d5cc	0.17366713
165	0x3d2dc2d9	0.04242215
166	0x3e232ee0	0.1593585
167	0xbe2f5cbd	-0.1712522
168	0x3e5169ba	0.20450488
169	0xbdf34d75	-0.11880008
170	0xbcbbff76	-0.022948962
171	0x3c9271c6	0.017876517
172	0xbe231927	-0.15927564
173	0x3e615e10	0.22008538
174	0xbda4e915	-0.08052269
175	0x3d17bf89	0.037047897
176	0xbd99d2fe	-0.07510947
177	0xbd3851c4	-0.044999853
178	0x3e070b95	0.13188012
179	0xbe52f336	-0.2060059
180	0xbe349593	-0.17635183
181	0xbec1b546	-0.37833613
182	0xbee86ea7	-0.4539692
183	0x3e0f73df	0.14009045
184	0xbc3117a5	-0.01080886
185	0x3e3bc681	0.18337442
186	0xbe2e0d7f	-0.16997336
187	0x3d74eb26	0.059794568
188	0xbcc66875	-0.02421973
189	0xbe68b894	-0.22726661
190	0x3c415ac2	0.0118014235
191	0xbca2e523	-0.019884652
192	0x3e2cca09	0.16873945
193	0x3c5a9589	0.013341316
194	0xbe19afba	-0.1500844
195	0x3d159921	0.03652299
196	0xbdfeaaf1	-0.12434948
197	0x3cf40d0d	0.02979138
198	0x3cee947d	0.02912354
199	0xbe7e0e9a	-0.24810258
200	0x3cd35682	0.025798086
201	0x3e156986	0.14591035
202	0x3d599493	0.053120207
203	0xbd82ebc2	-0.063926235
204	0x3d63be3f	0.055601355
205	0xbe004f88	-0.12530339
206	0x3d48e433	0.049045753
207	0xbd2dcd18	-0.04243192
208	0x3c41f519	0.011838221
209	0x39c90a59	0.00038345417
210	0xbe2418bf	-0.16025065
211	0x3d88d9a0	0.06682134
212	0x3cdd1bd4	0.026990809
213	0xbca8ac30	-0.020589918
214	0x3e2aa146	0.16663083
215	0x3c598198	0.013275526
216	0xbdeb312f	-0.114839904
217	0xbcd4508b	-0.025917312
218	0xbd5bc2c3	-0.053652536
219	0x3ea0b1b7	0.31385586
220	0xbd198ff0	-0.037490785
221	0x3bc6cbc0	0.0060667694
222	0x3c7f0ec3	0.015567484
223	0x3ca82f4e	0.02053037
224	0xbc86d478	-0.016458735
225	0xbdb1d50b	-0.08683213
226	0xbda47eaf	-0.080319755
227	0xbd3c2d85	-0.04594185
228	0x3ddeaabb	0.10872408
229	0xbd6a7fc1	-0.057250742
230	0x3e496af1	0.19669701
231	0x3ddaca8a	0.106831625
232	0x3db8f4a7	0.09031039
233	0xbe1d69eb	-0.15372436
234	0xbd66e541	-0.056370977
235	0xbda290fe	-0.07937811
236	0xbe029a0f	-0.12754081
237	0xbe19fcb5	-0.15037806
238	0x3d9759d5	0.07390181
239	0x3cba7f41	0.022765758
240	0x3d8bcf32	0.06826629
241	0x3e49a5fb	0.19692223
242	0x3d22c174	0.039735273
243	0x3de290cd	0.11062775
244	0xbcf1a4de	-0.02949756
245	0xbe85e458	-0.26150775
246	0xbe08ad7e	-0.13347432
247	0xbe199652	-0.14998749
248	0xbdaf0761	-0.08546329
249	0x3e4720b3	0.19446068
250	0x3e6ef41b	0.23335306
251	0x3eb94db8	0.36192107
252	0x3e2254af	0.15852617
253	0xbdf825b2	-0.12116565
254	0xbe896044	-0.26831257
255	0xbe66109e	-0.22467276

hidden_layers.0.bias f4 [64]
0	0xbcf5ad58	-0.029989883
1	0xbe77f591	-0.2421477
2	0x3e5acffc	0.21368402
3	0xbd33643b	-0.04379676
4	0xbe3502a4	-0.17676789
5	0x3dd619df	0.10454153
6	0x3d2ecfd3	0.042678665
7	0x3c6c6988	0.0144294575
8	0x3dc15673	0.09440317
9	0xbd59ef18	-0.053206533
10	0xbc96cc94	-0.018408097
11	0xbd55e777	-0.052222695
12	0xbe034144	-0.12817866
13	0x3d1125c1	0.035436396
14	0x3d90c4e3	0.07068803
15	0xbd2e88b5	-0.042610843
16	0xbda77951	-0.08177436
17	0x3db5eed8	0.088834465
18	0xbe0ef49b	-0.13960497
19	0xbe595ce5	-0.21226843
20	0xbdac90e4	-0.08426073
21	0x3d19a7d7	0.03751358
22	0xbe64a846	-0.22329816
23	0xbd8a5b22	-0.067556635
24	0xbccc4658	-0.024935886
25	0x3e18fbe3	0.14939837
26	0xbcfd0f87	-0.030891193
27	0x3e559f4d	0.2086155
28	0xbd84a655	-0.06477038
29	0x3d673732	0.056449123
30	0xbdfb5636	-0.12272303
31	0xbdb6af16	-0.08920114
32	0xbe263891	-0.16232516
33	0x3d060240	0.03271699
34	0xbd9914e8	-0.07474691
35	0x3c2429d1	0.010019735
36	0x3d1d6137	0.03842279
37	0xbe1776c8	-0.14791405
38	0x3dcdfcad	0.1005796
39	0x3e2cb8f8	0.16867435
40	0x3d549ca8	0.05190721
41	0x3de7c212	0.11316313
42	0xbd0c0735	-0.03418656
43	0xbb8d0299	-0.004303288
44	0x3de08c4e	0.10964261
45	0xbd6c81ae	-0.05774086
46	0x3e0ac836	0.13552937
47	0xbd936c78	-0.07198423
48	0x3e103ef0	0.14086509
49	0x3d9c3845	0.0762792
50	0x3e6eb809	0.23312391
51	0xbe30212a	-0.17200151
52	0xbd8cb717	-0.06870859
53	0xbe2ef9af	-0.17087434
54	0x3d0550e0	0.03254783
55	0x3ddbda6c	0.1073502
56	0x3d9834b6	0.07431929
57	0x3d885047	0.06655937
58	0x3c08e9d7	0.008356533
59	0xbce678eb	-0.02813383
60	0x3e07c035	0.13256915
61	0x3dc1f196	0.09469907
62	0x3d69b9d8	0.057062
63	0x3d3fb701	0.046805386

hidden_layers.1.weight f4 [64, 64]
0	0x3ccb0406	0.024782192
1	0xbd906c3d	-0.07051895
2	0x39273d95	0.00015949302
3	0x3dafbdcd	0.085811235
4	0xbd449bbf	-0.048000094
5	0xbdab336d	-0.08359418
6	0xbd70b9e7	-0.05877104
7	0xbe1d3b30	-0.1535461
8	0x3da35ab4	0.079762846
9	0xbd8d4458	-0.06897801
10	0x3e6e793c	0.23288435
11	0xbcec7560	-0.028864563
12	0xbdcec530	-0.10096204
13	0xbe13f6fc	-0.14449686
14	0x3d3ca56f	0.046056207
15	0xbd690039	-0.056884978
16	0xbcf6d08f	-0.030128745
17	0xbe1f489c	-0.15555042
18	0x3d5e3d3c	0.054257616
19	0xbdb356d5	-0.08756796
20	0xbe65bb22	-0.22434667
21	0xbbaf7970	-0.0053550526
22	0x3ca3564a	0.019938607
23	0x3de1c7f3	0.110244654
24	0xbe586d65	-0.2113548
25	0x3d230946	0.039803766
26	0xbce24b0d	-0.027623678
27	0x3d07e3d3	0.033176254
28	0xbbdb9a11	-0.0067017158
29	0x3d8a6073	0.067566775
30	0xbe26f380	-0.16303825
31	0xbe2c1bc9	-0.16807474
32	0x3e008617	0.12551151
33	0xbe15f4ea	-0.14644209
34	0x3de00a60	0.10939479
35	0xbe52777f	-0.20553397
36	0xbd6b4651	-0.057440106
37	0xbdba0df8	-0.090846956
38	0xbdb35e8d	-0.087582685
39	0xbdae16d7	-0.0850045
40	0xbd58f4b5	-0.052967746
41	0x3e0cdd66	0.13756332
42	0x3b8dcd11	0.0043274243
43	0x3d192460	0.037388206
44	0x3dd5f29c	0.10446665
45	0xbbf49032	-0.0074634785
46	0x3ce5351f	0.027979432
47	0xbe3c2501	-0.18373491
48	0xbd337579	-0.043813203
49	0xbe069c01	-0.13145448
50	0x3e130cb8	0.1436032
51	0xbc74d566	-0.014943456
52	0xbe24e013	-0.16101103
53	0xbbe7f065	-0.007078218
54	0xbdebd432	-0.115150824
55	0x3da76266	0.08173065
56	0x3d4a6d63	0.049420726
57	0x3d348fca	0.04408244
58	0xbe063e2e	-0.13109657
59	0xbd08e4cd	-0.033421326
60	0x3dce1694	0.100629
61	0xbe1dc8dc	-0.15408653
62	0x3ce444a2	0.027864758
63	0xbdbc04b3	-0.09180584
64	0x3e2acfba	0.16680804
65	0xbd94dec3	-0.07269051
66	0x3dfa333b	0.12216803
67	0x3da93235	0.08261529
68	0x3e24c870	0.16092086
69	0xbda75f06	-0.08172421
70	0x3e126fd2	0.14300469
71	0xbcca17e1	-0.02466959
72	0x3eafe8db	0.34357342
73	0xbe25aac6	-0.16178426
74	0xbd9a4db9	-0.07534356
75	0xbd0a2e06	-0.033735298
76	0xbd17d69e	-0.03706991
77	0x3d0d1d9b	0.034452062
78	0x3e5696d0	0.20955968
79	0xbe1e8140	-0.15478992
80	0x3ef322c0	0.4748745
81	0xbe1ba19e	-0.15198371
82	0xbe1dddfb	-0.1541671
83	0xbd928dac	-0.07155928
84	0xbdc995c6	-0.0984302
85	0x3cd79127	0.026314331
86	0xbd9f6bcd	-0.07784233
87	0x3e0fecdc	0.14055198
88	0x3f0dcb49	0.55388314
89	0xbdc5212c	-0.09625468
90	0x3e7a2484	0.24427992
91	0x3dc5b363	0.09653356
92	0x3cf803fb	0.030275336
93	0xbad1324c	-0.0015960424
94	0x3db5d023	0.088775896
95	0x3dd5f636	0.10447352
96	0x3d250690	0.04028946
97	0xbd3e7c90	-0.04650551
98	0xbdfe60b9	-0.12420792
99	0x3eb452d8	0.35219455
100	0xbd7f5457	-0.062336292
101	0xbe2f698f	-0.17130111
102	0x3d65b7dc	0.056083545
103	0x3de08052	0.10961975
104	0x3d270ad5	0.040781815
105	0x3e2f35bf	0.17110346
106	0x3e9c9fb5	0.30590597
107	0xbd6e081b	-0.0581132
108	0x3ddd0d80	0.107935905
109	0x3cb97c70	0.022642344
110	0x3d2bcfc0	0.041946173
111	0x3dd78781	0.10523892
112	0xbe016cad	-0.12639113
113	0x3e5626c7	0.2091323
114	0x3adf8e3f	0.0017055942
115	0x3d360e2d	0.044447113
116	0x3d416612	0.047216482
117	0xbe39e175	-0.18152411
118	0x3d906fa6	0.07052545
119	0x3e77a5f5	0.24184401
120	0xbe6c441f	-0.23072861
121	0x3d10b0dd	0.03532492
122	0xbbc4bf85	-0.006004276
123	0xbcc0fd0e	-0.023558166
124	0x3e178908	0.14798367
125	0x3e4a76d5	0.19771893
126	0x3da7aa22	0.08186747
127	0x3de1b9bc	0.11021754
128	0xbe22fc35	-0.15916522
129	0x3da08261	0.07837368
130	0x3c807fc5	0.015685925
131	0x3ca8a6b6	0.020587306
132	0xbd7613e8	-0.060077578
133	0x3c4c8c48	0.0124846175
134	0xbc9fdaaf	-0.019513456
135	0xbcb57eda	-0.022155214
136	0x3cd586c9	0.026065247
137	0xbd030b7c	-0.031993374
138	0xbd138e6b	-0.036024492
139	0xbd561e6d	-0.05227511
140	0xbe02c14b	-0.12769048
141	0x3ca4ca55	0.02011601
142	0x3cabf210	0.020989448
143	0x3c0291cc	0.007969331
144	0xbd74032d	-0.05957334
145	0xbd05674b	-0.03256921
146	0xbdecd6be	-0.11564396
147	0x3db5c3b1	0.08875216
148	0xbdb8fd2c	-0.09032664
149	0xbda1e3e1	-0.079047926
150	0xbde72c4c	-0.11287746
151	0xbe0faf89	-0.14031805
152	0x3d3098f8	0.043114632
153	0xbd8b7da2	-0.06811072
154	0x3dd274b9	0.10276169
155	0xbd9b9798	-0.075972736
156	0xbd6398bb	-0.055565577
157	0xbdb87647	-0.090069346
158	0x3b51bc3e	0.003200307
159	0xbd55b6a3	-0.05217613
160	0xbbf770f7	-0.0075513083
161	0xbae231f4	-0.0017257319
162	0xbdfbc197	-0.12292784
163	0x3ca217f3	0.01978681
164	0x3d7e8ff9	0.06214902
165	0xbd20013a	-0.03906367
166	0xbd887099	-0.06662101
167	0xbdcca01c	-0.09991476
168	0xbdc08404	-0.0940018
169	0xbceac5f9	-0.028658854
170	0xbd452df7	-0.04813954
171	0xbc5b0ae3	-0.013369295
172	0xbd6ff30f	-0.058581408
173	0xbdc50811	-0.09620679
174	0x3d81e17e	0.06341837
175	0xbd2e98e3	-0.042626273
176	0xbe2b9fc3	-0.16760163
177	0xbdffd715	-0.124921955
178	0xbd3c4892	-0.045967646
179	0x3c9167a4	0.017749615
180	0xbdb71369	-0.08939249
181	0xbda32ac8	-0.07967144
182	0xbddf62b5	-0.10907499
183	0x3d2bf098	0.041977495
184	0xbdb182dc	-0.086675376
185	0xbe0405f5	-0.12892897
186	0xbe1632d3	-0.14667825
187	0x3d7c271f	0.061560746
188	0xbe03918a	-0.12848487
189	0x3cf0d77b	0.029399624
190	0xbdb05c50	-0.08611357
191	0x3c146bb5	0.0090588825
192	0x3c71de13	0.014762419
193	0xbd8f73cc	-0.070045084
194	0x3b12b7a3	0.0022387288
195	0xbde33dad	-0.11095748
196	0xbdc25715	-0.09489266
197	0xbcaf3ddb	-0.0213918
198	0x3c75aaef	0.014994367
199	0x3da19734	0.07890168
200	0xbd3b96a4	-0.04579796
201	0x3cd39407	0.02582742
202	0xbae5578b	-0.0017497403
203	0x3d2fa1ed	0.042879034
204	0xbd3708da	-0.044686176
205	0x3d06ef19	0.032942865
206	0x3ead4ad6	0.33846158
207	0x3c959a3b	0.01826202
208	0x3e3ef05e	0.1864638
209	0xbe242d66	-0.16032943
210	0xbce10815	-0.027469674
211	0xbcacc7b3	-0.021091318
212	0xbbad5c20	-0.005290523
213	0xbdaea1c9	-0.08526952
214	0x3b941c70	0.0045199916
215	0x3d8e762d	0.06956134
216	0xbed65177	-0.41859028
217	0xbe57c8c0	-0.21072674
218	0xbd8f4ec1	-0.06997443
219	0x3cbee612	0.023303065
220	0x3e297540	0.16548634
221	0x3da2d9bb	0.07951685
222	0x3e1fd725	0.15609415
223	0x3e98c047	0.29834196
224	0xbd05bc6d	-0.0326504
225	0x3c854657	0.016268892
226	0xbcb49ba7	-0.022046877
227	0xbe255257	-0.16144691
228	0xbe03f7f9	-0.12887563
229	0x3e10b53b	0.14131634
230	0xbde48cd3	-0.111596726
231	0xbb5fbb7a	-0.0034138844
232	0x3d05507f	0.03254747
233	0x3c89b820	0.01681143
234	0x3eb645fc	0.3560027
235	0x3d8ed738	0.069746435
236	0xbcfb289a	-0.030659009
237	0xba7f293f	-0.0009733624
238	0x3e0a242a	0.13490358
239	0xbdc8d58c	-0.09806356
240	0xbe0afbcc	-0.13572615
241	0xbd4a9bda	-0.049465038
242	0x3d7c2d8e	0.06156688
243	0xbe57d951	-0.21078993
244	0xbc04a644	-0.008096281
245	0xbe4033d4	-0.18769771
246	0xbda8d734	-0.08244172
247	0x3d3878dc	0.045037135
248	0xbdc37855	-0.09544436
249	0xbd99439e	-0.074836
250	0xbcf7a676	-0.030230742
251	0xbe58ae90	-0.2116034
252	0xbca4adcc	-0.020102404
253	0xbe5126ee	-0.20425007
254	0x3e215e3d	0.15758605
255	0xbe810cc1	-0.25205043

hidden_layers.1.bias f4 [64]
0	0xbdf7d298	-0.121007144
1	0x3e0c48d9	0.13699664
2	0x3d948c17	0.072532825
3	0x3ded89a5	0.11598519
4	0x3bafc901	0.0053645377
5	0x3e0261d9	0.12732638
6	0xbdbc6790	-0.091994405
7	0x3ccfa6b9	0.025348054
8	0xbbe170c9	-0.0068799
9	0xbd8d7edc	-0.06908962
10	0xbe09e3bc	-0.1346578
11	0x3e07c5ab	0.13258998
12	0x3e203a25	0.1564718
13	0x3dd76e7f	0.10519122
14	0xbdb3843a	-0.087654546
15	0x3d2e003a	0.042480685
16	0xbc83da44	-0.016095288
17	0xbdfcb20b	-0.123386465
18	0x3e53ac68	0.20671237
19	0xbda13436	-0.078712866
20	0xbcf0732d	-0.029351795
21	0x3d80734f	0.06271993
22	0x3d68fec9	0.056883607
23	0xbdd7f323	-0.105444215
24	0xbde9d93a	-0.11418386
25	0x3cb9ecf4	0.022695996
26	0x3d8d7f27	0.06909018
27	0x3dbf1d3a	0.093317464
28	0x3d92d99a	0.071704105
29	0x3e14a5f5	0.14516433
30	0xbe198c2a	-0.14994875
31	0xbe071bb6	-0.13194165
32	0x3d768c13	0.06019218
33	0x3e266365	0.16248854
34	0xbd0d8da8	-0.034558922
35	0x3e4d182d	0.20028754
36	0x3dd6bca0	0.10485196
37	0x3df33e62	0.11877133
38	0x3d94628e	0.0724536
39	0xbe062fe5	-0.13104208
40	0xbdccab0a	-0.099935606
41	0x3e74c2ee	0.23902485
42	0x3c7c31c4	0.015392724
43	0xbe02241a	-0.12709084
44	0x3da973b3	0.08274021
45	0x3e19c288	0.15015614
46	0xbe28205a	-0.16418591
47	0xbdd16048	-0.10223442
48	0xbd989ae2	-0.074514166
49	0xbe0a5e58	-0.13512552
50	0x3dc64795	0.09681622
51	0xbe063b0e	-0.13108465
52	0xbb5e048d	-0.0033877224
53	0x3c14623e	0.009056626
54	0x3c80c9a3	0.015721148
55	0xbdd3f908	-0.10350233
56	0x3dced33f	0.10098886
57	0xbdbc0c63	-0.0918205
58	0xbe22a02a	-0.1588141
59	0xbde5c557	-0.1121928
60	0x3e1b065f	0.15139149
61	0x3c77ccdc	0.015124526
62	0x3d6500c7	0.055908944
63	0xbd9553b2	-0.07291354

output.weight f4 [4, 64]
0	0x3de8b435	0.11362497
1	0x3e11fcd8	0.14256608
2	0xbd894cd7	-0.06704109
3	0x3db1424f	0.086552255
4	0xbc7b9b54	-0.015356857
5	0x3dda4616	0.10657899
6	0xbd640063	-0.05566443
7	0x3e3159e8	0.17319453
8	0xbd850077	-0.06494229
9	0xbd4b8476	-0.04968687
10	0xbe2c8a04	-0.16849524
11	0x3e07d580	0.13265038
12	0x3ec76d6a	0.38950664
13	0xbdcdee74	-0.10055247
14	0xbd7e451d	-0.06207763
15	0x3d0967f7	0.033546414
16	0xbe3aaaf1	-0.18229271
17	0x3dc9f967	0.09862023
18	0x3df8340c	0.12119302
19	0xbdc8ce82	-0.09805013
20	0xbe38d257	-0.18048988
21	0x3e6cad65	0.2311302
22	0x3e3280ab	0.17431895
23	0xbd1b09aa	-0.037851013
24	0xbe889637	-0.26677105
25	0x3e12b763	0.14327769
26	0x3d306367	0.043063547
27	0x3e57f91c	0.21091121
28	0x3be245a0	0.0069052726
29	0x3d00c994	0.03144224
30	0xbe80fe5f	-0.2519407
31	0xbccae354	-0.024766602
32	0x3e60f42c	0.21968144
33	0x3dc4c802	0.09608461
34	0xbe255991	-0.16147448
35	0x3db53b63	0.08849218
36	0x3c97bfec	0.018524133
37	0x3e3b4c6b	0.1829087
38	0x3da86159	0.082216926
39	0xbe89cf8c	-0.26916158
40	0xbd2a1668	-0.041525275
41	0x3dc0e988	0.094195426
42	0x3e225ee2	0.15856507
43	0xbca12b01	-0.019673826
44	0x3e053996	0.13010249
45	0x3ddb731c	0.10715315
46	0xbc0581ff	-0.008148669
47	0x3d5ac6bc	0.053412184
48	0xbd95e0c3	-0.073182605
49	0x3dc9a76e	0.09846388
50	0x3e8d37f3	0.27581748
51	0x3d46a399	0.048495863
52	0x3d619c6b	0.055080812
53	0xbdd44cb7	-0.10366195
54	0x3c161af3	0.009161699
55	0x3ad50e00	0.0016254783
56	0x3ca8f143	0.020622855
57	0x3c705ffc	0.014671322
58	0xbd568195	-0.052369673
59	0xbe53b9d4	-0.20676357
60	0x3d88942b	0.06668886
61	0xbdd96e8f	-0.106167905
62	0x3da86618	0.08222598
63	0x3d1fd9c3	0.039026033
64	0x3ddde0b2	0.10833873
65	0x3e241d32	0.16026762
66	0x3dcf4537	0.101206236
67	0x3d8e95e6	0.069621846
68	0xbdbbf061	-0.09176708
69	0x3df6d161	0.120516546
70	0x3c1ba4f9	0.009499782
71	0x3e703ce3	0.23460726
72	0x3d9f4a1c	0.07777807
73	0x3e15d487	0.14631854
74	0xbd21c4d7	-0.03949436
75	0x3e6dd20f	0.23224662
76	0x3e7e901f	0.24859665
77	0x3bf637f8	0.007513996
78	0xbbf76bbd	-0.007550685
79	0xbd6904e8	-0.056889445
80	0xbda926e7	-0.08259373
81	0x3e47c284	0.19507796
82	0x3e2820f0	0.16418815
83	0xbe0d8a0f	-0.13822196
84	0xbd5f6bd1	-0.05454618
85	0x3dd28019	0.10278339
86	0x3dfd63af	0.12372529
87	0x3d5011cb	0.05079822
88	0xbda5ce20	-0.08095956
89	0x3dbfa6d7	0.09357994
90	0xbd629e5e	-0.055326812
91	0x3e1f94ed	0.15584154
92	0x3df450b1	0.11929453
93	0x3db65bff	0.089042656
94	0xbe1ff010	-0.1561892
95	0xbd1e4490	-0.038639605
96	0x3e67d71e	0.22640654
97	0x3debbdea	0.115108326
98	0xbdda7ab8	-0.10667938
99	0x3d952edf	0.072843306
100	0x3d4ffe1e	0.050779454
101	0x3dea5435	0.114418425
102	0x3d3e22f8	0.046420068
103	0xbd04cc88	-0.03242162
104	0x3d80030d	0.06250582
105	0x3ddd45dc	0.1080434
106	0x3e07c9a2	0.1326051
107	0xbd9c4e31	-0.07632101
108	0x3e53bb5d	0.20676942
109	0x3e4654d7	0.19368301
110	0xbd8db30d	-0.06918917
111	0x3dcc7bc8	0.09984547
112	0x3ded7a2b	0.11595567
113	0x3dc27753	0.094954155
114	0x3e80acba	0.2513178
115	0x3beb53ee	0.007181636
116	0x3e09967e	0.13436314
117	0x3ddc1adb	0.1074731
118	0xbc51c9fb	-0.012804504
119	0xbc218410	-0.009858146
120	0x3e3bf5b2	0.18355444
121	0xbda9b9a8	-0.08287364
122	0xbd9d966f	-0.076947086
123	0xbe1aff45	-0.1513644
124	0x3d21a3a1	0.03946269
125	0xbdfde260	-0.12396693
126	0x3dc50fa9	0.096221276
127	0xbdcc0090	-0.09961045
128	0x3cf8a5fe	0.030352589
129	0x3e5b8d53	0.2144063
130	0x3dc22f7d	0.09481714
131	0xbd258b54	-0.040416077
132	0x3d453c0f	0.04815298
133	0x3ea8d1d1	0.32972577
134	0x3dc631d6	0.09677474
135	0x3da78ffe	0.08181761
136	0xbd5eff0c	-0.05444245
137	0x3e7d77db	0.24752752
138	0xbdc8385d	-0.097763754
139	0x3de703bb	0.112800084
140	0x3e2293be	0.15876672
141	0x3de514ca	0.11185606
142	0x3e368b75	0.17826636
143	0xbe0363ad	-0.12830992
144	0xbcadf3cc	-0.021234415
145	0xbebf3281	-0.3734322
146	0x3d82d6db	0.06388637
147	0xbd8598a4	-0.065232545
148	0xbde158e2	-0.11003281
149	0x3d828a90	0.06374085
150	0x3caaa002	0.02082825
151	0xbdc2b8ff	-0.095079415
152	0xbe0f55d6	-0.13997588
153	0x3c8c3131	0.0171133
154	0xbd9fd9b4	-0.078051955
155	0x3e1ed7a9	0.15511955
156	0xbb8936b7	-0.0041874307
157	0x3d9191f2	0.07107915
158	0xbdb265cf	-0.08710825
159	0xbe2178a0	-0.15768671
160	0x3ba42c0b	0.005010133
161	0x3e53c694	0.2068122
162	0xbe85062c	-0.2598127
163	0xbd0e755a	-0.034779884
164	0x3e5a0d9d	0.21294256
165	0x3d05ba9c	0.032648668
166	0x3dcb9c1d	0.099418856
167	0xbe31507f	-0.17315863
168	0xbdc2f364	-0.09519079
169	0x3ddb8aae	0.107198104
170	0xbbffc6af	-0.0078056674
171	0x3be12d3e	0.0068718484
172	0x3da759fb	0.08171459
173	0x3e53c2ca	0.20679775
174	0x3d89ea21	0.0673411
175	0xbc05631b	-0.008141304
176	0xbdbed5d6	-0.0931813
177	0x3da16407	0.07880407
178	0x3da9fbd4	0.082999855
179	0xbdd6315b	-0.104586326
180	0x3eacea5f	0.3377256
181	0x3db82652	0.08991684
182	0x3e8506d9	0.25981787
183	0xbda039b3	-0.07823505
184	0x3dbfe417	0.093696766
185	0x3d6e4a7d	0.058176506
186	0xbd4be3e6	-0.049777888
187	0xbdbbee60	-0.09176326
188	0x3dface47	0.122463755
189	0x3e0ee879	0.13955869
190	0x3dbdb0f0	0.09262264
191	0xbeaa2e9a	-0.3323868
192	0xbd71fa3d	-0.059076536
193	0x3e4d335d	0.20039125
194	0xbc6bc528	-0.014390267
195	0x3e8c2111	0.27368978
196	0xbdd0b6be	-0.10191105
197	0x3dd2999b	0.10283204
198	0x3d3f59ea	0.046716608
199	0x3eb1ef7b	0.34753022
200	0x3e7c7fd6	0.2465814
201	0x3e37f2c8	0.17963707
202	0xbe72b79f	-0.23702858
203	0x3e4ae719	0.1981472
204	0x3d8a9c3e	0.06768082
205	0x3cd48b18	0.025945231
206	0x3e813668	0.2523682
207	0xbd9c7a40	-0.07640505
208	0xbe802621	-0.2502909
209	0xbcf0f70f	-0.029414682
210	0x3e2be6cd	0.16787262
211	0x3defd56a	0.117106274
212	0xbbdb2dff	-0.006688833
213	0x3e1987d9	0.14993228
214	0x3dd2b5c6	0.10288577
215	0x3c92cc64	0.017919727
216	0xbdffa50e	-0.124826536
217	0xbe925bcb	-0.28585657
218	0x3e188a26	0.1489645
219	0x3dc432f6	0.095800325
220	0xbe60c69b	-0.21950762
221	0x3e3407b0	0.17581058
222	0xbdfa2c0d	-0.12215433
223	0xbe0e21f0	-0.13880134
224	0x3d1320fe	0.035920136
225	0x3d3a73b9	0.045520518
226	0x3cbf9282	0.02338529
227	0x3e0b0c98	0.13579023
228	0xbe18f1e4	-0.14936024
229	0xbd321054	-0.043472603
230	0xbe53d753	-0.20687608
231	0xbe603503	-0.21895222
232	0x3e57a498	0.21058881
233	0x3e13d3b2	0.14436224
234	0x3e9630a7	0.29333994
235	0xbcf4e05e	-0.029892143
236	0x3e2ea781	0.17056085
237	0x3e0f34f2	0.13985041
238	0x3cd11ceb	0.025526484
239	0xbdeea4dc	-0.11652538
240	0x3c2c8300	0.01052928
241	0x3dc197f1	0.09452809
242	0x3d586844	0.05283381
243	0xbdac3f5f	-0.084105246
244	0x3dcd95d9	0.10038347
245	0xbde1ea15	-0.11030976
246	0x3ce27473	0.027643418
247	0x3c8fd9e9	0.017559962
248	0x3ea2d70d	0.31804696
249	0xbd94c0cd	-0.07263336
250	0x3c572063	0.01313028
251	0xbdf1f99a	-0.11815186
252	0x3e7af72a	0.24508348
253	0x3c902d15	0.017599622
254	0x3cba51bf	0.022744058
255	0x3d20c8aa	0.03925387

output.bias f4 [4]
0	0x3e7eb6fb	0.24874489
1	0x3e05d13a	0.13068095
2	0x3e4fb7ad	0.2028491
3	0x3d8d2798	0.068923175
