checkpoints/state_size_37__action_size_4__hidden_layers_[64-64]__drop_p_0.0__seed_0__GAMMA_0.99__LR_0.0005__UPDATE_EVERY_10__BUFFER_SIZE_10000__BATCH_SIZE_64__TAU_0.001.pth (torch, 29527 bytes, 6 tensors)

hidden_layers.0.weight f4 [64, 37]
000000 69 39 ec 3d fb 76 98 3d a1 bd cc 3c 6f 89 49 3e
       0.115343876 0.07444569 0.024992766 0.19681333
000010 27 ab 5b 3d 3a 0a 47 bd 56 cb 31 3e 0a 34 e7 3c
       0.05363002 -0.048593737 0.17362723 0.028223056
000020 31 71 32 3d 8a ff 3b be 9e 47 cd bc b6 67 1c bd
       0.04356498 -0.18359199 -0.025058564 -0.038184844
000030 be 1a 68 3c c0 df bc bb 86 fb c4 bd 4a 6c 2f bc
       0.014166532 -0.0057639778 -0.09618287 -0.0107069705
000040 5e e5 a2 3c 91 7c 28 3d 54 42 ae bd 0e b6 63 be
       0.019884761 0.04113442 -0.08508745 -0.22237417
000050 e7 6b 5e 3d 40 90 3f bd 6b ee 29 bd 71 7b f6 bc
       0.054302122 -0.046768427 -0.04148714 -0.030088158
000060 a4 a9 83 bd ae 95 20 3e 6e 6f 0f bf 5a 05 25 be
       -0.06428841 0.15682098 -0.56029403 -0.16115323
000070 7d bd 19 bf cd ec df bf 4e d0 31 be 0f 7f 0e 3e
       -0.6005476 -1.7494141 -0.17364618 0.13915657
000080 3b 8e ea 3d 38 39 2c 3e eb 54 26 3d 8b 2b 4b 3d
       0.114529096 0.16818702 0.040608328 0.049602073
000090 5a 6a eb 3a f1 80 e8 bc 4a cf 95 3c 80 82 24 3d
       0.0017960772 -0.028381797 0.01828732 0.040163517
0000a0 29 76 c0 3c 72 fa 08 bc c4 d0 6b bc 48 ba 35 bc
       0.023493843 -0.008360492 -0.014393035 -0.011091776
0000b0 d0 40 11 3c 4c 38 58 3d 11 ba cd 3d a6 3e 95 3d
       0.00886555 0.052788064 0.10045255 0.0728734
0000c0 4c c0 44 3d 5a a4 3e 3d 2f 2b 9c 3d f9 8a fe 3c
       0.04803495 0.046543457 0.07625424 0.031072127
0000d0 dc 04 7d bb de fe 5c 3d 15 fb 8e 3c b6 f1 60 3d
       -0.0038607633 0.053953998 0.01745371 0.054918014
0000e0 cc 7d 71 3c 2e 95 f1 3d 41 56 18 3e 33 0d 60 3d
       0.014739465 0.11796032 0.14876653 0.054700088
0000f0 42 53 0c 3e 94 96 91 3d aa d4 25 3d fa 36 b1 3c
       0.13703635 0.071087986 0.040486015 0.02163266
000100 43 35 1f 3d 67 e4 ce 3d 7e 73 ad 3d 1b 3a dc 3e
       0.038869154 0.10102158 0.08469294 0.4301308
000110 37 2f 09 bf ed 16 d6 be 44 19 18 bf 2b 15 17 c0
       -0.5358767 -0.41814366 -0.5941355 -2.360667
000120 30 cb 6e bb 03 94 b4 ba 0b 25 d4 3d 0d 30 07 3d
       -0.0036437027 -0.0013777021 0.10358628 0.03300481
000130 10 64 c4 3d bf b7 ac 3d e3 5c 7b 3d bf fb 2b 3e
       0.09589398 0.08433484 0.06136788 0.16795252
000140 98 e6 41 3e ed b6 b8 3c 51 87 ee bd b7 6f 87 be
       0.18935621 0.022548163 -0.11646903 -0.2645242
000150 b3 68 b5 3d b2 42 32 bd b6 77 65 3d d3 65 95 3d
       0.088578604 -0.043520637 0.05602237 0.07294812
000160 15 e6 01 3d e7 0f 8a 3e 76 d9 30 3e a5 bf 13 3e
       0.031713564 0.26965258 0.17270455 0.14428575
000170 3f d6 f4 3d 94 79 e8 bd c1 4e 74 3d b5 03 61 3c
       0.11954927 -0.11351314 0.059645418 0.013733794
000180 e6 f3 e8 3d 04 c3 ab 3d dc a9 ac 3d 5f f5 7c 3e
       0.11374645 0.08386806 0.084308356 0.24702977
000190 fc b2 62 3e 4e c5 0d 3e cb 8c 25 3a 40 f5 f7 be
       0.2213859 0.13844797 0.000631523 -0.48429298
0001a0 f1 1c a9 3d 1e 44 92 3d e4 5a 01 bd fe c3 7a bd
       0.08257473 0.071418986 -0.03158082 -0.06122207
0001b0 aa 8e f2 bc 9a 8d 63 bc 88 22 07 3c fb 37 90 be
       -0.029609043 -0.013888741 0.008247979 -0.2816771
0001c0 14 40 86 3d 40 bf 51 3d 90 2a b0 3d 36 ef 04 bd
       0.06555191 0.05120778 0.08601868 -0.03245469
0001d0 c5 4d f6 39 79 4d 14 bd 02 d5 e0 bd d4 84 6e 3d
       0.0004697872 -0.036206696 -0.10978128 0.058232144
0001e0 99 4b 9c be 17 3b 08 bd 79 69 87 bc 8d bc 3c 3d
       -0.30526426 -0.033259477 -0.016529785 0.046078254
0001f0 d2 d0 ae 3d c3 7d 4b be 7a 49 39 be 9e 36 64 3e
       0.08535923 -0.19872193 -0.18094435 0.2228646
000200 12 95 f6 3d 4f 67 81 3d 7c 24 60 3c b6 1b 00 3e
       0.12040152 0.06318533 0.013680574 0.12510571
000210 55 c6 e8 3c e4 1f c3 bc 03 ee 07 3e 89 89 b4 bd
       0.028414885 -0.023818918 0.13274388 -0.08815295
000220 f3 2b 01 bf 5d b7 2f 3e 04 8a ef 3d 42 cd 98 3e
       -0.50457686 0.17159791 0.11696246 0.298441
000230 e2 9c 92 3e 04 1a 7d bd aa 46 7d 3c 7a ff ee bc
       0.28635317 -0.06179239 0.015458742 -0.029174555
000240 0a a5 57 bd 16 da c8 be 3a 24 42 b9 57 2c 33 bd
       -0.052647628 -0.39228886 -0.00018514777 -0.043743458
000250 fc 4b 1d bc 93 d7 df 39 af cc 09 bd 15 4e 64 3d
       -0.009600636 0.0004269449 -0.033642467 0.055738527
000260 89 4e ba 3d 4f 56 c2 bb d1 54 94 3d 8c be 69 3d
       0.09097011 -0.005930699 0.0724274 0.057066485
000270 d6 d3 ae 3d 38 42 be 3c ff a1 e5 3d dd 14 46 3e
       0.08536498 0.023224935 0.11212539 0.19343896
000280 02 3d 1a 3e e4 15 14 3e 96 09 82 bc 5b 4a b9 3e
       0.15062335 0.14461476 -0.015873712 0.3618954
000290 1f 3a d2 be 39 9e f3 be 28 73 f7 be b3 c0 f2 bf
       -0.41059968 -0.47581652 -0.48330045 -1.8965057
0002a0 3c 32 a0 3d 95 7b 18 bb 76 9a 51 3d 7e 7d a9 3d
       0.078220814 -0.002326702 0.051172696 0.08275889
0002b0 aa 32 ac 3c b0 f6 c8 3d 4d 41 b0 bc 09 61 05 bd
       0.021020252 0.09812677 -0.021515513 -0.032563243
0002c0 1d 56 2e 3c 48 18 8c bc a4 1f 26 3d 6e 38 c6 3d
       0.010640648 -0.017101422 0.04055752 0.09678732
0002d0 68 d4 ac 3d 57 74 0d 3e 11 a6 b9 3d 5a 0d aa 3c
       0.08438951 0.13813911 0.09064878 0.02075832
0002e0 b0 32 0a 3c 75 47 41 be d4 c8 4d 3e 1b f1 3f 3e
       0.008434936 -0.18874915 0.20096141 0.18744318
0002f0 16 78 f3 bd bc eb 95 be 25 fd 7d bd e6 24 6a 3d
       -0.11888139 -0.29281414 -0.062008996 0.057164095
000300 a9 39 86 3d 50 a2 8b be 21 fd bc bf c0 80 c1 3c
       0.065539666 -0.27272272 -1.4764749 0.023620963
000310 19 43 a5 3d 73 64 e8 bd d6 9a 31 be 17 8d 79 bd
       0.080694385 -0.11347284 -0.17344221 -0.06092557
000320 5a 64 37 3d 6b 9e 86 3e 7c 7e 4c bd a7 2e 7c be
       0.044773437 0.26292738 -0.049925312 -0.24627171
000330 8d ad 33 bf 78 56 d7 3c 1e a9 94 3e 24 5b 5b 3d
       -0.7018669 0.026286349 0.29035276 0.053553715
000340 6b c5 c1 be f5 7d dd be cc 6e 1f 3d 6b ea 70 3e
       -0.3784593 -0.4326016 0.038924024 0.23526923
000350 ac c0 85 3d f6 80 11 be b3 86 9a bf d1 3c 27 3e
       0.0653089 -0.14209351 -1.2072357 0.16331793
000360 b8 9b 78 bd 90 4c 61 bd 4c c0 9d be 67 03 a0 bf
       -0.06069538 -0.055004656 -0.30810773 -1.2501038
000370 99 a5 df 3b e5 a4 22 3c b3 89 20 3c 7f 2b 7d be
       0.0068251607 0.009927009 0.009798455 -0.24723624
000380 cd 31 ab be b8 01 a4 be 8e 9c 9b 3d 9e e1 a2 be
       -0.33436432 -0.3203256 0.0759822 -0.31812757
000390 f4 63 82 be ac 76 30 3e 05 49 b9 be 01 25 87 bf
       -0.25466883 0.1723277 -0.36188522 -1.0558168
0003a0 4d 4f b1 bd 7c a3 b2 be ff b9 91 3e be 70 2f be
       -0.086577035 -0.34890354 0.28462216 -0.17132851
0003b0 ce 03 ff be f0 f4 ba 3d 50 76 5e be a5 99 49 be
       -0.4980759 0.09128749 -0.2172482 -0.19687517
0003c0 9b 3c 89 be cb 6a bd bc d8 4c d7 be d3 f6 66 be
       -0.2680405 -0.023122212 -0.42050815 -0.22555093
0003d0 e1 26 6f 3e 8b 48 9b be 18 fa dd bf 0a bb 47 bd
       0.23354675 -0.30328783 -1.7341948 -0.04876236
0003e0 71 31 31 be db 6e 24 3e fc e6 3f be c2 79 ba be
       -0.17304017 0.16057913 -0.18740457 -0.3642102
0003f0 f8 b6 0c bf 55 6e 49 be af 49 9a 3e 3f e2 e7 be
       -0.5496669 -0.19670995 0.3013434 -0.452898

hidden_layers.0.bias f4 [64]
000000 59 f3 bd 3d e3 0f 4f bd 64 42 2b 3e 27 87 e8 bd
       0.092749305 -0.05055226 0.16724545 -0.11353903
000010 60 74 28 be bd 97 c4 bd cd 7b 0f bd f5 13 67 bb
       -0.16450644 -0.09599254 -0.035030175 -0.0035259698
000020 f7 ee 9d bd 3c ab 16 be 09 73 70 be ef cd 9d bd
       -0.077115946 -0.14713758 -0.23481382 -0.07705294
000030 e1 cb 26 3e d6 65 02 bd a4 f7 76 be ac f1 39 bd
       0.16288711 -0.0318354 -0.24117905 -0.045396492
000040 76 1c c4 bd 1a c4 85 3d db f0 e0 3d 12 3e ac 3e
       -0.09575741 0.06531544 0.109834395 0.33641106
000050 c9 04 dd bd d4 64 b5 be d3 0e e9 bd 28 ae ff 3d
       -0.10791928 -0.35428488 -0.113797806 0.124843895
000060 f6 6a 5a 39 a0 7d d4 3d 5a cc 6a be ad 90 80 3a
       0.00020829946 0.103755236 -0.22929516 0.0009808742
000070 8a 60 4a be 9c 01 51 be 03 67 93 3d 89 a3 36 be
       -0.19763389 -0.2041077 0.07197382 -0.17835821
000080 78 0a 8e bc 9a ac 46 be 69 90 b9 3d 5e 7b 48 be
       -0.017338976 -0.1940178 0.09060747 -0.19578311
000090 aa 2d 9e 3c 77 24 05 be 30 89 6d 3d 99 f9 47 bd
       0.019308884 -0.13002191 0.05799216 -0.04882202
0000a0 52 70 3e be 14 61 07 bd be 71 34 be ee ef df bd
       -0.18597534 -0.033051565 -0.17621514 -0.10934435
0000b0 d5 d5 4e 3c d2 66 e7 bd ca 22 26 be 44 31 b2 3b
       0.012624224 -0.11298908 -0.16224208 0.005438002
0000c0 ff 97 6e bd 34 90 c3 bd 6e 40 80 3e 44 95 54 be
       -0.058250424 -0.09548989 0.25049156 -0.20760065
0000d0 74 3d a5 bc d6 d6 50 bb a4 13 ec bb e4 4e 96 3d
       -0.020170905 -0.0031866333 -0.00720449 0.07339266
0000e0 94 48 92 3d a0 8d 1c be 0d 42 67 be b5 5b 61 be
       0.071427494 -0.152884 -0.2258379 -0.2200764
0000f0 eb fb 5d be 65 81 1d bd 89 04 f7 3b bf c1 8d bc
       -0.2167813 -0.03845348 0.0075383824 -0.0173043

hidden_layers.1.weight f4 [64, 64]
000000 a6 3b d6 be 5d 0a 80 bd a6 ac c6 bd 3f 9e 7e bc
       -0.41842383 -0.06251977 -0.09700899 -0.0155406585
000010 f1 98 08 3e af 33 2c bd e4 1c 23 3e eb 36 48 be
       0.13339593 -0.042041477 0.1592899 -0.195522
000020 63 85 b4 3d 97 e3 d5 3c 5f 35 ca bb a0 d5 3b 3e
       0.08814504 0.0261095 -0.006170913 0.1834321
000030 14 c5 05 3e 3f 08 3e 3d 5b 66 9d bd e5 f1 3b 3e
       0.1306346 0.046394583 -0.076855384 0.18353994
000040 74 32 b9 be e3 a7 40 3c 3b 93 8a bd a8 6c 2f 3d
       -0.36171305 0.011758777 -0.06766363 0.042828232
000050 8c 8a 8d be 55 0e 3a be dc 79 ad 3e 12 c8 f2 3d
       -0.27644765 -0.1816953 0.33882034 0.11854567
000060 90 cf 94 3d 0d 4b 13 bd fe da 4d be 6e 4c 31 3e
       0.07266152 -0.035960246 -0.2010307 0.17314312
000070 53 07 94 bd 10 e2 8d ba f0 f0 9e bd 21 88 b5 3e
       -0.072279595 -0.0010824818 -0.07760799 0.3545542
000080 f2 3a 77 3d ef 78 f7 3d 1f 83 ee 3c ba 7e 9b 3d
       0.06035895 0.12083613 0.029115258 0.075925305
000090 14 9b e2 be f4 ab ed 3d be 86 15 3d 44 6d 72 3d
       -0.4425894 0.11605063 0.036505453 0.059186235
0000a0 5a be 25 bf ec a4 83 3e 77 a2 c8 3d 93 a1 67 3e
       -0.6474358 0.25711763 0.09796613 0.2262023
0000b0 49 2e ed be a4 46 9c 3e 35 79 2d 3d b6 d9 fd bd
       -0.46324375 0.30522645 0.04235192 -0.12395041
0000c0 62 36 b9 be 68 52 22 3e 56 b2 54 3d 5d 51 59 bd
       -0.36174303 0.15851748 0.051927887 -0.05305611
0000d0 95 b2 e0 3c d7 c2 96 be 19 88 bf 3d 56 d2 03 3e
       0.027428905 -0.29445526 0.093521304 0.12873206
0000e0 ae c9 4c bd 2b 58 20 be 01 36 0c be de 7b 9a 3c
       -0.049997024 -0.15658633 -0.13692476 0.018857893
0000f0 d7 f3 bd 3d 7c cc 9f be 05 4e 4c bd 4d c5 e2 bd
       0.092750244 -0.31210697 -0.049879093 -0.110727884
000100 0f 50 f1 3d 9f 6d 01 3f 9d 50 7c 3d 56 cf c6 3d
       0.11782848 0.50557894 0.061600316 0.09707515
000110 2d 3f 80 3e a7 51 a3 3d fd a0 90 3c 32 4e a4 3d
       0.250482 0.07974558 0.01765489 0.08022727
000120 03 33 f4 3d a2 bb 83 bd 90 04 82 bc 7a 11 a4 3d
       0.11923792 -0.064322725 -0.015871316 0.08011146
000130 09 dc 91 be 86 59 0e 3e a1 99 97 3d f7 5b ce bd
       -0.28488186 0.13901338 0.07402349 -0.10076135
000140 de 1c b1 3d cb 64 d2 bc 63 c8 75 3e e3 75 32 bf
       0.08648084 -0.025682827 0.24002223 -0.6971113
000150 bc c4 b9 be d0 15 ec 3d 8d 6f bc 3e ed 91 89 bc
       -0.3628291 0.11527598 0.36803856 -0.016793216
000160 ca da 97 3d 11 36 5f 3d 2d c0 f4 bd 25 ca 57 be
       0.074147776 0.05449492 -0.11950717 -0.21073206
000170 b9 a4 b9 3d 78 92 1b be f7 0f 4f bd 9d a9 28 3e
       0.090646215 -0.15192592 -0.050552335 0.16470952
000180 62 f1 10 3f 59 64 30 be e1 17 03 be 32 c6 b1 bb
       0.5661832 -0.1722578 -0.12802078 -0.005425238
000190 05 4e 70 3e 18 e6 89 bd 14 b8 95 3e f1 4e 91 be
       0.23467262 -0.0673334 0.29242003 -0.2838054
0001a0 47 d7 cb bd 3d d9 3e bb 90 58 39 3e 80 2c 50 bd
       -0.0995317 -0.0029121183 0.1810019 -0.05082369
0001b0 30 f5 82 3d 10 be 25 3d 67 f8 f8 3d c0 6e d3 3c
       0.06394422 0.04046446 0.12156754 0.025809646
0001c0 0f b7 0f 3c ad 79 dc bd f4 5f 09 bd 71 f3 af bd
       0.008771672 -0.10765395 -0.033538774 -0.08591355
0001d0 ed 3e c8 3b 70 3a 02 3e b7 2a c6 3d fd 1f 67 bd
       0.006111017 0.12717605 0.09676116 -0.05642699
0001e0 c1 13 a5 bd 0e 0f be 3d 09 de 76 be 6d 45 5c bd
       -0.080604084 0.09280215 -0.24108137 -0.053777147
0001f0 3e ea 79 3c a8 9f c0 bd 72 26 46 3d 9b a8 ba 3d
       0.015253602 -0.09405452 0.048376508 0.0911419
000200 54 54 c9 bd 83 e1 17 bb 45 b4 2b 3e ba 62 75 bd
       -0.098305374 -0.0023175187 0.16767986 -0.059908606
000210 ff d6 46 be e5 89 69 be 8a 68 92 be fc 3d 31 3c
       -0.19417952 -0.22806509 -0.28595382 0.010818001
000220 6d 01 d5 bd 74 93 8f bd d6 d6 75 3d 3c aa 31 3d
       -0.104006626 -0.07010546 0.060019337 0.04337524
000230 d9 b3 43 3e 2d 21 1f 3d de 6a 69 be 9b 8e ab 3d
       0.19111575 0.03885 -0.22794673 0.08376809
000240 5b 05 2f 3d 9d 01 b3 bd a2 b6 de bd 8c ac b3 3e
       0.042729717 -0.08740542 -0.10874678 0.3509258
000250 14 99 f6 3d ee 0f 8a bc fc 60 32 3b c9 52 cb 3d
       0.12040916 -0.016853299 0.0027218452 0.099278994
000260 e5 23 13 3d a6 92 76 3d 15 e1 e4 bd 87 d5 1d 3c
       0.035922904 0.06019845 -0.111757435 0.009633428
000270 92 9a 34 3d 47 ea 37 be 66 e1 5a 3d 6e 22 92 bd
       0.044092722 -0.17960463 0.053437613 -0.07135473
000280 82 98 a8 be 48 02 56 3d f8 95 ae 3c d1 61 a7 ba
       -0.32928854 0.05224827 0.021311745 -0.001277024
000290 6f d5 d1 bd fd ee bc bd 2c 15 bd bd 7c ab dd 3d
       -0.10245787 -0.09225271 -0.09232554 0.10823724
0002a0 d4 98 70 bd e0 fa 94 bc f7 f8 88 3e 38 99 8f 3d
       -0.0587395 -0.018186033 0.26752445 0.07011646
0002b0 f0 2e 98 3d 18 dd a3 bc 2b b6 3d be 86 e5 32 bd
       0.074308276 -0.020002887 -0.18526523 -0.04367592
0002c0 03 47 83 be c1 be 01 3d b4 97 37 bd 7a e5 6e 3d
       -0.25640115 0.031676058 -0.04482241 0.058324315
0002d0 a0 db 48 be d4 26 3f bd a5 8e 9c bd 8d 28 a8 3c
       -0.1961503 -0.04666789 -0.07644395 0.020527149
0002e0 05 00 88 3b b6 8c 93 3d b3 7a 78 3d 49 08 25 3d
       0.004150393 0.07204573 0.06066389 0.040291104
0002f0 45 15 23 bd 94 f5 07 bd c1 28 68 3d 1f 9a b4 3c
       -0.039815206 -0.033193186 0.05667949 0.022046147
000300 96 d9 8f 3c 26 8b 46 be 2e cf fb 3b 14 d8 79 bc
       0.017559808 -0.19389018 0.00768461 -0.015249271
000310 fd 1e a8 3e 7a bc a1 be 6f 2e e4 3d ad 17 db 3e
       0.32836142 -0.3158911 0.11141669 0.427915
000320 79 d0 8a bd 5b 11 21 be 51 ba 31 bd 21 ba 8f bd
       -0.06778044 -0.15729277 -0.043390576 -0.07017923
000330 b8 f9 7c 3d f1 45 16 3d 77 34 b0 be a0 01 8a 3d
       0.061761588 0.036687795 -0.34415027 0.06738591
000340 ab 62 fc 3d 60 c0 57 3c e1 80 7c bd 3c 78 96 3e
       0.12323507 0.013168424 -0.061646346 0.29388607
000350 fe 2d 67 3e 3d 5d f7 bd e7 10 b9 be 38 29 0b 3e
       0.22576138 -0.12078331 -0.36145708 0.13589942
000360 de 67 60 3e a2 0d fc bb 4c b8 33 bd 3e b0 f7 ba
       0.21914622 -0.007692055 -0.04387693 -0.0018897129
000370 8f 0c 5d 3d c4 e1 d4 3c c6 e3 d9 bc e3 95 62 3d
       0.053967055 0.02598656 -0.026597869 0.055318724
000380 b7 da 13 bd 6a 07 de 3d 07 91 05 bd 81 27 fc 3c
       -0.036097255 0.10841258 -0.032609012 0.030780556
000390 00 2f 9d 3d bb 48 8a bd f5 0e c5 bd d5 84 bd 3d
       0.0767498 -0.067521535 -0.096219935 0.09253851
0003a0 33 28 bb 3d 83 39 9a bd a3 fd 01 be 55 d3 78 bd
       0.09138527 -0.07530501 -0.12694411 -0.060748417
0003b0 29 68 f1 3d 19 20 19 be f0 5d b3 bd a2 e5 a4 3c
       0.11787445 -0.1495365 -0.087581515 0.020129029
0003c0 12 40 8c bc f4 c5 68 be 77 f0 ff bc a5 5c 20 3e
       -0.017120395 -0.22731763 -0.031242592 0.15660341
0003d0 af 88 32 be a2 f2 4b 3d 9f 6f db bd c5 04 04 bd
       -0.17434953 0.04979194 -0.107146494 -0.03223111
0003e0 5a 24 57 be f3 ec 39 3d 49 4e c0 3d 90 7d 67 bd
       -0.21009961 0.045391988 0.09389932 -0.05651623
0003f0 9c 8c 0d be 15 4b 74 bd 22 c0 bb bd 67 cf c8 bd
       -0.1382317 -0.059641916 -0.09167506 -0.09805184

hidden_layers.1.bias f4 [64]
000000 4d 60 0c 3e b0 4d 9b 3e 65 9c c5 3e 08 64 67 3c
       0.13708611 0.30332708 0.38595882 0.01412297
000010 90 98 0c 3d 4c 3b 01 3e bd f6 f3 3d 7a 19 2a 3d
       0.034325182 0.12620276 0.11912296 0.041528203
000020 25 8e e2 3e e1 7e e7 3d da 8a b5 bd 4d 5b c5 bd
       0.44249073 0.11303497 -0.088643745 -0.09636555
000030 c1 93 29 bd 08 bc 4e 3c 04 86 cc bd 8d 65 09 3f
       -0.041400675 0.012618072 -0.09986499 0.5367058
000040 df fc 8d 3e 8f 78 8e 3e 12 f8 ff 3e 17 b7 b1 bb
       0.27731988 0.27826354 0.4999395 -0.0054234373
000050 79 ea 6f 3e 83 1a 13 bd ab 03 81 3e d7 d4 16 be
       0.23429288 -0.035913955 0.2519811 -0.1472963
000060 a3 c7 b2 3e 55 c8 2d 3e 2a b1 fd 3d 1b 71 a8 bd
       0.34917936 0.16970952 0.12387307 -0.08224698
000070 04 d7 8b be 44 fe d1 bd 53 84 ce bd 7a c5 fd bb
       -0.2731248 -0.102535754 -0.100838326 -0.0077444883
000080 74 ee 95 3c 21 60 76 3c 94 f0 11 3e 0f 56 b6 bd
       0.01830218 0.015037567 0.1425193 -0.08903133
000090 32 fa b4 3e 89 86 8f 3d 0b 0d 44 3d 69 3c 9c 3c
       0.35347134 0.070080824 0.047864 0.019071775
0000a0 db 5f 20 be 3b af 9f 3d dc b5 96 3d 8e 00 38 be
       -0.15661566 0.077970944 0.07358906 -0.17968962
0000b0 0d 42 03 be 67 ae dd 3d c2 fb f5 3e 9b 0e e7 3e
       -0.12818165 0.1082428 0.48043638 0.4512833
0000c0 88 a2 12 3d e7 95 e1 bb f5 9c d6 bd 5d e6 ea 3b
       0.035799533 -0.006884325 -0.10479156 0.0071685747
0000d0 06 31 ae 3d 60 25 a3 3e 02 63 87 3d e7 93 42 3e
       0.08505444 0.31864452 0.06610681 0.19001733
0000e0 17 e0 16 bd 10 c4 35 be 9d ea 0f 3e 0d b0 df 3d
       -0.036834802 -0.17750573 0.14054342 0.10922251
0000f0 30 f4 95 3e 15 0e 66 3e 94 8a 52 be 5c e5 b3 bd
       0.29287863 0.2246631 -0.20560676 -0.08783981

output.weight f4 [4, 64]
000000 6e 59 8b 3d ac b4 f1 3e ae ca 57 3e 50 74 68 3d
       0.06804167 0.47208154 0.2107341 0.05675155
000010 17 1f e3 3e 86 23 cb 3e d2 a9 bf 3e b4 95 37 3e
       0.44359657 0.3967554 0.3743425 0.17928201
000020 5b 60 41 3e 0c 27 1a 3a ee 93 9b be c1 a3 fb 3a
       0.18884413 0.0005880452 -0.303863 0.0019198583
000030 1b e6 11 bd a8 65 b7 3e 15 d1 6f be bc 10 46 3e
       -0.035619836 0.35819745 -0.23419602 0.19342321
000040 9e 98 32 3e 13 7a 21 3e 0d 1c 4d 3e 70 51 f0 3d
       0.17441031 0.15769224 0.20030232 0.11734283
000050 ea 41 ab 3e 07 39 09 3e 44 ea 5e 3e 52 28 1b be
       0.33448726 0.1340066 0.21769053 -0.151521
000060 83 04 06 3e c7 b1 a2 be 0c f9 05 3f 28 3e 6e bc
       0.13087659 -0.31776258 0.5233314 -0.014541186
000070 37 6e be be 09 ae 56 be 6b 8c a9 be 52 39 84 3e
       -0.37193462 -0.20964827 -0.33114943 0.25824982
000080 5a 83 dd 3d c6 d2 8e be ad c0 25 be 26 1a 13 bf
       0.10816069 -0.27895182 -0.16186781 -0.57461774
000090 20 df 0d 3e 58 89 d6 3d d8 5b 53 be 0d 9d 90 3e
       0.13854647 0.10475415 -0.20640504 0.2824482
0000a0 ff 7d 8a bd 0d a1 01 3d d8 a3 3b 3e f6 27 84 3d
       -0.06762313 0.03164773 0.1832422 0.064529344
0000b0 10 d6 22 bd c3 f4 f5 3c 8e a1 1c 3e 28 5a 42 3e
       -0.039754927 0.030023938 0.15296003 0.18979704
0000c0 25 35 3e be d5 1c 5a 3e 51 14 aa bd a9 94 95 bd
       -0.1857496 0.21300061 -0.08304656 -0.07303745
0000d0 48 03 86 be 94 7a 38 3e 98 26 9d 3e e8 66 1d bd
       -0.26174378 0.1801551 0.30693507 -0.038428217
0000e0 0a 4b 2d 3d 29 1d d4 be 1a 97 8c 3e a8 b6 20 3e
       0.04230789 -0.41428497 0.2745903 0.15694678
0000f0 41 5f ca 3d b7 a1 a6 3e ed 7f 48 be 12 be b8 bd
       0.098814495 0.32545254 -0.1958005 -0.09020628
000100 e0 57 ac 3d f0 3e b3 3e bf 47 4d 3e 82 82 40 3d
       0.08415198 0.35008955 0.200469 0.046999462
000110 2f f4 e3 3e be 54 df 3e 12 29 6b 3e 11 2b 49 3e
       0.44522235 0.4361934 0.22964886 0.19645335
000120 6f 21 27 3e d5 43 57 3d d3 4c 9e be ec f3 1b 3e
       0.16321348 0.052554924 -0.30917987 0.15229768
000130 05 7b 93 3c 64 be b2 3e b5 bb 63 be 67 e0 03 3e
       0.018002996 0.34910882 -0.22239573 0.12878571
000140 30 ec 7b 3e d9 e1 0e 3e 13 01 44 3e c9 10 93 3d
       0.24601817 0.13953342 0.19141035 0.07180936
000150 c6 14 a7 3e 47 0f 3e 3e 7f 00 32 3e a7 e9 8a bd
       0.32633036 0.18560515 0.17383002 -0.06782847
000160 13 2c 16 3e 6c 70 48 be da 7f e7 3e b6 cc 1e 3d
       0.1466525 -0.19574136 0.4521473 0.038769446
000170 83 1d 05 be 8e b1 ec bd 13 70 30 3b ec f9 c7 3e
       -0.12999539 -0.11557303 0.002692227 0.39057863
000180 51 45 ed 3d 4b b5 9d 3d 11 53 81 3a a0 7f 26 bd
       0.11585487 0.077005945 0.0009866675 -0.040649056
000190 5d 04 d6 3d 3e 71 9c 3d 9f f3 6d be 5d d6 98 3e
       0.10450051 0.07638787 -0.23237465 0.29851046
0001a0 8f 91 c2 bd f8 68 d7 bd 99 10 03 3e 72 1a 87 bd
       -0.09500419 -0.10518068 0.127993 -0.06596841
0001b0 6d d3 0c bb fb a6 99 3d 00 2b 3a 3e 0d d3 5d 3e
       -0.0021488324 0.07502552 0.18180466 0.2166254
0001c0 54 62 7f bd 7d 32 60 bd af 17 96 bd 04 eb 8a 3d
       -0.062349632 -0.05473565 -0.07328736 0.06783107
0001d0 dd 30 6f 3d ce 56 66 3e 43 41 a1 3e a4 ff 62 3d
       0.05839621 0.22494051 0.31495103 0.05541958
0001e0 f9 86 1a bc c8 d8 59 be 62 ef 8f 3e b1 c0 b9 3d
       -0.009431594 -0.21274102 0.28112322 0.09069956
0001f0 7d d8 e8 3d 8e f0 aa 3e 2e 06 0a 3b fa 25 50 3d
       0.11369417 0.33386654 0.0021060812 0.050817467
000200 42 f2 9d 3d 79 12 89 3e 6e d9 c1 3d 77 83 a8 bd
       0.07712223 0.26771906 0.094652995 -0.082282
000210 33 20 04 3f 3b c3 a7 3d d4 b0 22 bd fb 69 90 3e
       0.5161163 0.08191534 -0.039719418 0.28205857
000220 43 80 4b 3e 1e c0 04 3e 87 22 93 be 0c 13 19 bd
       0.19873147 0.12963912 -0.2873728 -0.03737168
000230 0c 89 24 3d 0f 5b ff 3e a6 34 4b be 34 53 7d 3e
       0.04016976 0.4987416 -0.19844303 0.2473877
000240 20 68 e2 3d f1 99 dc bb 71 85 6f 3e 7f 7a 4f 3e
       0.110550165 -0.0067322184 0.23390748 0.20261572
000250 b5 38 0d 3e 8f 00 e1 3e 38 0f 2c 3e 5e c0 25 3e
       0.13791163 0.4394574 0.1680268 0.16186664
000260 04 ea 2a 3e ed cd c6 be 63 85 13 3f c6 8f a3 3e
       0.16690832 -0.38828984 0.57625407 0.31945628
000270 64 d2 31 be a7 4c 88 be e1 91 05 bc 78 36 30 3c
       -0.17365414 -0.2662098 -0.008152456 0.010755174
000280 84 52 e1 bc cb df 0f 3e ef d5 cd 3e 5d 11 5e be
       -0.027505167 0.14050214 0.4020228 -0.21686311
000290 d3 6a 95 3e 1b b5 c0 3d c5 75 f5 be a4 a8 fb 3e
       0.29183063 0.09409543 -0.47941414 0.491521
0002a0 fd 76 a1 be 01 8f aa be cc 4d d0 3d 2c 29 ef 3a
       -0.31536093 -0.33312228 0.101710886 0.0018246523
0002b0 19 30 b2 be 28 6c 28 3e 08 8f 82 3e 1d f3 52 3e
       -0.3480232 0.16447508 0.2549975 0.20600553
0002c0 76 45 91 3d ec d1 cc be 53 33 b1 3e 2d 74 b6 3d
       0.07093327 -0.40003908 0.3460947 0.089088775
0002d0 0a f7 bc be 29 95 a4 3d 7f 0c c1 3e ff 87 bd 3d
       -0.36907226 0.080362625 0.37704846 0.09254455
0002e0 44 da f6 be 83 1e 39 be 9f bd a3 3e a2 4d 01 3e
       -0.48213398 -0.18078046 0.31980607 0.12627271
0002f0 4b 4b 94 3e 23 70 cf 3c 72 95 dc be ee 0d 9b 3e
       0.28963694 0.025322026 -0.43082768 0.30284065
000300 de d1 c1 3e 1b c5 10 3e 77 84 ca 3d dc d0 be 3d
       0.37855428 0.1413769 0.09888547 0.093171805
000310 da 4e c0 3d 18 ae e3 3e f1 e4 22 3f 63 54 4f 3f
       0.0939004 0.4446876 0.63630587 0.8098814
000320 23 32 ac 3d 59 5a b4 3e 5c 24 bc 3c 0b db e4 3e
       0.08408 0.3522518 0.022966556 0.44698367
000330 42 53 9d 3e 02 c8 12 3f b4 1f fe be 14 7e 55 3e
       0.30727583 0.5733644 -0.49633563 0.20848876
000340 f9 63 05 3e d3 b9 26 3e 64 18 29 3e 93 58 9f 3e
       0.13026418 0.16281824 0.1651321 0.31122264
000350 a1 65 05 3f ce 0f 8b be 80 ad 81 3e 15 d3 90 bd
       0.521082 -0.27160496 0.25327682 -0.07071511
000360 ca 92 46 3e a7 de 60 be dc 84 a0 3e 74 d2 48 3e
       0.19391933 -0.21959935 0.31351364 0.19611531
000370 fe a3 01 3e 5e fd 27 bd d5 ff 44 be 8c 6b cc 3e
       0.12660214 -0.041013114 -0.19238217 0.39925802
000380 60 bc 34 bd 16 70 be be 0b 0b 11 3e b7 af 5a be
       -0.04412496 -0.3719489 0.14164369 -0.21356092
000390 f3 d4 78 3e b5 13 e2 bd 22 1a 8d ba 94 6d 7b 3e
       0.24299984 -0.11038915 -0.0010765234 0.2455352
0003a0 61 6b 8c bb 2d 0d 08 bf 53 99 d1 3d 2c 2d ab bb
       -0.0042852615 -0.53145105 0.102343224 -0.0052238908
0003b0 47 ee c1 be 31 fc cd 3e fa d8 ef 3d 63 7e 04 3e
       -0.37877104 0.4023147 0.11711307 0.12938838
0003c0 8c 00 12 bf 26 24 c5 be b9 47 b2 bc ec 9c 20 3e
       -0.57032084 -0.38504142 -0.021762716 0.15684861
0003d0 20 81 a7 3e 6a ef 79 3d a0 43 11 3e 04 fc 5c 3e
       0.32715702 0.06101934 0.14185953 0.21580511
0003e0 0d 4b da bd b3 66 6e 3e fa 4c 05 3e 5b f3 82 3e
       -0.10658846 0.23281364 0.13017645 0.2557629
0003f0 49 94 95 3e ca 61 65 3e 1e c9 88 be fd 54 8b be
       0.29214695 0.22400585 -0.2671594 -0.27213278

output.bias f4 [4]
000000 cc 66 9b 3e 69 5e 6a 3e 06 64 5c 3e 34 bc b8 3e
       0.30351865 0.22887577 0.21522531 0.36081088
