checkpoints/state_size_37__action_size_4__hidden_layers_[128-128]__drop_p_0.5__seed_0__GAMMA_0.99__LR_0.0005__UPDATE_EVERY_25__BUFFER_SIZE_100000__BATCH_SIZE_64__TAU_0.001.pth (torch, 89687 bytes, 6 tensors)

hidden_layers.0.weight f4 [128, 37]
-0.17478196 -0.03577574 -0.08544781 -0.26279202 -0.16055124 -0.3500636 -0.20377824 0.11804747
-0.08800678 -0.34405753 -0.099170655 -0.12897131 0.04959134 -0.21747169 -0.11375261 -0.10348295
0.10694421 0.026835913 -0.10742816 -0.15518886 -0.2539424 -0.08254115 0.019935662 -0.01893978
-0.20565405 -0.19206119 -0.14684004 0.19062346 -0.09197038 -0.115904376 -0.107091986 -0.2007498
0.059966955 -0.09864854 -0.28913662 -0.026042111 0.024807625 0.04976986 -0.011326386 -0.06944931
-0.06314998 -0.055518914 0.044122994 -0.15894055 -0.0072951308 0.06130035 -0.10513132 0.037798133
-0.18560122 0.07500163 -0.25364995 -0.19937375 -0.003992805 -0.21089436 -0.07882739 -0.17124946
-0.07781091 -0.0007190275 -0.10981595 0.18107668 -0.11796894 -0.05671254 -0.06663022 -0.13673931
0.15270254 -0.066701815 0.043900434 -0.19025856 -0.06629001 -0.068851374 -0.0786229 -0.116294056
-0.11987883 -0.040769454 0.0013753572 -0.03398367 -0.026244463 -0.013725218 0.01913242 -0.09759023
0.23452275 0.24943882 0.33971676 1.242809 -0.08261628 -0.11231926 -0.11599273 -0.101031505
-0.021632168 0.09129164 0.043754555 0.06495756 0.074220665 -0.00079172733 0.020753078 -0.015164192
0.009888357 -0.00526925 0.010225514 -0.0336528 -0.07455459 -0.025075182 -0.013199382 0.031050703
-0.07967807 -0.111908376 -0.08844124 -0.032538194 0.10067797 0.0028479858 -0.0039618923 0.11819076
0.011744237 0.096992634 0.013025374 -0.043569945 0.07338266 0.25359276 0.059946403 -0.12211231
-0.22173974 0.20305777 6.392071e-05 0.00766729 0.05322057 -0.32597178 -0.06685201 -0.14918512
-0.14320526 0.04627741 0.17170551 0.05028016 -0.28681904 -0.18605678 -0.15805584 -0.33113262
0.013239947 0.13826019 0.0049659694 -0.02782998 0.068628855 0.112640925 0.017342988 0.0760901
-0.23782584 -0.4247754 -0.17797552 -0.009729297 -0.06478968 -0.10220369 -0.14486293 -0.084110074
0.04178523 -0.047460448 0.051834296 0.08362309 -0.08212092 -0.20799099 -0.07753055 -0.005984783
0.021175273 0.013433451 -0.13633981 -0.053534783 -0.01748056 -0.10448794 0.043704435 0.04624204
-0.1805519 -0.045024596 -0.22217713 -0.07156152 0.04141699 -0.17736922 -0.028066685 0.12706587
0.099135354 -0.086180605 -0.09013882 -0.13908775 0.05031283 -0.094164796 0.057713 -0.018971967
-0.0066599175 -0.036720086 -0.08569252 -0.075392336 -0.03161235 0.080593795 0.16064742 -0.052146446
-0.16622335 -0.23642056 -1.2386371 -0.02072669 -0.03120521 -0.037103478 -0.017146777 -0.009277162
-0.027546322 -0.037084293 -0.0023011244 0.033131737 0.065690696 -0.017158149 -0.02020636 -0.018121168
-0.07831731 -0.027009359 -0.04359547 0.01263137 -0.01289985 0.0069633992 0.02411459 0.12817113
-0.0331848 -0.10866638 0.024130322 -0.8392316 -0.014827619 0.0028646693 -0.12121251 -0.10796818
-0.026575243 -0.019543957 0.10707974 -0.17361756 0.034182165 0.11915982 0.008703312 -0.23090418
-0.14999026 -0.20922725 -0.11963616 0.13423336 -0.13105874 -0.0032713707 -0.029124098 0.009498159
-0.12241018 0.115189485 0.018449653 -0.057073377 -0.048243348 -0.07953097 -0.045588557 -0.12031824
-0.17052747 -0.08995509 -0.14367883 0.0034879185 0.10189924 -0.17889479 0.033299763 -0.18648599
00000000: 0bfa 32be 9589 12bd 43ff aebd ad8c 86be
00000010: 8b67 24be 893b b3be 3eab 50be dfc2 f13d
00000020: e63c b4bd 4f28 b0be fc19 cbbd 0e11 04be
00000030: 4a20 4b3d e6b0 5ebe 21f7 e8bd deee d3bd
00000040: 9105 db3d fdd6 db3c 4c03 dcbd d4e9 1ebe
00000050: bd04 82be 560b a9bd 1d50 a33c 9927 9bbc
00000060: fa96 52be b0ab 44be 3c5d 16be cc32 433e
00000070: f75a bcbd 465f edbd 0b53 dbbd 5b91 4dbe
00000080: e99f 753d 3f08 cabd b709 94be 4456 d5bc
00000090: 5c39 cb3c 7bdb 4b3d 4e92 39bc 713b 8ebd
000000a0: c754 81bd cd67 63bd 50ba 343d 50c1 22be
000000b0: fe0b efbb 1316 7b3d 174f d7bd 37d2 1a3d
000000c0: 3f0e 3ebe 749a 993d 68de 81be a228 4cbe
000000d0: 13d6 82bb b1f4 57be 4170 a1bd 055c 2fbe
000000e0: 545b 9fbd 1e7d 3cba 2fe7 e0bd 2a6c 393e
000000f0: b399 f1bd 694b 68bd 6d75 88bd 6405 0cbe
00000100: 0e5e 1c3e f69a 88bd f1d0 333d 24d3 42be
00000110: 0fc3 87bd f301 8dbd 0b05 a1bd 942b eebd
00000120: 0883 f5bd dffd 26bd 5445 b43a 7632 0bbd
00000130: a1fe d6bc bddf 60bc 98bb 9c3c 63dd c7bd
00000140: bb26 703e e46c 7f3e 5bef ad3e 5e14 9f3f
00000150: b932 a9bd a407 e6bd 998d edbd 9be9 cebd
00000160: f235 b1bc 1df7 ba3d fa37 333d 7808 853d
00000170: 0101 983d ec8b 4fba 5c02 aa3c 3b73 78bc
00000180: c602 223c aca9 acbb ea88 273c 85d7 09bd
00000190: 14b0 98bd 786a cdbc 3942 58bc 0b5e fe3c
000001a0: 422e a3bd 3830 e5bd ae20 b5bd c546 05bd
000001b0: 4030 ce3d 46a5 3a3b c3d2 81bb ff0d f23d
000001c0: e66a 403c 13a4 c63d 6168 553c 6676 32bd
000001d0: a649 963d e9d6 813e 5c8a 753d 0516 fabd
000001e0: be0f 63be 60ee 4f3e 2b0d 8638 e43d fb3b
000001f0: d0fd 593d c6e5 a6be b5e9 88bd fcc3 18be
00000200: 66a4 12be 628d 3d3d 92d3 2f3e 92f2 4d3d
00000210: f2d9 92be ab85 3ebe 64d9 21be 378a a9be
00000220: 5dec 583c 1494 0d3e 92b9 a23b b3fb e3bc
00000230: 498d 8c3d 49b0 e63d e212 8e3c 20d5 9b3d
00000240: 9e88 73be 297c d9be 373f 36be a167 1fbc
00000250: 74b0 84bd 2b50 d1bd f356 14be e741 acbd
00000260: fd26 2b3d e365 42bd 3350 543d 9542 ab3d
00000270: 032f a8bd 97fb 54be 56c8 9ebd 001c c4bb
00000280: c477 ad3c fa17 5c3c aa9c 0bbe 4a47 5bbd
00000290: 6433 8fbc c6fd d5bd 6c03 333d 4b68 3d3d
000002a0: 99e2 38be b66b 38bd 6782 63be d98e 92bd
000002b0: dda4 293d 47a0 35be 1bec e5bc 8e1d 023e
000002c0: 7a07 cb3d 757f b0bd b49a b8bd 056d 0ebe
000002d0: d314 4e3d 79d9 c0bd 7764 6c3d 196b 9bbc
000002e0: 703b dabb cd67 16bd 8f7f afbd 4c67 9abd
000002f0: f47b 01bd 5c0e a53d c280 243e 8397 55bd
00000300: 7436 2abe 3b18 72be a98b 9ebf 05cb a9bc
00000310: 12a2 ffbc d1f9 17bd 6677 8cbc 3dff 17bc
00000320: d3a8 e1bc b3e5 17bd 76ce 16bb 25b5 073d
00000330: d888 863d 3f8f 8cbc cf87 a5bc d872 94bc
00000340: d364 a0bd bb42 ddbc 2a91 32bd cef3 4e3c
00000350: e459 53bc 3a2d e43b f68b c53c 4b3f 033e
00000360: c9ec 07bd 7b8c debd f4ac c53c e2d7 56bf
00000370: 8bef 72bc 2dbd 3b3b 443e f8bd 6c1e ddbd
00000380: 53b4 d9bc a61a a0bc 9f4c db3d cdc8 31be
00000390: 9902 0c3d 100a f43d 5698 0e3c 2572 6cbe
000003a0: 0c97 19be ab3f 56be ce03 f5bd 7874 093e
000003b0: 4334 06be 7e64 56bb a995 eebc 2b9e 1b3c
000003c0: 30b2 fabd 77e8 eb3d ba23 973c c6c5 69bd
000003d0: d19a 45bd 22e1 a2bd 11bb 3abd 6969 f6bd
000003e0: c19e 2ebe 603a b8bd 8b20 13be 9095 643b
000003f0: 8cb0 d03d 3230 37be 5565 083d 2ff6 3ebe

hidden_layers.0.bias f4 [128]
0.025601977 -0.088653386 -0.065547146 -0.16162872 0.0063335635 0.043882266 -0.1675389 -0.12325813
-0.15492749 -0.24989565 -0.049209077 -0.19862966 0.117248096 -0.20262061 0.036895197 0.04679769
-0.1624795 -0.1344986 -0.10502578 -0.1578358 -0.0068307887 -0.086497836 -0.22264923 -0.022320284
-0.03553557 -0.10548848 -0.07277283 -0.13020863 -0.10117506 -0.15963605 0.035724845 -0.17308338
0.06264414 -0.03891521 -0.14905752 -0.16699773 -0.10369217 0.03494253 0.05272394 0.10459506
-0.1925128 0.023013785 -0.118404716 0.02176131 -0.037741926 -0.16399013 -0.0978548 -0.16846918
-0.07382263 0.07054352 -0.14959072 -0.064280495 -0.10550112 -0.1512079 0.044767864 0.0623488
-0.10191241 -0.13203157 -0.24217223 0.12680864 -0.034481835 -0.085200936 -0.11588905 -0.060475085
-0.14042345 0.012825569 -0.061012115 -0.27193227 0.06997046 -0.015096459 -0.08409054 -0.0378944
-0.25100994 0.06608183 -0.19346592 -0.045980398 -0.16773996 -0.18621178 -0.21860553 -0.21230096
-0.018241484 0.0041281004 -0.22847708 -0.016194837 -0.07006894 -0.13884586 -0.045493864 -0.035017878
-0.14520888 -0.020217383 -0.10439732 -0.0763194 -0.047670636 -0.021788744 -0.0025041716 -0.0024916986
-0.17244244 -0.17671323 0.0032883298 -0.11968875 -0.03155722 -0.10359455 0.092943735 -0.19236927
-0.27656278 -0.18476693 -0.05548606 -0.18432239 0.013803098 -0.0048418297 -0.0038987638 -0.25136676
-0.007142323 0.06477507 0.062785275 -0.12830336 0.008854026 0.030293725 -0.06791062 0.047185946
0.00018501576 -0.12908101 -0.08858637 0.10229855 -0.00798784 0.06293169 -0.07512572 0.009726358
00000000: 3dbb d13c e88f b5bd 953d 86bd 0082 25be
00000010: c889 cf3b e4bd 333d 518f 2bbe c26e fcbd
00000020: 50a5 1ebe a5e4 7fbe 758f 49bd 9365 4bbe
00000030: c51f f03d c77b 4fbe 6b1f 173d efae 3f3d
00000040: 0761 26be 00ba 09be c217 d7bd b59f 21be
00000050: cfd4 dfbb c725 b1bd 29fe 63be 07d9 b6bc
00000060: bf8d 11bd 580a d8bd ec09 95bd 6955 05be
00000070: df34 cfbd a277 23be 3754 123d c53c 31be
00000080: 924b 803d 8e65 1fbd 89a2 18be 7401 2bbe
00000090: 8f5c d4bd e61f 0f3d 0ff5 573d ef35 d63d
000000a0: 1322 45be 6887 bc3c 2c7e f2bd c644 b23c
000000b0: 4797 1abd 07ed 27be 1968 c8bd 2f83 2cbe
000000c0: 5230 97bd 1f79 903d 4f2e 19be 7ea5 83bd
000000d0: f910 d8bd 3ed6 1abe 825e 373d 7561 7f3d
000000e0: 74b7 d0bd 4933 07be fffb 77be 20da 013e
000000f0: d33c 0dbd d47d aebd 3d57 edbd b9b4 77bd
00000100: 2acb 0fbe 5622 523c d7e7 79bd b53a 8bbe
00000110: ac4c 8f3d 2357 77bc a937 acbd 2937 1bbd
00000120: 6084 80be e955 873d ee1b 46be f155 3cbd
00000130: 06c4 2bbe 4dae 3ebe 21da 5fbe 6c65 59be
00000140: 2a6f 95bc 0445 873b e5f5 69be 09ab 84bc
00000150: 4e80 8fbd 9c2d 0ebe c657 3abd e86e 0fbd
00000160: a3b1 14be ed9e a5bc 43ce d5bd 584d 9cbd
00000170: 4942 43bd 4f7e b2bc 071d 24bb c44b 23bb
00000180: c094 30be 50f4 34be 0581 573b 601f f5bd
00000190: 2542 01bd 6129 d4bd 4959 be3d 73fc 44be
000001a0: a399 8dbe 8b33 3dbe 5a45 63bd 02bf 3cbe
000001b0: 6426 623c 36a8 9ebb 6782 7fbb 25b3 80be
000001c0: 260a eabb cba8 843d 9195 803d f561 03be
000001d0: 7a10 113c 8c2a f83c b914 8bbd 0d46 413d
000001e0: ca00 4239 d02d 04be c56c b5bd e781 d13d
000001f0: 6edf 02bc 54e2 803d 83db 99bd 4d5b 1f3c

hidden_layers.1.weight f4 [128, 128]
-0.081362925 -0.019497875 0.010586626 0.07991291 0.045079455 0.055129822 0.05705913 -0.048334192
-0.14413606 -0.00627 -0.12631947 -0.008399961 -0.013775232 0.03705555 -0.03997599 -0.04948183
-0.14154705 -0.037370224 -0.07689361 0.1116577 0.123196505 -0.013649108 -0.007290943 -0.11117739
0.022305878 -0.025405765 -0.045125537 0.009160199 -0.03759826 -0.14576045 0.0135687515 -0.0184495
-0.0056711445 0.0055244314 0.009332455 -0.039527234 -0.12585312 -0.13269849 -0.10633748 0.08902956
0.0001209639 -0.1389807 -0.02762536 0.0340115 0.0025469407 -0.06826892 -0.007312848 -0.12064796
0.0056893337 0.14228018 0.005866509 -0.0138975885 -0.07861057 0.08096745 -0.042665955 0.16813578
0.03910123 -0.014244327 0.01925137 0.0097461855 -0.06322378 0.09342886 -0.025604077 -0.0762356
-0.08948494 8.748104e-05 0.20895386 -0.015894836 0.22935505 -0.035088457 0.08852898 -0.04409243
-0.10916824 0.035385452 0.10735843 -0.12229595 0.08147757 0.009869915 0.025091227 -0.038475383
0.003997951 0.09221112 -0.24501216 -0.07045123 0.029324675 -0.07464461 0.03360573 0.00038920142
0.06875054 -0.10309916 0.20528685 -0.07293518 0.046420522 -0.036768746 0.04743607 0.023420589
-0.053881716 0.11103182 -0.10798949 0.019211644 -0.19272472 -0.038640846 -0.07689759 -0.07564275
-0.06265993 -0.13768975 -0.007359092 -0.04480612 -0.010603567 0.010757015 -0.03810913 -0.0817635
-0.04714563 0.07463222 0.032056537 -0.07196389 -0.0053760707 0.0081786765 0.03317079 0.021780943
-0.00015748915 -0.12902097 -0.055530585 -0.06880697 -0.021316161 0.018363865 0.016320432 -0.020009533
-0.04425361 0.06476127 0.0047515384 -0.039355926 0.03359205 -0.120815575 -0.0533129 0.085984856
0.008931172 -0.04340036 0.02145162 -0.06153577 0.016890096 -0.005771733 -0.017476678 0.11432712
-0.0024243908 -0.040102165 -0.063468345 -0.044918794 0.004117803 -0.032437008 -0.0022104701 0.02133651
-0.0010620687 -0.055744335 -0.044486728 0.006346748 0.05735622 0.0054707727 -0.10086767 -0.045512598
-0.08502841 -0.12997371 0.058704898 -0.11034174 -0.076829694 -0.054089878 -0.051353216 -0.12680572
-0.04234636 -0.10087289 -0.024994252 0.11727408 -0.0077934577 0.007427366 0.030966712 0.015273141
-0.1643833 -0.035980005 -0.05483629 -0.03890733 -0.044872247 0.030947804 0.05194065 -0.05353704
0.054447148 0.07131907 -0.082769625 -0.12945169 -0.026284583 0.018127006 -0.13930051 -0.062940374
-0.05108967 0.039625987 -0.1514937 -0.12756063 0.04790292 -0.059525967 0.040854193 0.005073308
0.07890663 -0.020198178 -0.066788785 0.03195776 -0.11523412 -0.0310447 -0.0076598777 -0.048007887
-0.036027916 -0.043412607 0.21220644 -0.007821037 0.004540893 -0.020873329 -0.11775145 -0.025460992
-0.08633787 0.006445585 -0.11052592 0.05571362 -0.03357467 0.033617992 0.005585977 -0.016693825
0.027292745 -0.009635758 0.043192964 -0.032518376 -0.15268624 0.095892236 0.02828898 0.12926975
-0.014805629 0.011448801 -0.04668275 -0.07441164 -0.06343838 0.038713224 -0.022585582 0.0030713347
-0.046505015 -0.08065386 -0.061395753 0.007948237 0.010131243 -0.048552193 -0.0035523844 -0.047404174
-0.060072914 0.20448588 0.02834901 -0.09932444 -0.030325979 -0.06812611 -0.12479629 0.04271062
00000000: 9ba1 a6bd 02ba 9fbc 8773 2d3c 61a9 a33d
00000010: 3ca5 383d cfcf 613d d6b6 693d 13fa 45bd
00000020: 6798 13be 9274 cdbb e459 01be fd9f 09bc
00000030: 83b1 61bc 8fc7 173d ddbd 23bd 76ad 4abd
00000040: b6f1 10be 8511 19bd 667a 9dbd cbac e43d
00000050: 734e fc3d 82a0 5fbc dde8 eebb f9b0 e3bd
00000060: d1ba b63c c01f d0bc 8ed5 38bd a914 163c
00000070: a200 1abd 3a42 15be 784f 5e3c 6823 97bc
00000080: 02d5 b9bb 4a06 b53b 27e7 183c 4fe7 21bd
00000090: a4df 00be 1de2 07be 77c7 d9bd 2155 b63d
000000a0: 00ae fd38 f550 0ebe 944e e2bc a54f 0b3d
000000b0: 93ea 263b 93d0 8bbd 9ea0 efbb 4716 f7bd
000000c0: 976d ba3b e5b1 113e d83b c03b b6b2 63bc
000000d0: 94fe a0bd 43d2 a53d 7fc2 2ebd c92b 2c3e
000000e0: 9d28 203d 0a61 69bc 0db5 9d3c 77ae 1f3c
000000f0: 787b 81bd a157 bf3d a4bf d1bc 6921 9cbd
00000100: e143 b7bd 0776 b738 00f8 553e e335 82bc
00000110: 0ddc 6a3e eab8 0fbd af4e b53d 449a 34bd
00000120: 9993 dfbd 56f0 103d bdde db3d 4d76 fabd
00000130: b6dd a63d 6db5 213c 1e8c cd3c 5d98 1dbd
00000140: 3e01 833b 2fd9 bc3d 78e4 7abe bc48 90bd
00000150: 4d3a f03c 46df 98bd 29a6 093d bb0d cc39
00000160: 15cd 8c3d a725 d3bd b736 523e 0a5f 95bd
00000170: 7223 3e3d d39a 16bd 534c 423d 89dc bf3c
00000180: 13b3 5cbd a764 e33d 9829 ddbd bd61 9d3c
00000190: a159 45be dd45 1ebd 7c7c 9dbd 96ea 9abd
000001a0: d953 80bd 8bfe 0cbe 8a24 f1bb 9f86 37bd
000001b0: 95ba 2dbc 313e 303c 5218 1cbd 9f73 a7bd
000001c0: c71b 41bd c7d8 983d b74d 033d ce61 93bd
000001d0: c029 b0bb dbff 053c 18de 073d f36d b23c
000001e0: ac23 25b9 131e 04be 0a74 63bd abea 8cbd
000001f0: 3b9f aebc d16f 963c 6db2 853c 08eb a3bc
00000200: 4643 35bd 8fa1 843d cbb2 9b3b ae33 21bd
00000210: d197 093d 286e f7bd a15e 5abd d418 b03d
00000220: 0d54 123c 93c4 31bd 4fbb af3c ee0c 7cbd
00000230: 195d 8a3c ce20 bdbb 402b 8fbc 5624 ea3d
00000240: 87e2 1ebb 2b42 24bd b1fb 81bd c5fc 37bd
00000250: a3ee 863b abdc 04bd 89dd 10bb e8c9 ae3c
00000260: 1d35 8bba 2c54 64bd b737 36bd 62f8 cf3b
00000270: 5bee 6a3d 2b44 b33b b593 cebd 6b6b 3abd
00000280: 6023 aebd d417 05be 8c74 703d dafa e1bd
00000290: e358 9dbd 598d 5dbd c057 52bd 5cd9 01be
000002a0: 6073 2dbd 7296 cebd bfc0 ccbc 652d f03d
000002b0: 4360 ffbb 4361 f33b e7ad fd3c 323c 7a3c
000002c0: 1954 28be c55f 13bd 059c 60bd 4b5d 1fbd
000002d0: f6cb 37bd 4086 fd3c b8bf 543d a849 5bbd
000002e0: f903 5f3d bc0f 923d 1f83 a9bd fc8e 04be
000002f0: c452 d7bc 167f 943c cba4 0ebe e2e6 80bd
00000300: 6743 51bd dc4e 223d 2a21 1bbe 419f 02be
00000310: da35 443d 80d1 73bd ba56 273d fe3d a63b
00000320: cd99 a13d a676 a5bc 8fc8 88bd 24e6 023d
00000330: deff ebbd 7451 febc b6ff fabb eba3 44bd
00000340: 0292 13bd 6bd1 31bd a54c 593e cf23 00bc
00000350: c5cb 943b 8bfe aabc ac27 f1bd 9293 d0bc
00000360: e9d1 b0bd 7c35 d33b 6a5b e2bd f733 643d
00000370: 9885 09bd 05b3 093d 920a b73b 7dc1 88bc
00000380: 0995 df3c 4cdf 1dbc 1beb 303d fd31 05bd
00000390: c859 1cbe 2663 c43d 4abe e73c 4a5f 043e
000003a0: 4f93 72bc c093 3b3c 6936 3fbd 2165 98bd
000003b0: fbeb 81bd c291 1e3d 6605 b9bc 7248 493b
000003c0: 0b7c 3ebd da2d a5bd 1d7a 7bbd 5239 023c
000003d0: 83fd 253c aade 46bd 1fcf 68bb e12a 42bd
000003e0: 040f 76bd bf64 513e 2f3c e83c 9d6a cbbd
000003f0: 306e f8bc b485 8bbd 3395 ffbd 55f1 2e3d

hidden_layers.1.bias f4 [128]
0.15029474 -0.037869986 0.027986819 0.05914951 0.10891656 0.18263984 0.057452247 0.102817334
-0.045878537 -0.13495313 0.18838745 0.1487271 -0.15701431 -0.09993483 0.19044358 0.07366398
-0.14105855 0.17882499 -0.12612832 0.15705661 0.20783594 0.21660551 0.085993625 0.18836227
0.109874636 0.13261837 0.057731498 0.12694146 0.19844544 0.14742157 0.13116594 -0.02137192
0.107378244 0.15556885 0.21113116 -0.040106244 0.19434233 0.18422851 -0.14240555 0.17014064
-0.07782551 -0.10077293 0.16444388 0.1322887 0.115637295 0.14157364 -0.08815407 0.0008731807
0.116166525 0.15506876 0.14864643 -0.055322282 0.16921392 -0.052324023 -0.09780542 0.1725945
0.080918536 -0.06494556 0.21305262 0.10678931 0.21135506 0.13892266 0.12032596 0.17004335
-0.1571094 0.14934912 0.13859336 0.15473132 0.10780453 0.1801363 0.08366645 -0.12362832
-0.02055855 0.18294552 0.1449456 0.19796292 0.14384216 0.23161289 0.1408015 0.1991619
0.055291884 0.10187269 0.14438474 0.13536088 0.11310383 0.03538806 0.15784414 0.19427463
0.1968179 -0.03896572 0.2162851 0.1963271 -0.09925376 0.15916312 0.19653003 0.17346089
-0.03275138 0.19240934 0.06740658 0.16551441 0.020479033 0.0067827855 0.15174045 0.17169736
0.08993782 -0.018803515 0.11016012 0.18642002 0.20070025 0.14392543 0.0018323099 0.12159275
0.17423823 0.10198922 0.09548567 -0.015402132 0.1480184 -0.080326825 0.15933478 0.1948555
-0.08857524 0.13756636 0.19557293 0.1695208 0.1904785 0.13825698 0.18923117 -0.03524348
00000000: dde6 193e 8f1d 1bbd 9d44 e53c c246 723d
00000010: a50f df3d f005 3b3e 0c53 6b3d e591 d23d
00000020: 22eb 3bbd 2731 0abe a4e8 403e eb4b 183e
00000030: 5cc8 20be a2aa ccbd a403 433e 24dd 963d
00000040: a771 10be e61d 373e c827 01be 73d3 203e
00000050: f2d2 543e d6cd 5d3e 6d1d b03d 0ae2 403e
00000060: f405 e13d 1ccd 073e dd77 6c3d f1fc 013e
00000070: 4835 4b3e aef5 163e 5d50 063e 2a14 afbc
00000080: 20e9 db3d 714d 1f3e c432 583e 7246 24bd
00000090: ad01 473e 66a6 3c3e c3d2 11be 5939 2e3e
000000a0: fb62 9fbd 0a62 cebd fa63 283e b076 073e
000000b0: 3fd3 ec3d aef8 103e 1f8a b4bd 2ae6 643a
000000c0: b7e8 ed3d 58ca 1e3e c536 183e 9e99 62bd
000000d0: 6a46 2d3e b751 56bd 354e c8bd 9dbc 303e
000000e0: 9eb8 a53d 2e02 85bd 772a 5a3e 5bb4 da3d
000000f0: 766d 583e be41 0e3e 756d f63d d81f 2e3e
00000100: 49e1 20be faee 183e 6beb 0d3e e371 1e3e
00000110: 9fc8 dc3d a675 383e 5159 ab3d d830 fdbd
00000120: 676a a8bc 1256 3b3e 9f6c 143e cbb6 4a3e
00000130: 5c4b 133e ee2b 6d3e 452e 103e 19f1 4b3e
00000140: be79 623d a1a2 d03d 98d9 133e 0b9c 0a3e
00000150: fba2 e73d 12f3 103d e5a1 213e eeef 463e
00000160: a28a 493e 859a 1fbd d779 5d3e f909 493e
00000170: 8e45 cbbd a8fb 223e 2b3f 493e bb9f 313e
00000180: 5026 06bd f406 453e 760c 8a3d 9c7c 293e
00000190: a5c3 a73c 2142 de3b d961 1b3e 6fd1 2f3e
000001a0: 5231 b83d d409 9abc a19b e13d e4e4 3e3e
000001b0: 5e84 4d3e 3061 133e 1e2a f03a 9f05 f93d
000001c0: 826b 323e b9df d03d fe8d c33d 3959 7cbc
000001d0: 2392 173e 6482 a4bd a828 233e 3388 473e
000001e0: ef66 b5bd 32de 0c3e 4544 483e dc96 2d3e
000001f0: cc0c 433e 3d93 0d3e d1c5 413e 785b 10bd

output.weight f4 [4, 128]
0.03995518 -0.026297428 -0.02673548 -0.02402341 0.05493886 0.05057516 -0.025829798 -0.07471024
-0.021787912 -0.016980542 0.07062855 0.04422694 0.01452751 -0.06275894 0.05274682 0.036781996
0.008149832 0.045086965 -0.013580252 0.03906476 0.04402556 0.045214795 0.05075698 0.04543717
0.07471273 0.053609468 -0.012204171 0.050365213 0.04289788 0.045552693 0.045435503 -0.033416275
0.07492315 0.05478403 0.036090273 -0.0038135771 0.04907089 0.05847299 -0.042449746 0.068225235
-0.112874836 -0.04271091 0.05255545 0.06781182 0.08166178 0.056322232 -0.018811261 -0.018719874
-0.06611254 0.072932705 0.050616737 0.008293517 0.04153121 -0.06933621 -0.0117199 0.062411685
-0.04493115 -0.031763308 0.0443686 0.10700577 0.04792727 0.04500718 0.077214174 0.036834244
0.0048976187 0.06447778 0.07620055 0.068708666 -0.047560897 0.038193747 0.04064107 -0.023791267
-0.09272403 0.056123994 0.04327122 0.052111603 0.029757913 0.04157748 0.06752337 0.048127584
-0.035738222 -0.083829135 0.07856519 0.04990325 -0.13732165 -0.13100342 0.06630808 0.06228543
0.046909645 -0.03252489 0.042012583 0.04883805 -0.018781828 0.043521002 0.040591124 0.07166181
-0.034998663 0.053698197 -0.034062978 0.0501227 -0.021743037 -0.01834948 0.06436799 0.056185987
-0.09323851 -0.110478595 0.05169777 0.041415446 0.0470616 0.07000033 0.029232463 0.06825375
0.049931042 -0.041337408 -0.109619275 -0.05394918 0.055735677 -0.01681676 0.05103006 0.052982006
0.019924777 0.070965186 0.05328494 0.05105207 0.050872352 0.027500667 0.054837435 -0.018452806
0.056153625 -0.009633835 0.0025091318 -0.009233292 0.009711367 0.011022869 0.0013067208 0.013450472
-0.003732583 -0.015950568 0.024662128 0.044296507 -0.0058348384 0.034775656 0.01349526 0.042225227
0.05130625 0.039410923 -0.04740309 0.03419769 0.026630389 0.0424287 0.02274051 0.0593842
0.1017043 0.029548636 0.022084175 0.06473073 0.011177921 0.011501574 0.045588657 -0.090045065
0.06553358 0.07574365 0.052800115 -0.04402236 0.042560358 0.07793592 -0.010846001 0.03832833
0.007961812 -0.020405816 0.035883754 0.053068444 0.056751754 0.06841246 -0.001495821 -0.0034190791
-0.0038805297 0.080727614 0.08312221 -0.03697951 0.033579327 -0.06004195 -0.02544288 0.03988755
-0.016559778 0.09915434 0.06849001 0.12409847 0.028802982 0.04460417 0.094166756 0.041011468
-0.02388177 0.05959043 0.07411152 0.06664554 -0.011912279 0.04941841 0.042338334 0.066148564
-0.055115573 0.054903276 0.0051785307 0.021535778 0.042989288 0.03938321 0.07448083 0.039156266
-0.0020013624 -0.006760629 0.107830875 0.04736604 -0.03325856 -0.043356564 0.047113366 0.0455102
0.032724217 -0.010868526 0.051139377 0.060619324 0.0074668727 0.020459017 0.04252102 0.050617453
-0.002348941 0.031238342 -0.009974082 0.039695222 -0.0413521 -0.00022137238 0.052792694 0.05973821
0.023293978 -0.06563067 0.005641484 0.019928893 0.059042722 0.014314644 -0.080437705 0.061173864
0.042457078 0.014873951 -0.039350223 -0.006872571 0.068819106 -0.028164305 0.06707929 0.024683168
0.018406054 0.06014731 0.030765777 0.03259486 0.01586998 0.028716277 0.047615103 0.0043222
00000000: 0ba8 233d b46d d7bc 5e04 dbbc becc c4bc
00000010: 9207 613d e627 4f3d 0399 d3bc af01 99bd
00000020: 907c b2bc c71a 8bbc b4a5 903d 4f27 353d
00000030: cb04 6e3c c287 80bd 0d0d 583d b8a8 163d
00000040: df86 053c 1cad 383d b57f 5ebc 5f02 203d
00000050: 2554 343d 2633 393d 8de6 4f3d 531c 3a3d
00000060: fd02 993d 9a95 5b3d 01f4 47bc c14b 4e3d
00000070: b0b5 2f3d 7695 3a3d 941a 3a3d 81df 08bd
00000080: 4f71 993d 3865 603d 65d3 133d 35ed 79bb
00000090: 8ffe 483d 6081 6f3d c9df 2dbd acb9 8b3d
000000a0: ec2a e7bd a3f1 2ebd 6244 573d ece0 8a3d
000000b0: 4b3e a73d 24b2 663d 131a 9abc 6c5a 99bc
000000c0: 0366 87bd be5d 953d 7f53 4f3d 88e1 073c
000000d0: a11c 2a3d 2500 8ebd d304 40bc 65a3 7f3d
000000e0: ba09 38bd 3e1a 02bd d9bb 353d d725 db3d
000000f0: 634f 443d 7359 383d 7722 9e3d 81df 163d
00000100: 347c a03b ed0c 843d 090f 9c3d 21b7 8c3d
00000110: 37cf 42bd 0c71 1c3d 4077 263d e7e5 c2bc
00000120: 19e6 bdbd 46e2 653d 2a3d 313d fa72 553d
00000130: dec6 f33c 264d 2a3d b149 8a3d 6e21 453d
00000140: 3e62 12bd 9cae abbd c9e6 a03d 5a67 4c3d
00000150: 0c9e 0cbe c325 06be 88cc 873d 021f 7f3d
00000160: 5424 403d d238 05bd 6315 2c3d 680a 483d
00000170: 59dc 99bc 1443 323d e142 263d 6dc3 923d
00000180: c25a 0fbd a4f2 5b3d 9f85 0bbd 764d 4d3d
00000190: 741e b2bc a651 96bc 5dd3 833d 4723 663d
000001a0: d5f3 bebd 9a42 e2bd 0ac1 533d 3ea3 293d
000001b0: aac3 403d 555c 8f3d eb78 ef3c 9fc8 8b3d
000001c0: 7e84 4c3d 6a51 29bd 1280 e0bd d1f9 5cbd
000001d0: 184b 643d 4dc3 89bc e504 513d a903 593d
000001e0: 4939 a33c 3256 913d 4f41 5a3d fa1b 513d
000001f0: 875f 503d 1449 e13c 389d 603d 572a 97bc
00000200: 5801 663d 3cd7 1dbc 3f70 243b 3c47 17bc
00000210: 6d1c 1f3c 4399 343c 4646 ab3a 5e5f 5c3c
00000220: 5a9e 74bb c4aa 82bc 3b08 ca3c 4170 353d
00000230: 2c32 bfbb eb70 0e3d 391b 5d3c 5cf4 2c3d
00000240: 8126 523d 596d 213d be29 42bd e112 0c3d
00000250: f927 da3c b7c9 2d3d 4e4a ba3c d93c 733d
00000260: 584a d03d fb0f f23c dfe9 b43c 8c91 843d
00000270: 9923 373c 1971 3c3c 2cbb 3a3d 8c69 b8bd
00000280: 7836 863d 7d1f 9b3d ef44 583d ca50 34bd
00000290: c553 2e3d de9c 9f3d 6db3 31bc 2bfe 1c3d
000002a0: 4372 023c 192a a7bc d8fa 123d 4c5e 593d
000002b0: 8774 683d d51b 8c3d 6d0f c4ba a112 60bb
000002c0: 7c50 7ebb 8554 a53d fa3b aa3d d477 17bd
000002d0: 7a8a 093d 8cee 75bd 966d d0bc 2161 233d
000002e0: 5fa8 87bc 6e11 cb3d 7e44 8c3d 5727 fe3d
000002f0: 3bf4 eb3c ddb2 363d 80da c03d a4fb 273d
00000300: b4a3 c3bc 1815 743d c8c7 973d 757d 883d
00000310: b82b 43bc f56a 4a3d f66a 2d3d e678 873d
00000320: dec0 61bd 42e2 603d aab0 a93b cd6b b03c
00000330: 8915 303d 4a50 213d 6889 983d 5262 203d
00000340: 4a29 03bb 4488 ddbb 6fd6 dc3d e502 423d
00000350: 213a 08bd a796 31bd f2f9 403d e768 3a3d
00000360: d409 063d e711 32bc 8677 513d f84b 783d
00000370: abac f43b ab99 a73c 852a 2e3d 3f54 4f3d
00000380: b1f0 19bb 8de7 ff3c 556a 23bc 7597 223d
00000390: d260 29bd 3220 68b9 273d 583d 0eb0 743d
000003a0: 03d3 be3c 5f69 86bd 33dc b83b eb41 a33c
000003b0: c8d6 713d f887 6a3c 86bc a4bd 7291 7a3d
000003c0: 79e7 2d3d dfb1 733c b32d 21bd 4e33 e1bb
000003d0: 08f1 8c3d d4b8 e6bc de60 893d 5b34 ca3c
000003e0: 4bc8 963c 075d 763d 8308 fc3c 3082 053d
000003f0: c301 823c 663e eb3c 0e08 433d 3ea1 8d3b

output.bias f4 [4]
0.35461152 0.28140312 0.33034208 0.34606645
00000000: a48f b53e 1214 903e 9922 a93e 9f2f b13e
