checkpoints/state_size_37__action_size_4__hidden_layers_[128-128]__drop_p_0.0__seed_0__GAMMA_0.99__LR_0.0005__UPDATE_EVERY_100__BUFFER_SIZE_100000__BATCH_SIZE_64__TAU_0.001.pth (torch, 89687 bytes, 6 tensors)

hidden_layers.0.weight f4 [128, 37]
0	0xbe48f8eb	-0.19626205
1	0xbd689dce	-0.05679112
2	0xbdb59d69	-0.08867914
3	0xbde87da0	-0.11352086
4	0xbe35e87f	-0.17764471
5	0xbe2d1327	-0.16901837
6	0x3d99c3fe	0.07508086
7	0xbce97255	-0.0284969
8	0xbd3d72f0	-0.04625219
9	0xbda339bf	-0.079699986
10	0xbd3d758d	-0.046254683
11	0x3e048fe6	0.12945518
12	0x3c2982f0	0.010346159
13	0xbdef1c11	-0.11675275
14	0xbe29031c	-0.16505092
15	0x3d8a3727	0.06748801
16	0xbdbf77bb	-0.09349009
17	0x3e187f8b	0.14892404
18	0x3c38dc31	0.0112829665
19	0x3c270842	0.01019484
20	0xbde876a7	-0.11350756
21	0xbd1db46b	-0.038502138
22	0xbdba371c	-0.090925425
23	0xbcb8ab0b	-0.022542497
24	0xbb5d50d6	-0.0033770106
25	0xbd7dbb6e	-0.061946325
26	0x3d9fbadb	0.07799312
27	0xbb2439d6	-0.0025058887
28	0x3d0c0615	0.034185488
29	0xbc3257ba	-0.010885173
30	0xbe172a32	-0.1476219
31	0x3c444a41	0.011980594
32	0x3a8414d4	0.0010077008
33	0xbe2000b5	-0.1562527
34	0x3c597307	0.013272054
35	0xbcce2943	-0.02516616
36	0xbd6e6876	-0.05820509
37	0xbe25e980	-0.16202354
38	0xbcf3bd1b	-0.029753258
39	0xb9f56646	-0.0004680624
40	0xbb243218	-0.0025054272
41	0xbbb42532	-0.005497598
42	0xbded272b	-0.11579736
43	0xbdffea16	-0.1249582
44	0x3e1cd1b3	0.15314369
45	0x3da36ebe	0.07980107
46	0xbe2a8fd1	-0.16656424
47	0xbde4a536	-0.11164324
48	0xbd7b3795	-0.061332304
49	0xbe01dfef	-0.1268308
50	0xbb9db7a6	-0.0048131524
51	0xbe1675a5	-0.14693315
52	0xbe1e8ddf	-0.15483807
53	0xbc83b65a	-0.016078163
54	0x3dd38062	0.103272215
55	0xbd8fff71	-0.070311435
56	0xbe1c70fa	-0.15277472
57	0xbdad7e2a	-0.084713295
58	0xbd21c7db	-0.039497238
59	0xb9da8429	-0.00041678667
60	0xbe405160	-0.18781042
61	0xbe2d1c58	-0.16905344
62	0xbe02b7bd	-0.12765403
63	0x3dcfd929	0.10148842
64	0x3dc362e0	0.09540343
65	0xbe39a8a1	-0.18130733
66	0x3cf3bd64	0.029753394
67	0x3cc2d865	0.023784826
68	0xbd895160	-0.06704974
69	0x3d3b5bbc	0.04574178
70	0xbcc54a1d	-0.024083192
71	0x3d9418e8	0.07231313
72	0xbc2cc072	-0.010543929
73	0x3d647b86	0.055781864
74	0x3dc090c5	0.094026126
75	0x3d3fadcf	0.046796616
76	0x3ccdd21e	0.025124606
77	0x3e12e681	0.14345743
78	0x3e525b50	0.20542645
79	0xbe46043a	-0.1933755
80	0xbd60b989	-0.05486444
81	0xbdab0ed9	-0.08352441
82	0x3e49ceae	0.19707748
83	0x3e9ebe41	0.31004527
84	0xbe186592	-0.14882496
85	0x3dfdb647	0.12388282
86	0xbe1a03ba	-0.15040484
87	0xbd52b004	-0.051437393
88	0x3dc71bba	0.09722085
89	0xbe2992ac	-0.16559857
90	0xbdd13381	-0.10214902
91	0xbd7f93d5	-0.062396843
92	0xbd51881e	-0.051155202
93	0x3d0c816c	0.034303114
94	0xbe55d04f	-0.20880245
95	0xbd1d2298	-0.03836307
96	0x3d1d29c2	0.0383699
97	0x3e17c19a	0.14819947
98	0xbddbc2b7	-0.10730498
99	0x3ce0c3db	0.027437141
100	0xbd57670b	-0.052588504
101	0x3e3042b0	0.1721294
102	0x3e21afc4	0.15789706
103	0x3dce71ab	0.10080274
104	0xbd712ec3	-0.058882486
105	0x3cbeff96	0.023315232
106	0xbe181f70	-0.14855742
107	0x3dddafca	0.10824545
108	0x3e3dfb52	0.18552902
109	0x3d95a65d	0.07307122
110	0x3cc66370	0.024217337
111	0x3d0c90bf	0.034317728
112	0xbd8b9d5e	-0.06817125
113	0x3dbbf393	0.091773175
114	0xbd3b48e6	-0.04572382
115	0xbdcd97a6	-0.1003869
116	0xbb62afd6	-0.003458967
117	0x3e291305	0.16511162
118	0x3cd55afa	0.026044358
119	0x3dd5b828	0.10435516
120	0x3f171369	0.5901399
121	0xbcde655f	-0.027147947
122	0xbd2d3ce5	-0.0422944
123	0x3dd79076	0.105256006
124	0x3cf959df	0.030438362
125	0x3db3945a	0.0876853
126	0xbe16fbdd	-0.14744516
127	0x3d9fac19	0.07796497
128	0x3cf9d40c	0.03049662
129	0xbe243794	-0.16036826
130	0x3d5e39f3	0.054254483
131	0x3cb33540	0.021875978
132	0xbe246096	-0.1605247
133	0xbe1fd68b	-0.15609185
134	0xbbf60fe1	-0.007509217
135	0x3de15bd2	0.110038415
136	0xbd92ddcf	-0.07171213
137	0xbdcfffd4	-0.10156217
138	0xbd778c7f	-0.060436722
139	0xbe0ff109	-0.14056791
140	0x3d835575	0.06412784
141	0xbd882eeb	-0.06649574
142	0x3bb9c8df	0.0056696977
143	0x3d7425d7	0.0596064
144	0xbde72ca8	-0.112878144
145	0x3ca9143e	0.020639535
146	0xbce21323	-0.027597016
147	0x3d2ec572	0.042668767
148	0xbdd9ed8e	-0.10641013
149	0xbd014725	-0.03156199
150	0x3e11320b	0.14179246
151	0x3e0b9cb1	0.13633992
152	0x3d14efc8	0.036361486
153	0x3d155988	0.036462337
154	0xbd3a5e13	-0.045499872
155	0x3dbbcc30	0.09169805
156	0x3e14e1ec	0.14539307
157	0x3efbae84	0.49156582
158	0xbd374252	-0.044740982
159	0xbce06f25	-0.027396748
160	0xbd6bad6d	-0.05753844
161	0x3e0f7b86	0.14011964
162	0x3daa099d	0.08302615
163	0xbc857156	-0.016289394
164	0xbe115df6	-0.14196
165	0x3d9b4d33	0.07583084
166	0xbe283f94	-0.16430503
167	0x3d9b20fe	0.07574652
168	0x3d1c5864	0.038170233
169	0x3d40b23e	0.047044985
170	0xbe2c250e	-0.1681101
171	0xbde0ab73	-0.10970201
172	0x3e3ee084	0.18640333
173	0xbe274954	-0.16336566
174	0xbdbe465a	-0.09290762
175	0xbc9b047d	-0.018923039
176	0xbe13a247	-0.14417373
177	0x3d81a2e7	0.06329899
178	0x3d1d7ea7	0.038450863
179	0xbda5c362	-0.08093907
180	0xbcf8e527	-0.030382706
181	0xbbe0578b	-0.0068463734
182	0x3e849006	0.2589113
183	0x3da9e809	0.0829621
184	0x3ba3ddc9	0.005000804
185	0x3dd5bb45	0.104361095
186	0xbcf8573e	-0.030315038
187	0xbd85a2ff	-0.0652523
188	0xbce2e3cd	-0.027696515
189	0xbda3a83b	-0.07991072
190	0x3d7ca3d8	0.06167969
191	0x3d728cde	0.059216373
192	0xbe203b19	-0.15647544
193	0xbd3a0ec7	-0.04542425
194	0x3dde3425	0.108497895
195	0xbd9f0259	-0.0776412
196	0xbd924a2f	-0.07143056
197	0x3e0362ec	0.12830704
198	0x3db8b520	0.09018922
199	0xbd564a26	-0.052316807
200	0xbe44f609	-0.1923448
201	0x3c4074a6	0.011746561
202	0xbdf795a5	-0.12089089
203	0x3c9adb23	0.01890332
204	0xbd77a01f	-0.060455438
205	0xbe21e5b3	-0.1581028
206	0x3dfdbaf6	0.123891756
207	0xbdd0b886	-0.10191445
208	0xbd29fd7d	-0.04150151
209	0x3e195fd6	0.14977965
210	0x3d6e31dd	0.058153022
211	0xbe341551	-0.17586257
212	0xbd9dae65	-0.07699279
213	0x3e66260a	0.22475448
214	0x3adc059b	0.0016786339
215	0x3be0dfdb	0.006862623
216	0x3c8c1692	0.017100606
217	0x3aa8840a	0.0012856734
218	0xbc8969d2	-0.016774092
219	0xbe282c5a	-0.16423169
220	0x3dfd3972	0.123644724
221	0xbb004b47	-0.0019576119
222	0xbc7bbdb2	-0.015365051
223	0xbd933278	-0.071873605
224	0xbdc15ff9	-0.094421335
225	0x3be848cd	0.0070887567
226	0x3d86ac3e	0.06575821
227	0xbe80a8c9	-0.25128773
228	0xbda5aba7	-0.08089381
229	0x3ca1519f	0.01969224
230	0x3c69b763	0.014264914
231	0xbd67b86d	-0.056572367
232	0x3c35af7c	0.011089202
233	0xbe072cab	-0.13200633
234	0x3d43b997	0.047784414
235	0xbdac8db3	-0.084254645
236	0xbd2f2044	-0.04275538
237	0x3da6fe7e	0.08154009
238	0xbde2edaf	-0.11080491
239	0xbcd7f7ee	-0.02636334
240	0xbc2e8567	-0.010651923
241	0xbcaac328	-0.02084501
242	0xbe6e0162	-0.23242715
243	0xbc4d457c	-0.012528773
244	0x3e306635	0.17226489
245	0xbba2f4b4	-0.0049730185
246	0xbe4d3a50	-0.20041776
247	0xbd770784	-0.0603099
248	0x3d330d6f	0.043713983
249	0x3d89ad78	0.0672254
250	0x3dec46f3	0.1153697
251	0x3d92b082	0.071625724
252	0xbc96689e	-0.018360432
253	0x3e03d469	0.12873997
254	0x3e360a7b	0.17777435
255	0xbe3fc535	-0.18727572

hidden_layers.0.bias f4 [128]
0	0xbe1e2374	-0.15443212
1	0xbe46e1a3	-0.19422011
2	0xbddc1971	-0.1074704
3	0xbd0cc3b9	-0.034366343
4	0xbe299995	-0.16562493
5	0xbe46fcac	-0.19432324
6	0x3d756797	0.059913244
7	0xbbd6777c	-0.0065450054
8	0xbe058b4b	-0.13041417
9	0xbde9fd0f	-0.1142522
10	0xbe251ccc	-0.16124266
11	0x3b7ae932	0.0038285968
12	0x3c80a099	0.015701579
13	0x3dbb4594	0.0914413
14	0xbce23131	-0.027611347
15	0xbe1dcff7	-0.15411364
16	0xbe1c5c24	-0.15269524
17	0xbc8427db	-0.016132286
18	0x3c186cf9	0.009303325
19	0xbcab581f	-0.020916043
20	0xbd9407cc	-0.0722805
21	0x3dcd1ad5	0.100148834
22	0x3d421f9a	0.04739342
23	0x3d13856d	0.036015917
24	0xbc17f051	-0.0092736045
25	0xbd8f2a6f	-0.069905154
26	0xbd4a2304	-0.0493498
27	0x3e079c4e	0.1324322
28	0xbc4a7f5f	-0.012359469
29	0xbd7bd2f9	-0.061480496
30	0x3d9ba8c4	0.07600549
31	0x3d8ab5c0	0.06772947
32	0x3d957367	0.07297402
33	0xbe5e0eba	-0.21685305
34	0x3e1edf03	0.1551476
35	0xbd0e612b	-0.034760635
36	0x3e029e67	0.12755738
37	0x3e36b234	0.17841417
38	0x3e10579b	0.14095919
39	0xbceefe0c	-0.029173873
40	0xbd8121a2	-0.06305243
41	0xbd58a538	-0.05289194
42	0xbe120717	-0.14260517
43	0x3d86fe56	0.065914795
44	0xbd5a9048	-0.053360254
45	0x3d3e5024	0.046463147
46	0xbe17fe56	-0.14843115
47	0xbd863116	-0.06552331
48	0x3d9d3310	0.07675755
49	0x3da62329	0.08112175
50	0xbe186a4c	-0.14884299
51	0xbe119360	-0.14216375
52	0xbe0b701b	-0.13616984
53	0xbe1bcb15	-0.15214188
54	0xbe132c9b	-0.14372484
55	0xbddb5021	-0.10708643
56	0xbe273524	-0.16328865
57	0xbdb4aee1	-0.08822418
58	0xbdb3592c	-0.087572426
59	0x3ccec5ca	0.025240798
60	0xbd80adfc	-0.06283185
61	0x3d1ee881	0.03879595
62	0x3da4f388	0.080542624
63	0xbe17ef43	-0.14837365
64	0xbd3ca5d5	-0.046056587
65	0xbe17158c	-0.14754313
66	0xbd0c1ccc	-0.03420715
67	0x3d38d257	0.04512247
68	0xbd55f173	-0.052232217
69	0xbe1f2de4	-0.1554485
70	0xbe1b6e38	-0.15178764
71	0xbdd1bc80	-0.10241032
72	0x3d2d8142	0.042359598
73	0xbdb92d20	-0.0904181
74	0xbe435c17	-0.19078098
75	0x3d87f1cc	0.06637916
76	0x3c908691	0.017642291
77	0x3cc11804	0.023571022
78	0xbdaaba4d	-0.08336315
79	0xbda342d6	-0.07971732
80	0xbcb5c338	-0.022187814
81	0xbe0864a6	-0.13319644
82	0xbc4f907c	-0.012668725
83	0xbd83b464	-0.06430891
84	0xbe2134f7	-0.1574286
85	0x3d3ccc99	0.046093557
86	0xbdb0c282	-0.086308494
87	0xbe505b1b	-0.20347254
88	0xbe22ff85	-0.15917785
89	0xbe1b95bf	-0.15193842
90	0x3e08ce56	0.13359961
91	0xbdca4dfd	-0.09878156
92	0xbe0162b2	-0.12635306
93	0xbc1f49df	-0.009722202
94	0x3dc55d33	0.09636917
95	0x3d6dd766	0.058066748
96	0xbdddc816	-0.10829179
97	0xbe05c2e2	-0.13062623
98	0x3e2fb72f	0.17159723
99	0xbdac2b98	-0.08406752
100	0xbdb293f0	-0.08719623
101	0xbdd22338	-0.10260624
102	0xbe517cc4	-0.2045775
103	0xbded9226	-0.11600141
104	0x3e29507f	0.16534613
105	0x3da52652	0.0806395
106	0x3c10535f	0.00880894
107	0xbc310a3f	-0.0108056655
108	0x3dc03a3a	0.09386106
109	0xbd405cb7	-0.04696342
110	0xbe169e8c	-0.14708918
111	0xbb339cf2	-0.002740678
112	0x3d96f53b	0.07370993
113	0xbe05c6d1	-0.13064124
114	0xbe5988c9	-0.21243586
115	0xbde6d32c	-0.112707466
116	0x3d8945f8	0.067027986
117	0xbd92f71f	-0.07176041
118	0xbde6cdea	-0.11269744
119	0xbd8a00ec	-0.06738457
120	0xbdbc858e	-0.09205161
121	0x3d3510a7	0.044205334
122	0x3dd80722	0.105482355
123	0xbd511bf2	-0.05105204
124	0xbe29eb60	-0.16593695
125	0xbd7afcaa	-0.061276115
126	0xbe1c3679	-0.15255155
127	0xbe34be55	-0.17650731

hidden_layers.1.weight f4 [128, 128]
0	0xbce152d7	-0.027505321
1	0xbdc9aee3	-0.0984781
2	0x3b04bcad	0.002025406
3	0xbcd31faa	-0.025771935
4	0x3c5083f4	0.012726773
5	0x3db42384	0.087958366
6	0x3c6f69ce	0.014612628
7	0xbd8d9e06	-0.06914906
8	0xbda4f074	-0.08053675
9	0xb86e9058	-5.6878052e-05
10	0xbe0a2fb3	-0.13494758
11	0x3c9adad5	0.018903175
12	0xbdcc3b7c	-0.09972283
13	0xbd47621c	-0.04867755
14	0xbd4134f2	-0.047169633
15	0x3cc684de	0.024233278
16	0x3d0667e6	0.03281393
17	0xbd9cb8ab	-0.0765241
18	0xbdf3e993	-0.11909785
19	0x3e08ff2c	0.1337859
20	0xbcb2656b	-0.021776875
21	0xbca9c812	-0.020725284
22	0x3bc62a21	0.0060475026
23	0x3d808647	0.06275611
24	0xbcf7d25d	-0.030251676
25	0xbd45c15c	-0.048280105
26	0x3d609bab	0.054835957
27	0x3cca9422	0.024728838
28	0x3d775542	0.060384043
29	0xbcac2a2c	-0.021016203
30	0xba65bb45	-0.0008763562
31	0xbd543a8d	-0.05181365
32	0xbd35271b	-0.044226747
33	0x3d9e3148	0.077242434
34	0xbbcabf28	-0.0061873384
35	0x3daaeb76	0.08345692
36	0xbd035fdd	-0.032073844
37	0xbd0fa842	-0.035072573
38	0xbda1e00b	-0.07904061
39	0xbd7f1545	-0.062276144
40	0xbd0aee1b	-0.03391848
41	0x3d062598	0.032750696
42	0x3d76f081	0.060287956
43	0xbda0b632	-0.07847251
44	0x3d55904e	0.052139573
45	0x3d07095b	0.032967906
46	0x3e027089	0.12738241
47	0xbd2bbf5b	-0.041930538
48	0x3cca6c2b	0.024709782
49	0x3d3ba787	0.045814063
50	0x3db3b6b7	0.087750845
51	0x3cde92a9	0.027169542
52	0xbad15d12	-0.0015973172
53	0x3cbe666a	0.023242194
54	0xbcffa84f	-0.031208185
55	0x3c138bb6	0.009005478
56	0xbbe52ab8	-0.006993618
57	0x3c3be8b4	0.011469055
58	0x3da97604	0.08274463
59	0x3d0de538	0.03464243
60	0x3e0bdbad	0.13658018
61	0xbbe7770f	-0.0070637534
62	0x3cccda22	0.025006358
63	0xbd949fd5	-0.07257048
64	0x3d275e0e	0.040861182
65	0x3dfce148	0.123476565
66	0xbc7ea1f0	-0.015541539
67	0x3c149aeb	0.009070138
68	0xbde28f4a	-0.110624865
69	0x3cb54916	0.022129577
70	0x3d1580d3	0.03649981
71	0x3c3a4ea9	0.011371293
72	0xbd409bdf	-0.04702365
73	0x3e392242	0.18079475
74	0x3dedab5c	0.1160495
75	0x3cec1280	0.028817415
76	0xbd4251e2	-0.04744137
77	0x3d91b69c	0.07114908
78	0x3c79681e	0.015222577
79	0x3c619e31	0.013770626
80	0x3d25426e	0.040346555
81	0x3d5606a9	0.052252445
82	0xbd42cc13	-0.0475579
83	0xbd027a70	-0.031855047
84	0x3c49e1fb	0.012321944
85	0x3c99081e	0.018680628
86	0xbd72bac6	-0.059260152
87	0xbd828f3d	-0.06374977
88	0x3ce3d1f7	0.02781008
89	0x3c8b1551	0.016977938
90	0x3da3a0e0	0.07989669
91	0x3d7b59bd	0.061364878
92	0x3da92c99	0.082604595
93	0xbc61fd87	-0.013793356
94	0x3c84d732	0.016215894
95	0xbcc79fc0	-0.024368167
96	0x3d88ddc5	0.06682924
97	0xbc999ab6	-0.01875053
98	0xbe083d3f	-0.13304614
99	0xbd2bd819	-0.041954134
100	0xbda3a80a	-0.07991035
101	0xbd87349b	-0.066018306
102	0xbba8a21b	-0.0051462776
103	0x3cbc9284	0.023019083
104	0x3c79a4aa	0.015237013
105	0xbc375de8	-0.011191823
106	0x3dcf4dfe	0.10122298
107	0x3d5490f7	0.05189606
108	0xbdd98630	-0.10621297
109	0x3d95fc3f	0.07323503
110	0xbd9ff011	-0.07809461
111	0x3d1a3e07	0.03765681
112	0xbccd76cf	-0.025081066
113	0xbd583760	-0.052787185
114	0x3d733adf	0.059382316
115	0x3c2f818b	0.010712038
116	0xbc48a6a0	-0.012246758
117	0x3d4cb491	0.04997689
118	0xbbf1d3e4	-0.0073799957
119	0x3d179bb2	0.037013717
120	0x3d233fe6	0.03985586
121	0xbdf88f6e	-0.12136732
122	0xbce584fb	-0.028017512
123	0xbb9213ea	-0.0044579403
124	0xbdc5ae5e	-0.096523985
125	0xbdb9cc6c	-0.090721935
126	0x3a1ecd84	0.0006057846
127	0x3e0b8ad5	0.13627179
128	0xbd83ddbd	-0.064387776
129	0x3dab3845	0.08360342
130	0xbe4e8345	-0.20167263
131	0x3d330ca6	0.043713234
132	0xbdc047fb	-0.09388729
133	0x3d414be3	0.04719151
134	0xbd3ace01	-0.045606617
135	0xbe3f41f8	-0.18677509
136	0xbd107072	-0.035263486
137	0xbc5f4fec	-0.013629895
138	0x3d5c82e1	0.053835753
139	0xbd9ea4a7	-0.07746249
140	0x3d6c4365	0.05768146
141	0x3cae21e8	0.021256402
142	0xbda2e522	-0.0795386
143	0xbd1f1126	-0.038834713
144	0x3db3c735	0.0877823
145	0x3ca3ed4f	0.020010618
146	0xbddb9d72	-0.1072339
147	0x3d97c4b9	0.07410569
148	0xbdfca189	-0.12335498
149	0xbd2c9a5a	-0.04213939
150	0xbc45e893	-0.012079376
151	0xbd842c28	-0.06453735
152	0x3cce3f0f	0.025176553
153	0xbe65c1cd	-0.2243721
154	0xbe14756d	-0.1449792
155	0xbe0ccafa	-0.13749304
156	0x3db2b761	0.08726383
157	0x3e12e95b	0.1434683
158	0xbdf9aa66	-0.12190704
159	0xbd5f88a5	-0.054573674
160	0x3d9a4d80	0.07534313
161	0xbd3345ce	-0.043767743
162	0xbd8d55be	-0.0690112
163	0xbcf44c3e	-0.029821511
164	0xbd2906f9	-0.041266415
165	0xbde9b740	-0.11411905
166	0xbc152204	-0.009102348
167	0xbcbd475e	-0.02310532
168	0xbca2c5a7	-0.019869639
169	0x3d56b3ca	0.052417554
170	0xbcf0adc5	-0.029379735
171	0xbd5df63e	-0.054189913
172	0xbcaf90cd	-0.021431351
173	0xbdf25f0f	-0.11834537
174	0x3d4cf586	0.050038837
175	0xbd073187	-0.033006217
176	0x3e3b6a77	0.18302332
177	0x3caa6881	0.020801784
178	0xbdc28f24	-0.09499958
179	0xbd521aab	-0.051294964
180	0x3d384498	0.04498729
181	0x3d2ae3c7	0.04172113
182	0x3e4718a7	0.19442998
183	0xbd2ef0bc	-0.04271005
184	0xbd3226a4	-0.04349388
185	0xbd768638	-0.060186595
186	0xbd3a6c43	-0.045513403
187	0x3d83ec5c	0.06441566
188	0x3d3cf9c2	0.046136625
189	0xbd998810	-0.07496655
190	0x3d8ab1f1	0.06772221
191	0xbd3bd1ff	-0.045854565
192	0x3e1bc9ab	0.15213649
193	0x3d8d65aa	0.069041565
194	0xbdf8e166	-0.12152366
195	0xbbe37c1d	-0.0069422857
196	0x3e474397	0.19459377
197	0xbd097cd0	-0.033566296
198	0xbd47a036	-0.048736773
199	0xbdf96a2c	-0.12178454
200	0xbc3f611f	-0.01168087
201	0x3b61ae01	0.003443599
202	0x3d1e7e3a	0.038694598
203	0x3df02235	0.117252745
204	0xbdb99185	-0.09060959
205	0x3d493548	0.04912308
206	0x3bf28614	0.0074012373
207	0xbcfa7d97	-0.030577464
208	0xbd3674aa	-0.044544853
209	0x3d7d4762	0.061835654
210	0xbcd647b9	-0.026157247
211	0x3d055e26	0.03256049
212	0xbcd1e660	-0.025622547
213	0x3d587c8d	0.052853156
214	0xb98dd9d8	-0.00027055922
215	0xbdef50be	-0.11685322
216	0x3d972441	0.07379962
217	0xbae67f55	-0.0017585555
218	0xbd8996c9	-0.06718213
219	0xbc83da79	-0.016095387
220	0x3ddaac6d	0.10677419
221	0x3da8edd6	0.082484886
222	0xbd310ef2	-0.043227144
223	0x3a0fc882	0.0005484895
224	0xbc998826	-0.018741678
225	0xbd7730ac	-0.06034915
226	0xbdd51285	-0.10403923
227	0x3de66547	0.11249786
228	0x3d93cb3e	0.072165
229	0xbdfad58b	-0.12247761
230	0xbd0546af	-0.032538112
231	0x3d11859d	0.035527814
232	0x3d6b296c	0.05741255
233	0x3d5d0c1c	0.053966627
234	0x3e082f99	0.13299407
235	0x3bd8ebe0	0.0066199154
236	0xbbf7c576	-0.007561381
237	0x3d657256	0.056017242
238	0x3c815ede	0.015792307
239	0xbb1419c3	-0.0022598363
240	0x3ce9deaf	0.028548567
241	0x3d19fca8	0.037594467
242	0x3d5b07a6	0.05347409
243	0x3ce1952b	0.02753695
244	0xbd678c1f	-0.056530114
245	0x3b3c2c6d	0.0028713003
246	0x3b9cc270	0.004783921
247	0xbdcbbd34	-0.09948197
248	0x3dd4c66d	0.10389409
249	0xbd4fe901	-0.05075932
250	0x3b0db499	0.0021622537
251	0x3d1913e8	0.0373725
252	0xbd513817	-0.051078882
253	0x3d963e86	0.07336144
254	0x3db3bb4c	0.087759584
255	0x3c39f691	0.01135029

hidden_layers.1.bias f4 [128]
0	0xbc4b74fc	-0.012418028
1	0xbd447be4	-0.047969714
2	0xbd6d8ebc	-0.05799745
3	0x3c965fd3	0.01835624
4	0xbb1a2e81	-0.0023526254
5	0x3d7fb09d	0.06242429
6	0x3d850cd7	0.0649659
7	0xbd08268a	-0.03323988
8	0x3d44f325	0.048083443
9	0xbdcbdf07	-0.099546485
10	0x3d3c4004	0.045959488
11	0x3d045a07	0.03231242
12	0x3d82c841	0.06385852
13	0xbc3bc731	-0.011461065
14	0x3b176949	0.0023103526
15	0xbd4474ac	-0.04796283
16	0xbcb50ff9	-0.022102343
17	0x3d60c503	0.054875385
18	0xbd552235	-0.052034575
19	0xbdc520c3	-0.096253894
20	0x3d08be8f	0.033384856
21	0x3d15c15c	0.036561355
22	0x39c21460	0.00037017744
23	0x3d3f01e5	0.046632666
24	0xbd8dd752	-0.06925835
25	0x3d5a6d21	0.05332673
26	0xbdb6b184	-0.08920577
27	0xbd81775f	-0.06321596
28	0x3c87e981	0.016590836
29	0x3d15852f	0.036503967
30	0x3dbe3430	0.09287298
31	0xbd2e5b17	-0.04256734
32	0x3defef4a	0.11715563
33	0x3c49486c	0.012285333
34	0x3c94399a	0.018093873
35	0xbd579580	-0.05263281
36	0x3dbec942	0.09315731
37	0xbb7482d0	-0.0037309416
38	0x3d51d574	0.051228955
39	0xbc615a21	-0.013754399
40	0xbc79f291	-0.015255586
41	0x3dd348de	0.10316633
42	0x3d286510	0.041112006
43	0xbd93668d	-0.071972944
44	0x3a73b497	0.00092966243
45	0xbccfa018	-0.025344893
46	0x3d8e4665	0.069470204
47	0x3bec18a0	0.007205084
48	0xbd82d8ad	-0.06388984
49	0xbd65be15	-0.05608948
50	0xbced5dc1	-0.02897537
51	0x3c032d31	0.00800638
52	0xbcaa713c	-0.020805947
53	0x3d80b161	0.06283832
54	0x3daccb24	0.084371835
55	0x3cbf388b	0.023342391
56	0x3d26f63e	0.04076218
57	0x3bee874e	0.007279313
58	0xbdaa5e8c	-0.08318815
59	0x3bb82320	0.0056194216
60	0x3d0c974f	0.034323987
61	0xbc3a8410	-0.011384025
62	0xbd3d6ed4	-0.046248272
63	0xbd1be1ee	-0.03805726
64	0xbcc72d5f	-0.024313627
65	0xbd046b2d	-0.032328773
66	0x3d41cbc0	0.04731345
67	0xbdd6de35	-0.104916014
68	0x3d735c3a	0.059414126
69	0xbc521144	-0.012821499
70	0xbbb8fab7	-0.005645122
71	0xbc612f35	-0.013744165
72	0xbdb722ef	-0.0894221
73	0xbdd76fce	-0.10519372
74	0xbd4cbd49	-0.049985204
75	0x3c2f644f	0.010705068
76	0xbbfa11cb	-0.0076315156
77	0x3d4a4d24	0.049389973
78	0xbd3c7cf7	-0.046017613
79	0xbdb93b50	-0.09044516
80	0xbd9aaede	-0.075528845
81	0xbd9da4b4	-0.0769743
82	0xbaf0d7ac	-0.0018374822
83	0x3d4c8aad	0.04993694
84	0x3d01ed8d	0.031720687
85	0xbd732154	-0.059357956
86	0xbd94219e	-0.072329745
87	0xbd340238	-0.04394743
88	0xbc34d2a6	-0.011036551
89	0xbcf5540c	-0.029947303
90	0x3c94b1f2	0.018151257
91	0xbcf7b608	-0.030238166
92	0x3d2d8700	0.042365074
93	0xbd9ddfe8	-0.07708722
94	0x3cefff82	0.02929664
95	0xbdba5216	-0.09097688
96	0xbcf94c4c	-0.030431889
97	0xbd857be2	-0.065177694
98	0xbdcb62c7	-0.0993095
99	0xbdb25f26	-0.087095544
100	0xbd965f82	-0.073424354
101	0xbdadacb4	-0.08480206
102	0xbba6da22	-0.0050919214
103	0xbcf42cf4	-0.029806592
104	0xbd8494db	-0.064737044
105	0x3dbe4cfb	0.092920266
106	0xbcfdee1b	-0.030997327
107	0xba81a9d1	-0.0009892528
108	0xbca193d5	-0.019723812
109	0xbd5bf091	-0.05369622
110	0xbd17118d	-0.036881972
111	0xbdc20464	-0.09473494
112	0xbdbf94a3	-0.09354522
113	0xbd35bbd9	-0.0443686
114	0x3c7eadc9	0.015544363
115	0x3c4ecb5f	0.01262173
116	0xbc96797e	-0.018368479
117	0xbb687a50	-0.0035473295
118	0x3d4dd647	0.05025318
119	0xbb1f1af9	-0.0024277552
120	0xbd0e6f30	-0.034774005
121	0xbc7ca35d	-0.015419808
122	0x3d1411d7	0.036149826
123	0xbd7434c6	-0.05962064
124	0x3ce8befd	0.028411383
125	0xbcdafde4	-0.026732393
126	0xbd90134a	-0.07034929
127	0xbd87e3a6	-0.06635217

output.weight f4 [4, 128]
0	0xbd539955	-0.0516599
1	0xbb9b6e84	-0.004743399
2	0x3d28cbaa	0.041209854
3	0x3c0aab43	0.008463684
4	0x3d07587c	0.03304337
5	0x3d9b9d6a	0.07598384
6	0x3b4cfb22	0.0031277617
7	0x3b8e8d4b	0.0043503395
8	0xbac66f2d	-0.0015139334
9	0x3d04a0a6	0.03237977
10	0x3d337d3c	0.043820605
11	0xbc82a6c3	-0.015948659
12	0x3c1e2f92	0.009654896
13	0x3b84dc07	0.0040545496
14	0xbe1bc7c6	-0.15212926
15	0xba95d62d	-0.0011431627
16	0x3d8d6268	0.06903535
17	0x3cc7de4e	0.024397995
18	0xbd6c5176	-0.057694875
19	0xbc3e16af	-0.011602088
20	0x3d3dd8ca	0.046349324
21	0x3d6b77d6	0.05748733
22	0x3d9ef917	0.07762354
23	0x3d4dc47b	0.050236207
24	0x3d60d4e3	0.054890525
25	0x3d1121d3	0.035432648
26	0xbcd241fa	-0.025666226
27	0xbe1ba421	-0.15199329
28	0xbc0bebc1	-0.008540095
29	0x3e07639c	0.13221592
30	0x3b6d174f	0.0036177223
31	0xbc32a88f	-0.010904445
32	0x3d8f1458	0.06986302
33	0x3d5db285	0.054125328
34	0x3d72bf73	0.05926461
35	0x3cb271b3	0.021782732
36	0xbc0390a5	-0.008030091
37	0xbd0d5e54	-0.034513786
38	0x3b4523d7	0.0030081177
39	0xb933b9c3	-0.00017139972
40	0x3d816b5c	0.06319305
41	0x3db5a90b	0.08870133
42	0xbd4ff9ac	-0.050775215
43	0x3c4feeba	0.012691194
44	0xbdb2a107	-0.0872212
45	0xbe16255a	-0.14662686
46	0x3c2302aa	0.009949366
47	0x3d64cf8d	0.055862
48	0xbe051ea6	-0.12999973
49	0xbd8fa0c7	-0.07013088
50	0xbda26a2a	-0.079304054
51	0xbd3aee31	-0.045637313
52	0x3e0a9f86	0.13537416
53	0xbd01f8a5	-0.031731267
54	0x3d722e89	0.05912641
55	0x3e042277	0.12903772
56	0xbcdbddfb	-0.026839247
57	0x3d1deda9	0.03855673
58	0x3d04b0fe	0.032395355
59	0x3d9d2a59	0.07674093
60	0xbd2fec17	-0.042949762
61	0xbcb7f2ba	-0.022454608
62	0x3dc84e7e	0.09780596
63	0x3cd11a7e	0.025525328
64	0xbd63bdcb	-0.055600923
65	0xbd1b3459	-0.03789172
66	0x3d84af6c	0.064787716
67	0x3cb75e7c	0.02238392
68	0xbcd23dff	-0.025664328
69	0x3d1d30cf	0.038376626
70	0x3cac6d7e	0.021048304
71	0xbc145951	-0.009054498
72	0xbdc0d766	-0.09416084
73	0xbdc48d13	-0.0959722
74	0xbb8061ac	-0.0039178934
75	0x3d5db5ea	0.054128565
76	0xbd21c688	-0.039495975
77	0xbc9b9d73	-0.018995976
78	0xba9427c4	-0.0011303355
79	0xbbc2c1a8	-0.005943496
80	0xbac636ec	-0.0015122569
81	0x3d2bd342	0.041949518
82	0xbc3d5ee6	-0.01155827
83	0x3da05e83	0.07830527
84	0xbcf24ec4	-0.029578574
85	0xbd4fa448	-0.05069378
86	0xbc951648	-0.018199101
87	0xbd38e57a	-0.04514072
88	0x3dd2a786	0.10285859
89	0xbd487387	-0.0489383
90	0xbcf9df99	-0.030502127
91	0x3a991f1e	0.0011682247
92	0xbd9efce0	-0.07763076
93	0xbcd2b455	-0.025720755
94	0xbb230864	-0.0024876827
95	0xbd2f0659	-0.042730663
96	0x3d09b8ec	0.03362362
97	0xbca94f29	-0.02066763
98	0x3ce57c05	0.028013239
99	0x3d4feed6	0.05076488
100	0xbd4e47cd	-0.050361443
101	0xbdb4c2dc	-0.08826229
102	0x3bd0d722	0.006373302
103	0xbdc47b77	-0.095938616
104	0xbc37517c	-0.011188861
105	0x3dd6dcad	0.10491309
106	0xbd501738	-0.050803393
107	0x3c3e432c	0.011612695
108	0x3d51d2f8	0.051226586
109	0xbd1bf105	-0.03807165
110	0x3cfc0fd4	0.030769266
111	0x3c7b1cc6	0.015326684
112	0xbc9a620d	-0.018845582
113	0xbbd6a7b8	-0.0065507554
114	0x3db9a71a	0.09065075
115	0xbd530e22	-0.05152715
116	0xbab6176b	-0.0013892477
117	0xbd1eeced	-0.03880017
118	0x3d02fe71	0.031980935
119	0x3d8eda30	0.0697521
120	0x3998ab7d	0.00029119468
121	0xbc2d5a60	-0.010580629
122	0xbc431412	-0.011906641
123	0xbc571b8d	-0.013129127
124	0xbccb9e6f	-0.02485582
125	0x3d9a3f53	0.075316094
126	0x3dcb841b	0.099373065
127	0xbd3db6f4	-0.046317056
128	0x3d63bd64	0.05560054
129	0x3d38f70e	0.045157485
130	0x3d4fe5bb	0.050756197
131	0x3bf99b85	0.0076174163
132	0xbd4b23b8	-0.04959461
133	0x3c59884e	0.0132771265
134	0xbc9c8981	-0.019108536
135	0xbc88f664	-0.01671905
136	0xbca06992	-0.01958159
137	0xb9cd79da	-0.00039191433
138	0xba4e5336	-0.0007870676
139	0xbd1c70d3	-0.038193535
140	0x3c852075	0.016250828
141	0xbd79f5fc	-0.061025605
142	0xbae259f0	-0.0017269235
143	0x3d9cecb5	0.07662336
144	0x3d1bb47b	0.038013916
145	0xbc49d26a	-0.012318233
146	0xbcd1134b	-0.025521895
147	0xbccdc89b	-0.02512007
148	0xbd13560c	-0.035970733
149	0x3cb3afb7	0.021934373
150	0xbc22a321	-0.009926588
151	0xbdaf2d16	-0.08553521
152	0x3d076a7a	0.03306053
153	0xbaf38ffe	-0.0018582342
154	0xbb2c02b0	-0.002624672
155	0x3caaa6de	0.020831522
156	0xb89e8449	-7.558667e-05
157	0xbc921494	-0.017832078
158	0xbb9cb200	-0.0047819614
159	0x3d8b6b66	0.06807594
160	0x3b6e622c	0.0036374433
161	0x3d34e9e4	0.044168368
162	0x3babafb7	0.0052394527
163	0xba8c8120	-0.0010719635
164	0xbccbc874	-0.024875857
165	0x3c162c4f	0.009165837
166	0x3cac5b81	0.021039726
167	0x3c46318f	0.012096777
168	0x3d2b673e	0.041846506
169	0x3d8fbc45	0.070183314
170	0xbc8d3952	-0.017239247
171	0x3d0d244b	0.03445844
172	0xbd262317	-0.040560808
173	0xbd3ba8b6	-0.045815192
174	0xbd741077	-0.059586015
175	0x3d83ef44	0.06442121
176	0xbd44f9fd	-0.04808997
177	0x3cefb237	0.029259784
178	0x3dd09100	0.101839066
179	0x3d2155f0	0.039388597
180	0x3dfe3fe5	0.12414531
181	0x3b9f94a0	0.0048700124
182	0x3ce21f19	0.02760272
183	0x3db231f8	0.08700937
184	0xba63cecb	-0.00086901773
185	0xbca4d7da	-0.020122457
186	0x3d8bf20b	0.068332754
187	0xbcd50fa6	-0.026008438
188	0x3d9eb8d2	0.077500954
189	0xbc8566cc	-0.016284369
190	0x3d228a02	0.039682396
191	0xbcb1d69e	-0.021708783
192	0xbd85306c	-0.06503376
193	0xbd2fec3c	-0.0429499
194	0x3d85a36c	0.06525311
195	0xbbf82d6a	-0.007573773
196	0xbcc18b97	-0.023626132
197	0xbb48d006	-0.003064157
198	0x3d04ee02	0.032453544
199	0xbbc0e5c4	-0.005886765
200	0xbd686a1f	-0.05674183
201	0xbd8ee846	-0.069778964
202	0xbbc88084	-0.006118836
203	0x3d6763e5	0.05649175
204	0x3cad339e	0.021142777
205	0x3bf9aa6e	0.0076191938
206	0x3be1f8d9	0.00689612
207	0x3905bb5a	0.00012753662
208	0xbcb28f74	-0.02179692
209	0x3d8be7c9	0.06831319
210	0x3d312665	0.043249507
211	0x3c79debd	0.015250859
212	0xbd007cd5	-0.03136905
213	0xbbd8bbf5	-0.006614203
214	0xbbb79467	-0.0056024077
215	0xbcaac22c	-0.020844541
216	0xbd15cc4c	-0.036571786
217	0x3c0e7060	0.0086937845
218	0x3a76a2fe	0.0009408443
219	0x3be55766	0.006998944
220	0x3d7be395	0.061496336
221	0xbd67fbfc	-0.056636795
222	0x3c23ace1	0.009989948
223	0x3c2c2843	0.010507646
224	0x3c7554ee	0.014973862
225	0x3ca87ea2	0.020568196
226	0xbd0c1a03	-0.034204494
227	0x3c22e514	0.009942312
228	0xbcec23ce	-0.028825667
229	0xbc5511ee	-0.013004763
230	0xbd187b6e	-0.037227087
231	0xbd610cab	-0.05494372
232	0x3d7e11ab	0.06202857
233	0x3d17e8bd	0.03708719
234	0xbd07d6ff	-0.03316402
235	0xbd501151	-0.050797764
236	0xb953a0a5	-0.00020182373
237	0xbd028dae	-0.031873398
238	0xbd4a2496	-0.049351297
239	0xbb3363db	-0.002737275
240	0x3b41ed45	0.0029590887
241	0xba76d099	-0.0009415239
242	0x3daa1d20	0.083063364
243	0x3c0ee759	0.00872215
244	0xbc811842	-0.015758637
245	0x3ce6f6a0	0.028193772
246	0xbc97b8a0	-0.018520653
247	0x3dbea5f4	0.09308997
248	0xba1f72b7	-0.00060824625
249	0x3bc3ad4b	0.005971586
250	0xbc54b792	-0.01298322
251	0xbd148b75	-0.03626581
252	0x3cd9ac56	0.026571434
253	0x3b8cfc71	0.0043025543
254	0x3d5a7e9f	0.05334341
255	0x3d33d3c9	0.043903146

output.bias f4 [4]
0	0x3d7fd56c	0.062459394
1	0x3d83faf2	0.064443484
2	0x3d0ae989	0.033914123
3	0x3a44fbf5	0.0007514351
