checkpoints/state_size_37__action_size_4__hidden_layers_[64-64]__drop_p_0.0__seed_0__GAMMA_0.99__LR_0.0005__UPDATE_EVERY_50__BUFFER_SIZE_10000__BATCH_SIZE_64__TAU_0.001.pth (torch, 29527 bytes, 6 tensors)

hidden_layers.0.weight f4 [64, 37]
0.1758928 -0.11374397 -0.19745444 0.04193433 -0.2704966 -0.22242858 -0.07707489 -0.0070424834
0.0102783255 -0.0845684 -0.096121766 -0.011738649 -0.15526643 0.18345529 -0.15251896 0.10768573
-0.2843688 -0.081882924 -0.13366576 -0.18654223 -0.14727731 -0.04039159 -0.19521457 -0.10254455
0.06814696 -0.267857 0.17419331 -0.1327873 -0.054928366 0.006561808 -0.03153059 0.12333173
-0.0692104 0.055444233 0.10569422 0.116796516 -0.013305968 0.05494096 -0.0640219 -0.09499504
-0.20159212 -0.2202045 0.032918368 0.007164134 0.0021106033 -0.009090449 0.12786163 -0.002507809
-0.0785828 -0.0021317196 0.08117818 0.13845284 0.08991102 -0.054214604 -0.28832465 -0.1421524
-0.6486393 0.1283359 0.13974723 0.09736312 -0.02674641 -0.1132957 0.0844136 -0.0029281771
0.20034577 0.115324296 -0.23784901 0.071430616 0.022689803 0.027667703 0.02713096 -0.11369969
0.26917163 -0.02515154 0.045632306 -0.034505226 -0.016649446 0.094799295 -0.14725906 0.061656334
0.01326892 0.22597477 0.055663604 0.33589604 -0.062506236 -0.077440456 -0.012435314 -0.11647657
-0.082817644 0.045484923 -0.14686207 -0.023275042 -0.14193977 -0.061857812 0.12035265 0.10031294
0.008459914 -0.09418757 0.0063420255 -0.002217662 -0.07097592 0.00896908 -0.07542038 -0.102099314
0.11823187 0.033855777 -0.24514976 -0.25485674 -0.43378368 -0.025919149 0.04279424 0.103468716
0.052491114 -0.0020976784 0.120991446 -0.083526306 0.3201029 -0.5892477 -0.22095606 -0.21176434
-1.294925 0.07604991 -0.08414768 -0.042396564 -0.0746073 -0.06171023 -0.013471062 0.024086064
-0.035523456 0.023586556 -0.06415372 0.0633492 0.0727025 0.03747606 -0.12759176 -0.103424996
0.1807567 0.14616926 0.04373058 0.020919334 0.07756727 0.16476384 0.060616244 -0.16413353
-0.16104135 -0.40481207 -0.025812468 0.022212137 0.040330097 0.010644224 -0.049908124 -0.13313164
-0.110753335 0.051355883 0.07130049 0.09700515 0.14807074 0.11776501 0.06507503 -0.06923111
-0.12345615 -0.17101143 -0.22131439 0.039970864 0.0299023 -0.07965982 0.047150496 -0.15407062
0.2246111 -0.26838306 -0.043212786 -0.24381256 -0.58192384 -0.10758499 -0.026246335 -0.07954824
-0.16170014 0.078422226 -0.05475265 0.15575996 0.119107686 0.11548169 -0.03055333 0.07827507
0.030386798 0.08172515 -0.24436785 0.046759084 0.010744289 0.05422261 0.15051769 0.13925238
-0.008352202 0.057918966 -0.052447032 -0.040750794 0.025127156 0.0519362 0.023270002 -0.05593468
0.051745005 -0.0629356 -0.10555342 -0.09390047 -0.106204815 0.00944954 -0.11783829 -0.119040765
-0.04866777 0.023710892 0.01581138 0.14513257 -0.14928201 -0.020962246 -0.033117436 -0.07963619
0.0738664 -0.086620234 -0.06798016 -0.02545615 -0.25575948 -0.026175413 0.051313583 0.042429186
-0.007629781 -0.17537569 -0.14765023 -0.26900992 0.047349166 0.10155411 0.05355667 -0.029156744
-0.07352394 -0.053195667 0.0027422013 -0.20715296 -0.19445409 -0.1448667 -0.02436529 -0.09730145
-0.0054204734 -0.10399699 -0.12127074 0.023324875 0.1676812 -0.05070897 -0.14380962 -0.16382599
-0.21699923 -0.016308397 -0.22537461 -0.3626747 0.0083399955 -0.0824709 0.14889885 -0.18063198
00000000: 3e1d 343e 99f2 e8bd 7f31 4abe 55c3 2b3d
00000010: 887e 8abe 51c4 63be 71d9 9dbd a2c4 e6bb
00000020: 6c66 283c 3332 adbd 7ddb c4bd 7653 40bc
00000030: 2afe 1ebe b4db 3b3e ee2d 1cbe 568a dc3d
00000040: ca98 91be 3cb2 a7bd addf 08be ed04 3fbe
00000050: ddcf 16be a771 25bd 54e6 47be e102 d2bd
00000060: a290 8b3d 8d24 89be bb5f 323e 65f9 07be
00000070: 91fc 60bd 6f04 d73b 3826 01bd 5995 fc3d
00000080: 2fbe 8dbd 7e19 633d 3676 d83d 0333 ef3d
00000090: 4601 5abc c609 613d ea1d 83bd c28c c2bd
000000a0: 2a6e 4ebe 4a7d 61be 69d5 063d 1dc1 ea3b
000000b0: 0c52 0a3b 1bf0 14bc 29ee 023e 0e5a 24bb
000000c0: 05f0 a0bd 52b4 0bbb bf40 a63d 95c6 0d3e
000000d0: 4523 b83d 2210 5ebd 4a9f 93be 6690 11be
000000e0: 3a0d 26bf 7c6a 033e e619 0f3e 5166 c73d
000000f0: 4a1b dbbc 9307 e8bd 0ae1 ac3d a9e6 3fbb
00000100: 7127 4d3e 252f ec3d b18e 73be 374a 923d
00000110: f7df b93c 61a7 e23c bf41 de3c 62db e8bd
00000120: ddd0 893e 9a0a cebc f1e8 3a3d 5a55 0dbd
00000130: 6b64 88bc 2226 c23d 14cb 16be 5a8b 7c3d
00000140: e265 593c ee65 673e 85ff 633d 91fa ab3e
00000150: 4503 80bd 1a99 9ebd 7dbd 4bbc 458b eebd
00000160: 4c9c a9bd 664e 3a3d 0363 16be 4dab bebc
00000170: a958 11be 9e5e 7dbd 737b f63d df70 cd3d
00000180: 739b 0a3c 6ae5 c0bd c4d0 cf3b 3256 11bb
00000190: d35b 91bd 0cf3 123c 0076 9abd 7219 d1bd
000001a0: 8d23 f23d 5bac 0a3d 8a08 7bbe 957c 82be
000001b0: e518 debe 6554 d4bc 0349 2f3d 68e7 d33d
000001c0: ec00 573d 3479 09bb 5dca f73d d70f abbd
000001d0: 87e4 a33e f0d8 16bf 4e42 62be c0d8 58be
000001e0: 1ac0 a5bf 0ec0 9b3d 9e55 acbd 05a8 2dbd
000001f0: b6cb 98bd dec3 7cbd bbb5 5cbc 2350 c53c
00000200: 0b81 11bd 9838 c13c 0763 83bd 3abd 813d
00000210: 0ce5 943d 7f80 193d 6aa7 02be 7cd0 d3bd
00000220: 4918 393e 65ad 153e d61e 333d 065f ab3c
00000230: 97db 9e3d dab7 283e bd48 783d 9f12 28be
00000240: 06e8 24be 8743 cfbe ab74 d3bc 3af6 b53c
00000250: 2c31 253d 1c65 2e3c 766c 4cbd a953 08be
00000260: a5d2 e2bd 8c5a 523d fe05 923d a3aa c63d
00000270: db9f 173e c82e f13d 0f46 853d 0ac9 8dbd
00000280: 94d6 fcbd 9f1d 2fbe 3da0 62be 7db8 233d
00000290: abf5 f43c b024 a3bd e120 413d b0c4 1dbe
000002a0: 7400 663e 8169 89be e4ff 30bd 00aa 79be
000002b0: f6f8 14bf 8555 dcbd 8e02 d7bc 30ea a2bd
000002c0: b994 25be d59b a03d 5144 60bd 8a7f 1f3e
000002d0: bbee f33d aa81 ec3d fa4a fabc ae4e a03d
000002e0: bced f83c 845f a73d 913b 7abe 7486 3f3d
000002f0: d008 303c 8718 5e3d 4f21 1a3e 2d98 0e3e
00000300: add7 08bc 703c 6d3d b3d2 56bd 4eea 26bd
00000310: 77d7 cd3c 0ebb 543d bba0 be3c c31b 65bd
00000320: 92f2 533d 61e4 80bd 642c d8bd e44e c0bd
00000330: e981 d9bd 3ed2 1a3c 3455 f1bd a5cb f3bd
00000340: db57 47bd 583d c23c de86 813c a29d 143e
00000350: 62dd 18be 04b9 abbc 26a6 07bd 4c18 a3bd
00000360: 4447 973d f365 b1bd 2f39 8bbd 6a89 d0bc
00000370: e8f2 82be d26d d6bc 312e 523d 3aca 2d3d
00000380: 3e03 fabb af95 33be 9f31 17be abbb 89be
00000390: 33f1 413d 9afb cf3d 3d5e 5b3d 20da eebc
000003a0: b893 96bd b3e3 59bd 81b6 333b e81f 54be
000003b0: f91e 47be f057 14be b799 c7bc fc45 c7bd
000003c0: 3a9e b1bb 60fc d4bd cb5c f8bd cf13 bf3c
000003d0: 9fb4 2b3e 35b4 4fbd d442 13be 00c2 27be
000003e0: 0c35 5ebe 3099 85bc 9ac8 66be 80b0 b9be
000003f0: 7aa4 083c 81e6 a8bd f178 183e 97f7 38be

hidden_layers.0.bias f4 [64]
-0.0011649607 -0.09491743 -0.0022322251 0.112009406 -0.00969789 0.040576037 0.110478535 0.09747262
0.049891688 0.14915125 0.043792527 -0.15162198 -0.12413506 0.12578976 0.057653677 0.14435293
0.046037935 0.02510795 -0.19787084 -0.08168623 0.028174445 0.2135626 -0.08918422 -0.14389277
-0.20034035 0.08809983 0.113048516 -0.0589062 0.13743272 0.00015445746 0.1652461 0.14837787
-0.0039151534 0.16817896 0.062078223 -0.18927465 0.07611613 -0.12233093 -0.008803973 -0.1579481
-0.10477686 -0.117346495 0.011088202 0.12276218 0.17571598 0.102120854 -0.12382791 -0.087590285
0.12322622 0.06745306 -0.11949196 0.23128188 -0.06877967 3.5955192e-05 -0.10271792 0.15142426
-0.060359105 -0.07103229 0.054216616 0.07447717 -0.021514915 -0.05883467 0.018600425 0.114679284
00000000: 98b1 98ba 1264 c2bd 864a 12bb 3065 e53d
00000010: e6e3 1ebc 0f33 263d 9242 e23d ba9f c73d
00000020: 3a5b 4c3d 1bbb 183e cb5f 333d cb42 1bbe
00000030: 863a febd 08cf 003e 4326 6c3d 41d1 133e
00000040: 4692 3c3d 30af cd3c a79e 4abe 1c4b a7bd
00000050: 18ce e63c 27b0 5a3e 37a6 b6bd a058 13be
00000060: 0526 4dbe af6d b43d fb85 e73d a147 71bd
00000070: 2abb 0c3e dcf5 2139 4636 293e 5ef0 173e
00000080: b04a 80bb 1b37 2c3e bc45 7e3d 37d1 41be
00000090: c6e2 9b3d a388 fabd 8a3e 10bc 26bd 21be
000000a0: 4095 d6bd 5c53 f0bd 4aab 353c bd6a fb3d
000000b0: e4ee 333e bd24 d13d 7d99 fdbd 8962 b3bd
000000c0: 075e fc3d d424 8a3d 33b8 f4bd 28d5 6c3e
000000d0: 5bdc 8cbd 98ce 1638 c65d d2bd f60e 1b3e
000000e0: 1c3b 77bd 6179 91bd 3e12 5e3d 7d87 983d
000000f0: 0c40 b0bc 9ffc 70bd eb5f 983c f9dc ea3d

hidden_layers.1.weight f4 [64, 64]
0.047703817 0.012019704 0.20103185 -0.0472484 0.2358335 0.026682919 0.14168285 0.0326738
0.01315915 0.2780399 -0.08104597 -0.09421675 -0.039567955 -0.03673443 0.02711202 -0.13708186
-0.01299964 0.09738948 -0.23216279 -0.05364623 -0.072427765 0.11907293 0.06925171 -0.08559692
0.26932332 -0.022965835 -0.03649768 0.04701346 0.10587727 -0.11106502 -0.10389948 0.14735219
-0.04300799 -0.1274092 0.038159948 -0.11449748 0.08360803 0.060646445 0.15119153 0.13185392
0.050478805 -0.20207152 0.37775376 0.0072785253 -0.18795566 0.23322856 0.019098982 -0.074825674
-0.03793637 -0.063969806 -0.14019105 -0.14159302 0.050927226 0.03250764 -0.014240881 -0.0025958738
-0.14067647 0.088627085 0.07578307 0.19880056 0.11084671 -0.11936008 0.17502847 0.07720379
-0.105991974 0.0010578757 0.104696654 -0.024807088 -0.13316396 -0.1445376 0.017861648 -0.06709105
-0.038525637 0.048386943 0.030761754 -0.120246224 0.038885016 -0.06828904 -0.14596397 0.042236958
-0.11734988 0.08986355 -0.021021744 0.0687909 0.114832975 0.074225165 -0.10155431 -0.025135672
-0.054553997 0.037781246 0.07955064 -0.10008095 -0.054556005 0.011613993 -0.11690157 -0.09748916
-0.057688836 -0.11933879 0.02285558 -0.048302345 0.09573784 0.10283815 0.08751041 0.10136138
-0.13674946 -0.05315338 -0.09688847 -0.040240876 -0.09861416 -0.025173001 -0.024452664 0.07236367
-0.03970821 -0.08724936 0.05154285 0.10547053 -0.14469506 -0.037398145 0.109544665 -0.017393649
0.10350553 0.039321255 -0.12369474 -0.03788587 -0.04760507 -0.11036109 -0.0973013 0.08892373
0.10871289 0.1403142 0.18621118 -0.31450552 0.12959686 0.07282409 0.101255365 0.035021834
0.05366786 -0.028174553 0.036355052 -0.16164549 -0.009633237 -0.05510096 0.1951084 -0.2807379
0.23256202 0.12711196 0.033181816 0.14965226 -0.10647362 -0.21350637 -0.11764106 -0.030432906
-0.027108619 -0.03232006 0.11897784 -0.008263422 0.13346146 -0.18576822 -0.22040674 -0.17926718
0.04488919 -0.20269729 -0.10090996 -0.057392165 0.07674415 0.119221725 0.18268439 0.061027285
0.012866448 -0.21232963 0.060914416 0.083015665 0.0121952845 0.07474845 0.107942194 -0.09532299
-0.1727518 0.11223843 -0.11129724 -0.16382918 -0.27347398 0.06053683 -0.04955919 0.05538214
-0.13112567 -0.018482264 -0.14138097 -0.0068052537 -0.005167302 -0.038999315 0.3860375 -0.04150068
-0.13136458 0.11284729 -0.014310955 0.07357382 0.12880735 -0.04904137 -0.06029255 0.1274637
0.04610348 0.062344808 0.13358988 0.07840288 0.028921938 -0.046271447 -0.039235123 0.023726087
0.1488641 0.11026491 -0.04201763 -0.015519845 0.063958354 -0.10430835 -0.08887294 0.0020723476
0.23169293 -0.00055513484 -0.019147426 -0.012049831 0.03832999 0.020870423 0.0037846607 -0.12578796
0.029151756 -0.038388688 -0.080138415 -0.04880848 0.070355944 0.17768376 0.0574031 0.29508582
-0.019261474 0.04342614 0.30056554 0.060946964 -0.14034137 0.10183226 -0.1130684 -0.07641159
-0.07472819 0.00041819754 -0.021851271 -0.008988487 -0.011451219 0.057761647 -0.122884445 0.017920414
0.026113993 0.0662713 0.14160907 0.085489266 0.1912904 -0.007612875 0.030302234 0.03635799
00000000: 1465 433d 4bee 443c 4bdb 4d3e 8a87 41bd
00000010: 567e 713e 2396 da3c 4f15 113e f6d4 053d
00000020: 7a99 573c 3f5b 8e3e 6efb a5bd b6f4 c0bd
00000030: 0212 22bd d776 16bd 071a de3c 305f 0cbe
00000040: 71fc 54bc 2374 c73d 15bc 6dbe 26bc 5bbd
00000050: 0255 94bd 82dc f33d d7d3 8d3d 704d afbd
00000060: bfe4 893e d922 bcbc 977e 15bd 3091 403d
00000070: 2fd6 d83d 0f76 e3bd 40c9 d4bd 7ee3 163e
00000080: 2529 30bd 8f77 02be 9b4d 1c3d a87d eabd
00000090: b03a ab3d 6868 783d f4d1 1a3e b704 073e
000000a0: ddc2 4e3d d6eb 4ebe f168 c13e b280 ee3b
000000b0: 7377 40be 78d3 6e3e 7875 9c3c 343e 99bd
000000c0: 2b63 1bbd 9a02 83bd 3e8e 0fbe c3fd 10be
000000d0: 1199 503d bb26 053d 9652 69bc 891f 2abb
000000e0: 7e0d 10be 1e82 b53d 2734 9b3d 6092 4b3e
000000f0: 9a03 e33d 0f73 f4bd aa3a 333e 051d 9e3d
00000100: 5212 d9bd 6ba8 8a3a 336b d63d 3c38 cbbc
00000110: 225c 08be aa01 14be 9752 923c 0867 89bd
00000120: 0fcd 1dbd 6331 463d 1300 fc3c a743 f6bd
00000130: e545 1f3d 20db 8bbd 9477 15be a900 2d3d
00000140: 2255 f0bd 620a b83d cb35 acbc 3ee2 8c3d
00000150: 8d2d eb3d 5d03 983d b5fb cfbd 53e9 cdbc
00000160: 0374 5fbd 82c0 1a3d 72eb a23d 3ef7 ccbd
00000170: 1e76 5fbd 9e48 3e3c 176a efbd 66a8 c7bd
00000180: 214b 6cbd e567 f4bd a03b bb3c aed8 45bd
00000190: 3312 c43d cf9c d23d a838 b33d 8e96 cf3d
000001a0: 0d08 0cbe 5cb7 59bd 766d c6bd 9ed3 24bd
000001b0: 39f6 c9bd 9c37 cebc f450 c8bc 6733 943d
000001c0: 13a5 22bd cbaf b2bd 981e 533d ef00 d83d
000001d0: f12a 14be cc2e 19bd f458 e03d 207d 8ebc
000001e0: b5fa d33d 530f 213d ab53 fdbd 372e 1bbd
000001f0: 89fd 42bd ff04 e2bd e745 c7bd a51d b63d
00000200: dda4 de3d 87ae 0f3e 25ae 3e3e de06 a1be
00000210: 0ab5 043e cc24 953d f95e cf3d 0e73 0f3d
00000220: d4d2 5b3d 52ce e6bc 09e9 143d 6586 25be
00000230: b9d4 1dbc 8bb1 61bd 7fca 473e e1bc 8fbe
00000240: bd24 6e3e a329 023e a8e9 073d 713e 193e
00000250: d70e dabd 6aa1 5abe cced f0bd 6e4e f9bc
00000260: e512 debc 0a62 04bd a7aa f33d 4e63 07bc
00000270: 1faa 083e 063a 3ebe 4eb2 61be d191 37be
00000280: badd 373d e18f 4fbe e2a9 cebd 0c14 6bbd
00000290: 092c 9d3d 852a f43d 9e11 3b3e bff7 793d
000002a0: cbcd 523c f06c 59be 6581 793d 1e04 aa3d
000002b0: bbce 473c b715 993d cc10 dd3d b338 c3bd
000002c0: d9e5 30be 43dd e53d cfef e3bd d6c2 27be
000002d0: c804 8cbe 78f5 773d 94fe 4abd 62d8 623d
000002e0: cf45 06be 1e68 97bc 2cc6 10be 9bfe debb
000002f0: 7952 a9bb bfbd 1fbd b5a6 c53e 9efc 29bd
00000300: 7084 06be 7b1c e73d 7f78 6abc dfad 963d
00000310: 13e6 033e 9bdf 48bd 52f5 76bd d885 023e
00000320: 01d7 3c3d 455d 7f3d c9cb 083e b091 a03d
00000330: b3ed ec3c 2187 3dbd 02b5 20bd 365d c23c
00000340: d56f 183e 92d2 e13d ae1a 2cbd f346 7ebc
00000350: 99fc 823d 9e9f d5bd 0403 b6bd 39d0 073b
00000360: e940 6d3e 7886 11ba 10db 9cbc a86c 45bc
00000370: e8ff 1c3d 73f8 aa3c 1208 783b 8fce 00be
00000380: aacf ee3c 753d 1dbd 9c1f a4bd 67eb 47bd
00000390: c716 903d bbf2 353e 831f 6b3d 7d15 973e
000003a0: 3dca 9dbc 9cdf 313d bae3 993e 86a3 793d
000003b0: a6b5 0fbe 6f8d d03d 6890 e7bd ae7d 9cbd
000003c0: 180b 99bd 8641 db39 7001 b3bc 7244 13bc
000003d0: e59d 3bbc 7a97 6c3d d7aa fbbd d5cd 923c
000003e0: 03ed d53c 3fb9 873d f801 113e ff14 af3d
000003f0: a1e1 433e 6d75 f9bb 643c f83c 1eec 143d

hidden_layers.1.bias f4 [64]
-0.056593183 -0.13470171 0.118333675 0.074334785 -0.00742294 0.026215449 0.10558069 -0.13307351
0.01553009 0.16349272 -0.06910994 -0.049996365 -0.04840839 0.033569463 0.04649816 -0.034171887
-0.08010532 0.09288082 0.07194255 0.07744846 0.048319455 0.01737245 -0.01850006 -0.05385323
-0.12419039 -0.05208852 -0.0067874896 0.095718995 -0.10105817 -0.14406303 -0.030689474 -0.13746606
-0.012375249 0.08828325 -0.049876597 -0.004884923 0.0014732857 0.012690024 -0.08920516 -0.07509559
-0.085945666 -0.09447684 -0.15529521 -0.14966567 -0.12691547 0.0063195564 -0.10997176 0.022164827
0.035048887 0.12418278 -0.053023465 -0.08182734 0.016567986 0.14698924 -0.11239226 -0.08040448
0.08568246 -0.0006146698 0.025261499 0.00069817743 -0.05942694 -0.08903671 0.06693562 -0.037128624
00000000: 41ce 67bd 3fef 09be ed58 f23d d63c 983d
00000010: 223c f3bb c8c1 d63c b03a d83d 6c44 08be
00000020: eb71 7e3c a36a 273e 8389 8dbd fdc8 4cbd
00000030: e047 46bd 2280 093d db74 3e3d d2f7 0bbd
00000040: 420e a4bd 4d38 be3d 9e56 933d 4c9d 9e3d
00000050: 9fea 453d ab50 8e3c 708d 97bc 3495 5cbd
00000060: 8857 febd c65a 55bd 9769 debb 5208 c43d
00000070: 96f7 cebd 4285 13be 7e68 fbbc e7c3 0cbe
00000080: 8ec1 4abc d9cd b43d 674b 4cbd b411 a0bb
00000090: 441b c13a d2e9 4f3c 32b1 b6bd b7cb 99bd
000000a0: 4804 b0bd 137d c1bd b505 1fbe f541 19be
000000b0: 21f6 01be 4814 cf3b e038 e1bd 0393 b53c
000000c0: 6c8f 0f3d 8b53 fe3d 222f 59bd 1895 a7bd
000000d0: 96b9 873c 5984 163e ea2d e6bd 1bab a4bd
000000e0: 497a af3d cb21 21ba 34f1 ce3c e505 373a
000000f0: aa69 73bd e158 b6bd 8b15 893d 2f14 18bd

output.weight f4 [4, 64]
0.26772407 0.044099923 0.16108932 -0.021285072 0.003930577 0.061974946 -0.116848625 -0.116716415
-0.027662514 0.25238487 0.15547772 0.20710608 -0.05604539 0.21019225 0.055587754 0.016776329
0.13177983 0.21702671 -0.23914823 0.03052933 0.053504806 0.09797888 0.0014175945 -0.1477217
0.0882354 0.083321586 -0.31259724 -0.1158791 0.03003148 0.08923985 -0.10456671 -0.12164012
0.12095331 -0.0065581864 0.07429469 -0.04648244 0.097137816 0.13378073 0.013417437 0.014591778
0.009465264 0.07282599 -0.05570487 -0.028303567 0.062966764 -0.04383927 -0.050512798 0.16478114
-0.015913324 0.105615035 -0.07026466 -0.116660126 -0.07735597 0.08568792 -0.04067874 -0.06648126
0.05403498 -0.075248845 -0.047287792 0.06026529 -0.023118213 0.045468852 0.100698456 -0.09887609
0.07032786 -0.081493124 0.009976703 0.013721793 0.17656423 0.040638972 -0.025024455 0.058469597
0.022604445 0.14930826 -0.08265196 0.04671484 -0.031237612 0.10504164 0.018991902 -0.03980721
-0.02181276 0.08473313 -0.11618895 0.06348454 0.0059555424 0.053988837 0.06113924 0.040318374
-0.017188577 -0.033272777 -0.06191419 -0.06200562 0.060728364 0.02222292 0.03429223 0.050010737
0.099026054 -0.027080756 0.0704262 -0.027238915 0.14668371 0.06786838 -0.02256171 0.08201335
0.04008609 -0.040499438 -0.014693641 -0.09442517 0.117698535 0.009226251 -0.004814494 0.1120326
-0.077691354 0.18031012 -0.09679467 -0.122923486 0.11465324 0.096933916 0.04447526 0.029965336
0.05400792 0.056670114 0.014485084 0.013157304 0.11197681 0.039801724 0.09441391 -0.110413484
0.20267868 0.05852296 0.006892471 0.1634942 0.07833976 -0.0022907695 -0.07135244 0.16923492
-0.0081019355 0.19041836 -0.013540219 0.009177412 0.034104235 0.053027235 -0.12601684 -0.15678185
-0.045815323 0.21844043 -0.1383088 0.13702644 -0.03031782 0.080402836 0.30533144 -0.05335962
-0.086825214 -0.021575024 -0.117446765 0.072755925 0.044678725 0.027719643 -0.046621274 -0.066054896
-0.047026318 -0.10857615 -0.10198013 -0.011450498 0.22614133 0.0020780908 0.22938181 0.06604173
0.0018502441 -0.054310642 0.0404289 0.10094786 -0.059762165 0.17228647 -0.048023276 0.12793918
0.072639585 0.06930452 -0.067043535 -0.035124164 0.22976471 0.059288453 0.13707638 -0.011666225
0.019215561 0.08017962 -0.07191482 0.0072445525 0.1950009 -0.0068712793 -0.09382409 -0.13174675
0.053831574 -0.04841402 0.2921243 0.07671342 0.07857929 -0.14220913 -0.14213446 0.07544579
-0.010802393 0.101894245 -0.012364094 0.048315592 -0.05996866 0.09444261 -0.11579712 -0.116994776
-0.17501903 0.091932125 -0.1277765 0.18277311 -0.12508613 0.44650936 -0.03446485 0.08436171
0.11100148 0.1365574 -0.07711823 0.063703656 0.06663049 -0.07377896 0.16644973 0.016064228
0.069022775 -0.054276623 -0.08557923 0.10635317 -0.00018747502 -0.08364515 0.0132681485 -0.053519364
-0.0013274138 -0.07735301 0.03351135 -0.019252243 -0.017078757 -0.118574165 0.0664505 0.19280404
-0.020561503 0.033742838 -0.038942825 -0.104874395 -0.037665688 0.12481408 -0.044343606 0.07736535
0.16152485 0.22296987 0.06711315 0.03346969 -0.024771217 0.068970524 0.062326543 -0.03040932
00000000: 2113 893e 1fa2 343d 99f4 243e 085e aebc
00000010: 12cc 803b 71d9 7d3d 554e efbd 0409 efbd
00000020: 7f9c e2bc 9738 813e 8d35 1f3e 9e13 543e
00000030: da8f 65bd a33c 573e fcaf 633d 836e 893c
00000040: 4bf1 063e 403c 5e3e 46e3 74be a518 fa3c
00000050: db27 5b3d 27a9 c83d 94ce b93a 5b44 17be
00000060: c3b4 b43d 82a4 aa3d bf0c a0be 0652 edbd
00000070: 9404 f63c 62c3 b63d 1227 d6bd 751e f9bd
00000080: 5eb6 f73d 0ee6 d6bb d027 983d 5f64 3ebd
00000090: 31f0 c63d d1fd 083e cfd4 5b3c 5a12 6f3c
000000a0: 3214 1b3c cb25 953d ca2a 64bd e2dc e7bc
000000b0: b8f4 803d ce90 33bd 82e6 4ebd 63bc 283e
000000c0: a95c 82bc b24c d83d ebe6 8fbd 81eb eebd
000000d0: cf6c 9ebd 267d af3d c09e 26bd 5427 88bd
000000e0: c853 5d3d 111c 9abd d8b0 41bd bdd8 763d
000000f0: 6862 bdbc 8c3d 3a3d fe3a ce3d 8c7f cabd
00000100: 0e08 903d dee5 a6bd 5375 233c 5fd1 603c
00000110: 41cd 343e 0d75 263d 1600 cdbc d17d 6f3d
00000120: f52c b93c 44e4 183e 6e45 a9bd 0f58 3f3d
00000130: 05e6 ffbc 1220 d73d e894 9b3c e30c 23bd
00000140: acb0 b2bc 9088 ad3d 79f4 edbd 2f04 823d
00000150: b626 c33b 6623 5d3d 246d 7a3d e124 253d
00000160: 0fcf 8cbc 0949 08bd bc99 7dbd 9bf9 7dbd
00000170: 4ebe 783d d70c b63c 0276 0c3d 0fd8 4c3d
00000180: 2cce ca3d 76d8 ddbc 9d3b 903d 2524 dfbc
00000190: 4134 163e 94fe 8a3d 56d3 b8bc 9ef6 a73d
000001a0: 5031 243d bde2 25bd 99bd 70bc fc61 c1bd
000001b0: ee0b f13d b429 173c e7c2 9dbb 5971 e53d
000001c0: a51c 9fbd 37a3 383e 493c c6bd 4fbf fbbd
000001d0: 51cf ea3d 4a85 c63d b12b 363d dd79 f53c
000001e0: 6937 5d3d ec1e 683d d952 6d3c bc91 573c
000001f0: 1954 e53d 2207 233d 145c c13d 7720 e2bd
00000200: 008b 4f3e c5b5 6f3d 3dda e13b 066b 273e
00000210: 9970 a03d bc20 16bb 3a21 92bd eb4b 2d3e
00000220: fbbd 04bc 08fd 423e cbd7 5dbc db5c 163c
00000230: e2b0 0b3d 1633 593d 8f0a 01be 6c8b 20be
00000240: d9a8 3bbd d9ae 5f3e d2a0 0dbe a950 0c3e
00000250: 145d f8bc 3eaa a43d 6754 9c3e 9e8f 5abd
00000260: 6bd1 b1bd 1bbe b0bc ee87 f0bd 0f01 953d
00000270: 0a01 373d 4e14 e33c f3f5 3ebd ca47 87bd
00000280: ab9e 40bd 2c5d debd f5da d0bd df9a 3bbc
00000290: 9891 673e 9430 083b 11e3 6a3e e340 873d
000002a0: e483 f23a d674 5ebd c698 253d c0bd ce3d
000002b0: 2cc9 74bd dd6b 303e 0eb4 44bd 7d02 033e
000002c0: 10c4 943d 87ef 8d3d 1f4e 89bd 5bde 0fbd
000002d0: 7147 6b3e 73d8 723d c05d 0c3e b223 3fbc
000002e0: f469 9d3c 3635 a43d 1448 93bd b663 ed3b
000002f0: 51ae 473e 7828 e1bb d826 c0bd 9fe8 06be
00000300: 7f7e 5c3d c84d 46bd 5191 953e ed1b 9d3d
00000310: 2eee a03d 459f 11be b28b 11be 5383 9a3d
00000320: 85fc 30bc eead d03d c592 4abc 92e6 453d
00000330: b3a1 75bd 216b c13d 0a27 edbd f59a efbd
00000340: 3038 33be e946 bc3d d8d7 02be e028 3b3e
00000350: 9416 00be e09c e43e 042b 0dbd d5c5 ac3d
00000360: be54 e33d b4d5 0b3e 2af0 9dbd 1077 823d
00000370: 9175 883d 6c19 97bd cc71 2a3e 2199 833c
00000380: d05b 8d3d 2a51 5ebd 2a44 afbd b1cf d93d
00000390: f194 44b9 264e abbd a662 593c 1f37 5bbd
000003a0: 9efc adba 416b 9ebd 3343 093d e1b6 9dbc
000003b0: c0e8 8bbc 03d7 f2bd 3317 883d 6c6e 453e
000003c0: 9970 a8bc ee35 0a3d 8382 1fbd 63c8 d6bd
000003d0: 5647 1abd 869e ff3d a4a1 35bd ba71 9e3d
000003e0: c566 253e 3752 643e 9f72 893d 8317 093d
000003f0: 02ed cabc 6b40 8d3d 1e4a 7f3d f71c f9bc

output.bias f4 [4]
0.12424011 0.0864754 0.12662078 0.078928106
00000000: 9971 fe3d 041a b13d e1a8 013e 0fa5 a13d
