checkpoints/state_size_37__action_size_4__hidden_layers_[256-256]__drop_p_0.0__seed_0__GAMMA_0.99__LR_0.0005__UPDATE_EVERY_10__BUFFER_SIZE_10000__BATCH_SIZE_64__TAU_0.001.pth (torch, 308311 bytes, 6 tensors)

hidden_layers.0.weight f4 [256, 37]
0.013175595 -0.41326386 0.12499602 0.07686929 -0.32827973 0.07568028 0.20988527 0.048119657
-0.57035744 -0.89330274 -0.26663202 0.17644063 -0.013966222 -0.2687558 -0.36452082 0.04053595
-0.04992516 -0.14382704 -0.2482639 0.12153558 -0.11571534 0.12667534 0.07465144 -0.30400777
-0.4399239 0.09678403 0.15241347 -0.15605947 -0.34926513 0.18485844 0.0030591406 -0.09786937
0.34287778 -0.17976318 -0.0358104 -0.011398778 -0.036056213 -0.15023437 0.03513193 0.07410699
0.089480124 0.26897916 -0.3137247 -0.30723435 0.14364992 0.4046456 0.1993533 0.020964917
0.10538071 0.10228815 0.09703418 0.066981725 -0.003999719 0.24997842 -0.21457286 0.069941334
0.29600218 0.032010026 -0.21071985 -0.20552126 0.16728313 -0.4069902 -0.0037878253 -0.07019471
-0.13597403 -0.2220202 -0.49061987 0.09386801 -0.30921784 0.1520753 -0.044286083 -0.13519946
0.0014544788 -0.030781277 -0.045622315 0.096039325 -0.10574147 0.20009041 -0.012072459 -0.12968272
-0.30826628 0.05635202 0.14417301 0.21172301 -0.1399881 -0.16025761 -0.15070032 -0.029537994
0.13169977 -0.11151965 -0.037364148 -0.038932033 -0.21262963 -0.3034353 -0.09270013 0.20721225
0.07173416 -0.21363285 -0.23458338 0.12557219 -0.24468127 -0.1280718 0.09717723 -0.19306098
-0.008814713 0.12126009 -0.16860518 -0.1420086 -0.16146119 -0.10471925 0.05752625 -0.049040645
-0.08584181 0.020986961 -0.21510902 -0.3544148 -0.25550383 -0.12607335 0.32990313 -0.060451195
-0.09613958 0.11945401 -0.4670241 -0.07105292 0.16045529 -0.8332808 -0.29166424 -0.42567194
-0.023664936 0.15221702 -0.34187233 -0.2695407 0.11117455 0.07767086 0.03955705 -0.111483075
-0.18914045 -0.24258855 0.18405314 0.01118358 -0.4761606 0.09705886 -0.26894742 -0.032293443
-0.31210268 -0.17807493 -0.04215046 -0.05825696 0.21825859 -0.03775865 -0.011938688 -0.11084199
-0.47479022 0.06626819 0.23890065 0.014830222 0.12231234 -0.002897419 0.10181648 0.023743117
-0.06118801 -0.06847474 -0.00904635 0.049835578 0.19944806 0.021714306 -0.0533543 -0.07034821
0.010450207 0.11874245 -0.013125761 -0.20074883 -0.0631455 0.2605146 -0.41639975 -0.25037915
-0.14030765 -1.2152479 0.035018176 -0.14936778 0.20729834 0.17500924 0.20121604 0.020804169
0.0049526924 -0.056296375 -0.11568353 0.217461 0.00258349 0.32075968 0.05176148 0.032086045
0.106880635 0.062881425 0.016351838 0.0075333044 -0.11599948 0.036339357 -0.08317299 0.13499989
0.041460924 0.063096166 -0.041959066 0.011748677 -0.1847986 0.025805274 0.098816484 -0.057750244
-0.09354706 -0.11870256 0.3201189 -0.6947179 -0.8507119 -0.14147393 -1.4345775 0.019942783
0.030919634 0.05315889 0.20225935 0.019272733 -0.02656254 -0.0045830277 0.08937002 0.01857311
-0.067236856 -0.547073 -0.065795116 -0.16299866 -0.27186623 0.13742419 0.23859932 0.5536378
0.052148387 0.09435251 -0.5174313 -0.015423976 -0.17707442 -0.001351065 0.07040487 0.09310917
-0.03668051 0.34732598 0.16776994 -0.15132657 -0.20343247 -0.031099742 -0.2601124 -0.13726422
0.17626996 -0.13941172 -0.020586357 0.08613055 -0.0011973481 0.043328952 -0.10381344 -0.17848812
00000000: 73de 573c 5297 d3be eafd ff3d a56d 9d3d
00000010: 4814 a8be 43fe 9a3d 2aec 563e 1e19 453d
00000020: f202 12bf 7daf 64bf fe83 88be daac 343e
00000030: 95d2 64bc 5c9a 89be 79a2 babe 0609 263d
00000040: 537e 4cbd 6547 13be e438 7ebe a5e7 f83d
00000050: 2afc ecbd 2eb7 013e dbe2 983d e8a6 9bbe
00000060: b53d e1be b536 c63d 4712 1c3e 0ece 1fbe
00000070: e1d2 b2be 884b 3d3e dd7b 483b bc6f c8bd
00000080: ad8d af3e d713 38be edad 12bd f1c1 3abc
00000090: aeaf 13bd 0ad7 19be 80e6 0f3d 68c5 973d
000000a0: 5b41 b73d a3b7 893e 86a0 a0be d24d 9dbe
000000b0: f718 133e b52d cf3e 4523 4c3e 9ebe ab3c
000000c0: d7d1 d73d 737c d13d dbb9 c63d b72d 893d
000000d0: 1310 83bb 58fa 7f3e fdb8 5bbe 673d 8f3d
000000e0: 998d 973e f21c 033d f2c6 57be 2a74 52be
000000f0: 454c 2b3e 0561 d0be 2a3d 78bb 3ec2 8fbd
00000100: c73c 0bbe 4359 63be 8732 fbbe df3d c03d
00000110: cd51 9ebe a1b9 1b3e 5365 35bd ba71 0abe
00000120: 36a4 be3a 0429 fcbc 77de 3abd 44b0 c43d
00000130: fc8e d8bd 80e4 4c3e 90cb 45bc 8ccb 04be
00000140: 14d5 9dbe 60d1 663d 17a2 133e ebcd 583e
00000150: 0a59 0fbe 921a 24be 2f51 1abe aaf9 f1bc
00000160: 4edc 063e 6a64 e4bd 260b 19bd 3277 1fbd
00000170: 95bb 59be df5b 9bbe 91d9 bdbd 732f 543e
00000180: 5ce9 923d 92c2 5abe a036 70be ff95 003e
00000190: ba8d 7abe 4125 03be db04 c73d c7b1 45be
000001a0: 966b 10bc 3657 f83d d6a6 2cbe b46a 11be
000001b0: 1556 25be 0c77 d6bd a5a0 6b3d d8de 48bd
000001c0: d5cd afbd d9ec ab3c 8a45 5cbe db75 b5be
000001d0: 66d1 82be 5f19 01be 10e9 a83e ac9b 77bd
000001e0: d4e4 c4bd 4ea4 f43d c81d efbe 3184 91bd
000001f0: 644e 243e e451 55bf 0455 95be acf1 d9be
00000200: f8dc c1bc c7de 1b3e e409 afbe 3d01 8abe
00000210: 7caf e33d e611 9f3d 9306 223d 3d51 e4bd
00000220: 09ae 41be 2269 78be 6d78 3c3e 563b 373c
00000230: 52cb f3be ccc6 c63d 7ab3 89be 2146 04bd
00000240: eccb 9fbe 4659 36be f6a5 2cbd da9e 6ebd
00000250: 2e7f 5f3e d0a8 1abd 7d9a 43bc 2001 e3bd
00000260: b417 f3be 9eb7 873d 5fa2 743e 76fa 723c
00000270: e47e fa3d a0e2 3dbb 2985 d03d ed80 c23c
00000280: 47a0 7abd 7c3c 8cbd 2437 14bc 6420 4c3d
00000290: 1d3c 4c3e 33e2 b13c 0a8a 5abd b912 90bd
000002a0: 5837 2b3c 3e2f f33d 6f0d 57bc 1a91 4dbe
000002b0: 6e52 81bd 2b62 853e 5932 d5be b231 80be
000002c0: cfac 0fbe 3e8d 9bbf 386f 0f3d def3 18be
000002d0: 0446 543e 9f35 333e 940b 4e3e 816d aa3c
000002e0: 324a a23b 0797 66bd 7deb ecbd 19ae 5e3e
000002f0: c54f 293b 9d3a a43e d803 543d a86c 033d
00000300: 3ce4 da3d fac7 803d 4af4 853c f0d9 f63b
00000310: 2391 edbd 94d8 143d 9a56 aabd 693d 0a3e
00000320: eed2 293d 9038 813d 45dd 2bbd 867d 403c
00000330: d83b 3dbe 9565 d33c 4c60 ca3d 858b 6cbd
00000340: 9a95 bfbd 541a f3bd a0e6 a33e 08d9 31bf
00000350: 41c8 59bf 8bde 10be 3ca0 b7bf 0c5f a33c
00000360: 2c4b fd3c 23bd 593d 131d 4f3e dae1 9d3c
00000370: af99 d9bc 392d 96bb a107 b73d a326 983c
00000380: 7ab3 89bd fa0c 0cbf 97bf 86bd 1fe9 26be
00000390: 0d32 8bbe edb8 0c3e 6153 743e 35bb 0d3f
000003a0: 8c99 553d e43b c13d 6176 04bf d8b4 7cbc
000003b0: ff52 35be 3816 b1ba 6e30 903d 05b0 be3d
000003c0: 4d3e 16bd b6d4 b13e e2cb 2b3e 5af5 1abe
000003d0: 9a50 50be e3c4 febc 742d 85be fe8e 0cbe
000003e0: 1d80 343e f2c1 0ebe b8a4 a8bc 3765 b03d
000003f0: 56f0 9cba b379 313d 249c d4bd 97c5 36be

hidden_layers.0.bias f4 [256]
0.069180116 -0.09521915 -0.15199862 -0.08963152 0.13558444 0.22715975 -0.20045924 -0.0020914434
-0.22682106 0.21084167 -0.034003742 0.0808235 0.06516439 0.03292558 0.12834784 0.18396977
-0.0071450835 -0.023441555 0.0777736 0.13925512 0.0696311 0.18469831 -0.022444366 -0.122486524
0.17172118 -0.04303412 -0.115968734 -0.2072875 -0.17586336 -0.18312436 -0.1330832 -0.031140478
-0.07910116 -0.06693468 -0.08168886 -0.023145242 -0.15769605 -0.10246442 0.06579296 0.1450183
0.05932481 0.24801594 -0.15978882 0.10749493 -0.14490508 0.116333656 0.2836977 0.07855279
-0.18267785 -0.14545351 0.28154013 0.032519463 -0.09954863 0.015737535 -0.029356765 -0.14972438
-0.18154807 -0.14797942 -0.17360002 -0.07785049 -0.14770095 0.09565134 0.09713354 0.10281141
0.09205677 -0.15999791 -0.18802057 0.06139701 -0.1675855 -0.04624337 0.15646085 -0.14437465
0.0237055 9.343678e-05 0.17030455 -0.039808467 -0.13567212 0.012157832 -0.23946 0.15646431
0.1484181 -0.13156116 -0.08231214 -0.08847113 0.10293018 0.18872753 0.015042821 0.018031996
-0.003106232 0.020173162 -0.048273854 -0.119817376 0.13875008 0.18431929 -0.23164837 0.057721566
-0.18121633 -0.15773392 -0.106492065 -0.12050793 -0.036712714 -0.11879177 0.18431817 0.18046306
0.08454339 0.13228771 -0.13208443 -0.13424112 -0.035431884 -0.094535284 0.07688879 -0.08556197
-0.14643493 -0.011164703 -0.18296945 -0.1338106 -0.0040812613 -0.07522845 -0.030173508 0.020681433
0.079687245 -0.10463517 -0.08596437 -0.14122732 -0.1701593 -0.1639171 0.13927361 0.0021688954
0.14202999 -0.05443645 -0.27806628 -0.08029404 -0.1770773 0.13387026 -0.1520493 0.018258732
0.11563962 -0.005637183 0.058771532 -0.19898485 -0.113166794 -0.03418699 0.03669832 -0.23944503
-0.07176812 -0.25883457 0.052755855 -0.052471288 0.1797102 -0.14730452 -0.061180014 0.15777406
-0.25550357 -0.21558884 0.12568538 -0.14329973 -0.08882213 0.0032301904 -0.10030912 -0.117725156
0.11143767 -0.0039056463 0.0018577217 0.0060653747 -0.0487972 -0.097552784 0.15321848 -0.22338398
-0.1027274 -0.1488567 0.14837125 -0.004942985 -0.07384269 0.2820476 -0.1557455 -0.01889061
-0.21354492 -0.0066934335 0.05635199 0.14060874 -0.28749257 0.1403262 0.029332457 -0.12808673
-0.14041021 -0.041432314 0.25238326 -0.09977651 0.02192922 0.0063045197 -0.33197108 0.045748606
0.052684266 0.04939963 -0.116991684 -0.010228698 -0.11698185 -0.18616325 -0.14826982 -0.28860378
-0.057855085 -0.09035746 -0.055258 -0.104907915 0.13614196 0.080783844 0.023140209 -0.021153755
0.014863057 -0.011212699 -0.17138097 -0.050468165 0.082250305 -0.018637178 0.051140316 -0.011729374
-0.026822792 0.06224104 0.08200464 -0.1390522 -0.22323462 -0.14660014 -0.0723702 -0.16331415
-0.20129716 0.050071068 -0.13131498 -0.18885733 -0.088915065 0.06116294 0.09613073 -0.03623429
-0.11170871 0.19763617 -0.0015266618 -0.03747824 0.08763394 0.07826193 0.030290006 0.06723002
-0.16329227 -0.0073645054 0.29357412 -0.09194504 0.11516512 0.19763853 0.09330359 -0.1159406
0.09797266 0.18577382 0.095961615 0.09934322 0.063932285 -0.06702512 -0.13204312 0.0014147171
00000000: 4eae 8d3d 4202 c3bd 87a5 1bbe bb90 b7bd
00000010: a6d6 0a3e 919c 683e 3045 4dbe 9910 09bb
00000020: c843 68be e1e6 573e 8247 0bbd cb86 a53d
00000030: e874 853d f9dc 063d 9e6d 033e 9262 3c3e
00000040: 4e21 eabb 8108 c0bc c447 9f3d e598 0e3e
00000050: c09a 8e3d 8e21 3d3e 3fdd b7bc 37da fabd
00000060: add7 2f3e 8c44 30bd 0481 edbd 2d43 54be
00000070: 8615 34be f484 3bbe f646 08be 511a ffbc
00000080: caff a1bd 0d15 89bd 7d4c a7bd 179b bdbc
00000090: 137b 21be ded8 d1bd 76be 863d ad7f 143e
000000a0: 92fe 723d e4f7 7d3e ae9f 23be 4d26 dc3d
000000b0: ff61 14be 5740 ee3d d340 913e 49e0 a03d
000000c0: e70f 3bbe c4f1 14be 0726 903e 2133 053d
000000d0: 27e0 cbbd 01ec 803c 997d f0bc 5951 19be
000000e0: bde7 39be eb87 17be 34c4 31be 1470 9fbd
000000f0: eb3e 17be dae4 c33d f3ed c63d ca8e d23d
00000100: 4388 bc3d 7ed6 23be 7788 40be 6e7b 7b3d
00000110: 899b 2bbe b069 3dbd 4637 203e f3d6 13be
00000120: 0932 c23c 7df3 c338 5164 2e3e 340e 23bd
00000130: a2ed 0abe a531 473c 0135 75be 2e38 203e
00000140: eafa 173e f8b7 06be 4493 a8bd 5a30 b5bd
00000150: 0fcd d23d ca41 413e 2a76 763c d6b7 933c
00000160: ed91 4bbb 3042 a53c ceba 45bd d062 f5bd
00000170: 8014 0e3e 32be 3c3e 3b35 6dbe 736d 6c3d
00000180: c690 39be 0085 21be 8318 dabd ddcc f6bd
00000190: 1260 16bd 1949 f3bd e7bd 3c3e 4fcb 383e
000001a0: 1625 ad3d 6e76 073e 2441 07be 8176 09be
000001b0: 0621 11bd b79b c1bd df77 9d3d 1d3b afbd
000001c0: 0af3 15be 29ec 36bc 585c 3bbe a505 09be
000001d0: 1abc 85bb 6011 9abd 6f2e f7bc 1c6c a93c
000001e0: 1133 a33d f74a d6bd 160e b0bd e59d 10be
000001f0: 3d3e 2ebe e2d9 27be be9d 0e3e 0724 0e3b
00000200: 4f70 113e c1f8 5ebd b45e 8ebe 3471 a4bd
00000210: c053 35be 4915 093e d0b2 1bbe 5693 953c
00000220: 77d4 ec3d 1eb8 b8bb 6bba 703d afc2 4bbe
00000230: fec3 e7bd a807 0cbd fa50 163d 1431 75be
00000240: 2afb 92bd f785 84be 8616 583d 22ec 56bd
00000250: f305 383e ffd6 16be e597 7abd 868f 213e
00000260: 5dd1 82be 52c3 5cbe abb3 003e 2abd 12be
00000270: 60e8 b5bd 9ab1 533b de6e cdbd e319 f1bd
00000280: 6f39 e43d dff5 7fbb cc7e f33a 0dc0 c63b
00000290: 93df 47bd c1c9 c7bd 4ee5 1c3e c5be 64be
000002a0: be62 d2bd e46d 18be a2ee 173e c3f8 a1bb
000002b0: d63a 97bd 8b68 903e c07b 1fbe 7bc0 9abc
000002c0: 85ab 5abe 9754 dbbb 58d1 663d bdfb 0f3e
000002d0: 3a32 93be acb1 0f3e 9f4a f03c 2b29 03be
000002e0: b2c7 0fbe eeb4 29bd 6138 813e a057 ccbd
000002f0: e8a4 b33c 2596 ce3b 1df8 a9be e462 3b3d
00000300: 75cb 573d 4457 4a3d 5699 efbd 4596 27bc
00000310: 2e94 efbd 94a1 3ebe 0bd4 17be e0c3 93be
00000320: 74f9 6cbd 550d b9bd 3656 62bd f6d9 d6bd
00000330: cc68 0b3e 0072 a53d 8990 bd3c a44a adbc
00000340: 2e84 733c 78b5 37bc 7e7e 2fbe b5b7 4ebd
00000350: d972 a83d ffac 98bc 8278 513d 8f2c 40bc
00000360: 79bb dbbc 76f0 7e3d 0cf2 a73d b363 0ebe
00000370: 9e97 64be 591e 16be d436 94bd d33b 27be
00000380: d820 4ebe 5217 4d3d 6f77 06be d163 41be
00000390: 1a19 b6bd fe85 7a3d 30e0 c43d 686a 14bd
000003a0: 89c7 e4bd 2361 4a3e 451a c8ba c882 19bd
000003b0: 6c79 b33d ca47 a03d bf22 f83c e5af 893d
000003c0: 1736 27be f351 f1bb 594f 963e ae4d bcbd
000003d0: b1db eb3d c161 4a3e f415 bf3d 4472 edbd
000003e0: e4a5 c83d 7e3b 3e3e 8687 c43d 7574 cb3d
000003f0: eeee 823d 7744 89bd 5036 07be 076e b93a

hidden_layers.1.weight f4 [256, 256]
0.004021824 0.011077056 0.08011541 -0.039629444 -0.042746283 -0.060302082 -0.14776842 -0.04979223
-0.043624435 -0.04104604 -0.012849147 -0.03146899 -0.0157868 0.077906355 0.04232167 0.052551407
-0.052336574 -0.03873853 -0.08112915 -0.09776958 0.025603082 0.019765032 -0.0085180765 -0.068361506
-0.02824833 -0.13333337 0.01700935 -0.008949477 -0.061130237 -0.009353846 -0.038675796 0.04910401
0.030649487 -0.011764534 -0.0126248 0.010943805 0.047416706 -0.0029198877 0.04327617 0.006693118
-0.05242666 -0.15379749 0.053455 0.051520742 0.021858033 -0.046828613 0.03279296 0.0378136
-0.027940178 -0.021172991 -0.091337144 0.056189116 -0.036235254 0.014625321 -0.014312109 -0.051513012
-0.0762137 -0.10473442 -0.1256748 -0.052573364 -0.02484132 -0.05818842 -0.10785447 -0.019577205
0.013188111 -0.087207966 -0.08506929 -0.058431577 -0.052518163 -0.06016409 -0.07633109 0.022346884
0.005433497 -0.06127154 0.054812007 -0.014540718 -0.03663764 -0.036946643 -0.049947184 0.0031004495
-0.055066887 -0.027853426 -0.09744175 -0.06889922 -0.069380276 -0.06041504 -0.074582055 0.10365083
-0.10938356 0.060182024 -0.06488362 -0.03624628 -0.067014724 -0.011073859 -0.12894212 0.034989487
-0.08522532 0.023741992 -0.09288563 -0.13465059 -0.029277574 -0.012495087 0.007096397 -0.077651106
-0.068587564 0.0054360004 0.028679263 -0.031862352 0.022386538 -0.043040507 -0.015149246 0.009729114
0.017917708 -0.069725685 -0.028395656 -0.069669336 -0.0890265 -0.06719272 0.0015662754 0.057351623
0.0448094 0.023805538 -0.13751487 -0.039906006 0.06861791 -0.08676712 0.005158534 -0.05064124
-0.079265036 -0.014712353 -0.039970074 -0.015877698 0.024686715 0.023440009 -0.04896827 0.026434107
0.042288158 0.065603554 -0.026400639 -0.096139975 -0.07236708 -0.09576259 -0.012640048 -0.03787453
0.014629538 0.055225994 -0.00089362386 0.047588833 0.035836637 -0.013444159 -0.056108847 -0.05347458
-0.0025268348 -0.010114813 -0.024640696 -0.13296285 -0.00040172483 -0.06979261 -0.11362254 0.022539148
-0.034759924 -0.10670413 -0.034334343 0.061170466 -0.0572952 -0.039517615 -0.070128374 -0.047241088
0.011396405 -0.14702858 -0.09180988 0.012772232 0.062512204 -0.020059245 -0.05543195 -0.01310714
-0.025373181 -0.05456767 -0.05807128 -0.085638404 0.01378427 -0.0741546 -0.00791714 -0.028757673
-0.039481804 -0.08215899 0.0104541965 -0.0113025075 0.038936913 -0.032212794 -0.08015385 -0.037557054
-0.047781195 -0.060849648 -0.043617398 0.03816944 -0.106404655 0.013445237 0.03810077 -0.055634942
-0.029855702 0.046194535 0.004320555 0.019848522 -0.026370874 0.07020948 -0.10572273 -0.030968135
0.044400234 0.040739443 -0.0010587681 0.0038784898 -0.10807317 -0.014429213 0.046565827 0.0056261597
-0.03313249 -0.008963206 -0.010119566 0.02750016 0.1303446 -0.004592358 0.029347949 -0.07590159
0.05413891 -0.07821427 -0.04342289 -0.04439533 0.013064273 -0.039198007 -0.07576127 -0.081391014
-0.080921635 0.015308817 -0.046805587 0.0030367037 -0.02924478 -0.01976207 -0.024533046 -0.1138298
0.047448862 -0.05830684 -0.020564001 0.06377343 -0.022460116 0.074811235 -0.03401537 0.027886916
0.034129463 -0.019625206 0.009911018 -0.09014774 -0.021631012 -0.005809203 -0.01007419 0.04937898
00000000: 81c9 833b 8a7c 353c 8c13 a43d 7c52 22bd
00000010: ba16 2fbd 51ff 76bd 9b50 17be f0f2 4bbd
00000020: 89af 32bd e41f 28bd 3b85 52bc a1e5 00bd
00000030: 5253 81bc 5e8d 9f3d 7d59 2d3d 2540 573d
00000040: e05e 56bd 4bac 1ebd 0a27 a6bd 6b3b c8bd
00000050: 8ebd d13c 47ea a13c 678f 0bbc 1e01 8cbd
00000060: 0b69 e7bc 8b88 08be 3157 8b3c d4a0 12bc
00000070: b363 7abd e040 19bc 836a 1ebd 4921 493d
00000080: a214 fb3c 08c0 40bc 40d8 4ebc a54d 333c
00000090: 0538 423d 965b 3fbb 5a42 313d f151 db3b
000000a0: 56bd 56bd 177d 1dbe a1f3 5a3d 6a07 533d
000000b0: 9e0f b33c 5ccf 3fbd e951 063d 6fe2 1a3d
000000c0: cde2 e4bc fb72 adbc f80e bbbd 8f26 663d
000000d0: 6b6b 14bd 0b9f 6f3c 567d 6abc 4fff 52bd
000000e0: ee15 9cbd 007f d6bd e5b0 00be 2b57 57bd
000000f0: 0680 cbbc fb56 6ebd cee2 dcbd 6060 a0bc
00000100: f212 583c 179a b2bd cf38 aebd f355 6fbd
00000110: 491d 57bd 9f6e 76bd 7953 9cbd d010 b73c
00000120: 7a0b b23b def7 7abd 8e82 603d 313c 6ebc
00000130: 5a11 16bd 5d55 17bd 6b95 4cbd e930 4b3b
00000140: d18d 61bd de2c e4bc 8a8f c7bd 091b 8dbd
00000150: 3f17 8ebd c375 77bd 7abe 98bd e346 d43d
00000160: 7d04 e0bd 6d81 763d b4e1 84bd fb76 14bd
00000170: 043f 89bd 226f 35bc 6709 04be 2351 0f3d
00000180: 9d8a aebd 917e c23c d23a bebd d8e1 09be
00000190: 86d7 efbc 32b8 4cbc e588 e83b 8b07 9fbd
000001a0: a377 8cbd 7a20 b23b c6f0 ea3c 1982 02bd
000001b0: f963 b73c 3e4b 30bd 8b34 78bc dd66 1f3c
000001c0: 28c8 923c 57cc 8ebd 029e e8bc ccae 8ebd
000001d0: 8753 b6bd 569c 89bd 7b4b cd3a 89e9 6a3d
000001e0: 108a 373d d503 c33c b3d0 0cbe 7b74 23bd
000001f0: 8c87 8c3d f6b2 b1bd eb08 a93b 306d 4fbd
00000200: b555 a2bd 150c 71bc a9b7 23bd f211 82bc
00000210: cb3b ca3c 4305 c03c f492 48bd 578c d83c
00000220: 5936 2d3d 285b 863d 2746 d8bc 09e5 c4bd
00000230: 3135 94bd 2d1f c4bd 3418 4fbc 5322 1bbd
00000240: bbb0 6f3c a734 623d 1542 6aba 82ec 423d
00000250: 70c9 123d e444 5cbc 64d2 65bd 2908 5bbd
00000260: 4199 25bb 9ab8 25bc 49db c9bc 6a27 08be
00000270: 989e d2b9 6eef 8ebd efb2 e8bd 05a4 b83c
00000280: 6c60 0ebd b287 dabd 2ba2 0cbd e28d 7a3d
00000290: 5fae 6abd 39dd 21bd 779f 8fbd df7f 41bd
000002a0: fdb7 3a3c a98e 16be d206 bcbd a042 513c
000002b0: 6606 803d 4953 a4bc 9d0c 63bd 54bf 56bc
000002c0: 6bdb cfbc 5982 5fbd 27dc 6dbd 3063 afbd
000002d0: 6bd7 613c 5ede 97bd e4b6 01bc 3695 ebbc
000002e0: acb7 21bd f942 a8bd 1448 2b3c 272e 39bc
000002f0: 507c 1f3d 90f1 03bd b427 a4bd 6dd5 19bd
00000300: 37b6 43bd 7b3d 79bd 28a8 32bd 8f57 1c3d
00000310: afea d9bd 6949 5c3c 8e0f 1c3d 77e1 63bd
00000320: f293 f4bc 7b36 3d3d 7193 8d3b 5e99 a23c
00000330: bb07 d8bc fdc9 8f3d 2985 d8bd e3b0 fdbc
00000340: 05dd 353d 67de 263d 5dc6 8aba 432e 7e3b
00000350: 7755 ddbd 8168 6cbc cfbb 3e3d a65b b83b
00000360: efb5 07bd 69da 12bc 89cc 25bc 0448 e13c
00000370: 0e79 053e 7e7b 96bb 1c6b f03c 4b72 9bbd
00000380: c3c0 5d3d ce2e a0bd 33dc 31bd e1d7 35bd
00000390: 880b 563c 178e 20bd ba28 9bbd 55b0 a6bd
000003a0: 3eba a5bd d5d1 7a3c 37b7 3fbd 6f03 473b
000003b0: c092 efbc 11e4 a1bc 87f9 c8bc 991f e9bd
000003c0: bd59 423d 27d3 6ebd d675 a8bc a59b 823d
000003d0: 47fe b7bc a236 993d b353 0bbd 1a73 e43c
000003e0: 56cb 0b3d 0ac5 a0bc d361 223c 619f b8bd
000003f0: 8533 b1bc 205b bebb 370e 25bc 9d41 4a3d

hidden_layers.1.bias f4 [256]
-0.056605037 -0.049378257 -0.061920386 -0.0542372 -0.031876978 0.062881514 -0.026962563 0.5335272
0.017593531 -0.07989505 -0.051232662 -0.005277914 -0.0019539646 0.017633937 -0.087232925 -0.0957931
-0.062269606 0.014532467 -0.024435185 -0.05827822 -0.020222 -0.0905455 -0.08495743 0.020198703
-0.0140623 0.03401398 0.12774397 -0.004874388 -0.052478433 0.042345732 -0.013954141 0.116003625
-0.07319358 0.029438868 0.12150915 -0.015595509 -0.0785775 -0.007437073 -0.08550088 0.2574305
-0.042972807 -0.08263681 0.004595649 0.107321374 -0.0014131177 -0.04234979 -0.11873039 -0.01098097
0.007106319 -0.006985286 0.0028766838 -0.0475805 -0.058835566 -0.006598664 -0.15266311 -0.06586318
0.008169525 0.09423375 -0.023176072 0.020374933 -0.082094535 -0.06129352 0.00901026 -0.056369584
-0.043027923 -0.092012614 -0.0029224446 -0.05383149 0.011493949 0.002047574 -0.024602275 0.009862314
0.0069329645 0.01666452 -0.06697824 -0.023014091 -0.028425021 0.021607867 -0.0017500893 -0.05330554
-0.08167727 -0.029021442 -0.0136070885 -0.19940028 0.031606782 0.06942168 -0.057089627 -0.03854107
-0.1142495 -0.0028484387 -0.020386795 -0.045636468 -0.08102702 -0.09708854 -0.0725809 0.1235529
-0.021552736 -0.03375394 0.10086164 0.034125343 0.0126470635 -0.05653858 -0.09186294 -0.07325942
-0.018074518 0.022246486 -0.040001772 -0.040263604 -0.030515768 -0.04669839 0.09205588 -0.003620797
0.013190289 -0.06543524 -0.07669696 -0.08398703 -0.021052444 -0.05152847 -0.012689412 0.006588355
-0.04983338 -0.0027697047 -0.054517508 0.030529475 -0.11917497 0.01466788 -0.035502426 -0.062494263
-0.052724797 0.010920009 -0.0796765 -0.10224497 -0.008920128 0.025875367 0.006482637 -0.041053943
-0.011255716 -0.0664696 0.005864284 -0.12162705 -0.068936594 0.023462422 -0.027109865 -0.019613609
-0.00083156757 -0.094774164 -0.05739652 -0.06690517 -0.03539559 -0.050720964 -0.032081805 -0.10874129
-0.07143597 -0.022340022 0.02134256 -0.12019314 -0.033396646 -0.036453012 0.087228835 0.02744204
-0.13608722 -0.061197516 -0.012832586 0.071337275 -0.03223048 0.0010980321 -0.05667687 -0.04188733
-0.006287392 -0.08266795 -0.017536744 -0.02572374 0.01004493 -0.05791458 0.057585485 -0.0037668399
-0.03689788 -0.073576614 -0.053290546 0.034243498 -0.06635417 -0.071426764 0.0058373897 -0.106362596
0.20807551 -0.19892873 -0.06602787 -0.071886614 -0.037090182 -0.055525355 -0.02488478 -0.11420154
-0.017073164 -0.037780005 0.41849846 -0.01746659 -0.053733047 -0.00094420486 -0.041489914 -0.026847554
0.07550801 -0.11577802 -0.10674479 0.10536938 0.036348525 0.013663588 -0.11787898 -0.034559783
-0.017504472 -0.14110975 -0.0033632442 0.014671073 0.13471955 -0.025558222 0.11565714 -0.02120779
-0.05170079 -0.075698815 -0.07192434 0.005563767 0.052037347 -0.0747778 0.10788368 -0.15363212
0.007868693 -0.0277258 0.04231805 -0.020191526 -0.07838697 0.014828593 -0.0025453442 -0.077806436
-0.03026234 0.071189374 -0.032941412 -0.03888084 -0.07529988 -0.017779833 0.06828295 0.021272525
-0.0332467 -0.06907638 -0.018582145 -0.011343519 -0.07968535 -0.028078374 -0.070926026 -0.044848114
-0.039894845 -0.052010644 -0.054217625 -0.029722916 -0.08300524 0.007955224 -0.021923589 -0.024700664
00000000: afda 67bd db40 4abd 3ba0 7dbd d427 5ebd
00000010: 6f91 02bd 06c8 803d 98e0 dcbc 3d95 083f
00000020: 4f20 903c 04a0 a3bd 57d9 51bd 5af2 acbb
00000030: 160e 00bb 0c75 903c 2da7 b2bd 2c2f c4bd
00000040: 6a0e 7fbd 9619 6e3c 4c2c c8bc 25b5 6ebd
00000050: 9ca8 a5bc eb6f b9bd 29fe adbd c077 a53c
00000060: 9065 66bc 3e52 0b3d 51cf 023e 55b9 9fbb
00000070: a0f3 56bd b872 2d3d e99f 64bc 4f93 ed3d
00000080: 84e6 95bd c829 f13c cad9 f83d 4e84 7fbc
00000090: 3eed a0bd b1b2 f3bb 161b afbd eecd 833e
000000a0: 4104 30bd 7d3d a9bd 1997 963b 4fcb db3d
000000b0: 5d38 b9ba f976 2dbd eb28 f3bd 87e9 33bc
000000c0: 20dc e83b d3e4 e4bb bf86 3c3b c5e3 42bd
000000d0: 90fd 70bd 9b39 d8bb b853 1cbe 46e3 86bd
000000e0: 79d9 053c a0fd c03d bfdb bdbc 55e9 a63c
000000f0: 2e21 a8bd ea0e 7bbd c59f 133c cbe3 66bd
00000100: 0c3e 30bd 1c71 bcbd 7c86 3fbb 697e 5cbd
00000110: 1e51 3c3c 9730 063b b68a c9bc 8b95 213c
00000120: ec2d e33b 0884 883c e32b 89bd 0c88 bcbc
00000130: 97db e8bc fb02 b13c 4163 e5ba e956 5abd
00000140: 6a46 a7bd 60be edbc 44f0 5ebc 962f 4cbe
00000150: 1d76 013d f42c 8e3d d0d6 69bd 3edd 1dbd
00000160: a4fb e9bd dfac 3abb 3502 a7bc 4eed 3abd
00000170: 7ff1 a5bd 5bd6 c6bd 4ba5 94bd 4e09 fd3d
00000180: 5d8f b0bc 9241 0abd 8c90 ce3d 04c7 0b3d
00000190: a135 4f3c 0095 67bd a322 bcbd 0909 96bd
000001a0: 0311 94bc 433e b63c e6d8 23bd 73eb 24bd
000001b0: 34fc f9bc d046 3fbd cb87 bc3d e54a 6dbb
000001c0: 151c 583c e902 86bd 4c13 9dbd 6401 acbd
000001d0: 2d76 acbc 840f 53bd 40e7 4fbc 21e3 d73b
000001e0: 161e 4cbd ef83 35bb c04d 5fbd f318 fa3c
000001f0: 0212 f4bd 8c51 703c fe6a 11bd fcf9 7fbd
00000200: f5f5 57bd d6e9 323c 6f2d a3bd d065 d1bd
00000210: bb25 12bc 94f8 d33c 4d6c d43b 2e28 28bd
00000220: e569 38bc 3721 88bd 2e29 c03b 9a17 f9bd
00000230: a12e 8dbd 4434 c03c 8215 debc b8ac a0bc
00000240: 8efd 59ba f518 c2bd 9d18 6bbd 9405 89bd
00000250: f7fa 10bd c9c0 4fbd 3668 03bd c1b3 debd
00000260: 064d 92bd 6c02 b7bc 98d6 ae3c d227 f6bd
00000270: ecca 08bd c14f 15bd 08a5 b23d 21ce e03c
00000280: 735a 0bbe 3faa 7abd c43f 52bc 4719 923d
00000290: 1c04 04bd d8eb 8f3a 0126 68bd 0d92 2bbd
000002a0: 7806 cebb d04d a9bd 38a9 8fbc 98ba d2bc
000002b0: 7d93 243c d737 6dbd c2de 6b3d 16dd 76bb
000002c0: 3b22 17bd 56af 96bd 3047 5abd e942 0c3d
000002d0: b2e4 87bd 3248 92bd 9347 bf3b a2d4 d9bd
000002e0: bf11 553e f9b3 4bbe 9f39 87bd 4a39 93bd
000002f0: e0eb 17bd 8e6e 63bd 2bdb cbbc 7fe2 e9bd
00000300: 05dd 8bbc 35bf 1abd 6e45 d63e 1816 8fbc
00000310: 2f17 5cbd 8484 77ba 54f1 29bd 67ef dbbc
00000320: f2a3 9a3d 071d edbd 039d dabd e7cb d73d
00000330: 31e2 143d 3edd 5f3c 896a f1bd 8f8e 0dbd
00000340: 8a65 8fbc 137f 10be e069 5cbb f15e 703c
00000350: ecf3 093e 7a5f d1bc a7dd ec3d f6bb adbc
00000360: 35c4 53bd fb07 9bbd 124d 93bd 4350 b63b
00000370: 1d25 553d 1a25 99bd 1ef2 dc3d bd51 1dbe
00000380: b1eb 003c 3821 e3bc b155 2d3d b368 a5bc
00000390: 5989 a0bd a0f3 723c cacf 26bb fb58 9fbd
000003a0: bae8 f7bc bccb 913d 93ed 06bd 8441 1fbd
000003b0: d336 9abd 03a7 91bc eed7 8b3d b843 ae3c
000003c0: b12d 08bd eb77 8dbd 9539 98bc 2bda 39bc
000003d0: 1332 a3bd 9e04 e6bc aa41 91bd a8b2 37bd
000003e0: c768 23bd 1d09 55bd 4d13 5ebd 797d f3bc
000003f0: a7fe a9bd a156 023c 1999 b3bc 0c59 cabc

output.weight f4 [4, 256]
-0.051916033 0.021517895 0.022850962 -0.09036635 0.069169424 0.0154925035 0.078579396 0.14467822
-0.006189495 -0.009523417 -0.0035786275 0.055357896 -0.025114099 -0.13122089 -0.1064487 -0.15660284
-0.2843957 0.049547505 0.04205188 0.09868461 -0.28368166 0.07005429 -0.022692543 -0.016826244
0.09673407 0.09751182 0.0572407 0.055936795 0.03205308 -0.12864996 0.037112914 0.04521101
0.09482613 -0.025275795 0.11322011 -0.08142499 0.015925542 0.06397327 -0.008331643 0.0695099
-0.017282898 -0.045184027 -0.08534163 0.01013292 0.22694832 -0.07163889 -0.063885696 0.11887695
0.02598541 0.015009429 0.13324949 -0.09736324 -0.03124156 -0.13400838 -0.1350008 -0.09621755
0.05492519 0.29459867 -0.00730975 -0.111347705 5.330361e-05 -0.18025458 0.095739014 0.07605158
-0.01933209 -0.15918484 -0.032186467 -0.3479251 0.009594882 0.036197543 -0.08553177 -0.060587756
0.043323435 0.078462295 -0.0042873686 0.29945093 -0.11802619 0.063163444 0.12704353 0.117619075
-0.021950752 0.07969359 0.09816004 -0.10519448 -0.09757189 0.13003531 0.037423875 -0.14442769
0.10866437 0.047543764 0.003941951 -0.34170166 -0.07450888 -0.049814425 -0.04059834 0.06641877
0.019594572 -0.007873112 0.022826789 0.08929794 -0.011831594 -0.03097111 -0.054424923 0.012375892
0.05736849 -0.027618255 0.0013202819 -0.2744697 -0.046758268 -0.02900563 0.0754226 0.01613484
-0.16032839 0.060177155 -0.06895408 0.03791954 -0.16658834 0.11486662 -0.11427299 -0.049928967
0.108770005 0.08447013 0.18961719 0.07946593 -0.012713268 0.027020292 -0.031450544 -0.13033144
-0.047347568 0.0042601363 0.020181045 -0.039828956 -0.009384743 0.022257436 0.10818159 0.03179019
-0.0063394923 0.03126406 0.024767568 -0.06763262 -0.046218723 0.0066046454 0.17159373 -0.038735215
0.065207645 0.07901997 -0.024483593 0.0046595167 0.07078244 -0.048870865 0.0439102 -0.10128221
-0.00082779553 0.0183308 0.008055359 -0.13694699 -0.03309963 -0.017921796 0.03831537 0.08626143
-0.0671237 0.07938245 -0.020262148 0.07015964 -0.038608193 -0.030096492 0.08535416 0.00719752
0.020605315 -0.0049122795 0.051585376 0.0673651 -0.09798178 -0.1842025 0.00011229169 -0.11174535
-0.17191914 0.075131066 -0.12551783 -0.0067766993 0.024050755 -0.036947057 -0.018008657 -0.0514144
0.054210726 -0.2327679 -0.009228826 -0.022298813 0.0465654 0.035824023 0.112833604 -0.09526666
-0.06960359 0.06819663 0.12443639 0.19316055 0.066132426 0.1304428 -0.006699712 -0.0028417804
0.09803427 -0.05921704 -0.112629205 0.029534796 0.080555856 0.014852036 0.17413853 -0.092957385
-0.0683664 9.926339e-05 -0.14942983 -0.00517387 0.08398616 -0.18494624 0.10049131 0.043023806
0.042373937 0.062095016 -0.124997005 0.036947843 0.3569335 0.019362463 0.02876854 -0.042640876
-0.03670288 -0.14834867 0.038286857 0.0015596048 0.08557016 -0.005500549 0.055593792 0.04207561
-0.052282657 0.28710473 0.030212691 -0.013110712 -0.06200583 0.11366254 0.18776488 0.06811318
0.21473785 -0.05235834 -0.13269264 0.026270702 0.016229281 -0.19072877 -0.14564958 0.08756403
-0.04105421 -0.19479035 0.08312843 0.29929584 0.077835985 -0.06855959 -0.10940306 0.11020876
00000000: e8a5 54bd 4c46 b03c f131 bb3c fe11 b9bd
00000010: b3a8 8d3d 45d4 7d3c 3cee a03d 8726 143e
00000020: 3fd1 cabb 1b08 1cbc 6887 6abb f6be 623d
00000030: 15bc cdbc c55e 06be c701 dabd 7f5c 20be
00000040: 509c 91be 53f2 4a3d 983e 2c3d 281b ca3d
00000050: b93e 91be a078 8f3d b6e5 b9bc 31d7 89bc
00000060: 831c c63d 47b4 c73d 3975 6a3d fb1d 653d
00000070: 174a 033d d1bc 03be b603 183d 2e2f 393d
00000080: 3434 c23d 2f0f cfbc f2df e73d 25c2 a6bd
00000090: 4876 823c 6b04 833d 7281 08bc 355b 8e3d
000000a0: dd94 8dbc e312 39bd 98c7 aebd 8c04 263c
000000b0: 2465 683e 69b7 92bd 81d6 82bd c275 f33d
000000c0: 5bdf d43c 1cea 753c 8e72 083e 6166 c7bd
000000d0: 4dee ffbc 7e39 09be a63d 0abe b50d c5bd
000000e0: 3cf9 603d a3d5 963e a186 efbb 440a e4bd
000000f0: 5192 5f38 a894 38be d112 c43d eec0 9b3d
00000100: 555e 9ebc 5a01 23be f5d5 03bd 3d23 b2be
00000110: da33 1d3c e043 143d 482b afbd de2a 78bd
00000120: ea73 313d d7b0 a03d 0e7d 8cbb a251 993e
00000130: b7b7 f1bd d65b 813d b317 023e 45e2 f03d
00000140: 10d2 b3bc 6536 a33d 2208 c93d 3470 d7bd
00000150: c5d3 c7bd fa27 053e c749 193d dae4 13be
00000160: 6d8b de3d 40bd 423d 7b2b 813b 85f3 aebe
00000170: 1d98 98bd 360a 4cbd 724a 26bd 9006 883d
00000180: cc84 a03c 3afe 00bc 3fff ba3c d7e1 b63d
00000190: 4dd9 41bc 20b7 fdbc abec 5ebd 41c4 4a3c
000001a0: 39fb 6a3d ae3f e2bc 4f0d ad3a 4b87 8cbe
000001b0: 9985 3fbd 379d edbc 2a77 9a3d 362d 843c
000001c0: 202d 24be 527c 763d cc37 8dbd 8551 1b3d
000001d0: 2296 2abe 313f eb3d f507 eabd 5182 4cbd
000001e0: cfc2 de3d adfe ac3d 022b 423e 09bf a23d
000001f0: 504b 50bc a959 dd3c 49d2 00bd 9b75 05be
00000200: 86ef 41bd 9d98 8b3b b852 a53c b023 23bd
00000210: 77c2 19bc 3a55 b63c 4f8e dd3d 6e36 023d
00000220: 84bb cfbb be0e 003d 5be5 ca3c f982 8abd
00000230: d84f 3dbd c86b d83b 44b6 2f3e d1a8 1ebd
00000240: 968b 853d 39d5 a13d d191 c8bc dcae 983b
00000250: 62f6 903d d12c 48bd 2fdb 333d 0c6d cfbd
00000260: 6b00 59ba 792a 963c a0fa 033c d53b 0cbe
00000270: 7a93 07bd bbd0 92bc 94f0 1c3d d5a9 b03d
00000280: 2778 89bd 4493 a23d cefc a5bc dbaf 8f3d
00000290: a023 1ebd eb8c f6bc 29ce ae3d 2dd9 eb3b
000002a0: 7acc a83c 30f7 a0bb 304b 533d b7f6 893d
000002b0: acaa c8bd 959f 3cbe 247e eb38 bfda e4bd
000002c0: 920b 30be 51de 993d bf87 00be 130f debb
000002d0: 1706 c53c cc55 17bd e486 93bc e897 52bd
000002e0: 110c 5e3d b55a 6ebe 8034 17bc 00ac b6bc
000002f0: 5cbb 3e3d 36bc 123d 4e15 e73d 2b1b c3bd
00000300: 548c 8ebd adaa 8b3d 82d8 fe3d e1cb 453e
00000310: 7070 873d cc92 053e 4289 dbbb 2a3d 3abb
00000320: 31c6 c83d 918d 72bd 24aa e6bd f5f2 f13c
00000330: 78fa a43d f455 733c 5f51 323e 7160 bebd
00000340: af03 8cbd a02b d038 2204 19be 9189 a9bb
00000350: f000 ac3d 8c62 3dbe 63ce cd3d bb39 303d
00000360: 4b90 2d3d 5857 7e3d 6efe ffbd 9f56 173d
00000370: fdbf b63e 079e 9e3c 00ac eb3c 33a8 2ebd
00000380: c255 16bd b7e8 17be aed2 1c3d a76b cc3a
00000390: 683f af3d f33d b4bb 51b6 633d 7a57 2c3d
000003a0: 5726 56bd 64ff 923e 9b80 f73c 50ce 56bc
000003b0: d3f9 7dbd e8c7 e83d 7045 403e ec7e 8b3d
000003c0: 3de4 5b3e b375 56bd 94e0 07be a835 d73c
000003d0: 45f3 843c 674e 43be 2a25 15be c554 b33d
000003e0: 7628 28bd 1f77 47be 3d3f aa3d 4e3d 993e
000003f0: 7968 9f3d f868 8cbd b60e e0bd 21b5 e13d

output.bias f4 [4]
0.39007464 0.2746388 0.299584 0.2888911
00000000: ddb7 c73e 759d 8c3e 1363 993e 89e9 933e
