checkpoints/state_size_37__action_size_4__hidden_layers_[128-128]__drop_p_0.25__seed_0__GAMMA_0.99__LR_0.0005__UPDATE_EVERY_100__BUFFER_SIZE_10000__BATCH_SIZE_64__TAU_0.001.pth (torch, 89687 bytes, 6 tensors)

hidden_layers.0.weight f4 [128, 37]
000000 de 40 a0 bd a0 3a 14 bc 11 a3 0b be c9 d1 d5 bd
       -0.078248724 -0.00904718 -0.13636424 -0.10440404
000010 b0 7e ae 3d 1f ad 6a 3d a8 e6 16 3e 12 4a 00 be
       0.085202575 0.057294007 0.14736426 -0.12528256
000020 ed a7 e5 bd 33 da 36 bd ed 2f 28 be 81 39 d7 3d
       -0.1121367 -0.044641685 -0.16424532 0.10509015
000030 4c 06 8e 3d 9d d2 26 3e 9e 3f ab bd 49 9c 0c 3e
       0.06934795 0.1629128 -0.083617434 0.13731493
000040 34 df f4 3c 10 eb e3 bd 06 10 c8 bc c5 c3 f2 3d
       0.029891588 -0.11128819 -0.024421703 0.11853746
000050 c6 bd cd bc d4 bb b8 3d ff 6c 06 be 37 3b e5 bc
       -0.025114905 0.090202 -0.13127516 -0.027982337
000060 8a 8f e9 3d c2 cf 5a 3d 69 0c dc bd 48 86 45 3d
       0.11404331 0.05342079 -0.107445545 0.048223764
000070 aa 2c f8 3d 1b 7f 92 3a 5e 46 44 bd 2c 11 fe 3d
       0.12117894 0.0011176796 -0.04791867 0.12405619
000080 a9 16 a9 bd 3f 46 36 3d 40 46 3e bd 46 65 bb bd
       -0.08256275 0.044500586 -0.046453714 -0.09150176
000090 da 86 83 bd b6 e9 c6 3d 27 c2 05 3e fd d0 7b ba
       -0.06422205 0.097125456 0.13062344 -0.0009606032
0000a0 21 6a 7b 3b 27 a1 52 be d8 59 b3 bd 52 d5 04 3d
       0.0038362818 -0.20569287 -0.08757371 0.03243
0000b0 c8 fa ee 3c 27 f6 64 be ef c6 13 bf 37 aa 1b be
       0.029172316 -0.22359525 -0.57725424 -0.1520165
0000c0 74 dc 93 bd 0c 4e aa 3b fe 3c ea 3c 8b 0c 49 be
       -0.072197825 0.005197292 0.028593536 -0.19633691
0000d0 80 46 05 bb 8c ab ef bb 1d f9 96 3d 06 b0 be 3d
       -0.002033621 -0.007314151 0.07371733 0.093109176
0000e0 b3 ae 2c be 5b 75 6d bd 9b 45 8c 3d ad bb cd bd
       -0.16863517 -0.057973247 0.06849214 -0.10045562
0000f0 3e 26 d0 bd f5 28 96 bd fd d3 dc 3d 71 69 42 3c
       -0.10163544 -0.07332031 0.10782621 0.0118659595
000100 93 b5 b2 3d 2d 53 c8 bd 18 9a 6e be b9 95 18 3d
       0.08726039 -0.097814895 -0.2330097 0.03725216
000110 bc 0c 49 be 41 f2 02 bd 15 a4 da bd dd 75 9b be
       -0.19633764 -0.031969313 -0.106758274 -0.3036336
000120 5f af 0f bd 6e da 1e 3d c2 28 2d 3d fb 63 a4 bd
       -0.035079356 0.03878253 0.042275198 -0.08026882
000130 f0 a6 14 3d 59 69 82 bd 20 73 e3 bd 89 8a a2 bd
       0.036292017 -0.0636775 -0.11105943 -0.0793658
000140 39 b6 4d 3c 17 68 fe 3b 0c 8a 38 3d d6 19 40 be
       0.012555652 0.0077638733 0.045053527 -0.18759856
000150 a9 b2 d5 3d de e8 e1 3c 47 fc 18 3e 84 e3 0d bd
       0.10434467 0.02757686 0.14939986 -0.034640804
000160 a0 52 7d bd dd 34 62 be aa 99 43 3d b1 a2 ea bd
       -0.061846375 -0.22090478 0.047753967 -0.11456812
000170 ed e4 c9 bd e5 1f f2 bd 62 42 1b 3d 17 de 70 3d
       -0.09858117 -0.1182249 0.037905104 0.05880555
000180 ce bf 10 3e f4 67 e4 bd ed 58 c8 bd 41 d1 64 be
       0.14135668 -0.1115264 -0.09782586 -0.22345449
000190 fe 49 7c bd 31 1c 1d 3e 59 90 ab bd 18 6e 03 be
       -0.061594002 0.15342785 -0.083771415 -0.12834966
0001a0 1b 0d 05 be 37 d4 35 be ee 75 d5 bd d5 b8 8c bc
       -0.1299328 -0.17756735 -0.10422884 -0.017177979
0001b0 c8 c6 c8 3c 70 50 13 3e 5e de 3d bd a9 45 f5 bd
       0.024508849 0.14386153 -0.046354644 -0.11976177
0001c0 9c 86 1c be 83 70 49 3c ff 90 c8 bd af 6d 1d 3d
       -0.15285724 0.012294891 -0.09793281 0.03843468
0001d0 30 61 30 3c cc 40 8a be e1 3c bf 3d a7 ae 6e be
       0.010765359 -0.2700256 0.093377836 -0.23308812
0001e0 23 00 39 bf ae 66 62 be 97 da 9c 3d 4a c0 a0 bd
       -0.72265834 -0.22109482 0.0765888 -0.07849176
0001f0 f2 94 96 bd f3 7a 29 be 32 6c 6d be 6a f9 c1 bd
       -0.07352628 -0.16550808 -0.23185804 -0.094714
000200 25 7c 4b bd e6 8f ad bd 82 eb cc bd 88 71 5c be
       -0.04967894 -0.08474712 -0.10005857 -0.21527684
000210 06 c9 25 be 6a 54 99 bc e5 ae 76 be 2c 54 a9 bd
       -0.16189966 -0.01871701 -0.24090154 -0.08268008
000220 fa 7e 51 3d 44 0d 87 3c 82 89 93 3d 56 26 87 be
       0.051146485 0.016485818 0.07203962 -0.26396435
000230 52 b9 b4 be 26 13 66 bd e1 b9 23 be 56 3a 2c 3e
       -0.35297638 -0.056170605 -0.15988876 0.16819128
000240 31 61 84 be ff 16 6e bd 8d 46 93 3c 07 07 83 3d
       -0.258554 -0.0581274 0.017977977 0.06397825
000250 d0 ee 29 3d 46 a4 67 bd 33 7d c3 bd e9 65 0b bc
       0.041487515 -0.056553148 -0.09545364 -0.008508184
000260 83 42 bd 3d f6 64 41 be 9c 63 11 3e b1 40 2c 3e
       0.09241202 -0.1888617 0.14198154 0.16821553
000270 9d 36 38 3e be 60 4b 3f e7 d8 8f bb f4 33 99 3c
       0.17989583 0.7944449 -0.0043898704 0.018701531
000280 98 7d da 3d e8 01 65 bc 2b e5 85 bd 76 12 af bd
       0.10668486 -0.013977505 -0.06537851 -0.08548443
000290 9e 9e 89 3d ec a4 06 bd 0b d6 fe bc f7 1b 0c 3e
       0.06719707 -0.032872126 -0.031107923 0.13682543
0002a0 8a f0 a5 bd ce 73 c7 3d c2 b9 d3 3d ec 1c 94 3d
       -0.0810252 0.09738885 0.10338165 0.07232079
0002b0 29 e1 d4 3d e7 fa fa bd 5e 19 80 3c 55 f3 f8 3d
       0.103945084 -0.12254887 0.015637096 0.12155787
0002c0 3f 28 15 3d eb cd f7 3c 8e 9d 64 3d eb a0 a1 3d
       0.036415335 0.030249557 0.05581432 0.07892021
0002d0 d9 13 15 3e c8 f6 5c 3d 82 03 db 3d ee 84 bf bb
       0.14558353 0.053946286 0.106940284 -0.005844704
0002e0 e3 ad 03 bc 21 31 72 3d c2 d5 43 be 09 27 07 be
       -0.008037063 0.059128884 -0.19124511 -0.13198484
0002f0 f7 27 97 3d 21 c2 ca bd 54 93 08 3e 26 80 44 be
       0.073806696 -0.099003084 0.13337451 -0.1918951
000300 41 b5 e7 3d 9c c5 d8 bd 22 14 2a be da 95 2e be
       0.11313868 -0.10584566 -0.16609243 -0.17049351
000310 f6 24 aa 3c bc 1a f0 3d 5b 0e e9 3d fa a8 e2 bd
       0.020769577 0.11723849 0.11379691 -0.11067386
000320 8d 4f 0c bc d3 79 e2 3c 39 5e fd bd 34 12 cd bd
       -0.008563888 0.027645981 -0.12371487 -0.100132376
000330 c2 b4 21 be 26 db 0d bb 64 97 97 3c cf 48 a2 bd
       -0.1579161 -0.0021645515 0.018504806 -0.079240434
000340 97 ff ad 3d 50 08 33 be e3 b9 ea 3d e2 16 00 3c
       0.084960155 -0.1748364 0.11461236 0.007817956
000350 58 e2 0e be 61 09 90 3d 8a 8b 22 3d 94 bc b2 bd
       -0.13953531 0.07033039 0.039683856 -0.08727375
000360 b7 4d df 3d 0e 92 c6 3d 53 03 b3 3d cc f4 f5 3d
       0.10903495 0.096958265 0.087408684 0.12009582
000370 1f 04 c5 3b 31 79 4a bd 52 f5 94 bd b7 37 d7 bd
       0.006012454 -0.049431983 -0.07273354 -0.10508674
000380 fb 6b 05 3e 99 b7 8a bd 36 7a e8 bb 2d 5b 32 3d
       0.13029473 -0.067733 -0.007094647 0.043543983
000390 b2 5b 15 be e6 cc 0f 3d 01 49 23 be ac a4 26 bf
       -0.1458576 0.035107516 -0.15945818 -0.6509502
0003a0 94 99 55 3b a5 fc 6b 3d 2d ee 10 be 81 00 60 3d
       0.003259276 0.057613987 -0.14153357 0.05468798
0003b0 b5 1f 3b be ec fd a5 3d ae a0 1f be 46 64 81 3d
       -0.18273814 0.081050724 -0.15588638 0.06317954
0003c0 b7 32 96 3d 3e 72 85 be f6 46 15 be 40 fb 43 bd
       0.07333892 -0.26063722 -0.1457785 -0.047847033
0003d0 3e 11 c3 bd d5 4f 92 bd e4 ca ad bd b0 af b8 bd
       -0.09524773 -0.07144133 -0.08485964 -0.09017885
0003e0 ef d7 85 bd ef 6d fb 3d 44 f9 87 3c eb 04 5d be
       -0.06535327 0.122768275 0.016598351 -0.21583907
0003f0 a2 31 02 bd 9c 92 2f be c9 ae c0 3d 41 ed a5 bc
       -0.031785615 -0.17145771 0.094083376 -0.020254733

hidden_layers.0.bias f4 [128]
000000 58 0c 21 be 8d 58 9a bd 66 bd cb 3d 9a d2 b0 3b
       -0.15727365 -0.07536421 0.09948234 0.0053961994
000010 a2 2e c1 3d 50 c8 a2 bd 09 98 c5 bd 04 4f 38 3c
       0.09432723 -0.07948363 -0.09648139 0.011249308
000020 83 e8 49 bd bf 24 8f 3d 80 1d 81 3d e4 5f 2b be
       -0.049294006 0.06989431 0.06304455 -0.16735798
000030 0e 54 2b be e2 fb 2d 3e b3 8f 95 3d fd 22 01 be
       -0.16731283 0.16990617 0.07302799 -0.12611003
000040 ee c0 75 be 39 60 3a bc f6 79 1b be 27 24 46 3d
       -0.23999378 -0.01137548 -0.15183243 0.04837432
000050 9d 2b cf bd bf c5 5d be b9 5b bf bc 28 b4 b3 3b
       -0.101157404 -0.21657465 -0.023359166 0.005484123
000060 39 41 9c bc ff c3 32 bd 96 9c c8 bd a0 cb 97 bd
       -0.01907407 -0.043643948 -0.097954914 -0.07411885
000070 f2 c6 5b be 80 b6 e3 bd 0a 03 53 be e6 1c 00 be
       -0.2146261 -0.111187935 -0.20606628 -0.12511024
000080 2c 08 f9 bd 88 60 da 3c fa 75 8b bc dc c8 a0 bd
       -0.12159762 0.026657358 -0.017024029 -0.07850811
000090 b1 e6 e9 bc 09 20 d6 bd de a0 9d bb d4 83 a6 bd
       -0.028552385 -0.10455329 -0.0048104366 -0.08130613
0000a0 c9 d7 c1 3c 35 a0 f1 bd 8f 73 e2 bd 32 b0 a3 3d
       0.023662465 -0.11798135 -0.11057197 0.07992591
0000b0 74 b1 b6 bd 68 5e a6 bb b2 0f 0f be f3 6e 21 be
       -0.08920565 -0.005077172 -0.13970831 -0.1576498
0000c0 05 6d e6 3d 09 5c 84 bd 2f ce 17 be 64 bf 06 3d
       0.112512626 -0.06462867 -0.14824747 0.032897368
0000d0 7f 2c 0b be 58 39 af bd 30 d0 0d be 29 cc 01 be
       -0.13591193 -0.08555859 -0.13848948 -0.12675537
0000e0 52 6a 07 be 94 1a 55 3d 3c 07 44 3d ef 07 7d 3c
       -0.13224152 0.0520273 0.04785846 0.015443786
0000f0 7f 13 d9 3c 25 8d d9 bd 2e 9d 90 3a e9 60 18 3e
       0.026498554 -0.10622624 0.0011033171 0.14880718
000100 c5 a9 3b 3d 51 f2 d0 3d 04 4a cb 3d 22 d4 34 be
       0.0458162 0.10202468 0.09926227 -0.17659047
000110 86 c5 0f be b6 63 bf bc 9e b6 a5 3b a9 43 82 3d
       -0.14040193 -0.023362976 0.00505717 0.063605614
000120 f7 34 d0 bd ef be d2 3c 1b f1 d2 bd 5e 11 eb bc
       -0.10166352 0.02572581 -0.102998935 -0.028694805
000130 73 82 25 bc 4d 0d 9c 3b 4e a6 c7 bd 55 97 bf bd
       -0.010101902 0.0047623278 -0.09748517 -0.09355036
000140 7a 3b 18 be 24 b9 d7 bc 5b 54 90 bd 23 8d 33 be
       -0.14866439 -0.0263334 -0.070473395 -0.17534308
000150 ec 2e 1b be 78 3f 5f be 82 d3 d3 bc 75 69 82 3d
       -0.15154618 -0.21801555 -0.02585769 0.063677706
000160 f9 e4 21 3d 2e b4 94 bd 49 91 d4 ba f7 07 19 bd
       0.039525006 -0.07260929 -0.0016217615 -0.03736111
000170 29 29 23 3c 41 0d 27 be 9c 3b fe bd 1f b2 61 3d
       0.009958544 -0.1631365 -0.12413713 0.05510151
000180 c3 fe 2a be 7a 3d da 3a 86 15 60 bd a6 64 63 3c
       -0.16698746 0.0016650402 -0.054708026 0.013878977
000190 41 8a 83 bd 19 58 87 3d 97 73 8d 3d 0d 13 f2 bc
       -0.06422854 0.066086 0.06906813 -0.0295501
0001a0 29 05 27 be 75 2c 8b 3d cf c3 00 be 56 18 0c be
       -0.16310562 0.06795589 -0.12574695 -0.13681158
0001b0 48 d9 5e 3d 30 1e 89 3d 66 40 b9 3c a3 20 1d bd
       0.054406434 0.06695211 0.022613715 -0.038361203
0001c0 a0 85 0b 3d 88 64 4f 3d fd 60 4c 3d 17 8b dd bd
       0.03406298 0.050632983 0.049897183 -0.10817545
0001d0 e9 b0 db 3d e5 99 87 bd fe c8 52 bd 6b 68 38 3c
       0.10727102 -0.0662115 -0.051461212 0.011255364
0001e0 28 97 9d 3d f6 04 d3 bd f0 e9 22 be 79 fd 8a 3d
       0.076948464 -0.103036806 -0.15909553 0.06786627
0001f0 6f c8 00 be f9 df da 3d 46 ff 13 3e 7b b5 87 bc
       -0.1257646 0.10687251 0.14452848 -0.016566029

hidden_layers.1.weight f4 [128, 128]
000000 75 3d a8 bd 53 70 98 bd 98 a1 57 3d b3 a8 49 bb
       -0.08214847 -0.07443299 0.052644342 -0.0030770719
000010 0f 4e aa bd f0 33 8f 3d 57 4a 15 bd 08 fb a4 bd
       -0.0831567 0.06992328 -0.03644785 -0.08055693
000020 3b 97 8b 3d 89 22 f4 3c b2 0c 41 3d 1c 05 98 bd
       0.06815954 0.029801624 0.047131248 -0.074228495
000030 dc ac 88 bd 68 8b a7 bd 1d be ca bd c4 9b 79 3d
       -0.06673595 -0.081808865 -0.098995425 0.060939565
000040 2d 48 85 3d 9c 85 17 3d be 5e 1c 3c 55 ed 59 bc
       0.06507907 0.036992654 0.009544073 -0.013301213
000050 0f 91 a8 3c c1 b8 fa 3c 07 fe 94 3d 05 8e 95 3b
       0.020576982 0.030605676 0.07275014 0.004564049
000060 00 91 59 bb 47 1c b8 bc 7e d6 54 3a dc 72 09 3d
       -0.0033198 -0.022474421 0.000811912 0.033556804
000070 d6 bd 9f bb fc b1 8b bd 74 97 37 3d db 35 f3 3c
       -0.004874925 -0.06821057 0.04482217 0.029688766
000080 68 2c e8 3b b4 30 74 ba b0 18 c2 bd 56 32 35 bd
       0.0070853718 -0.00093151187 -0.09477365 -0.044237457
000090 a0 ec 14 bd 4d 4d ca bd 60 d7 dd bb d6 c3 e6 bc
       -0.036358476 -0.09878025 -0.0067700595 -0.028169554
0000a0 7b dc 9f bd ff c5 79 3d d6 96 3b bd 1c ac 57 3d
       -0.07805725 0.06097984 -0.045798145 0.05265437
0000b0 78 a3 9e bd 13 6c 29 3d 1f 6f 43 bd 3c fd c1 bb
       -0.07746023 0.041362833 -0.047713395 -0.0059200805
0000c0 b9 fb 26 bd 95 32 f6 3c ee 23 5c bd f8 e6 a3 3c
       -0.040767405 0.030053416 -0.053745203 0.020007595
0000d0 a9 e4 f0 3c 35 10 95 bd 2b 06 66 bd 1d ef 50 bb
       0.029405909 -0.07278482 -0.056158226 -0.0031880804
0000e0 d7 b5 d2 3c 0e 60 ca bc 80 4a 24 bd 9b 79 29 bd
       0.025721474 -0.024704006 -0.04011011 -0.041375738
0000f0 e3 ac 60 bd 76 09 71 3c 6c 34 d7 bd 4d 8d c7 bc
       -0.054852378 0.014711728 -0.105080456 -0.02435937
000100 15 6d b8 bb 1b 9d 66 bc ab 2b 34 bd 0a 27 e4 bc
       -0.005628238 -0.014075543 -0.043986958 -0.027850647
000110 cd cc c2 bd 8a 58 c7 3c db 7d 3b bd ad 45 48 3d
       -0.09511719 0.02433421 -0.045774322 0.048894573
000120 a5 77 8c bd 55 34 35 bd ea 33 46 bb 2d 3f 8c bd
       -0.06858758 -0.04423936 -0.0030243346 -0.06847987
000130 85 0c 8e 3d b0 93 af bd a7 4d 18 bb ff a8 2f bd
       0.06935982 -0.08573091 -0.0023239644 -0.042885777
000140 2f 0a 00 bc 7d 17 d9 bd 00 72 d1 bd e2 30 aa bd
       -0.007814928 -0.10600183 -0.10226822 -0.08310105
000150 75 6e 2e 3d d2 69 7a bd 6d b4 00 bd 33 54 b2 bd
       0.04258581 -0.061136074 -0.031422067 -0.08707466
000160 8d 2a 04 3d 5f 7e f3 bb 33 e7 1e 3d 21 3f 92 bd
       0.032267142 -0.007430836 0.038794708 -0.07140947
000170 fd 6d d9 bd 64 6e 6e bd f6 be 77 bb 72 21 9d bc
       -0.10616682 -0.058210745 -0.003780303 -0.019180987
000180 ea c5 3d bd fd 97 b6 3a e6 ff d5 3c 68 a7 2a 3c
       -0.046331324 0.0013930794 0.026122998 0.010415889
000190 dd ba d8 bd 58 9a fa bc ca 79 36 3d 8c c0 fb bc
       -0.10582516 -0.030591175 0.04454974 -0.030731462
0001a0 82 8a f1 3c db 37 7c bd 7b ba 2e 3d c8 6c 26 3d
       0.029484991 -0.061576705 0.04265831 0.040631086
0001b0 22 9e 9f bd 2b db dc bb 7d 78 b0 bd 9c bb 5f 3c
       -0.07793833 -0.006739994 -0.08616731 0.013655569
0001c0 c4 5d 40 3c b1 7f 1a bd 35 eb d4 bd 91 35 be bc
       0.0117411055 -0.037719432 -0.10396425 -0.023218902
0001d0 fa b5 4a bd 8d ee e5 ba cc 98 19 bd d4 22 1e bd
       -0.049489953 -0.0017542407 -0.037499234 -0.038607433
0001e0 68 04 41 bb ef ac cf bc 29 c7 b8 bb 5f c2 af bd
       -0.002945209 -0.025351016 -0.005638976 -0.08581995
0001f0 37 75 7d 3d e1 b8 01 3d b9 06 53 bc e7 57 e8 ba
       0.061879363 0.031670455 -0.012880021 -0.0017726392
000200 e8 73 6c 3c 99 fd c2 3d 39 d8 bc bc 1d 7f cb 3d
       0.014431931 0.09521026 -0.023052322 0.09936354
000210 3f 30 4f bd 45 14 8a bd aa 49 9c 3d 70 c1 8f bd
       -0.05058312 -0.06742147 0.07631238 -0.07019317
000220 7d b7 b9 bd 28 31 ee 3d aa 6c 89 bd c0 c5 d5 3d
       -0.09068201 0.116304696 -0.06710179 0.104381084
000230 8d 91 ad 3c bc d9 69 3b 06 34 be 3d ad 31 9f bd
       0.021187568 0.0035682758 0.092872664 -0.07773147
000240 72 22 3b bd 07 75 06 3d ea f3 15 be 94 6e 02 bd
       -0.045687146 0.03282645 -0.14643827 -0.031843737
000250 09 8a 19 bc 78 2f a2 bd 04 a4 5b bd 30 c6 01 3d
       -0.009371289 -0.0791921 -0.053623214 0.031683147
000260 1c ae bd bd f4 61 a8 bc 02 33 d8 bc c2 0c d8 bc
       -0.09261724 -0.02055452 -0.02639151 -0.02637327
000270 df 8f 3a be 1d e0 b9 bd f3 c4 16 3d 22 57 9b 3d
       -0.18218945 -0.09075949 0.03680892 0.07584979
000280 b5 f1 83 3c da 72 67 3d e7 76 84 3d 5a ed 85 3d
       0.016106466 0.056506015 0.06467991 0.06539412
000290 05 09 ae bd ad eb 6f bd 16 b4 dd 3d 61 eb d7 bc
       -0.08497814 -0.058574367 0.10825364 -0.026357355
0002a0 88 69 65 bc 4f 46 b6 bd 66 1f 03 bc 51 2f a0 3c
       -0.014002211 -0.08900129 -0.008003091 0.019553812
0002b0 74 27 f8 bc 67 17 8b 3c 59 b0 5b bb b2 c0 23 bd
       -0.03029225 0.016978933 -0.003352186 -0.03997869
0002c0 63 55 b1 bd 35 d1 ab bc 9a a9 99 bd 45 85 24 bd
       -0.08658864 -0.020973781 -0.07503052 -0.04016616
0002d0 e7 8b 20 3c eb ff c7 3c af c9 0a 3c 26 3c 6a bd
       0.00979898 0.024414023 0.008470937 -0.05718627
0002e0 2b f1 0e bd 4b 12 23 bc f4 59 56 bc b2 ed 43 3d
       -0.034897964 -0.009953092 -0.01308297 0.047834106
0002f0 90 7b 8e bd 2e 90 09 bd 30 17 af bc 44 09 b1 bd
       -0.069571614 -0.033584766 -0.021373361 -0.086443454
000300 e2 d1 7b 3d 0f 10 7d bc 8f 2a 16 bd 3b aa 46 3d
       0.061479457 -0.015445723 -0.03666168 0.04850219
000310 df 13 e3 bd 39 ff f2 3b 7e 5f 36 bc 2e d2 4f 3d
       -0.110877745 0.007415679 -0.011131166 0.050737552
000320 3e 59 ab bd 7d 8e d7 bd 40 6f d9 bd e3 29 ad bd
       -0.08366631 -0.10525224 -0.106169224 -0.08455255
000330 15 11 80 bd ca 2b 27 3d 85 9a 48 bb 2d e7 ec bd
       -0.06253258 0.040813245 -0.003060968 -0.11567531
000340 ec 8b 74 bd 71 a0 9c 3d c8 75 a0 3d 9a 13 65 bd
       -0.059703752 0.07647789 0.07834965 -0.055926897
000350 5e aa 48 3c 39 f5 4d 3d f9 0c c9 bc 37 12 6f bd
       0.01224765 0.05028269 -0.024542319 -0.05836698
000360 78 aa 86 3d 22 b9 51 3c 8f a8 a2 3d 19 80 b6 bb
       0.06575483 0.012800487 0.07942306 -0.0055694696
000370 b1 b9 0e bc 82 fa 5b 3d 1f 60 d9 bb 1e 7f 7f bd
       -0.0087112645 0.0537057 -0.006633773 -0.062377088
000380 33 f1 bf bc b6 d3 18 bc 34 4d 20 bc 01 08 17 bd
       -0.023430442 -0.00932782 -0.009784032 -0.036872867
000390 42 43 68 3c b0 c7 83 bd 61 da e5 3d c2 92 ab 3c
       0.014176192 -0.06434572 0.11223293 0.020944003
0003a0 80 ea 59 bd e6 ad c5 3d ff 11 d8 bc 48 31 a4 bd
       -0.053202152 0.09652309 -0.026375769 -0.08017212
0003b0 a1 d1 0d be eb 04 24 bd 87 fc 24 bc 8a 90 15 bc
       -0.13849498 -0.040043753 -0.010069973 -0.009128699
0003c0 cd 9f 13 bc ec 3b 40 bc 60 8c a2 3c 04 a6 bf 3b
       -0.009010267 -0.0117330365 0.019842327 0.005848648
0003d0 87 72 38 3e 09 07 ad 3d 39 09 c8 bd ed b8 9d bd
       0.18012439 0.084486075 -0.09767384 -0.077012874
0003e0 ed 5e d7 bd 55 10 11 bd 5d 5f 79 bd 2d b4 2c 3d
       -0.105161525 -0.035415966 -0.06088196 0.042164017
0003f0 ba 7e dd bc c5 b6 07 be 67 65 1f 3d 96 07 f1 3c
       -0.027037967 -0.13253315 0.038915064 0.029422563

hidden_layers.1.bias f4 [128]
000000 d2 fb b3 bd ff f4 fe 3d 73 be d0 bd 01 6f 80 bd
       -0.08788265 0.12449073 -0.10192575 -0.06271172
000010 71 f1 82 3c 59 63 4b 3d c7 76 9d bd 0c 46 0c 3e
       0.015984269 0.049655292 -0.076886706 0.13698596
000020 5f 9e f1 bc ff 66 0d 3d 48 78 fa 3d 33 04 ef 3d
       -0.029494463 0.034522053 0.12229973 0.11670723
000030 34 79 83 bd 25 f6 77 3d c7 3a 33 3d 52 90 da bd
       -0.06419602 0.060537476 0.043757226 -0.10672058
000040 e7 41 0b 3c f3 40 18 3d 37 6e 7c bd 07 31 1c 3e
       0.008499599 0.037171315 -0.061628547 0.15253077
000050 0c f2 fd bd a2 32 e4 3d cc df db 3d d4 e5 98 bc
       -0.123996824 0.1114247 0.10736045 -0.018664278
000060 c0 62 06 3e 4f e4 94 3c c2 36 23 3d 84 39 55 3d
       0.13123608 0.018175272 0.039847143 0.052056804
000070 32 e6 9b bc d1 2b e5 3c ac e4 b5 bd f3 d2 9f bd
       -0.019030664 0.027974995 -0.08881506 -0.07803907
000080 ba 49 0d 3e a1 97 06 3e c2 78 bc bd f5 d2 0d bc
       0.13797656 0.1314378 -0.0920272 -0.008656253
000090 2f b2 c0 bd 22 66 93 bd b7 0f 9a 3c 67 f8 13 3e
       -0.09408986 -0.07197215 0.018806322 0.14450227
0000a0 0c cf f2 bd 59 84 1d bd 93 6f 06 bc 9e 88 76 3d
       -0.11855897 -0.038456295 -0.008205312 0.060188882
0000b0 65 5e 47 3d eb a2 ac bd 0b a9 22 3d 99 22 b9 bd
       0.048674006 -0.08429512 0.039711993 -0.09039802
0000c0 84 65 3b bd 2a 03 63 3d c6 4f 25 3d e8 df ab 3d
       -0.04575111 0.05542294 0.04035928 0.08392316
0000d0 d2 6a 73 bc b9 45 68 3d e8 11 8f 3d 10 1c a4 bd
       -0.014857011 0.056707118 0.06985837 -0.08013165
0000e0 e8 25 39 bc 47 0c dc 3d 5d 56 b0 bd 80 50 e3 bc
       -0.011300541 0.10744529 -0.086102225 -0.027748346
0000f0 3c f0 8e bd e8 13 4e 3d 99 f4 d7 3c 4f 61 d6 bd
       -0.06979415 0.050311953 0.02636175 -0.10467779
000100 79 77 b7 bc 8d ae 8d 3d bf d7 46 3b cc bc f1 3d
       -0.022395836 0.069180585 0.0030340997 0.11803588
000110 68 5c 2d bc 59 71 dd 3c 18 af 4d 3c 02 a9 34 bc
       -0.010581113 0.027031587 0.012553953 -0.011026623
000120 29 01 dc 3b 98 19 ae 3d ee b6 93 3d c9 f0 a0 3c
       0.0067140055 0.08500975 0.072126254 0.019646065
000130 4d 3c 9e 3d b9 13 7c bd 0f 3b 51 3d c6 52 09 bd
       0.07726345 -0.061542246 0.051081713 -0.033526205
000140 64 3b 04 3e 82 f2 89 bc 72 7d 11 3d 22 dc b8 bd
       0.1291328 -0.01683927 0.035520025 -0.09026362
000150 2c 9f e5 bc 84 70 89 3d 9a f1 8c 3d 18 b4 2d 3d
       -0.02803 0.06710914 0.06882019 0.04240808
000160 9c b7 f3 3d 45 ae b0 bd 8a d2 b3 bd 55 9e 21 3d
       0.11900255 -0.08626989 -0.087803915 0.039457638
000170 60 5c 87 3d e7 25 75 bd 7d 00 82 bd 4a fc 30 3d
       0.06609416 -0.0598506 -0.063477494 0.04320935
000180 3a f0 0b 3e 61 bb a1 3d ea a2 89 3d c7 5a ed 3d
       0.13665858 0.07897068 0.067205265 0.1158958
000190 c6 57 20 bc 46 77 5a bd 27 b1 39 bd 76 d1 d0 3c
       -0.009786552 -0.053336404 -0.04533496 0.025490504
0001a0 04 69 4f 3d ce e8 08 3c bc 4d 2d bd 3d 7b a0 3d
       0.05063726 0.008356286 -0.04231046 0.07836006
0001b0 62 cb 60 3d df e3 d7 3d 4b 7f f6 bc 29 6d c3 bd
       0.05488146 0.1054151 -0.030089995 -0.09542305
0001c0 a4 92 2a 3d 6b 90 b4 3c ab a6 fb bc dd f0 8c 3d
       0.041643754 0.02204152 -0.030719122 0.068818785
0001d0 cd 1b 0d 3c 59 72 08 bd bc fe 87 bd 79 3d c1 bd
       0.008612585 -0.033312175 -0.066403836 -0.09435553
0001e0 79 fa 10 3d fb 32 0b bd 62 ab 02 bd a5 3a 49 3d
       0.03539512 -0.033984166 -0.031901725 0.049128193
0001f0 30 f2 0d bd a2 96 75 bd 39 a7 95 bd 9d 6a af 3d
       -0.034654796 -0.059958108 -0.07307286 0.08565257

output.weight f4 [4, 128]
000000 db 8b 3e bd 9c 39 5c 3d cc 5a bc 3c 36 4c a5 ba
       -0.046520095 0.053765878 0.022992514 -0.0012611214
000010 ef c1 64 3d eb 6b 62 bb 30 0d 72 3d f3 93 92 3d
       0.055849012 -0.0034549187 0.059094608 0.07157125
000020 5c 2b ec 3d 4b 2b 4a 3d d5 d7 35 3d c0 c3 be 3d
       0.11531708 0.049357694 0.044395287 0.0931468
000030 3d cc 82 bd b7 21 84 bc f3 5a 9a bc d1 f2 bb bc
       -0.063866116 -0.016129358 -0.018842196 -0.022942932
000040 19 1c 23 bd 60 fd e8 bd 20 ab 6b bb 08 99 87 3d
       -0.039821718 -0.113764524 -0.0035960153 0.06620985
000050 13 79 80 3c cd 2e 45 3d 8d 14 58 3d 30 57 7b bc
       0.015682733 0.048140336 0.052753974 -0.015340611
000060 86 67 48 3d 7e b0 de 3b 90 4d 3f bd c6 59 8c 3d
       0.048926853 0.006795942 -0.04670483 0.068530604
000070 bd 05 62 3d 93 41 c9 bb e9 1c 60 bc 02 3c f9 bb
       0.055181254 -0.0061418503 -0.013678768 -0.0076060304
000080 47 35 81 3d 13 9b 83 3d d1 b2 9f 3c 49 9e 3b bd
       0.0630899 0.064260624 0.019494446 -0.04580525
000090 8d 1c 95 bd e1 3d b3 bb 84 60 77 3d 67 24 4e 3d
       -0.07280836 -0.005470023 0.06039478 0.050327685
0000a0 18 15 4a bd f3 2b 03 bc e3 f4 21 3d 14 8e 4b 3d
       -0.049336523 -0.008006084 0.039540183 0.049696043
0000b0 6c e2 a6 bc 26 71 33 3d df d6 7c bd 3a 82 13 3b
       -0.020371638 0.04380908 -0.061728355 0.002250804
0000c0 c4 39 56 3b b8 10 90 3d c4 7b 92 bc 56 c9 14 3d
       0.003268824 0.07034439 -0.017881282 0.03632482
0000d0 f4 03 fe 3c 0e 8b 65 3d f7 ca 46 3d da b6 07 bc
       0.031007744 0.056040816 0.048533406 -0.008283341
0000e0 0f 4b 66 3d ed a0 60 3d 30 5c 34 bc 12 de c0 3c
       0.056223925 0.05484097 -0.011008307 0.023543391
0000f0 d3 cd 91 bc c7 3a 25 3d be 8b a3 bc c3 12 7e 3d
       -0.01779834 0.040339258 -0.019964095 0.06202961
000100 42 09 8b 3c f9 ec 37 3d 53 01 06 bc e2 a2 37 3d
       0.016972188 0.04490373 -0.008179027 0.04483307
000110 48 e0 a7 bd ce 84 27 bb 5d 59 a0 bc c1 cd 2a bd
       -0.08197075 -0.0025561335 -0.019573862 -0.04170013
000120 b3 ea bd 3d 19 f1 26 3d 3e 87 a2 bc 22 85 bf bc
       0.09273281 0.040757272 -0.01983988 -0.023378912
000130 a7 cd 89 3d e2 db d8 3a cc 82 b6 3d 2c 2d f5 bb
       0.06728678 0.0016545022 0.08911666 -0.0074821915
000140 b5 74 71 3d b1 44 76 3d e9 d8 54 bc 79 a9 0f 3d
       0.05894919 0.060124103 -0.012991169 0.03507373
000150 0b 05 75 3c 50 94 18 bd 3d 9d 2a 3d dd 36 e3 bc
       0.014954816 -0.037250817 0.04165386 -0.027736122
000160 cc cc b0 3d 8c 40 9c bd 2c 1b 21 bd b3 20 90 3d
       0.08632812 -0.07629499 -0.039332554 0.07037487
000170 c7 35 8b 3d ef a4 8c bd 51 84 42 3d 7b ea 5b 3d
       0.067973666 -0.06867396 0.047489468 0.053690415
000180 e0 46 83 3d 0a 2b 8a 3c b5 fa 84 3d c8 9e 5e 3d
       0.06410003 0.016866226 0.06493131 0.054350644
000190 26 dd 7f bc 47 1d 99 bc ac f7 33 3b 6a 41 48 3c
       -0.015616691 -0.018690718 0.0027460856 0.012222627
0001a0 79 3c 0c 3d 0f 58 8a bd af 89 7c bb 4a 47 59 3d
       0.03423736 -0.06755077 -0.0038534214 0.053046502
0001b0 c0 cf 89 bc 96 6e 96 3d 70 5c 2f 3d 99 b4 ba 3b
       -0.016822696 0.07345311 0.042812765 0.0056977984
0001c0 57 2b e2 bc fb bb 89 bd b5 3b 8c bb 53 ea 98 bc
       -0.027608557 -0.067253076 -0.0042795786 -0.018666422
0001d0 99 3a a4 bd 90 b4 69 bd 25 1e a0 bd 96 7b b1 bc
       -0.08018989 -0.057056963 -0.078182496 -0.021665376
0001e0 5a 0f 99 bd 15 05 f2 3c 2f fe 81 bc c3 a5 86 bd
       -0.07473631 0.029543439 -0.015868274 -0.06574585
0001f0 c9 45 db bc 21 84 ff bc 09 87 97 3b 4b d5 61 3d
       -0.026766675 -0.031190934 0.0046242517 0.055135053
000200 70 4c 2e 3d 0b 3e f8 3c 25 ab 09 3d 12 1d 6a 3d
       0.042553365 0.030303022 0.03361048 0.05715663
000210 b6 88 83 3d 97 9a 23 3d 7e 23 45 bb e6 b8 4d bd
       0.0642256 0.03994235 -0.003008097 -0.05022516
000220 74 44 fb ba 81 3a 00 3d 79 31 1d 3d 72 08 10 3d
       -0.0019170181 0.031305794 0.03837726 0.035164304
000230 3b 7a a6 bd cd 82 48 3b 55 31 2e 3c 21 3f 79 3b
       -0.08128782 0.0030595541 0.010631879 0.0038032013
000240 8d 30 ea ba 26 ab ae bd b6 ab 4f ba 53 e9 d1 bc
       -0.0017867252 -0.08528738 -0.000792201 -0.025623953
000250 c6 2d 3d 3c b1 7e 8e 3d d2 51 13 3d 76 23 a9 3d
       0.011546558 0.06957758 0.0359667 0.08258717
000260 a6 e3 1a bc e9 07 80 bd 2d 41 aa bb 5b 37 b9 39
       -0.00945369 -0.06251509 -0.005195758 0.00035327193
000270 32 cc f5 bb 02 ec 9d 3c 71 a1 18 3d 72 74 45 bd
       -0.0075011486 0.019277576 0.037263338 -0.048206754
000280 0e 6f 40 3d 42 a7 84 bc 53 88 7b 3d 47 1b 20 bc
       0.04698091 -0.016193036 0.061409306 -0.009772128
000290 4a 17 31 bd a2 92 7b 3d aa ee 4f 3d 92 65 ed 3c
       -0.0432351 0.061419137 0.050764717 0.028979097
0002a0 1b a8 bf bc fc 70 93 3c 17 2d 73 3d a1 c7 1c 3d
       -0.023395589 0.017998211 0.059369173 0.03827632
0002b0 69 9d ed bb 71 71 a2 3a c3 99 fa bb e5 f5 99 bb
       -0.007251431 0.0012393427 -0.0076477244 -0.0046985024
0002c0 4e 93 50 bb 09 bb 5c 3c 41 8f 13 bc c0 1c cb 3c
       -0.0031826082 0.013472327 -0.009006322 0.024793983
0002d0 a1 b8 ca bb a2 35 87 3d b5 59 5d 3d 3f e6 1d bd
       -0.0061865603 0.066020265 0.05404063 -0.038549658
0002e0 69 27 c4 3c 70 11 d1 bc ca 1a 8d bd ce 34 86 3d
       0.023944573 -0.02552101 -0.06889875 0.065530404
0002f0 c1 b8 a0 bd 80 44 e8 bc 68 34 ba bb d9 78 ee 3c
       -0.07847739 -0.028352976 -0.005682517 0.029110359
000300 fa c7 5e 3d 1b eb 81 3d 54 e5 83 3d 72 f0 06 bc
       0.05438993 0.06343671 0.06440225 -0.008236038
000310 c6 87 a9 bc ea d0 e3 bb 86 69 9b bd 78 01 35 bc
       -0.020694625 -0.0069523947 -0.075884864 -0.011047713
000320 7a c4 1b bb 81 56 26 3d a3 65 56 3c c9 a1 cf 3c
       -0.0023768232 0.04060984 0.0130857555 0.0253457
000330 ab ad f0 3c 6d ee 40 3d 8c 7f b2 3c 89 cc fe bc
       0.029379686 0.04710238 0.021789335 -0.03110339
000340 dd cb 86 3c 79 ed b6 bd 6f dd 90 bc bb 7f 05 3d
       0.016454631 -0.08932013 -0.017683713 0.032592516
000350 3a 10 7b 3d ed 7b 2d bc 9a 7e ed 3c 99 58 59 bd
       0.06129477 -0.010588628 0.028991032 -0.05306301
000360 bf ea 4d 3d 8a 0c 36 bd 74 c2 87 bd f6 a9 ad 3d
       0.0502727 -0.044445552 -0.06628886 0.08479683
000370 7c 0a ab bc c8 12 1e bd 65 52 01 3d dc 73 1b bd
       -0.020879023 -0.03859213 0.03157272 -0.03795229
000380 19 34 83 3d 96 8a 23 bc 9e 7c a4 3d 7d 9c 37 3d
       0.06406421 -0.009981772 0.08031581 0.044826973
000390 b1 ea ef 3c 0c 2f 80 bd 0c 2b de bc 11 c2 04 bd
       0.029286714 -0.062589735 -0.027120136 -0.03241164
0003a0 c3 84 a4 3c 42 49 60 bc ee 1a ee 3c e2 06 86 3d
       0.020082837 -0.013689341 0.029065575 0.065442815
0003b0 d5 9b de 3b 4a c8 0f 3d 27 1b 6d 3d de f9 8a 3c
       0.006793479 0.03510312 0.057887223 0.01696485
0003c0 67 65 9f 3c a5 10 28 bd 09 7a 5b 3a 7f 31 bb b8
       0.019457532 -0.0410315 0.00083723717 -8.926074e-05
0003d0 24 76 07 bc 38 35 37 3d 11 89 74 3b 19 44 89 bd
       -0.008267913 0.044728488 0.0037313143 -0.06702442
0003e0 8d ed 82 3d 2a 90 da bc 6b 26 ba 3c f4 af 72 bd
       0.063929655 -0.02668007 0.022723397 -0.059249833
0003f0 6b 7a 89 bd b5 bd 73 bc 51 ea a3 bb 93 49 35 3d
       -0.067128025 -0.014876773 -0.005002298 0.04425962

output.bias f4 [4]
000000 d0 48 b3 3d 64 19 6c 3d d8 28 8b 3d fe c7 9d 3d
       0.08754122 0.057641402 0.067949 0.07704161
