checkpoints/state_size_37__action_size_4__hidden_layers_[64-64]__drop_p_0.25__seed_0__GAMMA_0.99__LR_0.0005__UPDATE_EVERY_25__BUFFER_SIZE_100000__BATCH_SIZE_64__TAU_0.001.pth (torch, 29527 bytes, 6 tensors)

hidden_layers.0.weight f4 [64, 37]
0	0xbd1f0f85	-0.03883316
1	0xbd4d78d6	-0.050164066
2	0x3d4ef889	0.05052999
3	0xbddbf9c5	-0.10740999
4	0x3d015d87	0.031583335
5	0xbe16b59a	-0.14717713
6	0x3cfe8115	0.03106741
7	0xbddfbd26	-0.10924749
8	0x3da3b93f	0.07994317
9	0xba942b46	-0.00113044
10	0x3d2a29e1	0.041543845
11	0xbe0b5cbf	-0.13609599
12	0xbd2466de	-0.040137164
13	0xbd92df71	-0.07171524
14	0xbe55cf7a	-0.20879927
15	0x3be9f453	0.0071397214
16	0xbe135f2a	-0.14391771
17	0xbdf1eea0	-0.11813092
18	0x3cdae8e7	0.026722385
19	0x3d77401c	0.060363874
20	0xbda38c52	-0.07985748
21	0xbe1e266c	-0.15444344
22	0xbe5c7334	-0.21528322
23	0xbe20315e	-0.15643832
24	0xbe1421c9	-0.14466013
25	0xbe364846	-0.17801008
26	0xbe3beb9e	-0.183516
27	0xbdef5690	-0.11686432
28	0xbde1b3f7	-0.11020654
29	0xbe45941b	-0.19294779
30	0xbe26145d	-0.16218705
31	0x3acca451	0.0015612935
32	0x3d147413	0.03624351
33	0xbe05f0bb	-0.13080113
34	0xbe3504c6	-0.17677602
35	0xbd978d9c	-0.07400057
36	0xbd292215	-0.04129227
37	0x3d021745	0.031760473
38	0x3d4a1705	0.04933836
39	0x3d44451c	0.04791747
40	0x3d235035	0.039871413
41	0x3d0117bb	0.03151677
42	0x3d9462bc	0.072453946
43	0xbe96a423	-0.294221
44	0xbe5f6f6d	-0.2181985
45	0x3d4a7738	0.049430102
46	0xbfb29b0d	-1.3953568
47	0xbdd6e542	-0.10492946
48	0xbd9882a3	-0.07446792
49	0xbda5caef	-0.08095347
50	0xbdac6260	-0.08417201
51	0xbc1b87b5	-0.009492804
52	0xbd3ad2f7	-0.045611348
53	0xbd9807d4	-0.07423368
54	0xbd787398	-0.060657114
55	0xbc6ebaf7	-0.014570943
56	0xbd7395ba	-0.059468962
57	0x3d95e3b9	0.07318825
58	0x3db35be6	0.087577626
59	0xbcc01d48	-0.023451462
60	0xbc9a3aa0	-0.018826783
61	0xbdd36672	-0.10322274
62	0x3dd765ec	0.10517487
63	0x3da0fc68	0.07860643
64	0x3d63345f	0.055469867
65	0xbca56c67	-0.020193292
66	0xbe248a97	-0.16068493
67	0x3e1863d0	0.14881825
68	0x3c52e0f5	0.012871017
69	0xbd76c328	-0.06024471
70	0xbe2f13f0	-0.1709745
71	0xbefa6328	-0.48903775
72	0x3c7132c4	0.014721576
73	0xbbe67122	-0.0070325295
74	0x3ca6cfee	0.02036282
75	0x3c92596d	0.017864907
76	0x3d6d73d5	0.057971794
77	0x3ccf06d7	0.025271816
78	0x3cb1c092	0.02169827
79	0xbe9cb6cc	-0.30608213
80	0x3e8046de	0.25054067
81	0x3e85acc6	0.26108378
82	0x3e6ee71c	0.23330349
83	0xbea9baee	-0.3315043
84	0xbb10db05	-0.0022103202
85	0x3c62af72	0.013835775
86	0x3d428437	0.04748937
87	0x3dd035eb	0.10166534
88	0x3db2a9d9	0.08723802
89	0xbd704977	-0.05866381
90	0x3c74bebe	0.014938055
91	0xbc393420	-0.0113039315
92	0xbb8f506c	-0.0043736007
93	0xbd2fdc2a	-0.042934574
94	0xbe0e250d	-0.13881321
95	0x3d55cd0d	0.052197505
96	0x3d14dc29	0.036342774
97	0xbd833490	-0.0640651
98	0x3dd57040	0.104218006
99	0xbe80215d	-0.25025454
100	0xbd3ba515	-0.04581173
101	0xbd5bd8c9	-0.05367354
102	0xbd3ede40	-0.046598673
103	0x3dd93699	0.10606117
104	0xbeb9782d	-0.362245
105	0x3e060809	0.13089003
106	0x3e73c56b	0.23805778
107	0x3dd670b1	0.10470713
108	0xbe91b627	-0.28459284
109	0x3c2e2ac2	0.010630311
110	0xbbe8b654	-0.0071018133
111	0xbd801030	-0.062530875
112	0xbd8d240f	-0.06891643
113	0xbcbd3af1	-0.023099395
114	0xbc6e59d3	-0.014547783
115	0x3dccf055	0.10006777
116	0x3e76ebcd	0.24113388
117	0xbe72b4e1	-0.23701812
118	0xbdeaf75e	-0.11472963
119	0xbd49e4c7	-0.049290445
120	0xbfcb7705	-1.5895697
121	0xbd429482	-0.04750491
122	0xbdaeb8d6	-0.085313484
123	0xbd794c02	-0.060863502
124	0xbd0a2c17	-0.033733454
125	0x3d53d45c	0.051716194
126	0x3dcab176	0.09897129
127	0x3dc0e2fe	0.09418295
128	0x3da35e1f	0.079769365
129	0x3c945fe1	0.018112125
130	0x3d3bba98	0.045832247
131	0x3d8e48bf	0.06947469
132	0x3d51a0c1	0.051178697
133	0xb9afe459	-0.00033548733
134	0x3c8dc59d	0.017306143
135	0xbd1f484c	-0.038887307
136	0x3d84e9b7	0.0648989
137	0x3d2c28bc	0.042031035
138	0x3b3f1a76	0.002916006
139	0xbe0a76e8	-0.13521922
140	0xbe3d5dea	-0.18492857
141	0xbd1f951a	-0.038960554
142	0xbd0eb55e	-0.034840934
143	0xbdd2767e	-0.10276507
144	0xbde73305	-0.11289028
145	0xbe53eb76	-0.2069529
146	0x3bc16d6c	0.0059029367
147	0x3b2848af	0.0025678088
148	0xbd798719	-0.060919855
149	0xbd8a5465	-0.06754378
150	0xbda4d879	-0.080491014
151	0xbdac9b33	-0.084280394
152	0xbbe2ee8f	-0.006925411
153	0xbdaed5ad	-0.08536849
154	0x3e8886af	0.26665255
155	0x3d848d06	0.064722106
156	0x3efc1b65	0.4923965
157	0x3fbfce7d	1.498489
158	0xbd8dede4	-0.0693014
159	0xbd819e5c	-0.06329033
160	0xbd8d9197	-0.06912535
161	0xbd833b34	-0.064077765
162	0xbb0ba581	-0.0021308365
163	0x3cc63bec	0.024198495
164	0x3c284f21	0.010272772
165	0x3b743385	0.0037262153
166	0x3d0caf71	0.034347
167	0x3ca7d775	0.02048848
168	0x3d4e4380	0.05035734
169	0x3d5800c0	0.05273509
170	0x3d348536	0.044072352
171	0x3d389eca	0.045073308
172	0xbc2cde22	-0.010551007
173	0x3d84d9e3	0.06486871
174	0x3d1d2f4f	0.038375195
175	0x3d6a5e6a	0.057218947
176	0x3d4f5605	0.050619144
177	0x3bded010	0.0067997053
178	0x3d4181e7	0.047243025
179	0x3ca79878	0.020458445
180	0x3c8dbba3	0.017301386
181	0x3c954c4a	0.018224854
182	0xbc09765a	-0.008390034
183	0x3b9686c8	0.004593704
184	0xbb67bb04	-0.0035359273
185	0xbe81ed50	-0.25376368
186	0xbde194c1	-0.11014701
187	0xbe18abc2	-0.1490927
188	0xbdfbbe57	-0.12292164
189	0xbd3a8a0c	-0.045541808
190	0xbdcc24ad	-0.09967933
191	0x3cd7c7b0	0.026340336
192	0xbe64a5d4	-0.22328883
193	0xbba89040	-0.005144149
194	0x3dad45de	0.08460592
195	0xbe597671	-0.21236588
196	0x3d84725c	0.06467125
197	0x3cf12323	0.0294357
198	0xbd9ec122	-0.07751681
199	0xbcbd6143	-0.023117667
200	0x3cd28031	0.025695892
201	0x3cc8107f	0.024421928
202	0x3d886442	0.06659748
203	0x3df50c6c	0.1196526
204	0xbe4edfd9	-0.20202579
205	0x3db2cc33	0.08730354
206	0x3da092ce	0.07840501
207	0xbc0e6614	-0.0086913295
208	0xbd83b412	-0.0643083
209	0xbc18c9a4	-0.009325419
210	0xbde6e38e	-0.11273871
211	0xbcc7f0a2	-0.024406735
212	0xbdd0e9d1	-0.10200847
213	0xbe08ca50	-0.13358426
214	0xbde0e552	-0.109812394
215	0x3d47ed88	0.04881051
216	0x3dd089fe	0.1018257
217	0xbdab96ee	-0.08378397
218	0xbe0842eb	-0.13306777
219	0x3d0a953a	0.03383372
220	0xbda68542	-0.08130886
221	0xbdeb8dcb	-0.11501654
222	0xbcc64b60	-0.024205863
223	0xbbc684ac	-0.006058296
224	0x3b02e3e3	0.0019972257
225	0x3db03d5e	0.08605455
226	0x3db19c96	0.086724445
227	0xbe3c697a	-0.18399611
228	0x3db0a533	0.08625259
229	0x3d69f087	0.05711415
230	0x3e990f1f	0.2989435
231	0x3ed3c077	0.41357777
232	0x3d0cbc44	0.03435923
233	0x3db5ff70	0.088866115
234	0xbc2f989e	-0.010717539
235	0x3cb1301c	0.021629386
236	0xbd6403d1	-0.055667702
237	0xbdaa2452	-0.08307709
238	0xbd115280	-0.03547907
239	0x3ce0062b	0.027346691
240	0x3d02b2db	0.03190885
241	0x3e0a273a	0.13491526
242	0xbef21c65	-0.47287288
243	0x3dccc94b	0.09999331
244	0x3e4e15a2	0.2012544
245	0x3e497755	0.19674428
246	0xbe261960	-0.16220617
247	0xbe845783	-0.25848016
248	0xbd4f86b7	-0.050665583
249	0x3db3fefa	0.08788867
250	0x3e2d3dad	0.16918059
251	0x3eaafcaf	0.33395907
252	0xbe4d3b18	-0.20042074
253	0x3d220ce7	0.039563086
254	0x3bc69380	0.006060064
255	0x3d518d05	0.051159877

hidden_layers.0.bias f4 [64]
0	0xbdb56459	-0.088570304
1	0x3e035dd3	0.1282876
2	0xbe026e0c	-0.12737292
3	0xbcc72fa3	-0.024314707
4	0xbcba60a4	-0.02275116
5	0xbe836500	-0.25662994
6	0xbe4480c5	-0.19189747
7	0x3d991e0f	0.07476436
8	0xbc9dc0f3	-0.019257044
9	0x3d2fbea1	0.042906407
10	0xbd23b5d9	-0.039968345
11	0xbe117fd0	-0.14208913
12	0xbdb5e5ec	-0.08881745
13	0xbd5d473e	-0.05402302
14	0x3da31ff8	0.07965082
15	0x3d8c4fa7	0.0685113
16	0xbd23319f	-0.039842244
17	0x3cb055b0	0.021525234
18	0xbdd7e658	-0.105419815
19	0x3d8a370b	0.0674878
20	0xbce12b25	-0.027486393
21	0xbe2bf2ab	-0.16791789
22	0xbcf97dc9	-0.030455487
23	0xbdd30c21	-0.10305048
24	0xbe1b14d4	-0.15144664
25	0xbdc907b5	-0.09815923
26	0xbe0c0082	-0.13672069
27	0xbd3518b4	-0.04421301
28	0xbdec9aa2	-0.11552931
29	0xbcf3df46	-0.029769551
30	0x3d298f6c	0.041396543
31	0xbe4ad235	-0.1980675
32	0xbd87363d	-0.06602142
33	0xbe3fc709	-0.1872827
34	0x3dddda40	0.108326435
35	0x3d21e146	0.039521478
36	0x3d0215e2	0.03175915
37	0xbd5c8de0	-0.05384624
38	0xbd43f884	-0.047844425
39	0x3e0a89b8	0.13529098
40	0xbc9125b9	-0.017718183
41	0xbc5c38da	-0.013441289
42	0xbe80e80b	-0.25177035
43	0xbe711470	-0.23542953
44	0xbdf9fb2f	-0.122061126
45	0x3d280723	0.04102243
46	0xbe018545	-0.12648495
47	0xbd5b450c	-0.053532645
48	0x3d8ca31d	0.06867049
49	0xbd647155	-0.055772144
50	0xbb42b78f	-0.002971146
51	0xbe070c71	-0.1318834
52	0xbd24cefa	-0.04023645
53	0xbdf3a455	-0.11896578
54	0xbd2412ae	-0.040056877
55	0x3cb878dc	0.022518568
56	0xbe12c067	-0.14331208
57	0xbce058f3	-0.027386164
58	0xbe478e5f	-0.19487904
59	0xbd9cbefe	-0.07653616
60	0x3de0e772	0.10981645
61	0xbdc5cedb	-0.09658595
62	0xbe7372b7	-0.23774229
63	0xbd02b4e0	-0.031910777

hidden_layers.1.weight f4 [64, 64]
0	0xbbf6d910	-0.0075332
1	0xbe16effb	-0.14739983
2	0xbe3637f3	-0.1779478
3	0xbd8c5eb3	-0.06854
4	0xbe2216cf	-0.15829013
5	0x3d3166ea	0.043311037
6	0xbcc94e14	-0.024573363
7	0x3d3f805b	0.04675327
8	0x3d403056	0.046921097
9	0xbcbfa7c3	-0.023395425
10	0xbe91b125	-0.28455463
11	0xbd63b72d	-0.055594612
12	0x3e04f7e4	0.12985188
13	0xbd41813c	-0.047242388
14	0x3ce810bd	0.028328294
15	0x3cf808a6	0.030277561
16	0xbc28c56c	-0.010300975
17	0x3d9cc480	0.07654667
18	0xbe3afdf0	-0.18260932
19	0x3b1fbaae	0.0024372744
20	0x3c3d293d	0.0115454765
21	0x3d3c774f	0.04601222
22	0x3d571acb	0.052515786
23	0x3dcc26fc	0.09968373
24	0x3d5e5d20	0.05428803
25	0xbe9335b9	-0.28751925
26	0x3d0d536b	0.03450338
27	0x3bbad643	0.0057018115
28	0x3ca380f7	0.019958956
29	0xbdac72cf	-0.084203355
30	0x3d03381d	0.032035936
31	0x3bc466c5	0.0059936964
32	0xbf0f03b9	-0.55865055
33	0x3cbe7646	0.023249757
34	0x3d603a0a	0.05474285
35	0xbd8f8a63	-0.07008817
36	0x3b0eeb00	0.0021807551
37	0x3d989aba	0.07451387
38	0x3c29654a	0.010339091
39	0xbd6695ed	-0.056295324
40	0x3dac971f	0.084272616
41	0xbdaa2da0	-0.083094835
42	0x3d4921d6	0.049104534
43	0x3d30fb49	0.043208394
44	0x3c8c2176	0.0171058
45	0x3d867a48	0.06566292
46	0xbc67fce2	-0.014159413
47	0x3e02dc46	0.1277934
48	0xbca981de	-0.020691808
49	0x3b9a6042	0.004711182
50	0xbd531cb4	-0.051541045
51	0xbed1d530	-0.40982962
52	0xbf04a755	-0.5181783
53	0xbbd0565e	-0.006357952
54	0xbe20b72f	-0.15694879
55	0xbdd5e25c	-0.10443565
56	0x3de60ed0	0.11233294
57	0xbd081bba	-0.033229567
58	0xbcfbdc47	-0.030744685
59	0xbe14ab71	-0.14518525
60	0x3d297528	0.041371495
61	0xbdbc3e08	-0.09191519
62	0xbea9e72e	-0.3318419
63	0xbe7aa995	-0.24478753
64	0x3d91dce5	0.071222104
65	0xbe7bac07	-0.24577342
66	0x3dc8ddd5	0.09807936
67	0xbee72194	-0.45142806
68	0xbd0547bc	-0.032539114
69	0x3e21db3e	0.1580629
70	0x3d312774	0.043250516
71	0xbe9cd7b0	-0.30633307
72	0x3d9289ea	0.07155211
73	0x3e483425	0.19551142
74	0xbb786c45	-0.003790633
75	0xbebba414	-0.3664862
76	0xbc899193	-0.016793048
77	0xbeb9ade1	-0.36265472
78	0xbe88bfa1	-0.267087
79	0xbe6d6555	-0.23183186
80	0x3d91d897	0.07121389
81	0xbca9b711	-0.020717176
82	0x3de47d20	0.11156678
83	0xbe4105c3	-0.18849854
84	0xbd75c7a8	-0.06000486
85	0xbe214f03	-0.15752797
86	0xbe820682	-0.2539559
87	0x3dc66fa9	0.09689266
88	0xbe02dd1e	-0.12779662
89	0xbb19ec43	-0.002348677
90	0x3b2cd4c9	0.0026371947
91	0xbf0036c3	-0.5008356
92	0xbd9db1b9	-0.076999135
93	0xbeec1bb5	-0.4611489
94	0x3d2f3d1d	0.04278289
95	0xbddbcffe	-0.10733031
96	0x3cf136c2	0.029445056
97	0x3d746c2b	0.05967347
98	0x3db00032	0.08593787
99	0xbec473c4	-0.38369572
100	0x3c4f72b6	0.012661627
101	0xbd8d30f0	-0.068941
102	0x3cef6956	0.029225033
103	0xbee28577	-0.4424245
104	0x3cb68a16	0.022282641
105	0xbc681572	-0.014165269
106	0x3d433430	0.04765719
107	0x3e22e243	0.15906624
108	0xbda47182	-0.080294624
109	0x3ccc9aac	0.024976097
110	0xbe26f61e	-0.16304824
111	0xbe3dbf7e	-0.1853008
112	0x3e987dd2	0.29783493
113	0xbdd5203f	-0.10406541
114	0x3e50210e	0.2032511
115	0x3b7ef25b	0.003890178
116	0xbc39946c	-0.01132689
117	0xbd7576ea	-0.05992786
118	0xbdaf8bc1	-0.08571578
119	0x3cb8e0a8	0.022568062
120	0xbda7a599	-0.08185882
121	0xbc802cab	-0.0156463
122	0x3d458966	0.048226736
123	0x3d95a4de	0.073068365
124	0x3e578cc0	0.21049786
125	0x3e9b0a5c	0.3028134
126	0xbc9524e4	-0.018206067
127	0xbb025eda	-0.0019892962
128	0xbd885410	-0.06656659
129	0xbc07fbbc	-0.008299764
130	0xbea189ea	-0.31550533
131	0xbc36f0b3	-0.011165786
132	0xbdc5b1d8	-0.09653062
133	0x3e09632c	0.13416737
134	0xbdc00217	-0.093753986
135	0xbdcdb644	-0.1004453
136	0x3c5fb7fb	0.013654704
137	0xbd772ac0	-0.060343504
138	0xbe96b129	-0.29432037
139	0xbc9728c1	-0.01845205
140	0x3d78a752	0.060706444
141	0x3d912b20	0.070883036
142	0x3d173447	0.03691509
143	0x3dfdff59	0.12402219
144	0xbd61843d	-0.055057753
145	0x3d338515	0.04382809
146	0xbe8f2364	-0.27956688
147	0xbde4ee7d	-0.111783005
148	0x3c21ebd1	0.009882883
149	0x3c85ea04	0.016346939
150	0x3bae8b28	0.0053266473
151	0xbd60dbe1	-0.054897193
152	0x3d5ae4e8	0.05344096
153	0xbe3dc1bd	-0.18530937
154	0xbe2a24fb	-0.1661567
155	0x3d82f396	0.063941166
156	0xbc4da44c	-0.012551378
157	0xbd34afaf	-0.044112857
158	0x3cb8adaf	0.022543756
159	0xbda391b5	-0.07986776
160	0xbe93bac0	-0.28853416
161	0xbd89ffe9	-0.06738264
162	0xbdf07592	-0.11741175
163	0x3d813d93	0.063105725
164	0x3d6e71a8	0.05821386
165	0xbcdf39df	-0.027249275
166	0xbc897de3	-0.01678366
167	0xbd15bc06	-0.036556266
168	0x3da1c0fa	0.078981355
169	0xbe50252e	-0.20326683
170	0x3c8b8384	0.017030485
171	0x3c807a31	0.015683265
172	0x3c374049	0.01118476
173	0x3c907cbd	0.017637605
174	0xbcf225d6	-0.029559057
175	0xbc4005a8	-0.011720099
176	0x3cea1908	0.028576389
177	0x3d9a10f9	0.075227685
178	0xbd3a7ac9	-0.045527253
179	0xbe2e31a1	-0.1701112
180	0xbe6335a5	-0.22188433
181	0xbd13a5f5	-0.03604694
182	0xbe91be10	-0.2846532
183	0xbe9090a3	-0.2823535
184	0x3c1676f1	0.009183631
185	0xbb803fde	-0.0039138636
186	0xbd04b01b	-0.03239451
187	0x3aaab4f8	0.0013023904
188	0x3d4dd046	0.050247453
189	0xbd3468e9	-0.044045363
190	0xbdfbad09	-0.12288863
191	0xbde583bd	-0.11206768
192	0x3d4f9ad5	0.05068477
193	0xbda8226f	-0.08209693
194	0x3d6955ef	0.05696672
195	0x3aa58c1e	0.0012630259
196	0x3c2f14bc	0.010686096
197	0xbca2552d	-0.019816006
198	0x3db8efbe	0.09030102
199	0xbd1c295d	-0.038125385
200	0x3d676d8e	0.056500964
201	0xbcd1ffc7	-0.02563466
202	0x3e0daede	0.13836238
203	0xbd1c92ec	-0.038226053
204	0xbd45eb0d	-0.048319865
205	0xbdf2b78c	-0.11851415
206	0xbbf514f5	-0.007479305
207	0xbbc63f3c	-0.0060500186
208	0x3d80483d	0.06263778
209	0x3dd6bdee	0.10485445
210	0x3e2c2385	0.16810425
211	0x3d9047ee	0.070449695
212	0x3d12d757	0.035849895
213	0x3e4148b3	0.18875389
214	0xbe38aef7	-0.18035494
215	0xbc5a928b	-0.013340603
216	0xbca0fef2	-0.019652817
217	0x3cbd070f	0.023074655
218	0xbaa6a76e	-0.0012714693
219	0xbd847831	-0.06468237
220	0x3b9d8b66	0.0048078774
221	0xbdd601f1	-0.10449589
222	0xbc12ffef	-0.008972152
223	0x3e27001f	0.1630864
224	0x3c7a4af1	0.0152766565
225	0x3dc0cd92	0.094142094
226	0xbd7eb032	-0.06217975
227	0xbe99d3b4	-0.3004433
228	0x3d87b748	0.06626755
229	0xbce22f35	-0.0276104
230	0xbd8222cd	-0.06354294
231	0xbe240a6b	-0.16019599
232	0x3daeb5ae	0.085307464
233	0x3d109c6f	0.035305437
234	0x3c9413ff	0.018075941
235	0x3d50dfe9	0.050994787
236	0xbc49e25c	-0.012322035
237	0x3ad6910f	0.0016370135
238	0x3deab9c8	0.11461216
239	0x3e395f1b	0.18102686
240	0xbdebc8ce	-0.1151291
241	0xbcd76018	-0.026290938
242	0xbdc0615c	-0.0939357
243	0xbccafbc5	-0.024778256
244	0xbac0bc41	-0.0014704542
245	0xbe13ec4b	-0.14445607
246	0x3db8e956	0.0902888
247	0x3e586ece	0.21136019
248	0x3df7234a	0.12067278
249	0x3d713d54	0.058896378
250	0xbcbd5b37	-0.023114784
251	0x3d694806	0.056953453
252	0xbe09d88f	-0.13461517
253	0xbd58fc15	-0.05297478
254	0xbde11f06	-0.109922454
255	0xbc8a37e2	-0.01687235

hidden_layers.1.bias f4 [64]
0	0x3e6117cc	0.21981734
1	0x3d8a0323	0.067388795
2	0x3e6f4dda	0.23369542
3	0xbcbc0c4d	-0.022955084
4	0x3cf9f217	0.030510945
5	0x3e4c5fbe	0.19958398
6	0x3e689552	0.22713211
7	0x3e58b904	0.21164328
8	0xbd4d7cf5	-0.050167996
9	0x3e25a76a	0.16177145
10	0x3e4c83bd	0.19972129
11	0x3e394622	0.1809316
12	0xbda14396	-0.07874219
13	0x3dc1997c	0.09453103
14	0x3d0bca6c	0.03412859
15	0x3e289f3d	0.16466995
16	0x3e060564	0.13087994
17	0x3df335da	0.11875506
18	0x3e4e4365	0.20142896
19	0xbdf19680	-0.11796284
20	0x3db37f99	0.08764572
21	0x3df6c4af	0.12049233
22	0xbdbec988	-0.09315783
23	0x3d92aa9d	0.07161448
24	0x3e054ae2	0.13016847
25	0xbdf2628c	-0.118352026
26	0x3e5a6324	0.21326882
27	0x3e777bbf	0.24168299
28	0x3da9b983	0.08287337
29	0xbe0c742c	-0.13716191
30	0xbe00f5de	-0.12593791
31	0xbe093724	-0.1339994
32	0xbd7aff3a	-0.06127856
33	0x3e7d2fa5	0.24725206
34	0xbe071c6e	-0.13194439
35	0x3e60c94e	0.21951792
36	0x3df1ad23	0.11800601
37	0x3e0bfd5a	0.13670865
38	0x3d9846e6	0.07435398
39	0xbd187957	-0.037225094
40	0x3e428101	0.18994524
41	0xbdd3a00c	-0.10333261
42	0xbe2d755d	-0.16939302
43	0xbe103e6e	-0.14086315
44	0x3e1ae7ed	0.15127535
45	0x3e274c58	0.16337717
46	0xbe14e958	-0.14542139
47	0x3da547b3	0.08070316
48	0x3dcabbf6	0.09899132
49	0x3e68e959	0.22745265
50	0x3e146c86	0.14494523
51	0xbdc83b1b	-0.097768985
52	0xbe07b76e	-0.13253567
53	0xbdf4e224	-0.119571954
54	0x3e010bf4	0.12602216
55	0x3e5afae2	0.21384767
56	0xbe217be0	-0.15769911
57	0xbd9bd2b3	-0.07608547
58	0x3e2c6f96	0.16839442
59	0xbd926b89	-0.07149417
60	0xbe2b7bbb	-0.16746418
61	0x3e819ea7	0.25316355
62	0x3e4a6d30	0.19768214
63	0x3e34de63	0.17662959

output.weight f4 [4, 64]
0	0x3e17b0c9	0.14813532
1	0xbd88bfd3	-0.066772126
2	0x3e002ce7	0.12517129
3	0xbd80a699	-0.06281776
4	0xbe557d2f	-0.20848535
5	0x3e00cec0	0.12578869
6	0x3df880f0	0.12133968
7	0x3e007d39	0.12547769
8	0xbd86f007	-0.0658875
9	0x3e34a01f	0.17639206
10	0x3e0b2c44	0.13591105
11	0x3e12c941	0.14334585
12	0xbe63c365	-0.22242506
13	0x3db14180	0.08655071
14	0x3b4f0a83	0.0031591959
15	0x3dd03434	0.10166207
16	0xbeba7f82	-0.36425406
17	0x3d98d28c	0.07462034
18	0x3e1be523	0.15224127
19	0x3d9a1ec6	0.07525401
20	0xbe0aa9eb	-0.13541381
21	0x3d88a327	0.06671744
22	0xbdf9a605	-0.12189869
23	0xbda16e15	-0.078823246
24	0x3d8f588e	0.06999312
25	0xba122287	-0.0005574603
26	0x3de04dc0	0.1095233
27	0x3dd111ec	0.102084965
28	0x3dea4a20	0.114399195
29	0xbb15435a	-0.002277574
30	0x3d72b0a1	0.059250478
31	0xbe2ce297	-0.16883312
32	0xbe986d53	-0.29770908
33	0x3dbee3e2	0.09320809
34	0x3b9be0ea	0.0047570365
35	0x3e059630	0.13045573
36	0x3d90a70c	0.07063112
37	0x3dc01f5e	0.09380983
38	0xbe00b35e	-0.12568423
39	0x3d8f55a5	0.06998757
40	0x3de802ab	0.11328634
41	0xbdaa98d0	-0.08329928
42	0x3c284156	0.010269484
43	0x3b92fa26	0.0044853864
44	0x3da5417b	0.0806913
45	0x3dc2ad8c	0.09505758
46	0xbdd5b9b6	-0.10435812
47	0x3dbd3026	0.09237699
48	0xbeab601c	-0.33471763
49	0x3de838c3	0.113389514
50	0x3e28a878	0.16470516
51	0xbcf19247	-0.029488696
52	0xbc8f43d3	-0.017488396
53	0x3daf5264	0.08560637
54	0x3dac9489	0.08426768
55	0x3e068aed	0.13138933
56	0x3bafb723	0.005362408
57	0xbd58423d	-0.052797545
58	0x3d949843	0.07255604
59	0xbe3d61d0	-0.18494344
60	0xbc78c851	-0.015184478
61	0x3dc70a2c	0.09718737
62	0x3dfb508b	0.12271222
63	0x3e0ae8b7	0.13565336
64	0x3e3d9514	0.185139
65	0x3dc6c92c	0.09706339
66	0x3ddae0f6	0.10687439
67	0xba0f6d0f	-0.0005471268
68	0xbdc3e915	-0.09565941
69	0x3dc15266	0.094395444
70	0x3ddc705b	0.107636176
71	0x3dd73767	0.10508614
72	0xbb8a97cb	-0.004229521
73	0x3e593173	0.2121027
74	0x3dafb149	0.08578736
75	0x3e0bd1c9	0.13654245
76	0xbddd01e5	-0.10791377
77	0x3dc8bf5a	0.098021224
78	0x3d5d8ead	0.054091144
79	0x3dda5ccd	0.106622316
80	0xbe5d62bc	-0.21619695
81	0x3dc71651	0.097210534
82	0x3e44b4c9	0.19209589
83	0x3b406741	0.002935842
84	0xbd3cd203	-0.04609872
85	0x3d72a3a8	0.059238106
86	0xbd7abc92	-0.06121499
87	0x3d85332a	0.065038994
88	0x3db20408	0.08692175
89	0x3db49c0e	0.088188276
90	0x3e11a39a	0.14222565
91	0x3db251e5	0.087070264
92	0x3d907945	0.0705438
93	0xbcb51e9b	-0.02210932
94	0xbd6bfe34	-0.057615474
95	0xbd88eba6	-0.06685571
96	0xbd86e961	-0.06587482
97	0x3dc95d0b	0.098322
98	0xbccbb07d	-0.02486443
99	0x3e1b3446	0.1515666
100	0x3d4a4e84	0.049391285
101	0x3d9654a2	0.07340361
102	0xbb275a57	-0.0025536024
103	0x3cb1b035	0.021690467
104	0x3e1daaa5	0.15397127
105	0xbd92503c	-0.0714421
106	0xbdba8d8d	-0.0910903
107	0xbdad5dbb	-0.08465143
108	0x3d86598d	0.06560049
109	0x3dc699b6	0.09697287
110	0xbd8992b8	-0.067174375
111	0x3c962554	0.018328346
112	0xbe7c6a81	-0.24650003
113	0x3ddc8227	0.10767012
114	0x3df95d2f	0.121759765
115	0xbd4eee3d	-0.05052017
116	0xbd8c1af3	-0.06841078
117	0x3d551a3d	0.052026976
118	0x3dbb279b	0.091384135
119	0x3db09d87	0.08623796
120	0x3c8d6e51	0.017264517
121	0x3d617399	0.055041883
122	0x3da429a3	0.08015754
123	0xbd5bd049	-0.053665433
124	0x3dc1870a	0.09449585
125	0x3d9bb498	0.07602805
126	0x3e0b120f	0.13581108
127	0x3ddd6b5e	0.10811494
128	0xbe2ae6f3	-0.16689663
129	0xbd5542e2	-0.052065738
130	0xbc565bdf	-0.013083427
131	0x3b9e3871	0.0048285057
132	0xbda8eff0	-0.082488894
133	0xbcc63d2a	-0.024199087
134	0x3a6cb34d	0.00090294034
135	0xbd942654	-0.07233873
136	0xbd3ec933	-0.046578597
137	0x3d0e38f9	0.034722302
138	0xbd1819be	-0.037133925
139	0x3cb2f466	0.021845054
140	0xbcb3e28d	-0.021958614
141	0xbc0bcfd9	-0.008533441
142	0x3e3dc983	0.18533902
143	0x3e2c0061	0.1679702
144	0xbe2f370a	-0.1711084
145	0x3df63f2b	0.12023767
146	0x3e0a31cc	0.13495559
147	0x3c9c365d	0.019068891
148	0xbcee5900	-0.029095173
149	0x3dfef094	0.124482304
150	0xbd180776	-0.03711649
151	0x3e2029a1	0.1564088
152	0x3dc896c6	0.09794383
153	0xb9d4bb3e	-0.00040575297
154	0x3da3f026	0.08004789
155	0x3da204f1	0.07911099
156	0x3e8ab180	0.27088547
157	0x3cb89e0d	0.022536302
158	0x3d79d30f	0.060992297
159	0xbdc3ad53	-0.09554543
160	0xbda2d27f	-0.07950305
161	0x3dcf5fbc	0.10125682
162	0x3d79e4e6	0.06100931
163	0x3d1d99ed	0.038476873
164	0x3e767e01	0.24071504
165	0x3e2c1059	0.16803111
166	0x3c4888d7	0.012239656
167	0x3e75cb47	0.24003325
168	0x3db1b49a	0.08677025
169	0xbdde3f3b	-0.10851904
170	0x3d8cc7b4	0.06874028
171	0xbd6477c0	-0.055778265
172	0x3e44df9f	0.1922593
173	0x3d98c4af	0.074593894
174	0xbcf8b61d	-0.030360276
175	0xbd02dd21	-0.031949166
176	0xbd2df549	-0.04247025
177	0x3d5b5ed1	0.05355722
178	0x3cbdd05a	0.023170639
179	0x3db0baec	0.086294025
180	0xbe4f6f13	-0.20257215
181	0xbd5a6815	-0.053321917
182	0x3e24c6c1	0.16091444
183	0xbcb671fd	-0.02227115
184	0xbc4e146d	-0.012578112
185	0x3b82c3b6	0.0039906157
186	0x3da779e8	0.08177549
187	0xbcbbd7fd	-0.02293014
188	0x3ce49e81	0.027907612
189	0x3da43330	0.08017576
190	0x3de64827	0.11244231
191	0x3ddd99be	0.108203396
192	0x3c2347d9	0.00996586
193	0x3e036e27	0.12834989
194	0xbce31a56	-0.027722519
195	0xbcafa22c	-0.021439634
196	0xbe0d7fe6	-0.1381832
197	0x3da38923	0.07985141
198	0xbd2fbd24	-0.042904988
199	0x3d2ec81d	0.04267131
200	0x3c13c651	0.00901945
201	0x3deddb20	0.116140604
202	0xbe196636	-0.14980397
203	0x3d417f76	0.047240697
204	0xbd17a058	-0.03701815
205	0x3e3044af	0.172137
206	0x3da3aa4b	0.07991465
207	0x3dd81bc4	0.10552171
208	0xbe926bd1	-0.28597882
209	0x3e5785e6	0.21047172
210	0x3d808348	0.0627504
211	0x3d556db9	0.052106593
212	0xbd6fbb10	-0.058528006
213	0x3dbf8a69	0.093525715
214	0xbdd2ea31	-0.10298575
215	0x3e09fb4d	0.1347477
216	0x3e37944d	0.17927666
217	0x3b351f32	0.0027637002
218	0x3dd7aef5	0.10531417
219	0x3d3c93e6	0.046039484
220	0x3e338f1a	0.17535058
221	0xbaf3ab38	-0.0018590456
222	0x3d5b7e2f	0.053587135
223	0x3ce63f8f	0.028106479
224	0xbe29ec6f	-0.16594099
225	0x3d0122fa	0.031527497
226	0x3d767bdf	0.060176726
227	0x3da54689	0.08070094
228	0x3d8a896c	0.067644924
229	0x3cd5780f	0.026058225
230	0xbd80bc92	-0.06285967
231	0x3ea0e00b	0.3142093
232	0x3dba3d1c	0.09093687
233	0xbe26fbd8	-0.16307008
234	0xbbaf7cdf	-0.005355462
235	0xbcc6c4a8	-0.024263695
236	0xbc8a0d5a	-0.01685207
237	0x3df58d02	0.11989786
238	0x3c58a34f	0.01322253
239	0x3e33a333	0.17542724
240	0xbdb47dfe	-0.088130936
241	0x3c8f7f7d	0.017516846
242	0xbc05a100	-0.008156061
243	0xbd7e509d	-0.062088598
244	0xbe2b49db	-0.16727392
245	0x3db8f59e	0.09031223
246	0x3e013214	0.1261676
247	0x3daf2bf0	0.08553302
248	0x38292e04	4.0335595e-05
249	0x3c86bb81	0.01644683
250	0x3e1fa6d4	0.15590984
251	0x3c4f0611	0.012635724
252	0xbd78084b	-0.060554784
253	0x3c7c284e	0.015390469
254	0x3d832079	0.06402678
255	0x3b763cf5	0.0037572954

output.bias f4 [4]
0	0x3f10adfe	0.5651549
1	0x3edca9a2	0.4309817
2	0x3ef9da1f	0.48799226
3	0x3ef000fb	0.46875748
