checkpoints/state_size_37__action_size_4__hidden_layers_[64-64]__drop_p_0.0__seed_0__GAMMA_0.99__LR_0.0005__UPDATE_EVERY_100__BUFFER_SIZE_10000__BATCH_SIZE_64__TAU_0.001.pth (torch, 29527 bytes, 6 tensors)

hidden_layers.0.weight f4 [64, 37]
0	0x3ad2119e	0.0016026979
1	0x3d818d04	0.06325725
2	0xbe125baf	-0.14292787
3	0xbcd2fa77	-0.025754197
4	0xbd9b7482	-0.075905815
5	0xbe2f9768	-0.171476
6	0x3d5d77bc	0.054069266
7	0x3dd37010	0.103241086
8	0xbcae2eec	-0.021262608
9	0xbd4886f7	-0.048956838
10	0x3d8e1870	0.06938255
11	0xbdd43d8a	-0.103633
12	0xbe1990cf	-0.14996646
13	0xbd082dd0	-0.033246815
14	0xbe4f6ffa	-0.2025756
15	0x3e2ec47d	0.17067142
16	0xbdeb99dd	-0.115039565
17	0xbd8966ec	-0.06709084
18	0xbe07a1ff	-0.1324539
19	0x3ce268b9	0.027637826
20	0x3d82afbb	0.06381174
21	0xbc89a7ed	-0.016803706
22	0xbd75a5d8	-0.059972614
23	0xbd241437	-0.04005834
24	0xbe328bd6	-0.17436156
25	0x3da4e672	0.080517665
26	0xbe141bd2	-0.14463738
27	0xbda06abf	-0.0783286
28	0xbce8b109	-0.02840473
29	0xbe6a64cc	-0.22890013
30	0x3e31f20e	0.17377493
31	0xbe3ba3ff	-0.18324278
32	0xbdad3ac9	-0.08458478
33	0xbe7cc139	-0.24683084
34	0xbe96d6ae	-0.29460663
35	0xbdb00914	-0.085954815
36	0x3d4c4094	0.049866274
37	0xbc005b9f	-0.007834344
38	0x3c8e59c9	0.017376797
39	0x3d66b295	0.056322653
40	0xbe0a6bd2	-0.13517693
41	0xbdd55b74	-0.10417834
42	0xbde22c81	-0.11043645
43	0x3c559599	0.013036155
44	0x3dfb9674	0.12284556
45	0xbd84784c	-0.06468257
46	0xbe90e38f	-0.28298613
47	0x3bac8614	0.005265007
48	0xbc49d7d9	-0.0123195285
49	0xbe313691	-0.17305972
50	0xbe236351	-0.15955855
51	0xbe3344ec	-0.1750676
52	0x3d972a40	0.073811054
53	0x3d54344d	0.05180769
54	0xbdd092c5	-0.10184244
55	0xbddf9738	-0.109175146
56	0xbbb0ccd3	-0.0053955107
57	0xbd20cdf4	-0.039258912
58	0xbe39e9d4	-0.18155605
59	0xbc5e42d3	-0.013565737
60	0xbda0fa72	-0.07860269
61	0xbe33b724	-0.17550331
62	0xbd2af518	-0.041737646
63	0xbba5de09	-0.005061869
64	0xbe06d8b2	-0.131686
65	0x3d07931d	0.033099283
66	0xbdcf7bce	-0.10131036
67	0x3d828ec1	0.063748844
68	0xbd186af0	-0.03721136
69	0xbcef1ec6	-0.029189479
70	0xbd88a2d0	-0.06671679
71	0xbcd49978	-0.025952086
72	0xbc2eb2be	-0.010662733
73	0x3d9a4ef0	0.075345874
74	0x3dfde6a9	0.123975106
75	0xbe097ee8	-0.13427317
76	0x3d53de41	0.05172563
77	0x3e2a379d	0.16622777
78	0x3d7b34b0	0.061329544
79	0xbd42f615	-0.047597963
80	0x3caac218	0.020844504
81	0x3d00fd3d	0.031491507
82	0xbdc83437	-0.09775584
83	0x3c9d36dd	0.0191912
84	0x3e161a6e	0.1465852
85	0xbd84563c	-0.064617604
86	0xbc883699	-0.016627597
87	0xbd8e1492	-0.06937517
88	0x3e11d2b7	0.14240538
89	0x3d80a784	0.06281951
90	0x3da2b078	0.07943815
91	0xbb922380	-0.0044597983
92	0xbcce9608	-0.025218025
93	0xbd279e34	-0.04092236
94	0xbd92be3c	-0.071651906
95	0x3bd07837	0.006361987
96	0xbdde4067	-0.108521275
97	0x3df07638	0.117412984
98	0xbddcdf69	-0.107847996
99	0xbd5044b8	-0.050846785
100	0x3e2c1010	0.16803002
101	0xbdd83dc0	-0.10558653
102	0xbd588cba	-0.052868582
103	0xbd3e5bae	-0.04647415
104	0x3db35143	0.08755734
105	0xbdf820fe	-0.12115668
106	0x3e00dedd	0.12585016
107	0x3e07d341	0.1326418
108	0xbd844fee	-0.06460558
109	0x3cbd14bd	0.023081178
110	0xbdc928c7	-0.09822231
111	0xbe36ad60	-0.17839575
112	0xbde12dcf	-0.109950654
113	0xbd52d01f	-0.05146801
114	0xbdd5e19e	-0.10443424
115	0xbe396407	-0.18104564
116	0xbba1faf6	-0.004943247
117	0xbd6b3e2a	-0.05743233
118	0xbe3b28ef	-0.18277334
119	0xbcc47c9a	-0.023985196
120	0x3e0277d3	0.12741022
121	0x3ded7ce6	0.11596088
122	0xbdd4bf64	-0.10388067
123	0xbdc51b08	-0.096242964
124	0xbc2443fd	-0.010025975
125	0x3e126ff3	0.14300518
126	0x3d36677f	0.044532295
127	0x3dcc8dc4	0.09987977
128	0x3d829f2b	0.06378015
129	0x3e26c0a7	0.16284429
130	0xbe0560f9	-0.13025273
131	0x3db34658	0.087536514
132	0xbbdfe425	-0.006832617
133	0xbdf45b59	-0.11931486
134	0x3e2380fb	0.15967171
135	0x3db99f40	0.09063578
136	0x3d6bb2cc	0.05754356
137	0x3d03a7e2	0.032142527
138	0xbe33a147	-0.17541991
139	0xbd176dad	-0.03696983
140	0x3e2d0478	0.16896236
141	0x3e057ec4	0.13036638
142	0xbdb2e747	-0.08735519
143	0x3df9aae2	0.121907964
144	0xbe0c98d6	-0.13730177
145	0xbe231c53	-0.15928774
146	0xbcf11936	-0.029430967
147	0xbb6d7e50	-0.0036238618
148	0xbd1487e1	-0.036262397
149	0xbdc89d19	-0.09795589
150	0xbdaeb6ef	-0.085309856
151	0xbdfba5a4	-0.12287453
152	0xbcf53cc3	-0.0299362
153	0x3e6e1d5e	0.2325339
154	0xbe80e2df	-0.2517309
155	0xbe231bf1	-0.15928628
156	0xbe985133	-0.2974945
157	0xbf05143b	-0.51983994
158	0xbd0d44a0	-0.034489274
159	0x3dc0428d	0.093876936
160	0x3e131fd1	0.14367606
161	0x3c99fea1	0.018798174
162	0xbd679c82	-0.05654574
163	0x3d56f0da	0.052475788
164	0x3e0c11a5	0.13678606
165	0xbcfdedb9	-0.030997144
166	0xbe0c7816	-0.13717684
167	0xbdcad66e	-0.099041805
168	0x3e04cfe5	0.1296993
169	0x3e01e81b	0.12686197
170	0xbd66e281	-0.056368355
171	0x3d7a025d	0.06103741
172	0x3be06e4a	0.006849085
173	0x3e53fc19	0.20701636
174	0xbd35db84	-0.0443988
175	0x3e0e1829	0.13876404
176	0xbd25828a	-0.040407695
177	0xbdf52f62	-0.11971928
178	0x3e0f7c65	0.14012296
179	0xbd752f58	-0.059859604
180	0xbdd387ec	-0.103286594
181	0x3d9a079b	0.07520982
182	0xbe83da4a	-0.2575248
183	0x3d343ec9	0.04400519
184	0x3cb12541	0.02162421
185	0x3d09508d	0.033524085
186	0x3dccdbde	0.10002874
187	0x3e0a89a8	0.13529074
188	0xbacc22c8	-0.001557433
189	0x3c9a88a4	0.018863983
190	0x3e081836	0.13290486
191	0xbe6a6a8a	-0.22892204
192	0xbe1ebc2c	-0.1550147
193	0xbeaaa478	-0.33328605
194	0xbf52d711	-0.82359415
195	0xbe21722b	-0.15766208
196	0xbd1ff114	-0.03904827
197	0xbdc0aed2	-0.09408344
198	0xbdee0e06	-0.116237685
199	0x3dcdc29c	0.100468844
200	0xbe101816	-0.14071688
201	0xbd2c562d	-0.04207437
202	0xbde2041d	-0.11035941
203	0xbe10f34f	-0.14155315
204	0x3d4db702	0.050223358
205	0xbe10f4be	-0.14155862
206	0xbd77370b	-0.060355227
207	0xbcf39ae1	-0.029736938
208	0xbd2ae924	-0.041726246
209	0xbe20f745	-0.15719326
210	0x3c8974cd	0.016779328
211	0x3c5656b5	0.013082196
212	0xbe24c5ef	-0.1609113
213	0xbd5e8b54	-0.054332092
214	0xbd9f9aa0	-0.07793164
215	0xbd9a0a4a	-0.07521494
216	0xbc304070	-0.010757551
217	0xbd67c07c	-0.05658005
218	0xbdcab412	-0.09897627
219	0xbe74e764	-0.23916394
220	0x3c58a657	0.013223252
221	0x3d970dbd	0.07375667
222	0xbd60f185	-0.05491783
223	0xbdeb7acc	-0.11498031
224	0xbddc9852	-0.1077124
225	0xbde51be8	-0.11186963
226	0xbe26d6f9	-0.16292943
227	0xbe36b69b	-0.17843096
228	0x3d5e088a	0.054207362
229	0x3dbee9b0	0.09321916
230	0xbe85022d	-0.25978222
231	0xbe4d80ca	-0.2006866
232	0xbd81b0cf	-0.06332552
233	0xbd35345a	-0.04423938
234	0xbc929c50	-0.017896801
235	0xbd90e60b	-0.07075127
236	0xbe01de93	-0.12682562
237	0x3ab24e09	0.0013603579
238	0xbd8c643c	-0.06855056
239	0x3b8f8774	0.004380161
240	0xbaa340d3	-0.0012455232
241	0xbe7e5997	-0.24838863
242	0x3dd4756c	0.10373959
243	0x3d6712a2	0.056414254
244	0x3d1d632a	0.03842465
245	0xbc91c0b2	-0.01779208
246	0xbe678c2f	-0.2261207
247	0x3d2582ed	0.040408064
248	0xbba88e60	-0.0051439255
249	0x3d9823d4	0.07428709
250	0xbd5cd383	-0.05391265
251	0xbdabc556	-0.08387248
252	0xbe22cb7f	-0.1589794
253	0xbddcf5fd	-0.10789106
254	0x3e1b07c0	0.15139675
255	0xbdfd2552	-0.12360634

hidden_layers.0.bias f4 [64]
0	0x3e06b4f0	0.1315496
1	0x3dcbcf8b	0.09951695
2	0xbd777da0	-0.06042254
3	0xbda17e9f	-0.07885479
4	0xbda58e50	-0.080837846
5	0xb9f32a09	-0.0004637989
6	0xbe224ddf	-0.15850018
7	0xbd4b8637	-0.049688544
8	0xbe352335	-0.17689212
9	0x3dcc0640	0.099621296
10	0xbb8b01fd	-0.0042421804
11	0xbe57392d	-0.21017905
12	0xbe0a126d	-0.13483591
13	0x3cb745ac	0.02237209
14	0xbbe54c15	-0.006997595
15	0xbb0add5b	-0.0021189067
16	0x3daea505	0.08527569
17	0x3dbf7245	0.09347967
18	0x3da62dfd	0.0811424
19	0x3d908bdc	0.07057926
20	0x3e024555	0.1272176
21	0x3d5f2e56	0.05448755
22	0xbc2dae0f	-0.010600581
23	0xbceae9af	-0.028675882
24	0x3e1abb96	0.15110621
25	0x3d2d7bfe	0.042354576
26	0xbdbae3f4	-0.0912551
27	0x3db90131	0.0903343
28	0xbe0c36e2	-0.13692811
29	0xbd747636	-0.059683047
30	0x3d3cfb1b	0.04613791
31	0x3db9df5d	0.09075806
32	0x3e003b66	0.12522659
33	0x3d5c03e0	0.053714633
34	0x3d2caeee	0.042159013
35	0xbc6520e4	-0.0139848925
36	0x3cf89d32	0.030348394
37	0x3d4b40dd	0.049622405
38	0xbdc0edb2	-0.09420337
39	0xbdec1c8d	-0.11528883
40	0xbcc35f8c	-0.023849271
41	0xbd2a61c0	-0.041597128
42	0xbce2995c	-0.027661018
43	0x3df02ee5	0.117276944
44	0xbdebeb6e	-0.11519514
45	0xbdb2620f	-0.087101094
46	0xbe421cdf	-0.18956326
47	0xbd95647b	-0.07294556
48	0xbd1b444b	-0.037906926
49	0xbe23e621	-0.16005756
50	0xbd9934a7	-0.07480746
51	0xbe17eba1	-0.14835979
52	0x3e08711b	0.13324396
53	0xbddd6cc9	-0.10811765
54	0xbe00f246	-0.1259242
55	0xbe0071bc	-0.12543386
56	0xbe38b7a4	-0.18038803
57	0x3d3ec3f8	0.04657361
58	0xbcef8bc2	-0.029241446
59	0xbe2f1fff	-0.1710205
60	0xbe46ef06	-0.19427118
61	0xbdd48b29	-0.10378105
62	0x3d422ae4	0.047404185
63	0xbe2f9596	-0.17146906

hidden_layers.1.weight f4 [64, 64]
0	0x3cb545aa	0.022127945
1	0x3d944f27	0.072416596
2	0xbdc1c309	-0.09461028
3	0x3e0f5bf9	0.13999929
4	0x3c3ceedf	0.011531561
5	0xba79267c	-0.0009504331
6	0xbd8918a0	-0.0669415
7	0x3dc71454	0.09720674
8	0xbafe2e1a	-0.0019392401
9	0x3b5bbf96	0.0033530942
10	0xbd5eb9f8	-0.054376572
11	0xbcc238cf	-0.02370873
12	0xbdca7a4a	-0.09886606
13	0xbde18b36	-0.110128805
14	0x3b07a11b	0.0020695392
15	0x3b8f4d20	0.0043732077
16	0x3cf23368	0.029565528
17	0xbc8d40b1	-0.017242761
18	0xbdcb2e0d	-0.09920893
19	0x3c5c0d98	0.013430975
20	0x3d9c7788	0.07639986
21	0xbdd64b48	-0.104635775
22	0x3d883ab0	0.06651819
23	0x3c9303dd	0.017946178
24	0xbc9b8c6e	-0.01898786
25	0xbd8c2aa2	-0.06844069
26	0x3cb2c436	0.021822076
27	0xbd8d4615	-0.06898133
28	0xbd9e8b48	-0.077414095
29	0x3d8807eb	0.06642135
30	0x3d385128	0.04499927
31	0x3d084b23	0.03327478
32	0x3d4fe60e	0.050756507
33	0xbddd70ff	-0.10812568
34	0xbde984b4	-0.11402264
35	0x3d0cff73	0.034423303
36	0xbdd6884a	-0.10475214
37	0xbd8628aa	-0.06550725
38	0x3db6440d	0.088996984
39	0xbd8a6c3f	-0.067589276
40	0x3ca30629	0.019900398
41	0xbbcf0f21	-0.006318942
42	0xba3405bd	-0.000686731
43	0x3c00c7f0	0.007860169
44	0xbd3e7d98	-0.046506494
45	0xbe348a52	-0.1763089
46	0x3d1fa444	0.038975015
47	0xbd5763e6	-0.052585505
48	0xbc19f6d2	-0.009397225
49	0xbdc67e34	-0.0969204
50	0xbcf110f3	-0.029427027
51	0xbe3a3f62	-0.18188241
52	0xbdcbfa73	-0.09959879
53	0xbe226af4	-0.15861112
54	0x3c9c4ba5	0.019079039
55	0x3d7a4fce	0.061111264
56	0xbdec53d7	-0.11539429
57	0xbe2c658f	-0.16835617
58	0xbe244d8a	-0.16045204
59	0x3dee0cc2	0.11623527
60	0xbda08749	-0.078383036
61	0xbda641d3	-0.08118024
62	0xbdb30867	-0.08741837
63	0xbcb92994	-0.022602834
64	0xbd0a46e3	-0.03375901
65	0xbe3ea1aa	-0.18616357
66	0xbddc1004	-0.10745242
67	0xbde1baa8	-0.1102193
68	0xbdf9adc0	-0.12191343
69	0xbcb755f0	-0.022379845
70	0x3d8337a6	0.064070985
71	0xbd50eed0	-0.051009
72	0xbdddc5e3	-0.108287595
73	0xbe199972	-0.14999941
74	0x3d5ff40d	0.054676104
75	0xbd720994	-0.059091166
76	0xbd2e86ee	-0.042609148
77	0xbd797f32	-0.06091232
78	0xbccb3790	-0.024806768
79	0xbd87e486	-0.06635384
80	0xbdb1b45c	-0.08676979
81	0x3d92d0ab	0.071687065
82	0xbdd79c27	-0.105278306
83	0xbdbd22ac	-0.09235129
84	0xbc7a9f4c	-0.015296768
85	0x3d323695	0.043509085
86	0xbca5b43d	-0.020227546
87	0xbe008aed	-0.12552996
88	0xbd8fc0b7	-0.07019179
89	0x3cb529b8	0.02211462
90	0xbe238c52	-0.15971497
91	0xbcfa3800	-0.030544281
92	0x3da81188	0.08206469
93	0xbd966bb2	-0.0734476
94	0x3d66d84c	0.05635862
95	0xbd280ccb	-0.041027825
96	0xbd2aff27	-0.04174724
97	0xbcc896b3	-0.024485921
98	0x3d44c352	0.048037834
99	0x3cf02618	0.02931504
100	0x3d1930ed	0.037400175
101	0x3d35e0eb	0.04440395
102	0xbca6acfa	-0.020346154
103	0x3d0c2baf	0.034221347
104	0xbde27a5f	-0.11058497
105	0xbe157bb1	-0.14597966
106	0x3deec34c	0.11658344
107	0xbddf1b7a	-0.108939126
108	0xbc8f3f85	-0.017486343
109	0x3baecb69	0.005334307
110	0xbd72e0d1	-0.059296433
111	0x3dedffbf	0.11621045
112	0xbd191f84	-0.03738357
113	0x3d7f8958	0.06238684
114	0x3cba3cd0	0.022734076
115	0xbd825014	-0.0636293
116	0xbd053722	-0.032523282
117	0x3d31fc8f	0.04345375
118	0xbd8948ca	-0.067033365
119	0x3d888442	0.06665851
120	0xbd66981f	-0.056297418
121	0x3d00d131	0.0314495
122	0xbc5d136f	-0.013493403
123	0xbc079aa9	-0.00827662
124	0x3c88d572	0.016703341
125	0xbcea6409	-0.028612154
126	0x3cc74a26	0.024327349
127	0x3d3911b0	0.045182884
128	0xbd51a649	-0.051183973
129	0x3dbff1e6	0.0937231
130	0x3da708d7	0.08155983
131	0xbcca90bd	-0.02472722
132	0xbe3f432d	-0.1867797
133	0x3c73faee	0.014891369
134	0xbd7468ef	-0.059670385
135	0xbe068492	-0.13136509
136	0xbdd07634	-0.101787955
137	0x3de69161	0.112581976
138	0xbe0c5000	-0.13702393
139	0xbd180943	-0.037118208
140	0x3ad5c0f4	0.0016308115
141	0xbceaf2d6	-0.028680246
142	0xbd0db7e3	-0.034599196
143	0xbc69f52b	-0.014279644
144	0xbe0f6274	-0.140024
145	0x3c6dd5d1	0.01451631
146	0x3d90c6f0	0.07069194
147	0xbde1a172	-0.110171214
148	0x3d1a8b96	0.037730776
149	0xbcc7d881	-0.02439523
150	0x3b0e0279	0.0021668954
151	0x3d226ef1	0.039656583
152	0xbd9c493d	-0.076311566
153	0x3d2948d0	0.041329205
154	0x3ced5ae2	0.028974
155	0x3b833103	0.0040036454
156	0xbd311eb8	-0.043242186
157	0xbcf6aa85	-0.030110607
158	0x3d0b80a3	0.034058224
159	0x3d5a1ecf	0.053252038
160	0xbdd04a35	-0.10170404
161	0xbe2eab12	-0.17057446
162	0x3df8c034	0.12146035
163	0xbd82786a	-0.063706234
164	0x3e0db2ad	0.1383769
165	0xbd792a95	-0.060831625
166	0x3c50ab64	0.012736175
167	0xbc987da3	-0.018614596
168	0x3e1210d8	0.14264238
169	0xbd7ccba4	-0.061717644
170	0x3b33bb11	0.0027424733
171	0x3cdc4aa3	0.026891058
172	0x3d90071b	0.07032605
173	0xbdedf28d	-0.116185285
174	0x3d469267	0.048479464
175	0xbd0db66b	-0.034597795
176	0x3e050adf	0.12992428
177	0xbb74126f	-0.0037242433
178	0xbe0269bb	-0.12735645
179	0xbdbfb816	-0.093612835
180	0xbd3f0989	-0.046639953
181	0x3c85e42a	0.016344149
182	0x3dc3b826	0.09556608
183	0xbd4fd282	-0.050737865
184	0x3d507d8a	0.050900973
185	0xbdb38906	-0.087663695
186	0xbde5051c	-0.11182615
187	0xbcf8449d	-0.030306155
188	0x3b49ab91	0.0030772428
189	0xbdc2c631	-0.09510458
190	0xbda73dd8	-0.08166093
191	0xbdae33ca	-0.08505972
192	0x3d9fda16	0.078052685
193	0x3d8f5b90	0.06999886
194	0xbdb4b1ea	-0.08822997
195	0x3dc15f47	0.09442001
196	0x3e06db2a	0.13169542
197	0x3c106e15	0.008815308
198	0xbdde267c	-0.10847184
199	0xbcaf27d8	-0.021381304
200	0x3d5ff1bf	0.054673906
201	0xbd8e53fa	-0.06949611
202	0x3d0126d5	0.031531174
203	0x3d211223	0.039323937
204	0xbdb85970	-0.09001434
205	0xbce565fe	-0.028002735
206	0xbccdadbc	-0.025107257
207	0xbcb6eecd	-0.022330666
208	0xbe1bc884	-0.1521321
209	0x3dd071ee	0.1017798
210	0xbc897531	-0.016779514
211	0x3ca72a05	0.020405779
212	0xbe05091f	-0.1299176
213	0xbd50e6e6	-0.051001452
214	0xbdfc716a	-0.123263195
215	0xbdd78bc8	-0.10524708
216	0xbd5ccbdd	-0.053905357
217	0x3d8e3971	0.0694455
218	0xbd981c24	-0.074272424
219	0x3cb5e1ef	0.02220246
220	0xbddc31bf	-0.10751676
221	0x3dbd398b	0.09239491
222	0xbdd14da1	-0.10219885
223	0xbcd120cf	-0.02552834
224	0xbdac8b99	-0.08425064
225	0x3d8dbd12	0.06920828
226	0x3dc3c3dc	0.095588416
227	0xbc0763ad	-0.008263511
228	0xbd7789b2	-0.06043405
229	0xbe022bc5	-0.12712009
230	0xbd72cf2a	-0.0592796
231	0x3d1ca475	0.038242776
232	0xbcb28cd4	-0.021795668
233	0xbdb5cf09	-0.088773794
234	0x3bc3e391	0.0059780558
235	0x3c38b0a0	0.011272579
236	0xbe0660e4	-0.13122898
237	0xbdba9173	-0.091097735
238	0xbd3d03ee	-0.046146326
239	0xbc111af2	-0.008856522
240	0xbd7b37cb	-0.061332505
241	0x3d86dca2	0.06585051
242	0x3d4ea02a	0.050445713
243	0xbdebb3ba	-0.115088895
244	0xbc8018b0	-0.015636772
245	0x3dbc123d	0.09183166
246	0xbdd06ab5	-0.10176603
247	0xbd33549e	-0.04378187
248	0xbdf4d938	-0.11955494
249	0xbe094718	-0.13406026
250	0x3dbe2a8f	0.09285461
251	0xbd517d21	-0.051144723
252	0xbc752a6a	-0.014963726
253	0x3d7be71a	0.061499692
254	0x3d89b387	0.06723695
255	0x3d707a97	0.05871066

hidden_layers.1.bias f4 [64]
0	0x3d2cdfb8	0.042205542
1	0xbb1f6c8d	-0.0024326176
2	0x3d3827ca	0.04495982
3	0xbdd82efb	-0.10555836
4	0x3d413c55	0.047176678
5	0x3db24f20	0.08706498
6	0xbd4a6f9a	-0.049422838
7	0x3d9a44f0	0.0753268
8	0xbce7dbeb	-0.028303107
9	0xbdffb65f	-0.124859564
10	0xbe1c7e65	-0.1528259
11	0xbd126a95	-0.035746176
12	0x3cfffc7b	0.031248322
13	0xbd3f62b2	-0.046724983
14	0xbd81dded	-0.06341157
15	0xbdf0c66d	-0.11756597
16	0x3d8293de	0.0637586
17	0x3d1935c3	0.037404787
18	0x3d251c08	0.040309936
19	0xbdbe3f07	-0.09289365
20	0x3da9f674	0.0829896
21	0x3e0d8c37	0.13823019
22	0x3dfd2891	0.12361253
23	0xbd9b345f	-0.07578348
24	0xbcd7e609	-0.026354806
25	0x3d31e768	0.043433577
26	0xbdbdd2b5	-0.09268705
27	0xbe0c08d5	-0.13675244
28	0xbd1c176d	-0.038108278
29	0x3d4d4c7e	0.050121777
30	0xbdd6d075	-0.10488979
31	0xbdd78544	-0.10523465
32	0xbdb723df	-0.08942389
33	0xbe156048	-0.1458751
34	0xbdb9044c	-0.09034023
35	0xbca99d6d	-0.02070495
36	0xbd401bfa	-0.04690168
37	0xbd015718	-0.0315772
38	0xbd79adc5	-0.060956735
39	0x3ca4cc05	0.020116815
40	0x3dbd7539	0.09250874
41	0xbd5f9a67	-0.05459061
42	0xbdeca9fe	-0.11555861
43	0xbd88d517	-0.06681269
44	0x3d57f421	0.052723054
45	0x3d80721d	0.062717654
46	0xbdbe02eb	-0.092779
47	0x3bfea17b	0.007770715
48	0x3ddbbcad	0.107293464
49	0x3d6da359	0.05801711
50	0x3d80cd08	0.062891066
51	0xbd93e076	-0.07220547
52	0xbc96ab00	-0.018392086
53	0xbda6c9eb	-0.081439815
54	0x3cbfeb13	0.023427522
55	0xbe0539b5	-0.13010295
56	0xbd890237	-0.066898756
57	0x3d102278	0.035189122
58	0x3d9656e2	0.0734079
59	0xbe00197f	-0.12509726
60	0x3d88b13c	0.0667443
61	0xbd1722c3	-0.036898386
62	0xbc944a42	-0.018101815
63	0x3daf606f	0.08563315

output.weight f4 [4, 64]
0	0x3c2477a5	0.010038291
1	0xbcd3a548	-0.025835648
2	0xbd7d1c82	-0.061794765
3	0xbdbccc00	-0.092185974
4	0xbcf4fb0d	-0.029904867
5	0xbd8e55ee	-0.069499835
6	0xbd652765	-0.055945773
7	0xbd1ee44b	-0.038791936
8	0x3dc9694a	0.098345354
9	0x3db7f5ea	0.08982451
10	0xbcaa9725	-0.020824024
11	0xbe000235	-0.12500842
12	0xbe06fee5	-0.13183172
13	0x3db9c07b	0.09069916
14	0xbd7d298c	-0.0618072
15	0x3ce6c4e8	0.028170064
16	0x3de808c1	0.11329795
17	0xbd3f78da	-0.046746112
18	0x3c97512e	0.018471327
19	0x3db6fdb3	0.08935108
20	0x3dc00b11	0.09377111
21	0x3e06d699	0.131678
22	0x3dab098f	0.083514325
23	0x3d80a4dc	0.062814444
24	0xbc9a6830	-0.018848509
25	0x3da1e0b7	0.07904189
26	0x3ce2b0b0	0.027672142
27	0xbcf5b0fb	-0.029991617
28	0xbd780900	-0.060555458
29	0x3d8e3068	0.069428265
30	0xbdf931c3	-0.121676944
31	0xbd6e0ddc	-0.058118686
32	0xbd49ad5f	-0.049237605
33	0xbd3417ae	-0.043967895
34	0x3d68a99f	0.05680239
35	0x3c86d924	0.016460963
36	0xbc7e4b0c	-0.015520822
37	0x3da0879f	0.07838368
38	0x3e107976	0.14108834
39	0xbdccbcca	-0.09996946
40	0x3d92645b	0.071480475
41	0x3dbcf0db	0.09225627
42	0xbdebe7a6	-0.11518793
43	0x3d28b95d	0.0411924
44	0x3dea3458	0.11435765
45	0x3dc2c142	0.09509517
46	0xbd53725b	-0.05162273
47	0x3e0184da	0.12648335
48	0x3daf014c	0.08545169
49	0xbdb6980d	-0.0891572
50	0x3ce35baa	0.02775367
51	0xbd8bc894	-0.068253666
52	0x3e17db64	0.14829785
53	0xbdd03b65	-0.101675786
54	0x3c902f49	0.017600672
55	0xbd2b4506	-0.041813873
56	0x3e125a94	0.14292365
57	0x3d541377	0.051776376
58	0xbde6c8f5	-0.11268798
59	0xbb34f0c4	-0.0027609328
60	0xbd1f965d	-0.038961757
61	0x3c454569	0.012040474
62	0x3e414f36	0.18877873
63	0xbd59f98c	-0.053216502
64	0xbd62aac3	-0.055338632
65	0xbbf7e99e	-0.007565691
66	0x3ca820dc	0.020523481
67	0x3cf1f4b5	0.02953563
68	0x3b6f4717	0.0036510879
69	0xbd9b7f92	-0.075926915
70	0x3d22424d	0.03961401
71	0xbdb99c73	-0.090630434
72	0x3caa8ec5	0.020820031
73	0xbd104337	-0.03522035
74	0xbc91590d	-0.017742658
75	0xbd664a3c	-0.05622314
76	0x3ce97c73	0.028501725
77	0x397282e8	0.00023127685
78	0x3b9364fa	0.0044981213
79	0x3cbde441	0.023180129
80	0xbcd4e0f4	-0.025986172
81	0xbd72d579	-0.059285615
82	0x3d29042b	0.04126374
83	0xbd2b90e1	-0.041886214
84	0x3e0fe63a	0.14052668
85	0x3d20b301	0.03923321
86	0x3d80039e	0.0625069
87	0x3d8efc81	0.06981755
88	0x3c4e8b67	0.012606478
89	0x3c1f20ac	0.009712379
90	0xbc7aa502	-0.01529813
91	0x3dbd73eb	0.09250625
92	0xbd37e7d7	-0.044898834
93	0x3d700c79	0.058605645
94	0x3cc11a08	0.023571983
95	0xbbc61541	-0.006045014
96	0x3dcb31af	0.09921586
97	0x3d9654cd	0.07340393
98	0x3d261851	0.040550534
99	0xbd9d7c40	-0.076897144
100	0x3d898fe4	0.06716898
101	0x3d668009	0.056274448
102	0x3d2e33f9	0.042530034
103	0xbc963518	-0.018335864
104	0xbd7726c7	-0.060339715
105	0x3c61fea3	0.01379362
106	0xbc5a59fe	-0.01332712
107	0xbd6acf00	-0.057326317
108	0x3d1b2d75	0.037885148
109	0x3d09cf8c	0.033645198
110	0xbcf119fa	-0.029431332
111	0x3a7d6f6e	0.00096677884
112	0x3d678a13	0.056528162
113	0xbd1c4ad1	-0.038157288
114	0x3aa8b1b1	0.0012870339
115	0x3d030486	0.031986736
116	0x3be073f5	0.0068497607
117	0xbd04175d	-0.032248843
118	0x3ca7b1be	0.020470496
119	0x3a03baa4	0.0005025065
120	0x3dd2e272	0.10297097
121	0x3db03977	0.086047105
122	0x3d053c17	0.03252801
123	0xbda6f32b	-0.08151849
124	0xbb650667	-0.0034946443
125	0x3cd6fed6	0.026244562
126	0x3db6e853	0.08931031
127	0xbd79139a	-0.06080971
128	0xbd8d5103	-0.069002174
129	0x3cfb9311	0.030709775
130	0xbb1d1193	-0.0023966774
131	0x3d2d4885	0.04230549
132	0x3cfc12e6	0.03077073
133	0x3d3ed8a7	0.046593335
134	0xbcd492e0	-0.025948942
135	0xbcbe1067	-0.02320118
136	0xbd0a0d99	-0.033704374
137	0x3dcae630	0.09907186
138	0x3dc86bc9	0.097861834
139	0x3db5dad7	0.08879631
140	0x3dad1638	0.084515035
141	0x3db00948	0.0859552
142	0x3d835d4a	0.06414278
143	0xbd5a2d15	-0.05326565
144	0x3d39d631	0.045370284
145	0xbd5a9a00	-0.053369522
146	0x3d0ba923	0.03409685
147	0x3a8347e5	0.0010015933
148	0x3da2d6f5	0.07951156
149	0xbd21a02c	-0.039459392
150	0x3d9a11fd	0.07522962
151	0x3c0a4149	0.008438417
152	0x3d3b6a5a	0.04575572
153	0x3db73757	0.08946102
154	0x3df2eb68	0.118613064
155	0x3d7f8576	0.062383138
156	0xbad9a6ba	-0.0016605475
157	0x3d5acd5e	0.05341851
158	0x3cc63dfb	0.024199476
159	0x3d3f5ab7	0.04671737
160	0x3d33b53f	0.04387402
161	0xbde8a9c5	-0.11360506
162	0xbd13eb6e	-0.036113195
163	0x3d5d24d6	0.053990208
164	0x3d0ff433	0.035144996
165	0x3cb76627	0.022387577
166	0x3d8fc63b	0.07020231
167	0xbc22c34e	-0.00993426
168	0x3d47ac9f	0.04874861
169	0xbd9d2fdd	-0.07675145
170	0xbc154e1b	-0.00911286
171	0xbd29a242	-0.041414507
172	0x3cc00625	0.02344043
173	0x3d0ec73e	0.03485798
174	0xbd491cc8	-0.049099714
175	0x3e013aa1	0.12620021
176	0x3c069f83	0.0082167415
177	0xbc07a5a7	-0.008279241
178	0x3dcb98c4	0.09941247
179	0xbd8c15d2	-0.068400994
180	0x3d998ab9	0.07497162
181	0x3d830869	0.063980885
182	0x3b9d722a	0.004804869
183	0xbd9abb99	-0.07555313
184	0x3d12d245	0.03584506
185	0x3de769c7	0.11299472
186	0x3d5f790a	0.05455879
187	0xbc0d4763	-0.008622977
188	0x3cd57a35	0.02605925
189	0x3dba9854	0.091110855
190	0x3da70263	0.08154752
191	0x3d0a2bfc	0.033733353
192	0x3d1c2aba	0.038126685
193	0x39de9b51	0.0004245886
194	0xbca43500	-0.020044804
195	0xbc41e1ad	-0.01183359
196	0x3c46fa70	0.01214467
197	0xbbf55e2f	-0.007488034
198	0xbca06c1c	-0.0195828
199	0xbd8b1dc1	-0.067927845
200	0x3c5758bb	0.013143714
201	0xbcc6afed	-0.02425381
202	0xbd658007	-0.0560303
203	0xbd78da73	-0.060755204
204	0x3cb10459	0.021608518
205	0x3dca7a83	0.098866485
206	0x3dbd1f74	0.09234515
207	0xbdca77ec	-0.098861545
208	0xbd6f8f95	-0.05848654
209	0x3b7d0594	0.003860806
210	0x3de1a8eb	0.11018547
211	0xbc9cd5b2	-0.019144867
212	0x3e1bc516	0.15211901
213	0x3d83bbd6	0.06432311
214	0x3d99f1d1	0.07516826
215	0x3cae176c	0.021251403
216	0x3da87f5f	0.08227419
217	0x3d0d617a	0.03451679
218	0x3d9f5c52	0.077812806
219	0xbdb67ab1	-0.0891012
220	0x3c43bb9d	0.011946586
221	0x3d9bddb4	0.07610646
222	0xbc44ff3c	-0.012023743
223	0x3d0ae63e	0.033910982
224	0xbce75e23	-0.02824313
225	0x3cd93002	0.02651215
226	0x3de3d05d	0.111237265
227	0xbd4cf2ef	-0.050036367
228	0xbd82b667	-0.06382447
229	0xbd08e150	-0.033418
230	0x3de2aba4	0.11067894
231	0x3d8f6d76	0.070033
232	0x3b3009fa	0.0026861415
233	0xbd805a92	-0.06267275
234	0x3d5663e0	0.052341342
235	0x3d263fab	0.040588062
236	0xbc4fc96f	-0.012682303
237	0xbba50921	-0.0050364886
238	0xbdd135a7	-0.102153115
239	0x3dd721f9	0.10504527
240	0xbca8b452	-0.020593796
241	0xbded2477	-0.11579221
242	0x3d8da8f1	0.06916989
243	0x3cb7ac9f	0.02242118
244	0xbb9e0074	-0.0048218314
245	0x3dce0746	0.10059981
246	0x3c44c13d	0.012008962
247	0x3ddc05c5	0.10743288
248	0x3dd52314	0.10407081
249	0x3d3e12c3	0.04640461
250	0xbd617f7d	-0.055053223
251	0xbd8341bb	-0.064090215
252	0x3d0a92ff	0.033831593
253	0x3d57e1b7	0.052705493
254	0x3d8fd766	0.07023506
255	0x3c8046a1	0.015658678

output.bias f4 [4]
0	0x3dae9c0e	0.08525859
1	0x3ddcc9d0	0.1078068
2	0x3d7c8cc8	0.061657697
3	0x3d958e96	0.07302587
