checkpoints/state_size_37__action_size_4__hidden_layers_[128-128]__drop_p_0.25__seed_0__GAMMA_0.99__LR_0.0005__UPDATE_EVERY_100__BUFFER_SIZE_100000__BATCH_SIZE_64__TAU_0.001.pth (torch, 89687 bytes, 6 tensors)

hidden_layers.0.weight f4 [128, 37]
0.018542813 0.09248434 -0.07396818 0.11198798 0.061490256 0.118719354 -0.024857873 -0.08093503
-0.02631693 -0.48145634 0.09809393 0.17314298 0.052823525 0.17054804 -0.15568157 -0.12298164
-0.22737418 -0.029755967 0.054349747 0.002581833 -0.18080603 -0.09920364 0.06016557 -0.122010835
0.033246763 -0.033842713 0.11601828 -0.060767572 -0.14198914 -0.08305782 -0.16281098 -0.04494429
-0.15581578 0.06242867 0.060744543 0.14241411 0.077431634 -0.042697713 0.048633706 0.1253021
0.08071964 -0.085407324 -0.109575786 0.1425762 -0.05892798 -0.0722661 0.18088335 0.1210319
-0.13198537 0.021843811 0.07545495 -0.065173775 -0.017798861 -0.15718101 -0.12765384 0.05689024
-0.05701091 0.072863735 -0.033519283 0.04903091 0.18952054 0.09357934 -0.10819549 0.016376892
-0.093178734 0.015148246 -0.093854226 -0.07113806 -0.031880923 0.10501362 0.04556002 0.04024222
-0.11324267 -0.02416222 0.06589598 0.14571445 0.05698975 -0.07174366 -0.03201108 -0.044674113
-0.12740542 0.13370414 -0.14740232 -0.18608719 0.020695131 -0.18113229 -0.054913033 -0.119415104
-0.19933915 0.020891842 -0.15560259 0.0376961 0.08756207 -0.027533535 -0.19990285 -0.10009948
0.11652999 0.0053654145 -0.08110838 -0.18990366 0.08076167 0.09237661 -0.08711352 -0.074577495
0.08100974 0.00025648548 0.019721279 0.042391263 -0.3228868 -0.052908577 0.029840553 -0.030987287
0.014324459 0.019455394 -0.05958137 -0.06389199 -0.18237154 -0.11799508 0.099101834 -0.14466296
0.093590066 -0.17736337 0.004546437 -0.10431844 -0.14474691 0.106812365 -0.18728526 -0.014946471
0.07644836 0.041220203 -0.00035136717 -0.018170943 -0.03379049 -0.13401009 -0.11129584 0.10984067
0.0007508236 -0.04771904 0.0747711 0.046969105 -0.09648138 0.048631582 -0.124816954 -0.12275209
-0.14041561 0.094376095 0.08552392 -0.10529432 0.02476704 -0.0036486953 -0.026250187 -0.016075756
0.117998496 -0.19431236 0.048835907 0.10439365 0.1652378 0.5810859 -0.03698241 0.034512628
-0.04763964 0.16865887 0.0874705 -0.05080917 -0.07523092 0.124482006 0.09586716 0.18118136
-0.049593415 -0.18245178 -0.07516168 0.12968269 0.24373043 -0.21367757 -0.2249949 -0.10002796
0.11594559 0.23295093 -0.030080536 -0.020125255 -0.056946773 0.21711554 0.13600308 0.038184967
0.00032188225 0.16028872 -0.014505849 -0.13269533 0.09209616 0.06874078 0.09858405 -0.17474483
-0.21894266 -0.2317412 -0.51112384 0.10051058 -0.13392822 -0.15049507 -0.13813742 0.037698437
0.048021384 -0.035762787 0.034523416 -0.22232099 -0.24131045 0.09562637 0.08007591 -0.09182766
0.08905288 -0.15704627 0.120315775 0.033470724 -0.10498781 -0.09610734 -0.29412958 0.04719842
-0.0032223184 -0.18261136 -0.1957884 -0.2057047 0.09511297 0.035737533 0.093923524 -0.03929751
-0.119738095 0.038302604 0.07497724 -0.034950703 -0.022752842 -0.17510267 -0.10029767 -0.5493569
0.0718977 -0.10790027 0.13436824 -0.071901426 0.0073066643 -0.042337395 -0.008995554 -0.09503578
-0.02148669 0.008504094 0.08386474 0.12279757 -0.14960551 -0.06831162 -0.041026022 0.18008444
0.104554266 -0.117446296 0.053785976 0.04434528 0.100507304 -0.1337776 0.09456997 0.08044309
00000000: 19e7 973c 6e68 bd3d a17c 97bd f459 e53d
00000010: 35dd 7b3d 2223 f33d bda2 cbbc 44c1 a5bd
00000020: 9a96 d7bc 7281 f6be 78e5 c83d 654c 313e
00000030: 7b5d 583d 25a4 2e3e fd6a 1fbe ccdd fbbd
00000040: c7d4 68be c9c2 f3bc d79d 5e3d f833 293b
00000050: 3725 39be 472b cbbd 2c70 763d d1e0 f9bd
00000060: c22d 083d a89e 0abd fe9a ed3d 6be7 78bd
00000070: 9a65 11be 381a aabd ecb7 26be 8117 38bd
00000080: 2c8e 1fbe 34b5 7f3d 45cf 783d 01d5 113e
00000090: 7a94 9e3d cce3 2ebd 2334 473d 324f 003e
000000a0: 5750 a53d 09ea aebd 4569 e0bd 7fff 113e
000000b0: 775e 71bd 4000 94bd 7c39 393e 93df f73d
000000c0: 2c27 07be cbf1 b23c 2088 9a3d d479 85bd
000000d0: ebce 91bc 0ff4 20be b0b7 02be be05 693d
000000e0: 4684 69bd 9539 953d 844b 09bd a3d4 483d
000000f0: ac11 423e 86a6 bf3d 9995 ddbd d528 863c
00000100: 7ed4 bebd 5930 783c a536 c0bd d5b0 91bd
00000110: 9295 02bd 6111 d73d 259d 3a3d 07d5 243d
00000120: c6eb e7bd d9ef c5bc 79f4 863d 2b36 153e
00000130: 166e 693d 57ee 92bd 0d1e 03bd 34fc 36bd
00000140: 9176 02be bde9 083e a2f0 16be a48d 3ebe
00000150: d688 a93c be7a 39be 7dec 60bd e88f f4bd
00000160: 901f 4cbe 5e25 ab3c 4956 1fbe 3a67 1a3d
00000170: be53 b33d 028e e1bc 55b3 4cbe f500 cdbd
00000180: 47a7 ee3d 5cd0 af3b 261c a6bd 1b76 42be
00000190: 6066 a53d f32f bd3d 9368 b2bd 16bc 98bd
000001a0: 6fe8 a53d e678 8639 858e a13c 76a2 2d3d
000001b0: 6b51 a5be aab6 58bd 2d74 f43c 0dd9 fdbc
000001c0: 23b1 6a3c eb60 9f3c 980b 74bd ced9 82bd
000001d0: 9bbf 3abe 68a7 f1bd e7f5 ca3d 8722 14be
000001e0: 26ac bf3d be9e 35be 47fa 943b e8a4 d5bd
000001f0: 8938 14be 71c0 da3d b5c7 3fbe 0be2 74bc
00000200: f590 9c3d 84d6 283d b437 b8b9 3bdb 94bc
00000210: e667 0abd f139 09be 13ef e3bd 25f4 e03d
00000220: ebd2 443a 0a75 43bd 9721 993d ad62 403d
00000230: 0898 c5bd e931 473d 08a0 ffbd 7365 fbbd
00000240: 1cc9 0fbe 4148 c13d 2a27 af3d 8ca4 d7bd
00000250: 3fe4 ca3c f31e 6fbb a20a d7bc 4eb1 83bc
00000260: 32a9 f13d d2f9 46be 2908 483d 57cc d53d
00000270: 1934 293e 0cc2 143f de7a 17bd 1d5d 0d3d
00000280: c821 43bd e9b4 2c3e bc23 b33d 471d 50bd
00000290: ab12 9abd 6cf0 fe3d 0056 c43d 9b87 393e
000002a0: 7722 4bbd a4d4 3abe 5eee 99bd 8acb 043e
000002b0: 7894 793e 4bce 5abe 1065 66be 76db ccbd
000002c0: e274 ed3d b08a 6e3e 756b f6bc b8dd a4bc
000002d0: 0541 69bd 8953 5e3e 6444 0b3e d767 1c3d
000002e0: 4ec2 a839 ba22 243e f1a9 6dbc 49e1 07be
000002f0: e99c bc3d f7c7 8c3d 6fe6 c93d 4ff0 32be
00000300: 8132 60be 914d 6dbe 03d9 02bf 7ed8 cd3d
00000310: 7b24 09be 611b 1abe e573 0dbe ad69 1a3d
00000320: 12b2 443d 007c 12bd 6d68 0d3d 1da8 63be
00000330: 161a 77be c2d7 c33d d7fe a33d 2410 bcbd
00000340: 5b61 b63d bdd0 20be 1e68 f63d 9918 093d
00000350: d903 d7bd edd3 c4bd 2798 96be 2153 413d
00000360: 882d 53bb 79fe 3abe c17c 48be 41a4 52be
00000370: 97ca c23d 8561 123d fa5a c03d 6df6 20bd
00000380: 3f39 f5bd 31e3 1c3d ab8d 993d 7828 0fbd
00000390: 2b64 babc 1d4e 33be dd68 cdbd a7a2 0cbf
000003a0: 1a3f 933d d1fa dcbd d497 093e 0e41 93bd
000003b0: be6c ef3b fa69 2dbd 1762 13bc 1ea2 c2bd
000003c0: db04 b0bc c154 0b3c 47c1 ab3d 4b7d fb3d
000003d0: 3032 19be f6e6 8bbd e70a 28bd 0e68 383e
000003e0: 8c20 d63d af87 f0bd af4e 5c3d 65a3 353d
000003f0: c6d6 cd3d fffc 08be e7ad c13d 59bf a43d

hidden_layers.0.bias f4 [128]
-0.14660671 0.13295364 0.07142987 -0.13922068 0.11314379 -0.13188966 0.0767977 0.028507438
-0.046065044 -0.1166823 -0.014272651 0.14867248 -0.012227763 -0.14851604 0.1568583 -0.022454964
0.09492297 -0.12897083 0.019336022 -0.14076206 -0.044617753 0.08469088 -0.079572886 -0.061673425
0.13283043 -0.12436458 -0.10200278 0.075264834 0.10235182 -0.13030198 -0.021943517 -0.15785582
0.07366097 -0.0061857672 -0.10212424 0.0006511965 -0.035922747 0.018616233 0.047723606 -0.11642886
-0.087101825 -0.067448445 -0.122296914 0.05088729 0.1416362 0.13412271 -0.097995795 -0.086106196
-0.09757511 -0.05168335 -0.08613556 -0.004891601 -0.11913972 -0.010234283 -0.1461902 -0.03324847
-0.21843782 -0.07832428 0.09285642 -0.116219446 -0.009281561 -0.057275947 0.069298804 -0.053456146
-0.14931291 -0.14388315 -0.013768332 -0.03994728 0.062422838 0.08868734 0.057649676 -0.032944337
-0.17311291 0.07031006 0.03219965 -0.07026748 -0.015723655 0.102385126 -0.12807317 0.08630394
0.15924624 0.08998848 0.06804079 -0.12622914 0.08347943 0.13757412 -0.071767285 -0.08492893
0.06673669 -0.1142201 -0.105258174 -0.04239035 -0.058421478 0.12715925 -0.058550254 -0.052627634
0.09938541 -0.17108083 0.12108339 -0.08848667 0.033713263 0.025107387 -0.16854411 0.043913122
0.051197793 -0.112485334 0.02710545 0.061314236 0.09441871 0.05978178 -0.16666856 0.028236419
0.06757507 -0.15657043 -0.05622924 0.1394191 0.07554423 0.014585831 -0.13623796 0.0732438
-0.13695523 0.09674483 -0.13142757 0.013924235 -0.18046865 -0.083324715 -0.13822968 0.061174
00000000: 1220 16be 0025 083e d349 923d de8f 0ebe
00000010: eeb7 e73d 150e 07be 1d48 9d3d 6e88 e93c
00000020: b3ae 3cbd 21f7 eebd d6d7 69bc 993d 183e
00000030: f556 48bc 9714 18be 769f 203e 79f3 b7bc
00000040: f966 c23d ee10 04be 9466 9e3c ee23 10be
00000050: 1bc1 36bd 6972 ad3d 1cf7 a2bd 469d 7cbd
00000060: b304 083e dbb2 febd d5e6 d0bd 7324 9a3d
00000070: d59d d13d e26d 05be e4c2 b3bc f5a4 21be
00000080: 90db 963d fab1 cabb 8326 d1bd 0fb5 2a3a
00000090: bb23 13bd 1281 983c d479 433d 4172 eebd
000000a0: 7162 b2bd 6922 8abd ce76 fabd 316f 503d
000000b0: 1409 113e 7757 093e 05b2 c8bd 7258 b0bd
000000c0: 76d5 c7bd ecb1 53bd d767 b0bd b949 a0bb
000000d0: 87ff f3bd b2ad 27bc e2b2 15be 8c2f 08bd
000000e0: 2aae 5fbe 7b68 a0bd 822b be3d 7604 eebd
000000f0: b011 18bc 2f9a 6abd 88ec 8d3d d5f4 5abd
00000100: 7ce5 18be 1b56 13be 9294 61bc c29f 23bd
00000110: 17af 7f3d b5a1 b53d 1122 6c3d a4f0 06bd
00000120: 8344 31be b9fe 8f3d c8e3 033d 66e8 8fbd
00000130: e5ce 80bc 4baf d13d 9d25 03be 1fc0 b03d
00000140: 7211 233e e14b b83d f858 8b3d 3642 01be
00000150: 43f7 aa3d 3be0 0c3e bafa 92bd 38ef adbd
00000160: 3fad 883d 3aec e9bd 9991 d7bd 81a1 2dbd
00000170: 5c4b 6fbd 0936 023e 64d2 6fbd 1390 57bd
00000180: 948a cb3d d02f 2fbe 92fa f73d 8038 b5bd
00000190: eb16 0a3d 02ae cd3c d496 2cbe 3fde 333d
000001a0: c7b4 513d b65e e6bd 400c de3c a324 7b3d
000001b0: 995e c13d bddd 743d 2aab 2abe 1050 e73c
000001c0: cc64 8a3d 0054 20be a250 66bd e1c3 0e3e
000001d0: efb6 9a3d 69f9 6e3c f781 0bbe d800 963d
000001e0: fe3d 0cbe 2722 c63d f394 06be 7922 643c
000001f0: c6cc 38be 26a6 aabd 158c 0dbe 9791 7a3d

hidden_layers.1.weight f4 [128, 128]
-0.022231167 0.05955546 -0.06588296 -0.00445084 -0.092960164 -0.058164623 0.004753407 -0.07400883
-0.01133884 -0.07491724 -0.010941214 0.04849698 -0.08257531 -0.010323207 -0.0639186 -0.08828975
0.021388268 -0.028000783 -0.070284344 0.04529067 -0.09790223 -0.10239944 0.05402138 0.085351616
-0.06532046 -0.08623305 0.06517758 -0.044185422 -0.06308254 0.049501732 -0.09449636 -0.06405214
0.030390507 0.042655926 0.018346274 -0.09106286 0.044799235 -0.07087732 0.028206684 -0.08756255
-0.04813225 -0.07326409 0.016355664 -0.09099413 -0.053510867 -0.08662768 0.0384401 -0.0891014
0.07712251 -0.09788266 -0.050458595 0.016743498 -0.012060491 -0.0636185 0.065098874 -0.061988804
-0.03229089 -0.012380116 -0.054144572 -0.03174791 -0.096787974 -0.019732326 -0.094757065 -0.006142406
-0.008217197 0.074543014 -0.04610091 0.04957257 0.08194149 -0.068731196 -0.004224541 -0.021702576
-0.087865315 -0.0150643615 0.047608938 -0.072958075 -0.04276821 0.022396864 0.05533995 -0.063966945
0.03589183 -0.06199781 0.014147701 0.010359944 0.026419198 -0.023955118 -0.045632597 -0.049319662
0.0732622 -0.062258627 0.016461922 0.03892649 0.046650793 0.019443009 0.007525616 0.060791112
-0.073835485 -0.08512688 0.030838016 0.04224764 0.042680655 0.01672502 -0.10704593 -0.078860424
-0.014046333 -0.05923782 -0.025182499 -0.078119054 -0.088505164 -0.05736986 -0.020156808 0.025582533
-0.077348284 0.03557617 0.022955174 0.04018887 -0.051601898 -0.001468495 -0.07741131 -0.059314284
-0.004846189 0.05129885 0.060100432 -0.06898606 0.03903107 0.045935255 -0.07586444 0.068920314
-0.09733187 -0.034540065 -0.0009390198 -0.013459352 0.039246153 0.04361436 0.03430721 -0.091208994
0.06943716 -0.08104433 -0.0077076345 0.02881867 -0.040275387 -0.009821647 0.0059046075 -0.06824729
-0.06368743 -0.015287409 0.015433556 -0.040194582 0.004224828 -0.02794643 -0.022230765 0.06514052
-0.0013062698 -0.07195103 0.016377883 0.013503176 -0.04662546 -0.052753266 0.010397924 -0.05785888
0.076559916 -0.028350366 -0.05651927 -0.030064315 0.0061997403 0.0030774288 0.036794014 0.06298725
-0.016313806 -0.07396363 -0.03803881 0.04237408 -0.07238198 -0.028915493 0.043025155 -0.050471745
-0.014750209 -0.043469414 -0.08518494 -0.011291153 -0.059178818 -0.04457907 -0.037297774 -0.101294674
0.017827934 0.03962066 -0.08739642 0.023913747 -0.03841513 -0.07280742 0.06953003 -0.011522185
-0.076402746 0.066250555 0.0005694983 -0.007276851 -0.0076804506 -0.08824155 0.033187006 -0.04593327
-0.005524785 -0.030166253 0.035702508 0.027105778 -0.056500427 0.057123333 0.015636409 0.020045066
-0.07292736 -0.05983473 0.016953612 -0.04772395 -0.05278928 -0.091037795 -0.0771714 0.010569721
-0.096420504 0.012412069 -0.020402817 0.021437254 -0.015230447 -0.047067393 0.074677885 -0.08670251
0.07007467 -0.012055173 -0.07762598 -0.05953759 0.0017439963 -0.10418808 0.046372604 0.05954381
0.019350262 -0.0638488 -0.011999899 -0.06581627 0.045905877 -0.07701299 0.012273742 -0.07682972
-0.04945944 -0.08567862 0.024758978 0.003942541 0.045769315 -0.023664733 0.0438305 -0.09183998
-0.06310906 -0.028221171 -0.05854211 0.02466687 -0.07218912 -0.022948502 0.04839865 -0.034325216
00000000: 231e b6bc 6df0 733d a5ed 86bd 5ad8 91bb
00000010: e661 bebd 073e 6ebd 78c2 9b3b f191 97bd
00000020: 8bc6 39bc 366e 99bd c742 33bc c5a4 463d
00000030: 3e1d a9bd ab22 29bc c1e7 82bd 42d1 b4bd
00000040: 7336 af3c e661 e5bc 3df1 8fbd b682 393d
00000050: f780 c8bd ccb6 d1bd 8645 5d3d d4cc ae3d
00000060: bcc6 85bd f49a b0bd d37b 853d c6fb 34bd
00000070: 6b31 81bd 54c2 4a3d 4f87 c1bd c52d 83bd
00000080: 83f5 f83c fbb7 2e3d ed4a 963c 2a7f babd
00000090: 677f 373d 2128 91bd b411 e73c ff53 b3bd
000000a0: 5226 45bd 7c0b 96bd 50fc 853c 215b babd
000000b0: 362e 5bbd da69 b1bd 5e73 1d3d cb7a b6bd
000000c0: 68f2 9d3d b476 c8bd acad 4ebd a929 893c
000000d0: 5e99 45bc 6b4a 82bd 8f52 853d f9e7 7dbd
000000e0: 7443 04bd f8d5 4abc b3c6 5dbd 190a 02bd
000000f0: c638 c6bd b0a5 a1bc fe0f c2bd 3c46 c9bb
00000100: 6ca1 06bc 02aa 983d 4fd4 3cbd 9b0c 4b3d
00000110: f1d0 a73d f1c2 8cbd 056e 8abb 9ac9 b1bc
00000120: bbf2 b3bd 83d0 76bc 9701 433d 0b6b 95bd
00000130: b82d 2fbd a179 b73c 25ac 623d 1a01 83bd
00000140: 5003 133d 6af1 7dbd c2cb 673c c1bc 293c
00000150: 136d d83c 863d c4bc 3fe9 3abd 6a03 4abd
00000160: 7e0a 963d e702 7fbd 27db 863c 6271 1f3d
00000170: e714 3f3d f246 9f3c 7199 f63b 1a00 793d
00000180: 0f37 97bd 0057 aebd 02a0 fc3c dd0b 2d3d
00000190: e9d1 2e3d e902 893c e63a dbbd 9381 a1bd
000001a0: 9722 66bc 5ba3 72bd 874b cebc e2fc 9fbd
000001b0: 3242 b5bd a9fc 6abd e41f a5bc 7692 d13c
000001c0: c768 9ebd 51b8 113d 7d0c bc3c 169d 243d
000001d0: 835c 53bd 847a c0ba d289 9ebd 89f3 72bd
000001e0: c8cc 9ebb be1e 523d df2b 763d 9048 8dbd
000001f0: 0bdf 1f3d 9b26 3c3d d15e 9bbd 1826 8d3d
00000200: ee55 c7bd e279 0dbd 8d28 76ba 9d84 5cbc
00000210: 93c0 203d f9a4 323d b885 0c3d c8cb babd
00000220: 1235 8e3d 92fa a5bd 5390 fcbb 2215 ec3c
00000230: cef7 24bd f9ea 20bc 707b c13b 3cc5 8bbd
00000240: 8e6e 82bd 0a78 7abc 07dd 7c3c 13a3 24bd
00000250: 6d70 8a3b e9ef e4bc 4b1d b6bc 6568 853d
00000260: 2437 abba 105b 93bd e92a 863c 6d3c 5d3c
00000270: 57fa 3ebd cf13 58bd 0e5c 2a3c 6ffd 6cbd
00000280: 72cb 9c3d 073f e8bc c080 67bd 7049 f6bc
00000290: 3127 cb3b b0ae 493b 52b5 163d 76ff 803d
000002a0: 88a4 85bc 3e7a 97bd 95ce 1bbd 7190 2d3d
000002b0: 013d 94bd 2fe0 ecbc 253b 303d 76bb 4ebd
000002c0: dcaa 71bc fc0c 32bd 7175 aebd 87fe 38bc
000002d0: 7d65 72bd 8b98 36bd 8dc5 18bd 9573 cfbd
000002e0: e30b 923c 4649 223d e5fc b2bd c3e6 c33c
000002f0: 2f59 1dbd 0e1c 95bd c365 8e3d 8cc7 3cbc
00000300: 0b79 9cbd 5fae 873d 624a 153a a772 eebb
00000310: 4aac fbbb fcb7 b4bd 19ef 073d 8624 3cbd
00000320: 4109 b5bb 381f f7bc cb3c 123d f00c de3c
00000330: fe6c 67bd 28fa 693d ed17 803c 8d35 a43c
00000340: f15a 95bd 4315 75bd 4de2 8a3c 307a 43bd
00000350: 9239 58bd 0672 babd 0a0c 9ebd a02c 2d3c
00000360: 1d78 c5bd fe5b 4b3c cf23 a7bc 2e9d af3c
00000370: 2089 79bc bdc9 40bd b8f0 983d 1691 b1bd
00000380: 4f83 8f3d 0f83 45bc 5ffa 9ebd b0dd 73bd
00000390: ce96 e43a 8f60 d5bd 33f1 3d3d 36e4 733d
000003a0: 7184 9e3c 29c3 82bd 399b 44bc aeca 86bd
000003b0: cd07 3c3d fdb8 9dbd ce17 493c e658 9dbd
000003c0: fb95 4abd 4678 afbd 57d3 ca3c 6e30 813b
000003d0: 9b78 3b3d 8bdc c1bc 9c87 333d 9916 bcbd
000003e0: 533f 81bd 1630 e7bc dac9 6fbd 2d12 ca3c
000003f0: e4d7 93bd 7ffe bbbc aa3d 463d 9998 0cbd

hidden_layers.1.bias f4 [128]
-0.09695981 -0.06276959 0.037217196 -0.0064942455 -0.036727898 -0.01956191 0.004818131 -0.020843333
0.024441585 -0.02041075 -0.044376656 0.012904828 -0.0046818685 0.028728528 0.03130856 -0.00030738369
-0.02357973 0.008622771 -0.01671685 0.05615313 0.028566467 -0.015673857 0.013599677 -0.08126946
-0.05534647 -0.09205284 -0.051256943 0.018747699 -0.048794582 0.09033882 -0.0067370883 -0.018169431
-0.12200059 2.0832455e-05 -0.011862623 0.08625451 -0.114662975 0.11070176 -0.00196141 0.0061082337
-0.03038615 -0.07937222 -0.05751001 0.022764236 -0.086955614 0.105087735 0.0005478251 -0.0021749933
0.020646406 -0.091360226 0.002759715 -0.016986128 -0.07214445 -0.109292656 0.04324416 0.039687183
0.056889325 -0.0039080293 -0.06656866 0.11143047 -0.029653933 -0.116213694 -0.0075221867 0.012365874
0.038094267 -0.015104929 0.048728213 -0.111078925 -0.046929 0.037147917 0.014782596 -0.02916458
-0.1183029 -0.01672561 0.0014896634 -0.010230374 0.018408045 0.09474977 0.074101664 0.00042738274
-0.02003472 0.045801733 -0.08928721 -0.041788407 0.020312293 -0.07742018 -0.021333372 0.101222046
-0.10219184 0.044427894 -0.031293802 -0.01455866 -0.0306989 -0.09175542 -0.06330485 -0.010773081
0.039324578 -0.059095893 0.051317953 -0.100064196 -0.032531086 0.048498344 0.024022212 0.027380291
0.043291006 -0.08276781 -0.027904907 0.004450383 -0.039024208 0.09427509 0.046440072 0.055704713
-5.4049615e-05 0.033511676 -0.111744724 0.031899188 -0.024680892 -0.028594151 -0.019530429 -0.09714971
0.050153047 -0.0067170626 0.027414786 0.022703754 0.019845402 -0.04214845 -0.028854514 -0.018285299
00000000: dd92 c6bd 588d 80bd 0f71 183d aecd d4bb
00000010: fe6f 16bd 4c40 a0bc 6ae1 9d3b a3bf aabc
00000020: b839 c83c 7234 a7bc 4cc4 35bd c66e 533c
00000030: 5c6a 99bb 1758 eb3c 683d 003d 5728 a1b9
00000040: 472a c1bc 8646 0d3c c7f1 88bc d300 663d
00000050: 3904 ea3c 7666 80bc 2ed1 5e3c 9a70 a6bd
00000060: fbb2 62bd 3386 bcbd cdf2 51bd c694 993c
00000070: d4dc 47bd 8f03 b93d cbc2 dcbb 0fd8 94bc
00000080: 72db f9bd 5bc1 ae37 725b 42bc 34a6 b03d
00000090: 6cd4 eabd 9bb7 e23d 008b 00bb 9427 c83b
000000a0: 60ec f8bc e78d a2bd 9e8f 6bbd 107c ba3c
000000b0: c915 b2bd 3d38 d73d ec9b 0f3a 558a 0ebb
000000c0: a722 a93c 121b bbbd 56dc 343b 7e26 8bbc
000000d0: 78c0 93bd d4d4 dfbd ca20 313d 078f 223d
000000e0: c804 693d ed0e 80bb 2655 88bd a935 e43d
000000f0: ceec f2bc 7201 eebd ad7c f6bb 3c9a 4a3c
00000100: bc08 1c3d aa7a 77bc 3c97 473d 597d e3bd
00000110: a038 40bd 6a28 183d b432 723c 8fea eebc
00000120: ca48 f2bd 2504 89bc cf40 c33a 4c9d 27bc
00000130: 78cc 963c 2b0c c23d 9dc2 973d 5712 e039
00000140: da1f a4bc 999a 3b3d 36dc b6bd 522a 2bbd
00000150: f765 a63c 798e 9ebd 53c3 aebc 814d cf3d
00000160: f549 d1bd 06fa 353d ee2d 00bd 7287 6ebc
00000170: 427c fbbc 44ea bbbd f9a5 81bd 9481 30bc
00000180: cf12 213d 890e 72bd c632 523d 75ee ccbd
00000190: 513f 05bd 33a6 463d 3bca c43c a24c e03c
000001a0: e951 313d 2b82 a9bd d598 e4bc 85d4 913b
000001b0: d9d7 1fbd 4c13 c13d f237 3e3d a02a 643d
000001c0: 55b3 62b8 8a43 093d 6bda e4bd b9a8 023d
000001d0: 952f cabc 483e eabc 47fe 9fbc 6df6 c6bd
000001e0: 486d 4d3d ce1a dcbb f994 e03c 39fd b93c
000001f0: d392 a23c daa3 2cbd 4d60 ecbc 0dcb 95bc

output.weight f4 [4, 128]
-0.029519351 -0.005554336 0.045754444 0.036605634 0.018812766 -0.0023377673 0.018132824 0.0361273
0.008726388 0.05561219 0.030388957 -0.0032253228 0.030021986 0.012964649 -0.02550342 0.064155504
-0.012213436 0.051481802 -0.13454936 -0.014392225 -0.03879548 0.07795723 -0.006571178 -0.017097061
0.024214206 -0.06571127 0.07443389 -0.027464593 0.059113037 0.077170104 -0.097249635 -0.05319802
0.01228172 -0.029058738 0.052689157 0.028134491 0.0664964 0.091162026 0.050225366 0.0019146499
0.0597445 0.042177614 -0.04899941 0.078785725 -0.02850386 0.09462491 0.012945823 -0.034591038
0.034764484 0.015202378 0.05733554 0.00639497 0.031955708 0.0228541 0.07898891 0.054722764
-0.014955049 0.057948366 0.087233365 0.0714271 -0.029980715 0.013440581 0.021529043 -0.117791645
0.039693277 -0.016882781 0.061621774 -0.01270432 -0.013092094 0.05814638 -0.044684436 0.00742039
0.03768027 -0.012161378 0.028724212 -0.0052404124 -0.045179166 0.037937224 0.045113694 -0.045793973
0.061924487 -0.04359489 -0.009702996 -0.008333849 -0.03651895 -0.011726097 0.06773998 0.06128349
-0.06472615 0.08549786 -0.039342243 -0.020561388 -0.034907095 0.064346 0.0050014555 0.075103655
-0.016710885 -0.017393788 0.04806398 -0.031128328 0.017117284 -0.011940696 -0.028517623 0.02475345
-0.0136636635 0.046717245 -0.07148139 0.029809609 -0.0037314054 0.044524454 0.035137374 0.06716408
0.04645547 -0.073430814 0.040084295 -0.031059831 -0.06179098 -0.0022957441 -0.01194813 0.01391132
0.059179254 -0.018088335 0.037076842 0.01565979 -0.02207938 0.06633653 0.019296307 -0.006963714
-0.048136875 -0.029369548 0.014427115 0.057701588 0.05164258 0.011226686 0.039285444 -0.011204928
-0.05231333 -0.03592667 0.038891554 -0.049933393 0.014799239 -0.027094498 -0.06601684 -0.0070346626
0.0019137771 0.047776062 -0.031243851 -0.033874765 0.053187072 -0.032196593 0.00091613596 0.062209997
-0.05366869 -0.024753349 0.08085713 0.007419821 -0.049766913 -0.022263674 -0.094572544 0.00037366795
-0.01979029 0.03171662 -0.0013803414 -0.015751913 -0.04172992 0.05398154 0.009792685 0.058040947
0.05099607 -0.06759745 -0.060816634 0.03793734 -0.066961795 0.059939988 -0.023228645 0.049861904
-0.055558976 -0.051263463 -0.023702716 -0.03923529 0.016385773 -0.04621705 -0.057819836 0.058120698
0.0009304008 -0.0136021245 -0.05620068 0.04508814 0.05701366 -0.00887343 -0.05815753 -0.02974125
0.022846792 0.02700009 0.04476351 0.017505292 -0.010732392 0.022692999 0.014153597 -0.04018309
-0.009703896 0.012610543 0.04792181 0.069402546 0.034256432 -0.011466703 -0.014837476 0.056387898
-0.022495685 -0.04073906 0.010082418 -0.03492788 -0.053373795 -0.02740714 0.07098094 0.026102105
0.05047655 0.081786476 -0.002125069 -0.02262468 -0.0590942 0.009892433 -0.022526018 -0.03277881
0.032213874 0.027457427 0.0024515062 0.04706611 0.0052303765 -0.015523697 0.029176088 0.010006133
0.0026833198 0.013647369 -0.03816267 0.05853793 0.002158369 0.007466954 -0.009023305 -0.014760621
-0.05576232 -0.010990673 -0.01764122 0.01898294 -0.025907725 -0.05845583 0.021933181 0.04306829
0.034228913 -0.07100806 -0.047478687 -0.057687864 -0.00045665086 0.025563588 0.042439714 -0.000326225
00000000: 91d2 f1bc 2601 b6bb 0369 3b3d caef 153d
00000010: 3b1d 9a3c 3a35 19bb 4a8b 943c 38fa 133d
00000020: 20f9 0e3c 9cc9 633d 43f2 f83c f05f 53bb
00000030: abf0 f53c ae69 543c 8cec d0bc f663 833d
00000040: dd1a 48bc 95de 523d 4fc7 09be 5ecd 6bbc
00000050: 02e8 1ebd 0aa8 9f3d 0953 d7bb 230f 8cbc
00000060: df5c c63c a193 86bd cc70 983d 6dfd e0bc
00000070: 8320 723d 5c0b 9e3d d12a c7bd 2be6 59bd
00000080: 4439 493c 970c eebc 96d0 573d 4e7a e63c
00000090: 442f 883d 28b3 ba3d 1db9 4d3d fdf4 fa3a
000000a0: a6b6 743d 6fc2 2c3d 9bb3 48bd 695a a13d
000000b0: ed80 e9bc b4ca c13d b81a 543c 55af 0dbd
000000c0: 3465 0e3d 6513 793c acd8 6a3d e68c d13b
000000d0: fde3 023d 8638 bb3c f0c4 a13d fa24 603d
000000e0: 0606 75bc 445b 6d3d 68a7 b23d 5f48 923d
000000f0: 1e9a f5bc e235 5c3c ad5d b03c bf3c f1bd
00000100: 6b95 223d c24d 8abc 1d67 7c3d c825 50bc
00000110: 3980 56bc e62a 6e3d 0707 37bd be26 f33b
00000120: a056 1a3d 8440 47bc 0a4f eb3c c4b7 abbb
00000130: ca0d 39bd 1064 1b3d 23c9 383d 7692 3bbd
00000140: 88a4 7d3d 8e90 32bd 51f9 1ebc b28a 08bc
00000150: e594 15bd d11e 40bc 42bb 8a3d 6604 7b3d
00000160: 258f 84bd 8119 af3d 5525 21bd 5b70 a8bc
00000170: befa 0ebd d6c7 833d 40e3 a33b f2cf 993d
00000180: 44e5 88bc 6b7d 8ebc bcde 443d d600 ffbc
00000190: 8c39 8c3c e9a2 43bc ca9d e9bc bfc7 ca3c
000001a0: 8fdd 5fbc 955a 3f3d d664 92bd 4833 f43c
000001b0: 988a 74bb 465f 363d 35ec 0f3d 528d 893d
000001c0: 1748 3e3d e562 96bd 6e2f 243d 3071 febc
000001d0: 8a18 7dbd 3274 16bb 17c2 43bc 4eec 633c
000001e0: f265 723d fd2d 94bc e3dd 173d f648 803c
000001f0: d1df b4bc 72db 873d 4a13 9e3c de2f e4bb
00000200: 2c2b 45bd 6898 f0bc b55f 6c3c 8058 6c3d
00000210: 2c87 533d 22f0 373c c6e9 203d e094 37bc
00000220: 8146 56bd d827 13bd c04c 1f3d f586 4cbd
00000230: 8278 723c 48f5 ddbc d633 87bd 0783 e6bb
00000240: b4d7 fa3a d5b0 433d 1bf3 ffbc 44c0 0abd
00000250: b0da 593d 93e0 03bd d828 703a e9cf 7e3d
00000260: b3d3 5bbd 89c7 cabc 6c98 a53d f821 f33b
00000270: 64d8 4bbd 4f62 b6bc 40af c1bd dde8 c339
00000280: 3f1f a2bc 49e9 013d 92ec b4ba 280a 81bc
00000290: feec 2abd bf1b 5d3d 7f71 203c 58bc 6d3d
000002a0: 41e1 503d 8870 8abd dd1a 79bd 2f64 1b3d
000002b0: 4423 89bd a283 753d 004a bebc ff3b 4c3d
000002c0: cf91 63bd a3f9 51bd 332c c2bc 2fb5 20bd
000002d0: 753b 863c 174e 3dbd 7ed4 6cbd f80f 6e3d
000002e0: 24e6 733a 72db 5ebc af32 66bd 57ae 383d
000002f0: 2887 693d dd61 11bc 9736 6ebd eca3 f3bc
00000300: 3229 bb3c 4b2f dd3c f159 373d 4267 8f3c
00000310: ead6 2fbc abe6 b93c 7de4 673c 0697 24bd
00000320: 17fd 1ebc 739c 4e3c a949 443d ec22 8e3d
00000330: 7950 0c3d d7de 3bbc e318 73bc fff6 663d
00000340: df48 b8bc 00de 26bd ba30 253c 8910 0fbd
00000350: 7b9e 5abd f084 e0bc 745e 913d 15d4 d53c
00000360: 80c0 4e3d ab7f a73d be44 0bbb 6557 b9bc
00000370: c30c 72bd df13 223c 7c88 b8bc 1343 06bd
00000380: b2f2 033d 66ee e03c 73a9 203b 65c8 403d
00000390: 9463 ab3b 1b57 7ebc b102 ef3c c3f0 233c
000003a0: a3da 2f3b 3799 5f3c 7650 1cbd 78c5 6f3d
000003b0: 6c73 0d3b 5aad f43b 7cd6 13bc 88d6 71bc
000003c0: 0867 64bd 3912 34bc 5284 90bc 1c82 9b3c
000003d0: 703c d4bc 616f 6fbd 37ad b33c 6068 303d
000003e0: 9e33 0c3d ac6c 91bd 0379 42bd 1c4a 6cbd
000003f0: a46a efb9 bb6a d13c 44d5 2d3d 2e09 abb9

output.bias f4 [4]
0.028806107 0.023939546 0.027363416 0.032156985
00000000: c9fa eb3c de1c c43c 3e29 e03c 0bb7 033d
