checkpoints/state_size_37__action_size_4__hidden_layers_[64-64]__drop_p_0.5__seed_0__GAMMA_0.99__LR_0.0005__UPDATE_EVERY_50__BUFFER_SIZE_10000__BATCH_SIZE_64__TAU_0.001.pth (torch, 29527 bytes, 6 tensors)

hidden_layers.0.weight f4 [64, 37]
0	0xbe0d15c3	-0.13777833
1	0xbd7d073c	-0.061774477
2	0xbd430bab	-0.04761855
3	0xbc87b89f	-0.016567526
4	0xbdf87104	-0.12130931
5	0x3c3a8588	0.011384375
6	0xbd5bd32b	-0.053668182
7	0xbde225e8	-0.11042386
8	0xbe2e079f	-0.16995095
9	0xbdab6193	-0.0836822
10	0xbde3cd54	-0.111231476
11	0x3d89bbda	0.06725283
12	0x3c673547	0.014111823
13	0x3d08cb2f	0.033396896
14	0x3dd7ac4b	0.10530909
15	0xbe36c14a	-0.17847171
16	0xbdf2c299	-0.11853523
17	0xbdd1ee95	-0.10250584
18	0xbe15e17e	-0.146368
19	0xbe3a28cc	-0.18179625
20	0xbbb52615	-0.0055282214
21	0xbdfed5a1	-0.1244309
22	0x3dc593ac	0.09647307
23	0xbd0e1311	-0.034686152
24	0xbe366bd9	-0.17814578
25	0xbdfd32b1	-0.12363184
26	0x3df5ec42	0.12007953
27	0x3e143e3a	0.14476863
28	0xbe2b0937	-0.16702734
29	0x3db0fbe8	0.08641797
30	0x3b6760b2	0.0035305438
31	0xbe092e93	-0.13396673
32	0xbd48103b	-0.048843604
33	0xbda7410e	-0.08166705
34	0xbe514e22	-0.20439962
35	0xbe04f61c	-0.12984508
36	0xbc9c1815	-0.019054452
37	0x3d467aa0	0.048456788
38	0x3d179f36	0.03701707
39	0x3d3983e1	0.045291785
40	0x3d1bfe3e	0.03808426
41	0xbcc9da6c	-0.024640284
42	0xbdc8da60	-0.09807277
43	0x3e51fc40	0.20506382
44	0x3df0aaa7	0.11751299
45	0x3ebb721b	0.36610493
46	0x3f2d7b65	0.6776641
47	0xbd50bb96	-0.050960146
48	0xbd571541	-0.052510504
49	0xbd5ea559	-0.054356907
50	0xbd914a3e	-0.07094239
51	0xbd82b45a	-0.063820556
52	0x3d5a995c	0.05336891
53	0x3dab9fea	0.083801106
54	0x3d6ac82e	0.057319812
55	0x3e008e20	0.12554216
56	0x3d68e08e	0.056854777
57	0x3db0ebd1	0.086387284
58	0x3d8336a8	0.06406909
59	0x3d9cfa9c	0.076649874
60	0x3de68198	0.11255187
61	0x3d23ed96	0.0400215
62	0xbcceba5b	-0.025235346
63	0x3d213e46	0.03936603
64	0x3d21eab9	0.03953049
65	0x3d905923	0.070482515
66	0x3d4c92a0	0.04994452
67	0x3cc50f53	0.024055159
68	0x3cc6e6dd	0.024280006
69	0x3d5b84be	0.05359339
70	0x3e1a79eb	0.1508557
71	0x3e0cff67	0.13769303
72	0x3b5e7952	0.0033946824
73	0xba343561	-0.0006874409
74	0xbdad47a0	-0.08460927
75	0xbd46b03a	-0.048507906
76	0xbdbc1618	-0.091839015
77	0xbacaa7eb	-0.001546142
78	0x3d2988b5	0.04139014
79	0x3c88d63c	0.016703717
80	0xbde29d46	-0.11065154
81	0x3dd7ee56	0.10543506
82	0x3d921f91	0.07134927
83	0xbd9527a7	-0.07282954
84	0x3d5c8e3a	0.053846575
85	0xbdcbc1ec	-0.09949097
86	0xbe21971c	-0.157803
87	0x3d69d1e9	0.05708495
88	0x3d50dcce	0.050991826
89	0xbc9b3190	-0.018944532
90	0xbe254722	-0.16140416
91	0xbd36ccfd	-0.044629086
92	0xbd5c2696	-0.053747736
93	0xbdaf7bd0	-0.08568537
94	0x3c228c6c	0.0099211745
95	0xbdff3a22	-0.1246226
96	0xbcc3667b	-0.023852577
97	0xbe289d5a	-0.16466275
98	0x3c9e081d	0.019290978
99	0x3d5305d3	0.051519226
100	0xbd892f51	-0.06698478
101	0x3e144e99	0.14483108
102	0x3d24c399	0.0402256
103	0xbbb12ea3	-0.005407171
104	0x3d3b44c9	0.045719896
105	0x3e28c2c5	0.16480549
106	0xbe08026a	-0.13282171
107	0x3d8f58d5	0.06999365
108	0x3dd7c4d3	0.10535588
109	0xbe135076	-0.14386162
110	0xbd367ed4	-0.044554546
111	0xbe3993ca	-0.18122783
112	0xbd550cbe	-0.052014105
113	0x3c6c98de	0.014440743
114	0xbd918e52	-0.071072236
115	0xbe36c8f9	-0.17850102
116	0x3da28d63	0.079371236
117	0xbdb2bdc4	-0.08727601
118	0xbe270b6e	-0.16312954
119	0x3d6b0359	0.05737624
120	0xbcd1330f	-0.025537042
121	0x3db6d10f	0.089265935
122	0xbd55323a	-0.052049853
123	0xbe170d44	-0.14751154
124	0xbe15f991	-0.14645983
125	0xbde7fe9b	-0.11327859
126	0xbd89b622	-0.06724192
127	0xbdd67bc8	-0.10472828
128	0xbe0515ca	-0.12996593
129	0xbca35e50	-0.019942433
130	0xbe0e0df8	-0.13872516
131	0xbd81d7c8	-0.06339985
132	0x3c5195fe	0.012792109
133	0xbd849817	-0.06474321
134	0xbd432127	-0.04763904
135	0xbd8fcd0e	-0.07021533
136	0xbd69cd3c	-0.057080492
137	0xbc148d10	-0.009066835
138	0x3dd70b62	0.10500218
139	0xbcbf41d4	-0.023346819
140	0xbd4c318c	-0.04985194
141	0xbdb9bf1b	-0.090696536
142	0xbc8da80c	-0.017292045
143	0x3d14cec8	0.036330014
144	0xbd51dcd5	-0.051235992
145	0xbe069718	-0.13143575
146	0x3dc14fd4	0.09439054
147	0x3bc551c4	0.00602171
148	0xbc5739f4	-0.013136376
149	0x3d4733c0	0.048633337
150	0x3c634b54	0.01387294
151	0xbb43afef	-0.0029859503
152	0x3d806fbe	0.06271313
153	0xbe5db4f1	-0.21651055
154	0x3e777803	0.24166875
155	0x3a2e72d0	0.00066546816
156	0xbd8960b1	-0.067078955
157	0xbdd3adc3	-0.10335877
158	0x3dc86e14	0.09786621
159	0x3df2cb7e	0.11855219
160	0x3ddbaa44	0.10725835
161	0x3dab0a8d	0.08351622
162	0xbd2ae1ea	-0.041719355
163	0xbc701870	-0.014654264
164	0x3db8068a	0.08985622
165	0x3cabc8c0	0.020969748
166	0xbdcad90c	-0.0990468
167	0xbd6a8026	-0.057251118
168	0x3d8e9b16	0.06963174
169	0x3d89f0f8	0.06735414
170	0x3c020d34	0.007937718
171	0x3dd84783	0.10560515
172	0x3e078e0e	0.13237783
173	0xbe430266	-0.19043884
174	0xbd29039e	-0.041263215
175	0xbd2a6934	-0.041604236
176	0x3e462f32	0.19353941
177	0xbdc05503	-0.09391215
178	0xbe40ef83	-0.18841366
179	0x3dfad1fd	0.12247083
180	0x3dde5cdb	0.108575545
181	0x3e0b7977	0.13620554
182	0xbd5793ac	-0.052631065
183	0xbdae1f0e	-0.08502017
184	0xbc85b48a	-0.01632144
185	0xbd9f4362	-0.07776524
186	0xbe044d71	-0.12920167
187	0x3d5b3ad8	0.053522915
188	0x3d9ee359	0.07758207
189	0x3c9ec00d	0.019378686
190	0xbe1f0865	-0.15530546
191	0x3d8a036c	0.06738934
192	0xbc1f5811	-0.0097255865
193	0x3c86755c	0.016413383
194	0xbe235c75	-0.15953238
195	0x3c288b50	0.010287121
196	0xbd213e13	-0.03936584
197	0xbdbed416	-0.09317796
198	0xbe06b1d2	-0.1315377
199	0x3a8a5769	0.0010554615
200	0xbcd4d533	-0.025980568
201	0xbdbce9b4	-0.09224263
202	0xbde357d7	-0.111007385
203	0xbd88d34f	-0.06680929
204	0xbe0b7e17	-0.13622318
205	0xbe0bd3ec	-0.1365506
206	0x3dcbe10b	0.09955033
207	0xbcd5c57a	-0.02609514
208	0xbdabb167	-0.08383446
209	0xbc379144	-0.011204068
210	0x3d841fc5	0.06451372
211	0xbe5873f6	-0.21137986
212	0x3dc2b532	0.095072165
213	0x3d1cb139	0.03825495
214	0x3cc0c9c3	0.023533707
215	0x3d0715cb	0.032979768
216	0x3de8a066	0.113587186
217	0x3d87c114	0.066286236
218	0xbdb04425	-0.086067475
219	0xbdc816d4	-0.09769979
220	0x3d17cac9	0.037058625
221	0xbbd83250	-0.0065977946
222	0xbdba5324	-0.09097889
223	0x3e0f5f2f	0.14001153
224	0xbcaff387	-0.021478428
225	0x3c2d9bef	0.0105962595
226	0xbd928f3c	-0.07156226
227	0xbda5ad6f	-0.080897205
228	0xbd694169	-0.056947146
229	0xbcbbbf2e	-0.02291831
230	0x3d169091	0.036758963
231	0x3cb1b731	0.021693798
232	0x3afb8966	0.0019190728
233	0x3d1f5faf	0.03890961
234	0x3d91b13b	0.07113882
235	0xbcda1983	-0.026623493
236	0xbc987980	-0.018612623
237	0x3c37c935	0.011217405
238	0xbddb5d1e	-0.1071112
239	0xbb46ef1b	-0.003035492
240	0xbc6c64d5	-0.014428337
241	0x3ce6c71e	0.028171118
242	0x3bb43add	0.005500181
243	0xbe49dc2a	-0.19712892
244	0xbd9e0df9	-0.07717509
245	0x3ca22395	0.019792357
246	0xbe1235b1	-0.14278294
247	0xbe41c990	-0.18924546
248	0x3da67b30	0.08128965
249	0x3e00ba94	0.12571174
250	0xbd9eadb9	-0.07747979
251	0xbdf817da	-0.12113924
252	0xbcf4f15b	-0.029900244
253	0x3cda282b	0.026630482
254	0x3cf934ad	0.030420626
255	0xbd0f69fa	-0.035013177

hidden_layers.0.bias f4 [64]
0	0xbd8873ee	-0.06662737
1	0xbe2ee840	-0.17080784
2	0xbd0b0517	-0.0339404
3	0xbe5968fd	-0.21231456
4	0xbd136983	-0.035989296
5	0xbe29dfde	-0.16589305
6	0xbdb3bd5e	-0.08776353
7	0xbd7505f6	-0.059820138
8	0xbe1ce636	-0.15322194
9	0xbcc3d988	-0.023907438
10	0xbe2e22dc	-0.17005485
11	0xbe1c2ccb	-0.15251462
12	0xbe2c2eaf	-0.16814683
13	0x3d05fb22	0.032710202
14	0x3daa92e4	0.083287984
15	0xbe40a876	-0.18814263
16	0xbe2704da	-0.16310444
17	0x3d27e066	0.040985487
18	0xbdfe77a8	-0.12425166
19	0xba911466	-0.0011068701
20	0xbdd7ba00	-0.105335236
21	0xbb86c642	-0.0041129896
22	0x3d48ab71	0.048991624
23	0xbe29e901	-0.1659279
24	0xbe257b73	-0.16160373
25	0xba4c35b5	-0.00077899854
26	0xbe247a3a	-0.1606225
27	0x3dbbf451	0.09177459
28	0xbe037390	-0.12837052
29	0xbc0143ac	-0.007889669
30	0x3d0d2f56	0.03446897
31	0xbe1a03de	-0.15040538
32	0xbdcb641c	-0.09931204
33	0xbbed97d9	-0.0072507677
34	0xbe62dc5f	-0.22154377
35	0xbd7b1fe7	-0.06130972
36	0xbdd6ceff	-0.104887
37	0x3d446516	0.047947966
38	0x3d1250ff	0.035721775
39	0x3ce1709f	0.027519522
40	0xbcf5f4b9	-0.03002392
41	0xbd24955d	-0.040181506
42	0xbd40543f	-0.046955343
43	0xbd6e3929	-0.05815998
44	0xbdb1afa4	-0.08676079
45	0xbe4221a4	-0.18958145
46	0xbd387371	-0.04503197
47	0xbdf391ee	-0.11893068
48	0xbd442b81	-0.04789305
49	0xbe2969c9	-0.1654426
50	0x3d0eacc5	0.034832735
51	0xbdf9e8dc	-0.122026175
52	0xbc227038	-0.00991445
53	0xbcfde66a	-0.030993659
54	0x3d2e3bd9	0.042537544
55	0x3debaf66	0.11508064
56	0x3da477ca	0.080306605
57	0x3d4fc551	0.050725285
58	0xbe06ff07	-0.13183223
59	0xbe18ae7f	-0.14910315
60	0x3cd6b27a	0.026208151
61	0xbe1e1a4e	-0.15439722
62	0x3ddb3149	0.1070276
63	0x3da0a226	0.07843427

hidden_layers.1.weight f4 [64, 64]
0	0x3d671c1f	0.056423303
1	0x3dbb48dc	0.09144756
2	0x3cdc862e	0.02691945
3	0x3cba4f0b	0.022742769
4	0x3d9c97e4	0.07646158
5	0x3e0745e2	0.13210252
6	0xbd7487e1	-0.059699897
7	0x3ccdfe97	0.025145812
8	0xbdead2b9	-0.114659734
9	0x3cf9d584	0.03049732
10	0xbdc7246b	-0.09723743
11	0xbdb333c3	-0.08750107
12	0x3d94d4c5	0.07267145
13	0x3a7470ea	0.0009324687
14	0xbdc368a4	-0.09541443
15	0xbc90ded1	-0.017684372
16	0x3c3b037e	0.011414407
17	0xbcfadd02	-0.030622963
18	0x3d07ac38	0.033123225
19	0xbded6a6f	-0.11592566
20	0x3df165a5	0.11786965
21	0xbda8f647	-0.08250099
22	0xbd1298ec	-0.03579037
23	0xbc80d14a	-0.015724797
24	0x3d6a11ee	0.057146005
25	0xbdc20c10	-0.09474957
26	0xbdbaa487	-0.09113412
27	0xbd7e2c13	-0.06205375
28	0x3d2b960c	0.041891143
29	0xbd1369b4	-0.03598948
30	0x3d22d7a7	0.039756443
31	0xba40aa5d	-0.0007349605
32	0xbdb8807e	-0.09008883
33	0x3dd68ed5	0.10476462
34	0xbcff6897	-0.031177802
35	0xbdbf382e	-0.09336887
36	0xbdf01675	-0.11723033
37	0xbd80965a	-0.06278677
38	0x3d91b69d	0.07114909
39	0x3ced5e5e	0.028975662
40	0x3d20404c	0.03912382
41	0x3d04adc7	0.03239229
42	0xb8ad2f1a	-8.258056e-05
43	0xbd602377	-0.054721322
44	0x3cd8aa60	0.026448429
45	0xbdf37821	-0.11888147
46	0xbd314ece	-0.043288045
47	0xbda3538a	-0.07974918
48	0xbc5c772e	-0.013456149
49	0xbd4f4467	-0.050602343
50	0xbd6c3d18	-0.05767545
51	0xbd56f740	-0.05248189
52	0x3d121bf9	0.035671208
53	0xbb98fff9	-0.004669186
54	0xbd731aab	-0.059351604
55	0x3d3f6104	0.04672338
56	0xbc94ac80	-0.01814866
57	0xbdb79537	-0.08964007
58	0xbd856967	-0.065142445
59	0xbd82d328	-0.06387931
60	0x3d27eb2f	0.040995773
61	0x3d8e490e	0.06947528
62	0xbc4bd6cf	-0.012441351
63	0x3d0d8411	0.034549776
64	0xbd98f49f	-0.07468533
65	0xbe0851e8	-0.13312495
66	0x3da4c5b3	0.08045521
67	0xbd76b531	-0.06023139
68	0xbd4bec26	-0.049785756
69	0xbdad316a	-0.084566906
70	0xbe084835	-0.13308795
71	0x3d8a048f	0.06739151
72	0x3c11e83f	0.008905469
73	0x3dcbf145	0.09958128
74	0x3b9ddc40	0.0048175156
75	0x3dc52865	0.09626845
76	0xbb4bdbb4	-0.0031106295
77	0xbcaf841b	-0.021425297
78	0x3d5c2228	0.05374351
79	0xbd033bb5	-0.032039363
80	0xbc326435	-0.010888149
81	0xbcc726b7	-0.024310453
82	0xbe315ef9	-0.17321385
83	0xbd80479f	-0.06263661
84	0xbe040cc2	-0.12895492
85	0xbe42e493	-0.19032507
86	0x3bf6151e	0.0075098416
87	0x3c7de89e	0.015497355
88	0x3cd59204	0.026070602
89	0xbdd1b02a	-0.10238679
90	0x3d335fda	0.043792583
91	0xbe3d2b4a	-0.18473545
92	0xbde3e02d	-0.111267425
93	0xbdbe718b	-0.09299
94	0x3d256c02	0.040386207
95	0xbcecae68	-0.028891757
96	0xbdb627f8	-0.08894342
97	0xbcbf81f4	-0.023377396
98	0xbd6630f6	-0.056199037
99	0xbd6953c9	-0.05696467
100	0xbdda1b48	-0.10649735
101	0x3c062699	0.008187913
102	0xbdb492d6	-0.08817069
103	0x3d32a7c2	0.043617018
104	0x3d83d919	0.064378925
105	0xbd784581	-0.06061316
106	0x3e106909	0.14102568
107	0xbd2d9ab5	-0.04238387
108	0x3d37c3a5	0.044864316
109	0xbd55f4f2	-0.05223555
110	0x3c8143ad	0.01577934
111	0xbccf21f2	-0.025284741
112	0xbd5f420a	-0.05450634
113	0xbdf28c7a	-0.118432
114	0x3d742612	0.05960662
115	0xbdb02f27	-0.086027436
116	0x3d29b5e0	0.041433215
117	0xbe1e73df	-0.15473889
118	0xbd17cc80	-0.03706026
119	0xbcf68992	-0.030094896
120	0x3d7d5ff7	0.061859097
121	0x3d739239	0.05946562
122	0xbd82bc31	-0.06383551
123	0x3ca5e28b	0.020249626
124	0xbdc7820c	-0.09741601
125	0xbd1c6e65	-0.038191218
126	0x3ca121fb	0.019669523
127	0xbddb0f5e	-0.106962904
128	0xbe1937d1	-0.14962699
129	0xbd48b038	-0.04899618
130	0xbdcc7591	-0.099833615
131	0x3d78d4f9	0.06074998
132	0xbce76c29	-0.028249817
133	0xbdb6dcca	-0.08928831
134	0xbd439a2b	-0.047754448
135	0x3d2e5762	0.042563803
136	0xbc411375	-0.011784424
137	0xbda01ecf	-0.07818376
138	0xbcf5db20	-0.030011714
139	0xbdd03e0c	-0.101680845
140	0xbc820e1b	-0.015875867
141	0x3d405953	0.046960186
142	0x3e099f2a	0.13439623
143	0xbd3283cc	-0.043582723
144	0xbd754f17	-0.05988988
145	0xbdde9371	-0.10867966
146	0xbd9be53c	-0.07612082
147	0xbd80a067	-0.06280594
148	0x3d80840a	0.062751845
149	0x3dc2426c	0.09485325
150	0xbc80004d	-0.015625143
151	0xbd85a350	-0.0652529
152	0xbd2e8104	-0.042603508
153	0xbcbba7a0	-0.022907078
154	0xbdb5ba42	-0.088734165
155	0xbde20ba3	-0.11037376
156	0xbd52b517	-0.051442232
157	0xbcaea41e	-0.021318492
158	0x3d4b952d	0.049702812
159	0xbd61b5b4	-0.055104926
160	0xbde1eab1	-0.11031092
161	0xbd2193cd	-0.039447594
162	0x3cf97133	0.030449485
163	0xbdee6f81	-0.116423614
164	0xbdb61f94	-0.08892742
165	0xbd9251da	-0.07144518
166	0xbc8b6d52	-0.017019901
167	0x3cba25c8	0.022723094
168	0xbdc20a09	-0.0947457
169	0xbd2297e5	-0.03969564
170	0xbe138979	-0.1440791
171	0xbde7b3a2	-0.11313559
172	0x3d287710	0.04112917
173	0xbd021644	-0.031759515
174	0xbbb7920a	-0.005602126
175	0xbd8025e6	-0.062572286
176	0xbc09a234	-0.008400489
177	0xbdea90cf	-0.11453401
178	0xbd8e601b	-0.069519244
179	0xbd5962fe	-0.053072922
180	0xba079a6f	-0.00051728537
181	0x3e28f3cb	0.1649925
182	0x3e0b1f1d	0.13586088
183	0xbd7452eb	-0.05964939
184	0x3c88267f	0.016619919
185	0x3b4c9154	0.0031214552
186	0xbe066e75	-0.13128074
187	0x3b7f917f	0.0038996635
188	0xbdecb82e	-0.11558567
189	0xbd6821ed	-0.05667298
190	0xbd8bc0c0	-0.068238735
191	0x3dc38dcf	0.09548532
192	0xbc81d967	-0.015850736
193	0xbd7044a7	-0.058659222
194	0xbccc2def	-0.024924247
195	0xbdef96be	-0.11698674
196	0xbcd17d6c	-0.025572501
197	0x3d204147	0.039124753
198	0xbcb27a03	-0.021786695
199	0x3e1f8f58	0.15582025
200	0xbcf409a4	-0.029789753
201	0x3d9eddec	0.07757172
202	0x3c8e952e	0.017405119
203	0x3ca8249f	0.020525275
204	0xbe02ce80	-0.12774086
205	0x3d72d7be	0.05928778
206	0x3dff2bf3	0.124595545
207	0x3ce45cb9	0.027876245
208	0xbbc29ddb	-0.005939228
209	0xbce08bf8	-0.027410492
210	0x3c6c818e	0.014435185
211	0xbd785c9d	-0.060635198
212	0xbcd317fe	-0.025768276
213	0xbae9efd4	-0.0017847964
214	0xbd19300b	-0.037399333
215	0x3d21d967	0.03951397
216	0xbe021867	-0.12704621
217	0xbcff12cc	-0.031136893
218	0xbb303557	-0.0026887262
219	0x3d4083e5	0.047000784
220	0xbd773a9c	-0.06035863
221	0xbba63475	-0.0050721713
222	0x3e1b465d	0.1516356
223	0xbdfc6ca0	-0.12325406
224	0xbdb899f3	-0.090137385
225	0xbcca62fe	-0.024705406
226	0xbd2e8146	-0.042603754
227	0xbbf643e8	-0.0075154193
228	0xbd334c10	-0.04377371
229	0x3c6f372a	0.0146005545
230	0xbddf8501	-0.1091404
231	0xbdaea0d2	-0.08526768
232	0xbdcc91ad	-0.09988723
233	0xbd6e25f8	-0.05814168
234	0x3cf9d376	0.03049634
235	0x3c334496	0.010941645
236	0x3d5dfc93	0.05419595
237	0xbb78eef2	-0.003798422
238	0xbd2fbc0a	-0.042903937
239	0xbd822c31	-0.06356085
240	0xbdd29b8f	-0.10283577
241	0x3d58281a	0.05277262
242	0xbc936044	-0.017990239
243	0x3de04d99	0.109523006
244	0xbdec6534	-0.115427405
245	0x3e0b07fd	0.13577266
246	0x3c9cbb8f	0.019132404
247	0xbd18783f	-0.03722405
248	0xbd4f4b9e	-0.050609224
249	0xbded8a02	-0.115985885
250	0xbd6b9eb1	-0.057524387
251	0xbc7ebafd	-0.015547511
252	0x3c5bca7d	0.013414976
253	0xbe08f9d0	-0.13376546
254	0x3da92038	0.08258098
255	0x3d71d83f	0.05904412

hidden_layers.1.bias f4 [64]
0	0xbde428ac	-0.1114057
1	0x3c81a1e3	0.015824264
2	0x3d1f40c7	0.038880136
3	0x3dca3312	0.09873022
4	0xbddcc527	-0.10779791
5	0x3d5a7cb1	0.05334157
6	0x3de40f7b	0.11135765
7	0x3d181b1b	0.037135225
8	0xbd417831	-0.047233764
9	0x3dce430e	0.100713834
10	0x3d740f3b	0.059584837
11	0x3d02d6a9	0.031942997
12	0x3dc996a9	0.09843189
13	0x3e078e82	0.13237956
14	0x3d0616d1	0.032736603
15	0x3d14409d	0.036194433
16	0x3dee98ee	0.11650263
17	0x3d4460b8	0.0479438
18	0x3c2aaff7	0.01041793
19	0x3d8a9c7d	0.06768129
20	0x3d8693cd	0.065711595
21	0x3dc8b7cb	0.09800681
22	0x3dc39e3e	0.09551667
23	0x3e16e3d2	0.14735344
24	0x3d934a3f	0.07191896
25	0x3d6ca367	0.05777302
26	0x3d80ee53	0.06295457
27	0x3c554a85	0.013018255
28	0x3d123343	0.03569342
29	0x3d74b3c8	0.059741765
30	0x3d9267ee	0.07148729
31	0x3dc624c9	0.09674985
32	0x3d5742bf	0.05255389
33	0xbc619bf4	-0.013770092
34	0x3dc84836	0.09779398
35	0x3d5f9b27	0.054591324
36	0x3dd21d8a	0.102595404
37	0x3df15805	0.117843665
38	0x3d635c90	0.055508196
39	0x3c90e8bb	0.0176891
40	0x3de5c335	0.112188734
41	0x3db66eff	0.089078896
42	0x3d653aa5	0.05596413
43	0x3d3231ca	0.043504514
44	0x3d3e6f9d	0.04649316
45	0x3dd426bc	0.103589505
46	0x3d247095	0.04014643
47	0x3e039191	0.12848498
48	0x3d102e46	0.03520038
49	0x3dbd520b	0.09244164
50	0x3d85c0b8	0.06530899
51	0xbd464849	-0.04840878
52	0x3dd776bd	0.105206944
53	0x3db60098	0.08886832
54	0x3dc4d337	0.096105985
55	0x3d99bd7b	0.07506844
56	0x3de34479	0.110970445
57	0x3dcc6577	0.099802904
58	0x3d523c89	0.051327262
59	0x3dca098f	0.098651044
60	0x3ddcb6c0	0.10777044
61	0x3d8ea10e	0.069643125
62	0x3d96dbd5	0.073661484
63	0xbdc98452	-0.09839691

output.weight f4 [4, 64]
0	0xbccf670a	-0.025317688
1	0x3df854cf	0.12125551
2	0x3e294bc9	0.16532816
3	0x3d9a8020	0.07543969
4	0xbc993f83	-0.018707043
5	0x3e3d8579	0.18507947
6	0x3d7a7a7d	0.06115197
7	0x3e04edb3	0.129813
8	0x3da6baa9	0.08141071
9	0x3d71c401	0.059024815
10	0x3df7a067	0.12091141
11	0x3dd99702	0.106245056
12	0x3dadc6a6	0.08485155
13	0x3d950a6d	0.07277379
14	0xbd32f779	-0.04369304
15	0x3e42054b	0.18947332
16	0x3dac394c	0.08409366
17	0x3e278af6	0.16361603
18	0x3dd49e26	0.10381727
19	0x3dea424a	0.11438425
20	0xbd8afebb	-0.06786867
21	0x3d85b47e	0.06528567
22	0x3d7195fb	0.058980923
23	0x3d518064	0.051147833
24	0xbd4c6eab	-0.04991023
25	0x3e09b04c	0.13446158
26	0x3e178396	0.1479629
27	0xbd28cb67	-0.041209605
28	0x3e466642	0.19374946
29	0xbdb235b8	-0.08701652
30	0xbd4658c0	-0.048424482
31	0x3deb8165	0.114992894
32	0x3de8ac52	0.113609925
33	0xbd6e87c9	-0.058234964
34	0x3d6a9bdd	0.05727755
35	0x3e0f388b	0.13986413
36	0x3d2d6d69	0.04234067
37	0x3d559ac7	0.05214956
38	0x3de0be9e	0.10973857
39	0x3e55fb04	0.20896536
40	0x3d505005	0.050857563
41	0x3ded865a	0.11597891
42	0x3e140c32	0.14457777
43	0x3e37a2ef	0.17933248
44	0x3e132498	0.14369428
45	0x3dbf4932	0.09340133
46	0xbd48edd1	-0.049054924
47	0x3d80a3cd	0.062812425
48	0x3dbe36b4	0.092877775
49	0x3d4f6620	0.050634503
50	0x3e28929b	0.16462176
51	0xbd8d4df2	-0.068996325
52	0x3d5d975f	0.054099437
53	0x3d58fdf9	0.052976582
54	0x3d635b5b	0.055507045
55	0xbe69a853	-0.22818117
56	0x3d5114d5	0.051045258
57	0xbe10e36c	-0.14149255
58	0x3e234b81	0.15946771
59	0x3d8a1c0c	0.06743631
60	0xbe196349	-0.1497928
61	0xbd9d648d	-0.07685194
62	0x3df12606	0.117748305
63	0xbe31dd4e	-0.17369577
64	0x39a242b6	0.0003094875
65	0xbc849a3a	-0.016186822
66	0x3cac083a	0.021000016
67	0x3d2e5912	0.042565413
68	0x3bf93104	0.00760472
69	0xbcd49903	-0.025951868
70	0x3db189e1	0.086688764
71	0x3ac1daae	0.0014789903
72	0x3c885810	0.016643554
73	0x3d719eb5	0.058989245
74	0x3c6749bd	0.014116702
75	0x3cabd29e	0.020974454
76	0x3d64d9a7	0.055871632
77	0x3d9006df	0.070325606
78	0xbc458e68	-0.012057878
79	0x3d285489	0.041096244
80	0x3d3edfff	0.046600338
81	0x3d7de4c2	0.06198574
82	0xbd895a47	-0.06706672
83	0x3cfaad2f	0.030600158
84	0x3c1edee1	0.009696693
85	0x3d35f67c	0.04442452
86	0x3d710195	0.0588394
87	0x3d558b15	0.052134592
88	0x3cd9e188	0.0265968
89	0x3d55a3fb	0.052158337
90	0x3dc19c51	0.09453643
91	0x3c3b7e30	0.01144366
92	0x3d885a06	0.066577956
93	0x3cbb68d3	0.022877133
94	0xbbb3a1ec	-0.005481949
95	0x3cec0efe	0.028815743
96	0x3d67f6ba	0.05663178
97	0xbb891de8	-0.0041844733
98	0x3cb5a948	0.022175446
99	0x3cb26ee8	0.0217814
100	0x3d9246f0	0.071424365
101	0x3d0e13d4	0.03468688
102	0x3d8b5650	0.06803572
103	0x3d80e79d	0.06294177
104	0x3d20f8fb	0.039299946
105	0x3dcb5a62	0.099293485
106	0x3d81be86	0.063351676
107	0x3d801437	0.06253856
108	0x3c8e5aa1	0.0173772
109	0xbbe81726	-0.0070828376
110	0xbc94e24b	-0.018174311
111	0x3d4bc370	0.04974693
112	0x3d82d948	0.06389099
113	0x3dc75409	0.09732825
114	0x3cf2fe51	0.029662283
115	0xbcef4422	-0.029207293
116	0x3ce48c15	0.027898828
117	0x3d911682	0.07084371
118	0x3d811d76	0.06304447
119	0xbd2d1c62	-0.042263396
120	0x3d8527a2	0.065017
121	0xbd59938c	-0.053119227
122	0x3d21faae	0.039545707
123	0x3d447539	0.047963355
124	0xbd70169f	-0.058615323
125	0xbd1b776c	-0.037955686
126	0x3d922967	0.07136803
127	0xbd4ec2e1	-0.05047882
128	0xbd281911	-0.04103953
129	0x3df58fe1	0.11990333
130	0x3d06cdf1	0.032911245
131	0x3cf58a0d	0.029973054
132	0xbce43e33	-0.02786169
133	0x3ccee450	0.025255352
134	0x3d846940	0.06465387
135	0x3d0b5843	0.03401972
136	0x3dd25094	0.10269275
137	0x3d9719eb	0.0737799
138	0x3d80b595	0.06284634
139	0xbcebcccd	-0.02878418
140	0x3d4d4e6b	0.050123613
141	0x3c8718d4	0.016491331
142	0xbc8cda62	-0.017193977
143	0x3c694d33	0.014239597
144	0x3c19f8c0	0.0093976855
145	0x3d8eb686	0.06968407
146	0x3d10772c	0.0352699
147	0x3e0a05f0	0.13478827
148	0xbc22da2c	-0.009939712
149	0x3d49e3e6	0.049289607
150	0x3d84be59	0.064816184
151	0x3c4d6b5c	0.0125378035
152	0x3bfdb081	0.007741988
153	0x3c9e06d2	0.019290362
154	0x3dd4defb	0.10394093
155	0xbaf18d46	-0.0018428944
156	0xbe047411	-0.12934901
157	0xbc8a4225	-0.016877243
158	0xba5b4092	-0.0008363809
159	0xbda6ced7	-0.0814492
160	0x3d185e7b	0.03719948
161	0xbb4f3d11	-0.0031622092
162	0x3d898454	0.06714693
163	0x3d521851	0.05129272
164	0x3d06b36b	0.03288595
165	0x3d18d50d	0.037312556
166	0x3dc420ec	0.09576592
167	0xbc74cdae	-0.014941616
168	0x3d65fbb7	0.056148257
169	0x3d0079f8	0.03136632
170	0x3d70be67	0.05877533
171	0x3d88957f	0.06669139
172	0x3d6c7c17	0.05773553
173	0x3d24e843	0.040260565
174	0x3d114a7d	0.03547143
175	0x3d3914d4	0.04518588
176	0x3d8a9d77	0.06768315
177	0x3d79332c	0.060839817
178	0xb9bc2bec	-0.0003589088
179	0xbd93fc4b	-0.072258554
180	0x3d5f938d	0.054584075
181	0x3db98fec	0.09060654
182	0x3d993b9e	0.07482074
183	0xbe1794d5	-0.14802869
184	0x3d006e15	0.031354982
185	0xbd8c18b4	-0.06840649
186	0x3d14d4a4	0.036335602
187	0x3d47c2e9	0.048769865
188	0xbdc98b83	-0.09841063
189	0xbd0643b8	-0.032779425
190	0x3d6fccdf	0.05854499
191	0xbd22c54f	-0.03973895
192	0x3d885a27	0.0665782
193	0xbc3305b3	-0.010926652
194	0x3c358a00	0.011080265
195	0x3d5f1575	0.054463822
196	0xbd124b8a	-0.03571657
197	0xbd618ab4	-0.05506392
198	0x3dcef084	0.101044685
199	0x3ce19750	0.027537972
200	0x3d2b43e6	0.0418128
201	0x3c7440d0	0.014908031
202	0x3d983290	0.07431519
203	0x3e125db3	0.14293556
204	0xbd1e6bb1	-0.03867692
205	0x3cfa908b	0.030586502
206	0xbc80cd8a	-0.015723009
207	0x3d91f310	0.071264386
208	0x3d1beb30	0.03806609
209	0xbd6dc86e	-0.058052473
210	0x3dc538e5	0.096299924
211	0xbc334184	-0.010940913
212	0x3c91f596	0.0178173
213	0x3d07b579	0.03313205
214	0x3da39ae0	0.079885244
215	0x3c866570	0.016405791
216	0x3d58b02a	0.05290238
217	0x3e207921	0.15671207
218	0x3db9978b	0.09062108
219	0x3c647e19	0.01394608
220	0x3ddd24b2	0.10798015
221	0xbc0d817c	-0.0086368285
222	0x3d084704	0.03327085
223	0xbd3c9ec5	-0.046049852
224	0x3dc032e7	0.09384709
225	0xbcd203b8	-0.025636539
226	0x3d2fb2bb	0.04289506
227	0xbda7e2e9	-0.081975766
228	0x3d56190c	0.05226998
229	0x3d944676	0.07240002
230	0x3d75a33c	0.059970126
231	0xbd37e69c	-0.04489766
232	0x3d2140b9	0.039368365
233	0x3d9c1aab	0.07622274
234	0x3ce043c7	0.027376069
235	0x3d932e7a	0.07186599
236	0x3d2ffb71	0.042964403
237	0x3cfb24bb	0.030657163
238	0x3c95590b	0.018230936
239	0x3d93754a	0.072001055
240	0xbd438df2	-0.04774279
241	0x3d80c0a5	0.06286744
242	0x3d108b52	0.035289116
243	0xbdb8bcd2	-0.090203896
244	0x3dbfc27c	0.09363267
245	0x3d8f5754	0.069990784
246	0x3d7642c1	0.060122255
247	0xbdd947da	-0.10609408
248	0x3d67df26	0.056609295
249	0xbd85f930	-0.06541669
250	0x3d7e6706	0.06210997
251	0x3dac4205	0.0841103
252	0xbd85aa71	-0.0652665
253	0xbc761eff	-0.0150220385
254	0x3d653c7f	0.055965897
255	0xbdd73035	-0.10507242

output.bias f4 [4]
0	0x3e6b604e	0.22985956
1	0x3e2181d1	0.15772177
2	0x3e3ae6cd	0.18252106
3	0x3e21890c	0.15774935
