checkpoints/state_size_37__action_size_4__hidden_layers_[64-64]__drop_p_0.25__seed_0__GAMMA_0.99__LR_0.0005__UPDATE_EVERY_100__BUFFER_SIZE_10000__BATCH_SIZE_64__TAU_0.001.pth (torch, 29527 bytes, 6 tensors)

hidden_layers.0.weight f4 [64, 37]
0.13214172 0.09006188 0.17030786 0.099430226 -0.013083574 0.048094593 -0.05054393 0.014664302
-0.22115894 -0.06407376 0.11095115 -0.14624473 -0.022673972 -0.064397335 0.04029934 -0.0530028
0.03345823 -0.14205067 0.0053579295 -0.023921972 0.13651356 -0.010475732 -0.08357313 -0.0878343
0.010207779 0.045510057 0.049644127 -0.107124284 0.03042811 -0.051768918 0.041223608 -0.18041587
-0.107864514 -0.1663199 -0.3508203 -0.17501798 -0.0006193387 0.13509743 -0.005169654 0.10697632
-0.0066348277 0.05136657 0.013755809 0.17889641 0.022737699 0.05155066 0.11887528 -0.016945265
-0.10987285 -0.0067775804 0.0060881195 -0.06108837 0.048735276 0.011434701 0.100230955 0.15473753
0.09203925 0.024620963 -0.101243265 0.083109215 0.18076536 -0.077362254 -0.14930409 -0.13725501
0.003304338 -0.09982634 0.023594098 -0.12520903 0.12890714 0.16405006 -0.015560465 -0.0034946601
0.09636952 -0.02029567 0.08430309 -0.14781356 -0.010973228 0.035631172 0.14133392 -0.15145211
-0.13968919 -0.19993064 -0.07707981 0.18112004 0.006182391 -0.000845022 0.061206147 0.013317425
-0.06883767 0.0045370837 -0.107437104 -0.110958226 0.01478759 -0.13095084 -0.052574273 0.10374785
0.052116394 -0.11558835 0.121722974 -0.06237883 0.03519911 0.033192575 -0.0064975354 -0.178477
-0.19349441 -0.008732984 0.05940436 0.1364574 0.12347658 -0.079404935 0.052129127 0.1003961
0.04921982 0.03365928 0.07078723 -0.09747879 0.01429962 -0.10025278 -0.10183354 0.016291229
-0.13763478 -0.12529394 -0.19206528 0.024660233 -0.11887334 -0.037748814 0.024167702 0.11944178
-0.082228966 0.047249343 -0.2061257 -0.16653438 0.08587729 -0.14714807 0.08168833 0.0489901
-0.16335729 -0.17392938 -0.045701608 -0.14782275 0.030703824 -0.074756995 -0.09132643 0.043039557
-0.13930504 0.08753982 -0.14669581 -0.06458094 -0.026727624 0.017828356 0.12009515 0.06300848
0.048260856 -0.0097258445 0.16718651 0.2095835 0.26671958 0.42870307 -0.11244814 -0.118947454
-0.0027469955 0.12664683 0.052255888 -0.14744143 -0.0945034 0.040119898 0.06737318 0.100777164
-0.060553018 -0.123852454 0.028423313 -0.094947025 0.034809217 -0.044450637 -0.07935532 0.085845985
-0.039497238 0.06830175 -0.19351918 -0.06348404 -0.104022935 -0.05520416 0.15770367 0.06194184
0.027991934 -0.09862292 -0.04419913 0.05133129 -0.022497563 0.040788338 -0.004821455 -0.026067762
0.13290763 0.20196061 0.27167267 0.06501053 -0.058075696 0.122509524 0.067292824 -0.08682088
-0.09350307 -0.07545919 0.086673796 -0.04818889 -0.038395293 -0.18710874 -0.106380224 -0.065809235
-0.07546789 -0.0140032675 -0.1609023 0.05257668 0.057549 -0.054415032 -0.02704427 -0.22597611
-0.15163003 -0.03091393 0.068623416 0.08356104 -0.116198495 0.054081235 -0.21809098 0.13332026
-0.0027485115 0.0769587 0.10927258 0.00902138 -0.019701527 -0.106806576 -0.09524999 -0.20502318
0.16671072 0.043372337 -0.038499374 -0.08420726 -0.18864012 -0.029899586 0.01251849 -0.019773537
0.1145476 0.14601731 0.04877123 -0.21172966 -0.0434114 -0.12364579 -0.2242694 0.1313429
-0.0013385064 0.10834503 0.07815089 -0.23719925 0.0839344 -0.19891042 -0.03347606 -0.2823141
00000000: 2950 073e 5d72 b83d 2f65 2e3e 13a2 cb3d
00000010: 7d5c 56bc d6fe 443d 2707 4fbd 8a42 703c
00000020: 7d77 62be 1a39 83bd 5b3a e33d 2ec1 15be
00000030: c4be b9bc c0e2 83bd ec10 253d 7719 59bd
00000040: 7f0b 093d bb75 11be 9291 af3b 03f8 c3bc
00000050: 36ca 0b3e 68a2 2bbc 6428 abbd 78e2 b3bd
00000060: 873e 273c c168 3a3d a457 4b3d fa63 dbbd
00000070: 5f44 f93c a50b 54bd 16da 283d f0be 38be
00000080: 12e8 dcbd c44f 2abe b89e b3be ea37 33be
00000090: 1e5b 22ba fb56 0a3e 3366 a9bb 6716 db3d
000000a0: f868 d9bb c165 523d 0b60 613c 9f30 373e
000000b0: 6944 ba3c c926 533d e274 f33d ccd0 8abc
000000c0: 0405 e1bd 7716 debb d97e c73b cc37 7abd
000000d0: a49e 473d 9d58 3b3c e345 cd3d 8473 1e3e
000000e0: 137f bc3d e7b1 c93c a158 cfbd 2a35 aa3d
000000f0: 8e1a 393e 1a70 9ebd 2ce3 18be 948c 0cbe
00000100: 988d 583b c171 ccbd 6948 c13c cc36 00be
00000110: 3c00 043e bdfc 273e 52f1 7ebc ab06 65bb
00000120: 625d c53d 1b43 a6bc 19a7 ac3d 705c 17be
00000130: 0ec9 33bc fef1 113d d7b9 103e 4316 1bbe
00000140: af0a 0fbe 9eba 4cbe 05dc 9dbd 8877 393e
00000150: a895 ca3b 7784 5dba 4cb3 7a3d 5431 5a3c
00000160: c4fa 8cbd d1ab 943b fc07 dcbd 113e e3bd
00000170: a647 723c fa17 06be 1f58 57bd c179 d43d
00000180: 0078 553d 96b9 ecbd e549 f93d f280 7fbd
00000190: f12c 103d f0f4 073d 47e9 d4bb adc2 36be
000001a0: 6623 46be ca14 0fbc fc51 733d 7dbb 0b3e
000001b0: 4ae1 fc3d 0e9f a2bd 5a85 553d 789c cd3d
000001c0: b99a 493d 50de 093d e5f8 903d f6a2 c7bd
000001d0: f448 6a3c 5451 cdbd 1a8e d0bd 2f75 853c
000001e0: 22f0 0cbe 0e4d 00be c3ac 44be 4204 ca3c
000001f0: de73 f3bd 809e 1abd 58fb c53c e49d f43d
00000200: a967 a8bd 8788 413d 9e12 53be fd87 2abe
00000210: 6fe0 af3d fcad 16be 364c a73d d8a9 483d
00000220: 2247 27be 8b1a 32be 9c31 3bbd d95e 17be
00000230: 9686 fb3c 321a 99bd 5a09 bbbd 3f4a 303d
00000240: fba5 0ebe 1448 b33d 6d37 16be 0343 84bd
00000250: e4f3 dabc c60c 923c 72f4 f53d 970a 813d
00000260: 2dad 453d 2659 1fbc f132 2b3e 0f9d 563e
00000270: 788f 883e f87e db3e 364b e6bd b99a f3bd
00000280: f006 34bb b5af 013e 450a 563d e3fa 16be
00000290: 008b c1bd c354 243d f3fa 893d 4264 ce3d
000002a0: 7106 78bd 5ba6 fdbd 02d8 e83c 9673 c2bd
000002b0: 1c94 0e3d df11 36bd 0b85 a2bd 05d0 af3d
000002c0: dbc7 21bd cae1 8b3d e429 46be ec03 82bd
000002d0: fa09 d5bd c21d 62bd 127d 213e bab6 7d3d
000002e0: 574f e53c d0fa c9bd 260a 35bd c240 523d
000002f0: cf4c b8bc ac11 273d 4cfd 9dbb 0f8c d5bc
00000300: f018 083e c3ce 4e3e ae18 8b3e 3e24 853d
00000310: c8e0 6dbd 46e6 fa3d d2d0 893d 25cf b1bd
00000320: 8a7e bfbd 598a 9abd 0882 b13d b761 45bd
00000330: 6244 1dbd 6f99 3fbe e0dd d9bd fec6 86bd
00000340: e98e 9abd f66d 65bc 93c3 24be a55a 573d
00000350: 80b8 6b3d 4ce2 5ebd f28b ddbc 4866 67be
00000360: e744 1bbe 363f fdbc 6f8a 8c3d 0d22 ab3d
00000370: 7af9 edbd 4984 5d3d 3e53 5fbe 1b85 083e
00000380: 5f20 34bb 869c 9d3d 4dca df3d 69ce 133c
00000390: 1965 a1bc 68bd dabd 6d12 c3bd 99f1 51be
000003a0: 37b6 2a3e 31a7 313d 85b1 1dbd db74 acbd
000003b0: e02a 41be faef f4bc 5a1a 4d3c 1dfc a1bc
000003c0: ef97 ea3d 9085 153e 57c4 473d a9cf 58be
000003d0: 27d0 31bd 013a fdbd e1a6 65be c17e 063e
000003e0: d270 afba 00e4 dd3d 930d a03d 5ce4 72be
000003f0: cce5 ab3d 2caf 4bbe 311e 09bd 798b 90be

hidden_layers.0.bias f4 [64]
-0.10769557 -0.05803543 -0.22580424 0.055170704 -0.053676423 -0.19696708 -0.10489632 -0.16856101
0.07660319 -0.0830233 0.1586631 0.06179586 0.00072412123 -0.13829671 0.024798037 -0.12431761
-0.0044541806 0.06809947 -0.06742795 -0.007192551 0.05811361 -0.16469364 -0.11598377 0.057917863
-0.035041567 0.0725139 -0.20824884 0.04942539 -0.04824455 -0.23121503 0.07182153 0.0043557114
-0.17221887 0.08742548 -0.08709541 0.068114325 -0.08440118 -0.059428424 0.105567165 -0.1491061
0.015745228 0.13181825 -0.00012580499 -0.2130967 -0.13296622 0.08413217 -0.14902441 0.060277723
0.084806174 -0.12763481 -0.013464516 -0.04985204 -0.17567615 -0.14830098 -0.048984908 -0.20384064
-0.1439192 0.05131995 -0.120563366 -0.18432693 0.046420034 -0.067599684 0.11090479 0.050674513
00000000: 7f8f dcbd 8fb6 6dbd 3a39 67be adfa 613d
00000010: cfdb 5bbd bdb1 49be e2d3 d6bd 429b 2cbe
00000020: 22e2 9c3d 1f08 aabd 9478 223e a81d 7d3d
00000030: f4d2 3d3a a79d 0dbe 4125 cb3c 3b9a febd
00000040: 60f4 91bb bc77 8b3d aa17 8abd 7eaf ebbb
00000050: 8908 6e3d 73a5 28be e688 edbd 483b 6d3d
00000060: bf87 0fbd 2b82 943d 2f3f 55be 4772 4a3d
00000070: 149c 45bd a2c3 6cbe 2b17 933d 5bba 8e3b
00000080: 255a 30be 210c b33d 145f b2bd 867f 8b3d
00000090: 87da acbd 386b 73bd 9933 d83d 45af 18be
000000a0: 23fc 803c 5dfb 063e 85ea 03b9 0536 5abe
000000b0: 4c28 08be 7d4d ac3d db99 18be c6e5 763d
000000c0: dcae ad3d b3b2 02be 469a 5cbc a731 4cbd
000000d0: 73e4 33be 36dc 17be 66a4 48bd 9abb 50be
000000e0: 8e5f 13be de34 523d ede9 f6bd 33c0 3cbe
000000f0: ef22 3e3d b471 8abd 0d22 e33d 1490 4f3d

hidden_layers.1.weight f4 [64, 64]
-0.15401049 -0.023247685 -0.057212465 -0.06307295 -0.021715308 -0.05082915 -0.06738866 0.041253235
0.078124 0.06584657 0.02173478 -0.08858532 -0.0007914011 0.004537107 0.060735524 -0.10502589
-0.10406921 0.05627744 0.008231254 0.03609342 0.054164857 0.090003505 0.08469896 -0.08602124
-0.02326368 -0.10306871 -0.039814312 -0.03186395 -0.12912664 -0.07483055 -0.12259224 0.07740526
0.009953583 -0.0748628 0.10328508 0.011501948 0.045525763 -0.08183959 0.058653887 -0.10896664
0.05137402 -0.052596018 -0.13100116 -0.06586366 -0.07554229 -0.016067198 -0.11830087 0.036061116
-0.07450747 -0.004494154 -0.086931214 0.07318909 0.03089262 0.011476943 -0.05475408 -0.09850176
0.052948438 0.02958799 0.031139866 0.05801924 -0.10828245 0.01055977 0.090309784 -0.08993502
-0.107282765 -0.10821364 0.04148139 0.095389694 -0.17077297 -0.013298583 -0.10645132 0.05390405
-0.096524045 -0.04113314 0.011033376 -0.11501671 -0.08976469 0.04064519 -0.03675166 -0.017897446
-0.054556455 -0.049897853 0.11031069 -0.07776753 0.054302067 0.04506746 -0.03412258 -0.054435976
-0.08440899 -0.018585086 -0.058302846 -0.13285963 -0.06684569 -0.05046924 0.06568972 0.074657105
-0.124973975 -0.025685092 -0.058444917 -0.093758754 -0.1281095 0.074454404 0.015679598 -0.072283484
0.05805402 -0.04691508 -0.023412244 -0.022580141 -0.10959801 0.050582517 -0.11898341 -0.07323273
-0.17028672 -0.15018578 0.0451464 -0.09743176 0.014027758 -0.12930085 0.08472231 0.10256304
-0.004393182 -0.10825215 -0.007041651 0.037806768 -0.03615612 -0.054867595 0.012751282 -0.033583697
0.122105464 -0.120529726 -0.100398906 0.09789378 -0.0552503 0.018598769 0.056844875 0.019096209
0.087546274 -0.07485203 0.19248803 -0.07947847 -0.07675502 0.03307891 -0.0022806171 0.036892314
0.055294033 -0.04524866 0.022588424 0.102226764 -0.079902835 -0.10735406 0.12916268 -0.0053801406
0.06555238 0.00075702585 0.017695233 0.17938362 0.062823094 -0.021744095 0.080734335 -0.096714035
0.07041957 -0.025886452 0.08046544 0.023116613 -0.02254922 0.015467514 0.015943302 0.089763515
-0.07170434 0.10255541 -0.12784351 0.018569669 -0.09315591 0.09859876 -0.011709299 0.050964776
0.06034896 0.07706598 -0.081794485 0.09079757 -0.110471465 -0.14213756 0.015448717 -0.05255325
-0.0003566943 -0.08687895 -0.10485393 -0.035149883 -0.02105992 0.091199584 -0.14840306 0.03533328
-0.059913766 -0.03820847 -0.0015558905 0.08778044 0.062718324 -0.049444757 -0.052525412 0.049498316
0.027707117 0.024649372 -0.13919196 -0.09113096 -0.1084855 -0.08884788 0.044060167 -0.019970147
0.01476774 -0.051310863 0.06421753 0.06403535 0.014031952 -0.10488957 -0.10739231 -0.11836018
-0.14154862 -0.040144835 0.0737555 -0.067715675 -0.08414845 -0.053987704 -0.021405509 -0.12880774
0.040379185 0.07264983 0.0707454 -0.09253275 -0.09925236 -0.085992776 0.061438017 0.023833623
0.089756 0.019655308 0.0598148 -0.015533572 0.09424349 -0.011427733 0.06783054 0.0042637293
0.05812513 -0.14825039 0.086066306 0.077373914 -0.0983984 -0.057251055 -0.028556114 0.07251548
-0.012824779 -0.11063161 -0.053774823 -0.095762745 0.043272395 -0.031507496 -0.08572784 0.06820966
00000000: edb4 1dbe ee71 bebc 9e57 6abd 642c 81bd
00000010: 4de4 b1bc 3a32 50bd 1103 8abd 27f9 283d
00000020: 7aff 9f3d 91da 863d 230d b23c 386c b5bd
00000030: 0776 4fba 03ac 943b d0c5 783d d017 d7bd
00000040: 3d22 d5bd 2c83 663d 62dc 063c b2d6 133d
00000050: f8db 5d3d c253 b83d a676 ad3d e72b b0bd
00000060: 7993 bebc b015 d3bd 5514 23bd c683 02bd
00000070: c639 04be c240 99bd a411 fbbd a686 9e3d
00000080: 5a14 233c ab51 99bd 2187 d33d ab72 3c3c
00000090: 3979 3a3d 849b a7bd 0f3f 703d e729 dfbd
000000a0: 906d 523d ec6e 57bd 2b25 06be 87e3 86bd
000000b0: ebb5 9abd 5b9f 83bc ba47 f2bd d2b4 133d
000000c0: 5f97 98bd b243 93bb fe08 b2bd 29e4 953d
000000d0: 8512 fd3c ca09 3c3c d045 60bd 4abb c9bd
000000e0: 76e0 583d 8362 f23c 0819 ff3c 95a5 6d3d
000000f0: 30c3 ddbd e302 2d3c 56f4 b83d da2f b8bd
00000100: 11b7 dbbd 1d9f ddbd 64e8 293d ac5b c33d
00000110: 1cdf 2ebe 4de2 59bc 2603 dabd 7eca 5c3d
00000120: 66ae c5bd 397b 28bd 55c5 343c e18d ebbd
00000130: 8dd6 b7bd 927b 263d e988 16bd aa9d 92bc
00000140: 9776 5fbd b161 4cbd 92ea e13d 9544 9fbd
00000150: d86b 5e3d a898 383d 1ec4 0bbd 42f8 5ebd
00000160: 9fde acbd c03f 98bc f7ce 6ebd 5b0c 08be
00000170: 65e6 88bd d5b8 4ebd 5588 863d d3e5 983d
00000180: 5bf2 ffbd 8b69 d2bc f063 6fbd 9704 c0bd
00000190: 232f 03be 8d7b 983d 8072 803c 5d09 94bd
000001a0: 0dca 6d3d 072a 40bd 09cb bfbc fdf9 b8bc
000001b0: ec74 e0bd 9d2f 4f3d 93ad f3bd 0bfb 95bd
000001c0: a45f 2ebe 4dca 19be 6eeb 383d 4d8a c7bd
000001d0: aed4 653c 7167 04be e482 ad3d 920c d23d
000001e0: aff4 8fbb 4eb3 ddbd a6bd e6bb 45db 1a3d
000001f0: 7118 14bd d8bc 60bd c1ea 503c 0f8f 09bd
00000200: 6e12 fa3d 4ad8 f6bd f19d cdbd 897c c83d
00000210: 234e 62bd 725c 983c 2cd6 683d a76f 9c3c
00000220: 764b b33d 054c 99bd 951b 453e 9cc5 a2bd
00000230: bc31 9dbd c07d 073d 6876 15bb 651c 173d
00000240: ff7b 623d a956 39bd 5c0b b93c 445c d13d
00000250: 19a4 a3bd 72dc dbbd 3943 043e e44b b0bb
00000260: 5440 863d 2573 463a 98f5 903c 57b0 373e
00000270: 65a9 803d ac20 b2bc 0b58 a53d 0212 c6bd
00000280: 2338 903d d30f d4bc 11cb a43d 0d5f bd3c
00000290: 24b9 b8bc 756b 7d3c 879b 823c efd5 b73d
000002a0: bad9 92bd 9208 d23d 69e9 02be 6b1f 983c
000002b0: 87c8 bebd 26ee c93d 5cd8 3fbc 71c0 503d
000002c0: 7930 773d c5d4 9d3d de83 a7bd 14f4 b93d
000002d0: dd3e e2bd 828c 11be 9e1c 7d3c 1442 57bd
000002e0: b302 bbb9 97ed b1bd a8bd d6bd 53f9 0fbd
000002f0: da85 acbc d9c6 ba3d f9f6 17be a1b9 103d
00000300: 2368 75bd 7c80 1cbd 06ef cbba 3bc6 b33d
00000310: 7772 803d 9686 4abd e324 57bd bfbe 4a3d
00000320: 09fa e23c 7bed c93c 5688 0ebe dea2 babd
00000330: a52d debd e1f5 b5bd 6f78 343d 6f98 a3bc
00000340: 64f4 713c 572b 52bd 7b84 833d f724 833d
00000350: 46e6 653c 58d0 d6bd 80f0 dbbd d266 f2bd
00000360: 1ff2 10be e96e 24bd 200d 973d 84ae 8abd
00000370: 0656 acbd 3622 5dbd 9b5a afbc 2de6 03be
00000380: a564 253d 6fc9 943d f7e2 903d cf81 bdbd
00000390: d244 cbbd fb1c b0bd 6ea6 7b3d bb3e c33c
000003a0: fed1 b73d 2b04 a13c 5d00 753d 8680 7ebc
000003b0: bb02 c13d 633b 3bbc bdea 8a3d c1b6 8b3b
000003c0: 9e14 6e3d f3ce 17be 8843 b03d 3776 9e3d
000003d0: 1a85 c9bd 1580 6abd 83ee e9bc ff82 943d
000003e0: 061f 52bc d392 e2bd fd42 5cbd 421f c4bd
000003f0: 653e 313d 010e 01bd 1492 afbd 82b1 8b3d

hidden_layers.1.bias f4 [64]
-0.0101150405 0.09009886 0.04613476 -0.11680462 0.11236791 0.003853791 -0.0033555934 -0.037499543
-0.028761763 0.047601458 -0.054485947 -0.07642725 -0.097132385 -0.02923722 0.04136607 -0.11265429
-0.00735005 -0.018875998 0.01710247 -0.114582375 0.051489726 0.047489803 0.083609544 -0.011963347
0.006282211 0.036617205 -0.047362074 -0.044288725 0.067462206 -0.02427909 -0.15674067 -0.054972373
0.09226945 -0.0065756617 0.0084392205 -0.1103969 -0.0018785786 -0.12936743 -0.051595673 -0.068283916
0.09411628 0.03824657 -0.09350808 -0.06385568 0.044645887 -0.099099256 0.004007982 -0.00024959713
-0.012143967 -0.14428364 0.001365146 0.054597624 0.062095147 -0.062658615 0.018058565 0.016105738
-0.13315415 -0.086567126 0.10239615 0.09860984 -0.046887033 -0.13306186 -0.07914982 0.10910687
00000000: 8eb9 25bc c085 b83d cdf7 3c3d 4337 efbd
00000010: 2621 e63d e28f 7c3b 84e9 5bbb 1f99 19bd
00000020: ca9d ebbc bff9 423d a82c 5fbd e485 9cbd
00000030: 58ed c6bd e582 efbc 786f 293d 4bb7 e6bd
00000040: b0d8 f0bb d6a1 9abc 7b1a 8c3c 2aaa eabd
00000050: e4e6 523d ab84 423d 7b3b ab3d ea01 44bc
00000060: 01db cd3b ecfb 153d bcfe 41bd 1868 35bd
00000070: a029 8a3d f1e4 c6bc a080 20be b62a 61bd
00000080: c4f7 bc3d a678 d7bb a844 0a3c c517 e2bd
00000090: a33a f6ba e578 04be fc55 53bd 70d8 8bbd
000000a0: 09c0 c03d 6fa8 1c3d 2a81 bfbd c4c6 82bd
000000b0: 9bde 363d 8df4 cabd 6455 833b 5cdc 82b9
000000c0: 7df7 46bc 17bf 13be b3ee b23a c2a1 5f3d
000000d0: 7b57 7e3d 2953 80bd 8eef 933c 2ef0 833c
000000e0: 9059 08be 1b4a b1bd 13b5 d13d f5f3 c93d
000000f0: 9e0c 40bd 5e41 08be 4d19 a2bd 6c73 df3d

output.weight f4 [4, 64]
0.008510555 -0.09732096 0.08699837 -0.05729619 0.08282991 0.12185824 -0.08141484 0.0847143
-0.048051458 0.038749937 0.09641795 -0.015646305 0.098488845 -0.07452213 0.1035801 -0.045202333
0.032204404 0.02907145 0.02914827 0.082189746 0.06652416 0.0869264 0.011894722 0.1223859
0.015009243 0.01906023 0.0713957 0.052272808 0.05451914 -0.020060563 -0.09229004 0.07412046
0.078764744 0.028344067 0.04635715 0.047102816 0.076236114 0.060218908 -0.015458858 0.07862243
0.05189927 0.08694655 0.0060569197 0.029415285 -0.06649325 0.06768464 0.034538217 0.05875723
-0.060785934 0.095468424 0.09046637 0.0856482 0.08413468 0.050573517 -0.051693268 0.02917549
-0.065689646 -0.07112238 -0.011458638 0.07333612 0.09781407 -0.05652923 -0.05040101 0.1192567
-0.007732891 -0.018722858 0.0434124 -0.004576382 0.0010206138 -0.008994377 0.003458285 0.018319752
0.021181723 0.00981041 0.057848763 -0.07097755 0.026172167 -0.08838533 0.06596071 0.09389097
-0.0072594304 0.012586232 0.01113685 0.08657709 -0.0053213807 0.0030662497 -0.0057624956 0.05086014
0.006974066 -0.016363295 0.06062332 0.043885972 0.036334172 -0.06858654 -0.05263111 0.04164614
0.037503522 0.010646997 -0.02569736 -0.0014366754 -0.0603014 0.035216853 0.009689493 -0.051442802
0.016939327 0.10463772 0.0016409222 0.026083985 0.023639798 0.10286685 -0.0798436 0.033096604
-0.019078862 -0.09368835 0.040729303 -0.007198241 0.039317895 0.007225634 0.0061327675 0.012836682
0.025957847 0.021440431 0.006923228 0.023995716 0.026918937 0.078157574 0.027321244 0.049037173
0.038444906 -0.06814215 0.049317267 -0.06617594 0.011012719 0.01851246 0.007616102 -0.07207914
0.009022733 9.922358e-05 0.04853063 0.08848253 0.025990319 0.0065825316 0.060700547 0.008770338
0.011636539 0.0113342805 0.012414695 0.046740957 0.022881215 0.033916086 -0.006537186 0.074682415
0.018899398 0.061273508 0.13097547 0.00017435873 0.034906324 0.009298074 0.0454047 0.07338138
0.037037775 0.01768198 -0.031440254 0.07284373 -0.06080563 -0.088071905 0.081302576 0.007426892
0.0112405205 0.06134506 -0.019241545 -0.045885283 0.09049445 -0.027000671 -0.07285718 0.043305296
0.05873087 -0.06438283 0.061457727 0.000577961 0.027793998 0.002235004 0.044002883 0.0071858834
-0.042580586 -0.037744857 -0.020022457 0.02380589 -0.01736947 0.04433941 -0.02005937 0.047003295
-0.02843754 -0.051171817 0.0029129419 -0.043803092 0.08942338 -0.08912868 -0.027145522 -0.05038012
0.0016615773 0.05244691 0.08114737 -0.06379529 -0.101679824 -0.002776328 -0.07077085 0.12193789
0.053401593 0.023778347 0.08071744 -0.07839907 0.04385557 0.05375878 0.046004478 0.07730516
0.026789527 -0.066373125 0.08539045 -0.05949465 0.027074005 -0.013720537 -0.09863737 0.052675854
0.035334818 0.06512959 0.016806073 0.011214442 0.09365311 -0.07182337 -0.015806299 0.050840244
0.052537613 -0.06891088 0.07500411 0.07852014 -0.016179403 -0.07976898 0.036883585 0.043162145
-0.057249893 0.032358147 -0.03613077 -0.00922541 0.0769892 0.04069849 0.029108947 0.021015057
-0.014879417 -0.039035585 0.039635144 0.06931458 0.08818006 0.055721715 0.09028195 0.07847199
00000000: db6f 0b3c 3650 c7bd 342c b23d 69af 6abd
00000010: baa2 a93d d090 f93d d3bc a6bd b17e ad3d
00000020: 9bd1 44bd 41b8 1e3d c676 c53d ae2c 80bc
00000030: 85b4 c93d 0f9f 98bd ce21 d43d 1526 39bd
00000040: c4e8 033d 4027 ee3c 5ac8 ee3c 1953 a83d
00000050: d23d 883d 7806 b23d 14e2 423c 75a5 fa3d
00000060: 54e9 753c 3324 9c3c e937 923d 031c 563d
00000070: 764f 5f3d 0d56 a4bc 8f02 bdbd 78cc 973d
00000080: 694f a13d d131 e83c ffe0 3d3d e2ee 403d
00000090: ae21 9c3d 1aa8 763d 2647 7dbc cc04 a13d
000000a0: 5494 543d 0811 b23d 2079 c63b 53f8 f03c
000000b0: 9d2d 88bd 3f9e 8a3d f277 0d3d 6cab 703d
000000c0: acfa 78bd f384 c33d 6f46 b93d 5368 af3d
000000d0: ce4e ac3d 2d26 4f3d 52bc 53bd 7001 ef3c
000000e0: 4b88 86bd 9ca8 91bd 03bd 3bbc 3f31 963d
000000f0: be52 c83d 328b 67bd 4a71 4ebd db3c f43d
00000100: 3164 fdbb ae60 99bc 33d1 313d 7af5 95bb
00000110: 1ec6 853a 275d 13bc 65a4 623b 4e13 963c
00000120: 4b85 ad3c d8bb 203c d3f2 6c3d ae5c 91bd
00000130: 0367 d63c 5e03 b5bd 6916 873d e949 c03d
00000140: 84e0 edbb 7c36 4e3c 5677 363c 544f b13d
00000150: fa5e aebb 22f3 483b 51d3 bcbb b952 503d
00000160: b586 e43b 510c 86bc 2950 783d c7c1 333d
00000170: 24d3 143d 1a77 8cbd b893 57bd 2595 2a3d
00000180: 4b9d 193d be70 2e3c 4583 d2bc d44e bcba
00000190: 9afe 76bd 8c3f 103d aec0 1e3c b0b5 52bd
000001a0: 58c4 8a3c 4d4c d63d 3614 d73a 15ae d53c
000001b0: 40a8 c13c dbab d23d 0b85 a3bd 4e90 073d
000001c0: 464b 9cbc addf bfbd c5d3 263d 39df ebbb
000001d0: cd0b 213d 03c5 ec3b 62f5 c83b f250 523c
000001e0: 8da5 d43c d8a3 af3c 3fdc e23b aa92 c43c
000001f0: 1a85 dc3c 1411 a03d cdd0 df3c 34db 483d
00000200: 6878 1d3d 1d8e 8bbd e700 4a3d 4087 87bd
00000210: b16e 343c 71a7 973c 7f90 f93b 3a9e 93bd
00000220: 16d4 133c 4116 d038 0ec8 463d 5436 b53d
00000230: a6e9 d43c 47b2 d73b 23a1 783d 77b1 0f3c
00000240: 2fa7 3e3c 6bb3 393c 0167 4b3c 7273 3f3d
00000250: 6371 bb3c 98eb 0a3d e435 d6bb 18f3 983d
00000260: e9d2 9a3c eef9 7a3d 6f1e 063e 11d4 3639
00000270: eff9 0e3d f356 183c 47fa 393d fa48 963d
00000280: ecb4 173d cdd9 903c 7fc7 00bd 182f 953d
00000290: 530f 79bd 0b5f b4bd f781 a63d 495d f33b
000002a0: 292a 383c f544 7b3d 72a0 9dbc 35f2 3bbd
000002b0: 2755 b93d 8330 ddbc 2536 95bd e560 313d
000002c0: c88f 703d 25db 83bd 19bb 7b3d 4e82 173a
000002d0: 3db0 e33c 2579 123b 5e3c 343d 8f77 eb3b
000002e0: fb68 2ebd 5a9a 1abd 2306 a4bc 9204 c33c
000002f0: 6b4a 8ebc 3e9d 353d 8c53 a4bc 8786 403d
00000300: d8f5 e8bc 8a99 51bd 0ee7 3e3b df6a 33bd
00000310: 9b23 b73d 1989 b6bd 4960 debc 625b 4ebd
00000320: 48c9 d93a 92d2 563d 9830 a63d 1ba7 82bd
00000330: 833d d0bd 0ef3 35bb 4ff0 90bd 93ba f93d
00000340: a1bb 5a3d cfca c23c 2f4f a53d b18f a0bd
00000350: e6a1 333d 2b32 5c3d 316f 3c3d 2b52 9e3d
00000360: b675 db3c a2ee 87bd 30e1 ae3d aab0 73bd
00000370: 4eca dd3c 1acc 60bc 6402 cabd a3c2 573d
00000380: 3ebb 103d aa62 853d e4ac 893c c7bc 373c
00000390: 34cd bf3d 2218 93bd 367c 81bc dc3d 503d
000003a0: ae31 573d 2621 8dbd c19b 993d 2bcf a03d
000003b0: ab8a 84bc eb5d a3bd 3e13 173d caca 303d
000003c0: dd7e 6abd fa89 043d dcfd 13bd 2d26 17bc
000003d0: 84ac 9d3d 76b3 263d e375 ee3c c527 ac3c
000003e0: ccc8 73bc c7e3 1fbd 7658 223d cdf4 8d3d
000003f0: bf97 b43d 743c 643d bee5 b83d ecb5 a03d

output.bias f4 [4]
0.064357124 0.08044992 0.085097626 0.049125936
00000000: abcd 833d edc2 a43d aa47 ae3d 4738 493d
