checkpoints/state_size_37__action_size_4__hidden_layers_[128-128]__drop_p_0.0__seed_0__GAMMA_0.99__LR_0.0005__UPDATE_EVERY_10__BUFFER_SIZE_100000__BATCH_SIZE_64__TAU_0.001.pth (torch, 89687 bytes, 6 tensors)

hidden_layers.0.weight f4 [128, 37]
000000 e0 41 f2 bc 7f 8b 70 bd f5 64 92 bd 2d cb 02 b9
       -0.029572427 -0.058726784 -0.07148162 -0.00012473455
000010 d7 5a f5 3d 9f bc 6b 3d 4d 21 f0 3d f2 db f2 bc
       0.11980217 0.05755293 0.117251016 -0.029645894
000020 e8 81 bb 3d 54 c4 37 bc 19 5c 05 be de a5 c6 3d
       0.09155637 -0.011216242 -0.13023414 0.096996054
000030 80 89 ff 3d 88 df 69 3e 56 53 55 3c 91 03 92 bc
       0.12477398 0.22839177 0.013020357 -0.017823966
000040 2e 1a 55 3e df 99 e2 3d 3e b2 27 3e 11 f0 d7 3d
       0.20810768 0.11064505 0.16376588 0.10543836
000050 e8 c5 0b be b3 d4 74 bd 64 83 48 bd 47 17 17 3d
       -0.13649714 -0.05977316 -0.04895343 0.036887433
000060 f1 1e a1 3c 25 e2 93 3e c6 82 05 bf f2 fa 86 be
       0.019668074 0.28883472 -0.5215267 -0.2636333
000070 57 fa 94 be ed 19 b4 bf 8e 0f 0f bd b3 94 8e 3d
       -0.29097244 -1.4070412 -0.034926943 0.06961956
000080 a7 a6 07 3e 78 b2 1d 3e e7 13 31 bd eb 49 91 bc
       0.13247167 0.15400112 -0.04323187 -0.017735442
000090 85 f2 9f bc af 61 9b 3e 3c 9a 19 be 6c 2e 8e be
       -0.019524822 0.30347964 -0.15000242 -0.27769792
0000a0 ca 7c a8 be 6c a8 35 be 87 18 82 be b6 ea 5a bd
       -0.32907706 -0.17740029 -0.25409338 -0.053446494
0000b0 f8 08 51 3d 16 1e 59 be c6 bc 98 3c fb 35 e6 3b
       0.051033944 -0.21202883 0.018644702 0.007025478
0000c0 23 41 cc be dc 38 16 be 34 e2 e8 be 77 6b 5e be
       -0.39893445 -0.14670128 -0.4548508 -0.21720682
0000d0 3a ad a9 bd f6 1b 51 be 80 65 c1 bd 6a 0a 11 be
       -0.082849935 -0.20420823 -0.09443188 -0.14164129
0000e0 fb 0f 8a be f1 f2 b0 3d 1a 62 05 3c 1a 85 1e bf
       -0.26965317 0.086400874 0.008141065 -0.61921847
0000f0 d8 ca 16 3d 59 29 0a bd 37 d5 83 be 4c ca ef be
       0.03681454 -0.03373084 -0.25748608 -0.46834028
000100 fa 59 ef 3d c7 86 89 bd 9a 27 a5 bd a8 96 cc bd
       0.116870835 -0.0671516 -0.08064194 -0.09989673
000110 3c ea fc bd 5c 5a 42 be 2f 26 a9 bb 9b 71 27 be
       -0.12349364 -0.18979782 -0.0051620225 -0.16351931
000120 4f 67 22 bd ca b8 1a be 5c a9 f4 be 52 b1 9d bd
       -0.039649304 -0.15109554 -0.4778546 -0.07699837
000130 45 13 58 3e 40 9b 5e bc 73 89 01 bf 57 00 5a be
       0.211011 -0.013586819 -0.50600356 -0.21289192
000140 77 ea 0b be 65 29 23 3e 82 4b 8d 3b 1b ec e5 bc
       -0.1366366 0.1593376 0.0043119797 -0.028066685
000150 d2 8f 1a 3e 41 18 e1 bd d4 05 d9 bc 8f 16 3c 3e
       0.15093926 -0.10990954 -0.026492037 0.1836798
000160 65 ea 82 3e 78 2c 31 be 0e 80 09 be 0d a1 6e 3c
       0.25569454 -0.1730212 -0.13427755 0.014564765
000170 b0 4c e4 ba ee f9 d6 be a5 ec 2f 3c 2e b6 fe bd
       -0.0017417874 -0.41987556 0.010737573 -0.12437092
000180 58 fa 8d 3c 96 cc 7c bd a7 a4 62 be 25 31 c7 3c
       0.017331287 -0.061718546 -0.22133122 0.024315426
000190 fe 1d 8e bd ad a2 8f bd 69 cb e2 bd 5f cd 88 3d
       -0.06939314 -0.0701345 -0.11073954 0.066797964
0001a0 1e 0b d6 bd a5 43 71 be 35 13 0a 3e d4 73 cc 3d
       -0.10451339 -0.2356096 0.1348389 0.0998303
0001b0 c1 06 8b bd 3f 3e 64 3e 95 3a 2c bd 55 5a d4 3e
       -0.067883976 0.2228937 -0.042048056 0.41475168
0001c0 f2 46 34 bf a6 50 c8 be 27 6c c9 be 4c 7a 0f c0
       -0.70420754 -0.3912403 -0.39340326 -2.2418394
0001d0 3c 2c 3a bd 84 02 24 bd e9 df a8 bc dd b5 71 3d
       -0.04545234 -0.04004146 -0.020614581 0.05901133
0001e0 53 fd 00 3e 90 21 18 3e f4 f3 bc 3d e7 f7 c6 3d
       0.12596636 0.14856553 0.09226218 0.09715252
0001f0 13 6c be 3d 7b 6e a6 3c de 03 49 3d 39 cf 9e 3d
       0.09297957 0.020316353 0.049075954 0.07754368
000200 53 02 82 3d a6 fa 8a 3d df ca 63 ba f5 d3 17 3d
       0.063480996 0.06786089 -0.0008689593 0.037067372
000210 9f 49 63 3c da 3f 6c 3d e0 a2 26 3d 6d ca c7 bd
       0.013872533 0.05767808 0.040682673 -0.097554065
000220 e7 83 26 3e b5 f5 02 3e 26 1a 5f 3d 46 a8 2c 3e
       0.16261254 0.12789042 0.054468296 0.16861066
000230 f5 21 97 3d 0e e8 08 bc ff b2 00 3d 5d 2e 94 3a
       0.07379524 -0.008356107 0.031420704 0.0011305321
000240 3f f8 ce 3d d2 e9 51 3c 02 42 2b bc e4 7f 92 bb
       0.10105943 0.012812095 -0.010452749 -0.004470812
000250 eb d3 51 be 43 6f 8d 3d 55 8d 90 be 10 42 46 3c
       -0.20490997 0.06905987 -0.28232828 0.012100711
000260 f9 08 c9 bd 3c f2 22 be 20 80 bd be ec ff c4 3d
       -0.098161645 -0.15912718 -0.37011814 0.09619126
000270 87 53 4b bd 0c f4 20 3e 37 82 13 3e f1 c6 a4 3b
       -0.049640205 0.15718096 0.14405142 0.0050285985
000280 6f 5e 59 be 4c 58 86 bd af 8b 85 be e4 bd bf 3c
       -0.2122743 -0.0655981 -0.26083133 0.023405977
000290 97 ec ca 3c 13 4c 9d bd 00 df 8b bd e6 9f 5e 3d
       0.024771018 -0.07680526 -0.06829643 0.05435171
0002a0 93 f2 d2 be ba 1b 0b 3e 9d 97 27 bd f9 f1 d4 3d
       -0.41200694 0.13584796 -0.040916074 0.10397715
0002b0 de f9 bb 3d dc 8e 01 be a4 76 21 bb e0 72 f7 3b
       0.09178518 -0.12652153 -0.0024637366 0.007551536
0002c0 99 42 c1 be f4 a9 f8 3e c4 24 28 be a9 0f d6 bd
       -0.37746122 0.48567164 -0.16420275 -0.10452206
0002d0 58 b2 13 3d c9 7a 1e 3e 1b f7 22 be 4e 4b ca 3c
       0.036058754 0.15476526 -0.15914576 0.024694111
0002e0 2e ab ab bc 31 1c da 3c 20 d9 23 bd 61 46 1d 3c
       -0.020955648 0.02662477 -0.04000199 0.009599299
0002f0 21 ec 07 3d 59 4c 0d be b1 9a b5 3c ee 45 0d 3e
       0.033184174 -0.13798656 0.02216849 0.13796207
000300 48 57 dd 3c a5 db bb bd cf 96 f1 3e 89 34 96 be
       0.027019158 -0.09172753 0.4718537 -0.29336956
000310 5a 4b de bd df 5b 07 3e bc 13 18 3d 1d bb 37 3c
       -0.10854216 0.1321864 0.037128195 0.011214045
000320 4f 8b 98 bc f4 bc 14 3e 28 2c 45 3e 04 9e cb 3c
       -0.018621115 0.14525205 0.19255126 0.024855621
000330 aa 04 8e bd 93 3f 91 bc 76 e0 33 be f2 3f 86 bd
       -0.06934483 -0.01773051 -0.17566094 -0.06555165
000340 e7 00 34 3e a4 de 19 3f b8 5e 8d be 7a 29 78 bd
       0.17578469 0.6010535 -0.27611327 -0.06058643
000350 ae d0 11 3c 3c da 26 3d e2 40 3c be fa f5 34 be
       0.008899851 0.04073547 -0.18384126 -0.17671958
000360 43 2d 96 be 95 9c 03 be ee db 3e 3d 9d ff f2 3d
       -0.29331407 -0.128527 0.04659646 0.118651606
000370 c2 17 ca 3b fb fe 47 3b e5 65 96 3d 7b 88 57 3b
       0.006167383 0.003051697 0.073436536 0.0032887745
000380 c2 1e 09 3d 25 27 4a 3d 1a 6b ae 3c ef 27 cb 3c
       0.0334766 0.049353737 0.021291304 0.024799315
000390 ff b5 0c bd 1a 5a 32 3e 9e 76 fd 3d ad 21 0b 3e
       -0.034353253 0.17417184 0.1237614 0.13587065
0003a0 06 ae 42 bd 41 41 60 3d 71 68 40 3d bd b5 f0 3c
       -0.047529243 0.05474973 0.046974603 0.029383535
0003b0 96 27 3b bd e8 50 c3 3e 74 f4 bc be 9f 1f a2 bd
       -0.04569205 0.38147664 -0.36905253 -0.079161875
0003c0 ec d3 7e be fc c3 c8 bf 59 5f b4 bd c3 3e 8c bd
       -0.2488553 -1.568481 -0.088072486 -0.06847908
0003d0 3a 89 91 bc 9b e9 86 3c 39 06 63 3e cb c3 d5 bb
       -0.01776563 0.016468814 0.22170343 -0.0065235845
0003e0 23 65 93 3c 8c 4d 02 3d 16 f4 ef 3d 0d 5f 6b 3e
       0.017992562 0.031812236 0.117164776 0.22985478
0003f0 9e af 8f bb 86 9a 30 bc 3b 90 7c bd 55 bc 06 be
       -0.004384949 -0.010779029 -0.061660986 -0.1315778

hidden_layers.0.bias f4 [128]
000000 8e d0 44 bd 29 b7 45 be b9 e2 c1 bd 0b 0b 77 3d
       -0.048050456 -0.19308151 -0.09467072 0.060313266
000010 69 72 67 be 9d 86 61 be 14 a5 0b 3e 22 9b 0f bd
       -0.22602238 -0.22024007 0.13637191 -0.035060056
000020 a3 a8 ae bc 41 9e 71 be 09 ea 02 be b1 16 77 be
       -0.021320647 -0.23595525 -0.1278459 -0.2412975
000030 e7 e9 1c 3d 30 d6 91 bc ed a1 b4 3d f6 87 19 bc
       0.038309004 -0.017802328 0.088199474 -0.0093707945
000040 76 df e7 3d 4b 67 de 3c b1 b1 05 be 85 10 3e be
       0.11321919 0.027148863 -0.13056065 -0.18560989
000050 54 86 05 3e 77 4f e7 3d 97 24 02 be 51 d2 06 be
       0.13039523 0.112944536 -0.1270927 -0.13166167
000060 6d 70 89 be 7c e0 dd bd a7 97 0b 3e 42 33 29 be
       -0.26843587 -0.108338326 0.1363207 -0.1652346
000070 2c c1 95 bd 8e a9 03 be 55 a9 c5 bc ba 94 85 3d
       -0.07312235 -0.12857649 -0.024128595 0.06522508
000080 1a 7a 13 bd 9a 4b 10 3e 12 58 42 3d a4 93 a2 3d
       -0.036005117 0.1409134 0.04744727 0.079383165
000090 1b b9 ac 3c 3d cc 8b bd 54 09 c4 bd 84 19 e3 bd
       0.021084359 -0.06826065 -0.09572092 -0.11088851
0000a0 f6 a5 f8 3d d6 e2 49 3d 04 cd 2e 3c 5e 3b 8e bd
       0.121410295 0.049288593 0.010668997 -0.06944917
0000b0 c8 70 ad bb 8d 31 4e 3d bb f7 85 be eb 82 05 bd
       -0.0052929856 0.050340224 -0.26165566 -0.032595556
0000c0 e0 e0 3b bc e7 14 a2 3c 8e f3 3d 3e 65 6b 2e 3d
       -0.011467189 0.019785358 0.1854994 0.04258289
0000d0 12 00 21 bd 9b cb 1d be 36 2d 61 3d 64 bf 67 3d
       -0.039306708 -0.154097 0.054974757 0.05657901
0000e0 19 b1 c9 3c dd 54 29 be 3c 40 54 be d0 3b 8b be
       0.02462058 -0.16536279 -0.20727628 -0.2719407
0000f0 57 a3 37 bd c0 70 1f 3d a0 db 95 bd 2a b9 e4 bd
       -0.044833507 0.038925886 -0.07317281 -0.1116813
000100 e9 82 28 3e bd fe 86 3d 59 5c 95 3d a7 90 03 3d
       0.16456188 0.06591556 0.072930045 0.032120373
000110 e2 27 d9 bd d7 aa 4f bd 21 88 87 bb a8 3f 1d 3d
       -0.1060331 -0.050700035 -0.004136101 0.038390785
000120 d1 ed 77 be bd b8 16 be 70 df 3e be 77 dd 06 3e
       -0.24211814 -0.1471891 -0.18639922 0.1317042
000130 24 7b 80 be 8a 5f 44 3e 56 e6 4b 3d 8f 48 28 be
       -0.2509395 0.1917707 0.049780212 -0.16433929
000140 2d 09 0b be d9 19 2d 3c 89 b9 6f bc ac 55 1d bd
       -0.13577719 0.010565245 -0.014631637 -0.03841178
000150 d5 70 c8 3e a7 3e 01 be 55 ef 08 bc 55 d7 33 bd
       0.39148584 -0.12621556 -0.008357842 -0.04390653
000160 3c 3e 4c be 1f 40 da bd 55 ff 98 bd b7 33 28 3e
       -0.19945616 -0.106567614 -0.07470576 0.16425978
000170 b0 9b d1 3d a0 39 66 bd b9 bc 50 bd b6 81 8f bd
       0.10234773 -0.0562073 -0.05096123 -0.07007162
000180 22 0b c2 bd e6 fd 92 3d 94 81 65 bc bb 6a 5c be
       -0.0947478 0.071773335 -0.014007945 -0.2152509
000190 a3 b7 10 3d 64 95 c0 3d 03 1d a8 bd f2 6c 02 3e
       0.03533138 0.09403494 -0.082086585 0.12736872
0001a0 2f c3 a0 3b 56 4b 13 be 91 6f f7 bd a5 a5 cd bd
       0.00490608 -0.14384207 -0.120818265 -0.1004136
0001b0 94 94 11 3e 72 09 80 3d 2a a9 84 3d 87 fc a5 bd
       0.14216834 0.062518016 0.06477578 -0.081048064
0001c0 16 52 54 be 9b 9a e2 3d 76 d1 cf bd f9 85 d4 bd
       -0.20734438 0.11064645 -0.101473734 -0.10377116
0001d0 24 a8 a9 bd 32 2b 9b 3e d1 5c 21 bc b4 f4 ac 3c
       -0.082840234 0.30306393 -0.009848789 0.021112777
0001e0 9f db 2d bd b7 b6 ef bd 0a de 81 bd b7 d0 bf bb
       -0.042445775 -0.11704772 -0.06341179 -0.005853738
0001f0 50 e8 d9 3d ed aa dc bd f6 91 80 3d 26 c2 d4 bd
       0.10640013 -0.10774789 0.0627784 -0.103885934

hidden_layers.1.weight f4 [128, 128]
000000 53 b4 63 be d0 ec a2 bd 9b 34 c7 3e e5 9c 86 3e
       -0.22236757 -0.07955325 0.38907322 0.26291576
000010 99 b1 c4 bd 47 ac a1 bc a0 e8 88 3c 3f 73 95 3d
       -0.096041866 -0.019735469 0.016712487 0.07297372
000020 31 35 1b 3e ec a2 2a be 70 c0 53 3e d8 0e 94 bd
       0.1515701 -0.16663712 0.20678878 -0.07229394
000030 17 1b 90 bb b4 94 05 be b4 33 57 bd a7 d4 bf be
       -0.0043977606 -0.13045007 -0.052539542 -0.37466928
000040 5a 50 a8 bb 41 9b b8 be e7 a9 1f be e0 7d ee 3c
       -0.005136532 -0.3605595 -0.15592156 0.029112756
000050 d4 14 bf bc 01 06 0f be 59 5c b6 bb 6f 1c 89 bc
       -0.023325361 -0.13967134 -0.005565208 -0.016737191
000060 c6 05 21 be f5 8a 14 3e c1 79 b4 3d 81 2e 3a 3d
       -0.15724859 0.14506133 0.08812285 0.045454506
000070 93 e4 85 bd 22 a3 bb 3c 49 10 14 be 1f c8 53 bd
       -0.06537738 0.022904936 -0.14459337 -0.051704522
000080 57 e8 78 bd 4d 60 cb 3b 54 4e 61 be bb ff 72 be
       -0.06076845 0.0062065483 -0.22002536 -0.23730366
000090 63 99 1e bd 35 67 95 3c 46 9c 68 be 10 b2 48 bd
       -0.0387205 0.01823769 -0.22715864 -0.04899794
0000a0 52 60 04 3e ff 15 44 be 1f 28 dd 3d 07 07 c4 be
       0.12927368 -0.19149016 0.10798668 -0.3828661
0000b0 ed a8 8d be 88 22 67 bc e8 b0 64 be 6f 19 23 bc
       -0.27667943 -0.014107354 -0.2233311 -0.009954794
0000c0 ec 53 3f 3d 0b 05 3f be 1b c6 b0 bd bb c4 ad be
       0.046710894 -0.18654267 -0.086315356 -0.33939156
0000d0 5a bf 94 be d0 31 f0 bd ba 83 9f bd 5c 6e f5 bd
       -0.2905224 -0.11728251 -0.07788797 -0.1198394
0000e0 fa f8 9b 3d 85 44 3c bd 88 1c f6 bd a5 cc 88 3c
       0.07615848 -0.045963783 -0.12017161 0.016699145
0000f0 af f7 1e 3e 03 fa 68 3e 2c 11 55 be f4 7b b0 be
       0.15524171 0.22751622 -0.20807332 -0.3446957
000100 a6 ad 2f bd 7e a7 f6 bd 0f d7 03 be 50 43 ee 3c
       -0.042890213 -0.12043665 -0.12875007 0.029084831
000110 f2 4d 99 bd 3e 38 a2 be 93 53 be bd a8 02 6d bd
       -0.0748557 -0.31683534 -0.09293284 -0.05786386
000120 16 45 5a be 18 8c 38 3e c1 87 5f 3c 05 f0 aa be
       -0.21315417 0.18022192 0.013643206 -0.33386245
000130 38 04 77 bd 95 91 9e be 3b cc 26 3e 4d ef a8 bc
       -0.060306758 -0.30970445 0.16288845 -0.02062192
000140 49 20 24 3e 90 08 d6 3d cb f3 8b 3e d5 67 98 be
       0.16027941 0.10450852 0.27334437 -0.29766718
000150 a8 3c 0c be 7b 3c 9c bc 13 16 9b 3c ce 8b b7 be
       -0.13695014 -0.019071808 0.018931424 -0.3584885
000160 7e 6b 69 bd cb 64 98 bd 49 f5 99 bd 92 f1 a0 3d
       -0.05698728 -0.074411 -0.075174876 0.07858576
000170 6c 6b 67 be 39 92 6f 3d 40 c5 a2 3d 80 58 bf bd
       -0.22599572 0.05848906 0.07947779 -0.09343052
000180 63 d1 83 bd 31 98 7d bd bb 36 d0 3c f4 95 13 be
       -0.06436422 -0.06191272 0.025416723 -0.14412671
000190 fb 91 15 3d d4 fc 4a be a4 6b 93 be 09 23 a1 3d
       0.03651617 -0.19823009 -0.2879306 0.078680106
0001a0 aa 28 0c 3e d8 da f6 be eb 8d 56 be db d3 95 3c
       0.13687387 -0.4821384 -0.20952575 0.018289497
0001b0 e2 3a 6e bd b1 85 25 3e 32 d5 be bd 6b 06 a6 3d
       -0.058161624 0.1616428 -0.093180075 0.08106693
0001c0 5c 8f 0c be a4 06 d5 bd 4f 96 90 3d a4 f5 0b be
       -0.13726562 -0.10401657 0.07059919 -0.13667923
0001d0 8f 4b a4 3d 26 3f 33 be e3 87 80 bd fc db c4 bc
       0.08022224 -0.17504558 -0.06275918 -0.024030678
0001e0 5b 0a b7 bd 89 d3 bd 3b 4e 7c 4b 3c 4a 1b f8 3c
       -0.08937522 0.005793039 0.012419773 0.03028645
0001f0 9a 56 2e 3e 7a bc 8d 3d 89 50 a1 be b9 23 81 3e
       0.17025223 0.06920715 -0.31506756 0.25222567
000200 76 05 60 bd 79 50 27 bd 26 1b 93 3c e5 36 0c bd
       -0.054692708 -0.04084823 0.017957281 -0.03423204
000210 cd 0d ae 3e ab 01 aa be b4 62 a2 bd 44 11 07 be
       0.33994904 -0.33204398 -0.079289824 -0.1319018
000220 30 b4 05 be 40 29 e3 bd ed a8 88 bd b0 8d 3b bc
       -0.13057017 -0.11091852 -0.06672845 -0.011447355
000230 1d 4f 8c bd a5 0f eb bd 20 69 71 3c 50 c9 4d bd
       -0.06851027 -0.11477593 0.014734536 -0.050240815
000240 63 d8 90 bc b8 8f db 3d d9 38 18 be b7 d1 d0 3d
       -0.017681306 0.107207716 -0.14865436 0.1019625
000250 fb 1f b5 bd 50 37 05 bd 70 d8 d4 3d 1c ba 89 be
       -0.088439904 -0.032523453 0.10392845 -0.26899803
000260 24 be 82 bc 89 50 99 bd 35 97 a6 3d 61 af a4 3e
       -0.015959807 -0.07486064 0.08134309 0.32165053
000270 2b 6a 47 3e 40 a7 50 be 76 85 ca be 06 9a 21 be
       0.19474094 -0.20376301 -0.39554948 -0.15781412
000280 cb 8d 92 bd a5 8e 94 bd 65 c7 d9 3a ea 8c 07 bd
       -0.07155951 -0.0725377 0.001661521 -0.03309337
000290 b6 87 9b bd e9 5d 30 3e 47 6b d3 bd 69 29 d9 3d
       -0.07594244 0.17223324 -0.10323196 0.106036015
0002a0 f2 9e 1d 3d aa ea 04 be 10 2c 61 be 56 b4 e1 bc
       0.03848166 -0.12980142 -0.21989465 -0.027551811
0002b0 06 63 fa bd 1e cb 0a 3e c9 f8 6a 3e 8e 91 7d bc
       -0.122259185 0.13554046 0.22946467 -0.0154765975
0002c0 b8 84 20 3e a2 ae 10 3d 40 a3 68 bb 04 da ad be
       0.15675628 0.035322793 -0.0035497695 -0.33955395
0002d0 20 c0 a5 bd 5d 75 a6 bc 55 d1 eb 3d c3 37 50 3e
       -0.080932856 -0.020319635 0.11514536 0.20333771
0002e0 1e 81 16 3d 8e 90 58 be 7c e6 45 3d f2 17 f4 bc
       0.03674423 -0.21148893 0.04831551 -0.029796574
0002f0 fb a9 ff 3d f2 41 bd bc 03 c9 de bd d5 49 4b be
       0.12483593 -0.023102734 -0.10878184 -0.19852383
000300 f7 8c c7 3d a6 fc ce bd 25 60 0a be b5 92 d4 3d
       0.09743684 -0.101067826 -0.13513239 0.10379545
000310 ee 32 4e 3e 1f a3 25 3c 82 21 23 bd ce ca 64 3d
       0.20136616 0.010109692 -0.039826877 0.055857472
000320 9f b0 3b 3e 5a 70 cc 3d 77 f3 61 bd e6 59 5c be
       0.18329094 0.09982367 -0.055163827 -0.21518669
000330 28 c7 7f be a0 25 23 bc 2a de 0a be 6c 1c a8 3c
       -0.24978316 -0.009957701 -0.13561311 0.020521365
000340 ff 4a 1b bd 1d 47 67 bd 1e ef 08 bc f5 33 d5 bd
       -0.03791332 -0.056464303 -0.008357791 -0.10410301
000350 dc b0 b0 3d 9b 9f 4f 3c 1a c9 6f be f8 41 5c 3d
       0.08627483 0.01267233 -0.23416558 0.05377385
000360 63 00 d7 3c b0 bd 1f be b5 37 dc 3d 41 d3 5d 3d
       0.026245302 -0.15599704 0.10752813 0.054156546
000370 34 ed cb bd 0b bb 35 bd ab 50 b1 3d cf 8c 8c be
       -0.09957352 -0.04436783 0.08657964 -0.27451178
000380 61 f5 0f ba 52 be 9c bd ba 7d 92 be 0f 59 55 be
       -0.00054915814 -0.07653488 -0.28611547 -0.20834754
000390 ee 97 1c be cd 12 e7 3d 92 d8 04 be 8d 84 02 be
       -0.15292332 0.11282883 -0.1297324 -0.12745877
0003a0 29 b8 cc 3d 2a 09 4d 3d e5 79 59 be 61 34 95 3d
       0.09996063 0.050057568 -0.21237905 0.07285381
0003b0 25 07 ff 3d 01 3f ac bc fa 12 a1 be ef ca b0 3b
       0.124525346 -0.021026136 -0.3145979 0.0053952853
0003c0 29 ca 4b bc 87 c6 83 3d 54 90 44 bd 68 1a 2f 3d
       -0.012438335 0.064343505 -0.047989205 0.042749792
0003d0 36 c4 03 be 13 04 48 3e b0 b1 6f 3d 52 98 b8 3d
       -0.12867817 0.19532804 0.058519065 0.09013428
0003e0 63 da 1b 3e 96 ec 3d 3e c4 e5 d6 3d d8 6f 98 bd
       0.15220027 0.18547282 0.10493043 -0.074432075
0003f0 72 fe 02 3d 62 ef 19 3c 80 30 17 be 67 0e 34 be
       0.03198094 0.009395452 -0.14764595 -0.17583619

hidden_layers.1.bias f4 [128]
000000 09 22 a8 bc 37 50 aa 3d b5 24 be 3d 8c c9 c8 3d
       -0.020524042 0.08316081 0.09284345 0.09804067
000010 4d 6b 0b 3c 37 67 77 bd 48 33 e1 3e 43 fc fb 3d
       0.008509469 -0.060401168 0.43984437 0.123039745
000020 cb 61 2f bd 36 d7 2a 3d 4b 14 20 be 12 3e 17 3d
       -0.042817872 0.041709147 -0.15632741 0.03692443
000030 6a 51 8c 3b 4c 0b 05 be 82 e0 4c 3d 41 d6 ef 3b
       0.0042821663 -0.1299259 0.050018795 0.007319242
000040 78 a5 81 bd fb 0b 3b be cb 81 bc bd ea 10 eb bd
       -0.06330389 -0.18266289 -0.092044435 -0.114778355
000050 1b 52 8d bd 29 6e da bd 42 39 a7 bc d0 4d ea ba
       -0.06900426 -0.10665543 -0.020413045 -0.0017875973
000060 50 86 37 be d6 40 2a be ae e0 12 3d 73 d8 50 bd
       -0.1792233 -0.16626295 0.035858802 -0.050987672
000070 68 dd 34 bd 10 d7 28 be 2b ce 9f 3c 62 70 8b 3d
       -0.044156462 -0.1648829 0.019507488 0.06808545
000080 11 3c 89 bc df 66 c8 3d 5d 61 bf bd 2e 4c 2b 3d
       -0.016752275 0.09785246 -0.093447424 0.041820697
000090 32 74 84 bd f3 b6 9f 3d 1f bd 22 be dd 20 75 3d
       -0.06467475 0.07798567 -0.15892456 0.059845794
0000a0 bc 7e bd 3d 77 ab f3 3c c1 91 bb bd 49 65 e9 3c
       0.09252688 0.029744847 -0.0915866 0.02849068
0000b0 d1 b4 cf bc 15 3c 83 3d 3f 9b 23 3e 35 1c 2d be
       -0.025354775 0.06407944 0.1597719 -0.16905291
0000c0 93 ac ed 3c f6 63 ff 3c 38 a0 56 3e 4a 0a 95 bc
       0.029012954 0.031175595 0.20959556 -0.018193383
0000d0 45 41 6d bd 82 98 36 3d 9c 27 10 bc ba a5 de bd
       -0.057923574 0.044579037 -0.008798506 -0.108714536
0000e0 18 07 1f bc d3 3a 0c bd 13 96 1b be 01 16 7c 3d
       -0.009706281 -0.034235787 -0.15193968 0.061544422
0000f0 18 bf a9 bd f4 38 12 bd 66 48 38 bd 08 40 fb 3e
       -0.08288401 -0.035698846 -0.04499092 0.4907229
000100 35 c8 25 be ed 56 53 bd d7 82 12 3e 63 81 38 3e
       -0.16189654 -0.05159657 0.14307724 0.18018107
000110 62 9b 24 bd 59 a7 38 bd 2d c6 bc bd 01 bb 4a 3e
       -0.040187247 -0.04508147 -0.092174865 0.19797899
000120 7b 33 2b 3d aa 71 b2 3c 1b 24 43 be 07 30 a2 bb
       0.041797142 0.021782715 -0.19056742 -0.004949573
000130 e5 bd 41 3d b8 1f 89 3c bd 24 cc bd ab 2a c9 bd
       0.04730024 0.016738757 -0.09967945 -0.098225914
000140 58 32 29 bd b2 a2 84 3b 18 d0 66 bd 08 ba ef bc
       -0.041307777 0.004047715 -0.056350797 -0.029263511
000150 0a 88 32 bd d4 cb ba bc 3e d8 26 3d 37 b7 21 3d
       -0.04358677 -0.022802271 0.04073357 0.039481368
000160 9b 7d 1c be 60 1d 78 bd a5 00 a9 bd 3c ab 1a 3e
       -0.1528229 -0.06057489 -0.08252076 0.15104383
000170 1e 92 ae bd 86 32 17 3e b3 d5 a2 3e 07 e0 26 3d
       -0.085239634 0.14765367 0.31803665 0.040740993
000180 7b ae b4 bd 49 e5 15 3e 50 38 19 3f 38 0a d1 bc
       -0.08822342 0.14638247 0.5985155 -0.025517568
000190 3f 89 dd 3d 1a e8 af bb fc eb 48 bc 90 ef 81 3d
       0.10817193 -0.005368245 -0.012263294 0.06344521
0001a0 5b 21 43 3d 9b 33 b3 3d 83 4a 8d 3d 5e 9e 43 3d
       0.047639232 0.08750077 0.068989776 0.047758453
0001b0 a0 d2 0b be 14 f7 c0 bd 18 72 a9 bd 7a 37 9c 3d
       -0.13654566 -0.094221264 -0.08273715 0.07627769
0001c0 ab 68 d0 bc 5a 9d ae bd ba c0 2d 3d b5 f5 ca 3c
       -0.025440535 -0.08526106 0.042420126 0.024775365
0001d0 fc 41 b5 3d 89 96 a4 bd 42 72 1a bd 34 75 7f bc
       0.08850476 -0.08036525 -0.03770662 -0.015591908
0001e0 58 6a 75 3e dc 6e 8d bd bb 52 a6 bd 75 c8 0e 3d
       0.23966348 -0.069059104 -0.08121248 0.03485914
0001f0 1f a3 b9 bc 61 3f d5 bd 2b 76 33 3d d7 f9 b1 bd
       -0.02266079 -0.10412479 0.043813866 -0.08690231

output.weight f4 [4, 128]
000000 2c bf 16 3d 43 82 74 3c 4d 75 6b 3e 68 62 9a 3e
       0.03680341 0.014923635 0.22993965 0.30153203
000010 36 ad 3a 3e 79 00 cf bc 32 b9 16 3e 8a 41 c8 3d
       0.18230137 -0.02526878 0.14719084 0.097781256
000020 69 ba 3b bc 3e f6 01 bd 94 23 f4 bd a2 ca 9f 3e
       -0.011458018 -0.031728975 -0.119208485 0.31209284
000030 5c 12 19 3e 70 51 a9 bd 53 13 f7 bd 55 e4 e5 3c
       0.1494841 -0.08267486 -0.12064233 0.028062979
000040 b4 fd d9 bd 4d f1 de 3d 58 08 63 be 04 85 fb 3d
       -0.10644093 0.10885868 -0.22171152 0.1228123
000050 80 2f e6 bd 7f 2d 93 bd eb 7b 55 3e 28 34 d6 bd
       -0.11239529 -0.07186412 0.20848052 -0.10459167
000060 b0 a0 56 be 90 b1 97 bd 1f 6e 8f 3c 2f 9a 3a be
       -0.20959735 -0.07406914 0.017508565 -0.18222879
000070 76 78 cf 3e 4a 49 69 bd 40 73 9c bd 3b 5b 78 3e
       0.40521592 -0.05695466 -0.0763917 0.24253552
000080 7e 9d 77 bc 48 23 9d 3d da 01 94 be 93 87 c8 3d
       -0.015113233 0.07672745 -0.28907663 0.09791484
000090 2d 28 54 3c ae 5b a8 3d 56 e5 96 bd d9 2c da 3d
       0.012949032 0.082206115 -0.07367961 0.10653085
0000a0 4f 62 02 3d 05 13 ac 3c af 6b 0e 3e a4 4a 53 3d
       0.031832036 0.021005163 0.13908266 0.051584855
0000b0 19 e3 e0 3d 47 e2 e7 3d 7b 9c f9 3d a1 dd 85 be
       0.109808154 0.11322456 0.121880494 -0.26145652
0000c0 44 a9 82 3d fa ac 0e bd f1 15 d8 3d c2 02 a2 3e
       0.06379941 -0.034832932 0.1055106 0.3164273
0000d0 9a 12 a8 3b aa 07 d0 bc d8 5a 95 3e 3f bd d1 3d
       0.0051291706 -0.02539428 0.2917087 0.10241174
0000e0 94 b3 a9 be 57 13 87 3d b2 2b 3a 3d 24 4b ec 3d
       -0.3314482 0.06595486 0.045451827 0.115377694
0000f0 19 21 73 bc 06 b0 a5 3d 79 3e 22 3e 1a 07 11 3e
       -0.014839434 0.080902144 0.15844144 0.14162865
000100 1c b3 e4 bd 61 20 ee bc 64 b5 92 3e a5 b6 1e 3e
       -0.11166975 -0.029068174 0.28654015 0.15499361
000110 1c 08 ea bc 16 ed ef 3b a9 cf a8 3c 40 b2 c4 3d
       -0.02856832 0.007321964 0.020606833 0.09604311
000120 ac a9 2e bc 96 66 96 bc 71 a7 50 be 9b 9a d8 3c
       -0.01066057 -0.018359464 -0.20376374 0.02644091
000130 bb ee fa 3d 92 f2 e7 be 63 07 b2 bd 1c 22 19 bc
       0.122525655 -0.45302254 -0.08692815 -0.009346511
000140 02 06 60 3c 14 10 d3 bd 2f 9b 19 3d 4f 04 2f 3c
       0.013673307 -0.10305801 0.03750151 0.01068218
000150 1d 43 ab bb 47 aa db bd 32 73 b1 3d 40 80 68 3c
       -0.0052265064 -0.10725837 0.0866455 0.014190733
000160 f9 24 33 be 43 1e 82 bd 4c 0d 08 be 62 f3 ad 3d
       -0.17494573 -0.06353428 -0.13286322 0.08493687
000170 2e 28 4b bd 9c a8 06 3e 76 bc 20 3e b7 8f 07 be
       -0.049598865 0.13150257 0.15696892 -0.13238417
000180 e2 9c 2f 3d df f6 1b 3e 5e 30 49 3e 36 b0 aa 3c
       0.042874224 0.15230893 0.19647357 0.020835977
000190 66 56 26 3d 0b 4a 8a be e9 55 01 3e fd 17 83 3e
       0.04060974 -0.27009615 0.12630428 0.2560424
0001a0 1e 3f 94 3e c1 6f 36 be ad 6c 88 be 02 7d da 3d
       0.28954405 -0.17816068 -0.26645413 0.106683746
0001b0 60 9a 9c 3d 7f 40 56 be 1b e0 2e bd b5 02 b7 3e
       0.07646632 -0.20923041 -0.042694192 0.35744253
0001c0 4b 3d 90 3c b9 fc 57 be 5f 18 9e 3d 7c 47 09 3e
       0.017607352 -0.210925 0.07719492 0.13406175
0001d0 15 97 9b 3d 62 c3 91 3d ac fe ac 3d 61 dc 9a 3e
       0.07597176 0.071173444 0.08447012 0.3024626
0001e0 cf 58 40 3e 77 b2 c2 bc 02 9f 19 bd 1f a4 9c bd
       0.18783878 -0.02376674 -0.037505157 -0.07648491
0001f0 fa 56 85 bd c6 0d 81 3b 42 be a8 3d dc 8b e0 bd
       -0.0651073 0.0039384095 0.08239414 -0.10964176
000200 0d 42 fd 3d 96 63 c1 bc 03 32 1b 3e b7 dd 93 3e
       0.12366114 -0.023607057 0.15155797 0.28880093
000210 98 df 2d 3e b5 af b3 3d 1f 3d df 3d fc 00 d7 3d
       0.16979825 0.08773748 0.1090033 0.10498235
000220 ba 39 ea 3d 32 a8 30 be 35 42 fe bd 02 75 9d 3e
       0.11436792 -0.17251661 -0.12414972 0.30753332
000230 d2 68 39 3c 18 70 93 bd dd 51 75 3e f5 cc 86 3d
       0.011316495 -0.071991146 0.2395701 0.06582061
000240 44 7c 00 be aa 3f 14 be db 8f a3 bd 07 ca 94 bd
       -0.12547404 -0.14477411 -0.07986423 -0.07265096
000250 01 e0 08 bd eb 8b 87 3c d4 d0 a3 3e 6a bc b1 bd
       -0.03341675 0.01654621 0.3199526 -0.08678515
000260 25 9f 83 bd 79 2e a6 bd c2 0a 80 3d 1f 54 2c be
       -0.06426839 -0.08114333 0.06252052 -0.16828965
000270 d4 40 ca 3e 64 b7 a6 bd 9c 44 6f 3d ff 3a 9e 3e
       0.39502585 -0.08140448 0.05841504 0.30904385
000280 54 27 6c be 0c 23 0d 3e 78 ec 8e 3d d6 a7 12 3e
       -0.23061877 0.137829 0.069786966 0.14321837
000290 a2 ec 09 bd 63 8b 20 3d b5 fd ee bc 93 4d 20 3e
       -0.033672936 0.03919543 -0.029173711 0.15654592
0002a0 19 d1 c4 bc 10 13 98 3d 24 1e 69 3e 8b 2a 1a bc
       -0.024025487 0.07425511 0.22765404 -0.009409557
0002b0 43 5b fa 3d fb 0c 6d 3c 4b e8 0b 3e 30 e8 f3 bd
       0.12224438 0.014468427 0.13662831 -0.119095206
0002c0 6c 8e 09 3d 3c 27 04 be 02 45 fc 3d 19 1a 89 3e
       0.03358309 -0.12905592 0.1231785 0.26777723
0002d0 6a ba 88 3e 37 07 21 3e e0 20 cb 3d 78 e2 d8 3d
       0.26704723 0.15725408 0.0991838 0.105900705
0002e0 c6 ae 9c bd 5f eb 06 3e 7d e6 4c be 5d 56 34 3d
       -0.07650523 0.13175724 -0.200098 0.044027675
0002f0 07 15 f3 bc 07 b6 f0 3c 89 34 8c 3d 47 74 37 3e
       -0.029673113 0.029383672 0.06845958 0.1791545
000300 1a d7 13 be c4 b7 bf bd f7 c7 7d 3e 61 7c ff 3d
       -0.14437523 -0.093612224 0.24783312 0.12474895
000310 fb 1d fc bd f3 66 07 3d e6 ad 36 be 05 86 f1 3d
       -0.12310406 0.033057164 -0.17839774 0.1179314
000320 b8 3f 1a 3d 9d 2c 1b 3e f0 e8 00 bd 0f de 95 bc
       0.037658423 0.15153737 -0.031472147 -0.018294362
000330 3c e4 6e 3e 5c a0 06 3e e8 bc d6 bd 17 e9 9b 3d
       0.23329252 0.1314711 -0.1048525 0.07612818
000340 3b 6a a6 3d f9 f1 c3 3d 1d 28 dd 3d a4 ad 2d 3c
       0.081257306 0.09567637 0.107986666 0.010600481
000350 86 6b e9 bd 4f 22 bd 3d a8 da 78 3d 23 0c 84 3c
       -0.113974616 0.092350595 0.0607554 0.016119068
000360 8d 2c 07 be 55 e3 b0 bd 9a a3 6c be f2 69 95 3d
       -0.13200589 -0.0863711 -0.23109284 0.07295598
000370 f9 cf d4 bc 71 a3 e8 3d 7a ca 42 3e 2e 39 e0 bc
       -0.025978075 0.11359299 0.19022551 -0.027371015
000380 4e 5c 94 3d e3 21 ef 3d a0 74 41 3e f8 b6 83 bc
       0.07244168 0.11676385 0.18892145 -0.016078457
000390 ab 52 8a 3d c3 ff 02 3d 9b 5c 2c 3e b9 10 a4 3e
       0.06754049 0.031982195 0.16832201 0.32044008
0003a0 d6 f3 84 bd a9 5b 22 3e 75 ca b1 bd 66 f9 80 bd
       -0.064918205 0.15855278 -0.08681194 -0.06297569
0003b0 83 e2 2a 3e fa fd 93 3d d4 be 62 be 7d b1 9c 3e
       0.1668797 0.072261766 -0.22143108 0.30604163
0003c0 3e 13 08 bd 23 0e 70 be 75 33 b4 3d ac 76 f5 3c
       -0.033221476 -0.23442893 0.08798877 0.029963814
0003d0 7e c5 11 3d 2e 54 a2 3b 72 69 d7 3d 2d 9e a2 3e
       0.035588734 0.0049538827 0.10518159 0.31761304
0003e0 1c 10 3f 3e e5 45 11 3e 43 71 c4 bb ec 91 86 bc
       0.18658489 0.14186819 -0.005994947 -0.016427003
0003f0 2d fa 66 be bd 8c 44 bd 16 5c ba bd 2a 2d 31 3d
       -0.22556372 -0.04798578 -0.09099595 0.043255962

output.bias f4 [4]
000000 a7 55 ec 3e bf e1 b3 3e 93 65 c2 3e 0b 04 ab 3e
       0.46159098 0.35133168 0.3796812 0.33401522
