checkpoints/state_size_37__action_size_4__hidden_layers_[128-128]__drop_p_0.0__seed_0__GAMMA_0.99__LR_0.0005__UPDATE_EVERY_100__BUFFER_SIZE_10000__BATCH_SIZE_64__TAU_0.001.pth (torch, 89687 bytes, 6 tensors)

hidden_layers.0.weight f4 [128, 37]
0.05597029 -0.04979357 -0.061760083 0.13677533 0.19834353 -0.20234405 0.1063651 0.14015041
0.19733925 0.018766345 -0.11041615 -0.041458327 0.1065803 -0.10432583 0.11487344 -0.07803185
-0.16970685 0.040865093 -0.109107785 0.16708392 -0.10303509 0.1612151 0.09295446 -0.04316963
-0.0033997663 0.07011442 0.11678145 -0.1063544 -0.036929213 0.16183476 0.096843645 -0.060824007
-0.064304575 -0.11628238 0.06943173 0.03271534 -0.09504399 0.050048888 -0.002270445 0.054291945
0.07347995 -0.12183118 -0.064325154 -0.078298524 0.10850304 -0.06316795 0.22737679 0.07356443
-0.19786322 -0.12186886 -0.007862944 -0.29686618 -0.22815508 -0.11517298 -0.043023374 0.084509395
-0.093050174 0.12822302 -0.029279998 -0.014108183 -0.14801827 -0.28024352 -0.04301587 -0.044545647
0.041911617 0.057264324 0.030206248 0.086155616 -0.019418806 0.09738593 -0.20948602 -0.17396556
-0.15352806 0.04993633 -0.1510891 -0.12563081 0.038045354 -0.22028282 -0.2966255 -0.044187207
-0.06680396 0.13786235 -0.1523324 -0.16719168 -0.17584966 0.09596246 0.0656488 0.067469425
0.006740109 -0.14815323 -0.2233095 0.10952739 -0.08522306 -0.18404047 0.0057671918 -0.11068429
0.021940406 -0.08460822 -0.07787633 -0.16908991 -0.03327407 0.05551646 -0.06846701 -0.36638966
-0.035734136 -0.043265767 0.19483195 0.021804307 -0.2576844 0.11874596 0.0024633415 0.13968451
-0.08485226 0.048320018 0.092146486 -0.17788598 0.0014326487 -0.24005623 0.028218007 -0.1856028
-0.39337683 -0.06670675 -0.072742224 -0.21668942 -0.04625286 0.0052206824 0.12013561 -0.07450108
0.014831882 0.090172224 0.028020604 0.19950533 0.01122597 0.08404957 0.025039906 -0.31070074
0.11536206 -0.1094882 0.10207563 0.06666707 -0.40403342 0.17788802 -0.15857738 -0.022412224
0.007023715 -0.17291978 -0.013213364 -0.012831304 -0.058568545 0.06176376 0.121151865 0.06738631
0.19749275 0.11147916 0.0025454834 0.122979 -0.031771276 0.22969472 -0.109776884 -0.052142426
-0.014576742 0.07197504 0.15353942 -0.0019656671 -0.12777826 -0.042837296 0.10152825 0.14650913
0.13808729 -0.043161426 -0.0027055077 -0.14685774 -0.02075048 -0.10501985 -0.092357926 -0.06337438
-0.07973564 -0.031059274 -0.1337058 0.023900384 -0.14285512 0.12522395 0.014194162 -0.081244044
-0.12008693 -0.0737913 -0.012156326 0.06527258 0.005701847 0.19416621 0.02868174 0.10226751
0.026107972 0.068597116 0.3735236 -0.027372409 -0.06860633 0.08495981 0.09149753 0.006538097
0.12790504 -0.049335543 -0.0018965988 -0.13277914 0.15412672 -0.09339116 0.059175253 -0.11891249
0.12754223 0.24595098 0.07831237 0.044290174 0.05580549 0.15356721 0.11028457 -0.06429353
0.10173604 0.051696654 0.049532983 0.36811134 -0.05538597 -0.01653712 0.1891914 -0.12777263
-0.06780967 -0.18691616 0.048087835 0.12449013 0.10368894 0.08310434 -0.02491914 -0.14300887
-0.02401771 -0.035926186 -0.10781987 -0.12744324 -0.083216704 0.038329266 -0.07681199 -0.1069029
-0.05851009 -0.1164325 0.02819565 0.024723241 0.015025437 0.03603472 -0.14410242 -0.019266585
0.004119477 -0.06751718 -0.06483242 0.059740376 0.2048539 -0.15383337 0.074098 0.07642669
00000000: 1a41 653d 58f4 4bbd 24f8 7cbd d50e 0c3e
00000010: 911a 4b3e 4733 4fbe f2d5 d93d 9783 0f3e
00000020: 4d13 4a3e e1bb 993c dd21 e2bd 35d0 29bd
00000030: c646 da3d c8a8 d5bd c442 eb3d 2acf 9fbd
00000040: a2c7 2dbe 2862 273d e773 dfbd 0c18 2b3e
00000050: 1004 d3bd 9215 253e e85e be3d a3d2 30bd
00000060: 9dce 5ebb 2698 8f3d 1d2b ef3d 56d0 d9bd
00000070: 1643 17bd 03b8 253e f655 c63d 9822 79bd
00000080: 1eb2 83bd 7525 eebd 3932 8e3d 8500 063d
00000090: 6ca6 c2bd 1000 4d3d bfcb 14bb 3b61 5e3d
000000a0: a87c 963d a082 f9bd e8bc 83bd fa5a a0bd
000000b0: d836 de3d 335e 81bd 76d5 683e f3a8 963d
000000c0: a89c 4abe 6296 f9bd 94d3 00bc d8fe 97be
000000d0: 7ca1 69be d0df ebbd 4739 30bd 4313 ad3d
000000e0: 1791 bebd e54c 033e 9bdc efbc 0226 67bc
000000f0: 1a92 17be 147c 8fbe 6931 30bd 7f75 36bd
00000100: 84ab 2b3d ff8d 6a3d 1873 f73c 5b72 b03d
00000110: 3014 9fbc 4672 c73d 8183 56be 0724 32be
00000120: 7636 1dbe 0a8a 4c3d 1ab7 1abe 5da5 00be
00000130: 72d5 1b3d d291 61be 4cdf 97be a5fd 34bd
00000140: 84d0 88bd ca2b 0d3e 06fd 1bbe 4c34 2bbe
00000150: ef11 34be f787 c43d e172 863d 692d 8a3d
00000160: 22dc dc3b 7bb5 17be 3fab 64be e54f e03d
00000170: 6d89 aebd 1b75 3cbe b6fa bc3b 72ae e2bd
00000180: 5ebc b33c 1347 adbd a07d 9fbd e825 2dbe
00000190: 644a 08bd 3a65 633d 6f38 8cbd 6d97 bbbe
000001a0: f55d 12bd 7237 31bd 0782 473e f29e b23c
000001b0: 36ef 83be 1531 f33d 0370 213b 7509 0f3e
000001c0: 06c7 adbd 36eb 453d 4cb7 bc3d be27 36be
000001d0: b7c7 bb3a 4dd1 75be 7329 e73c a90e 3ebe
000001e0: b068 c9be 8c9d 88bd e0f9 94bd d5e3 5dbe
000001f0: a473 3dbd 4212 ab3b a909 f63d 0694 98bd
00000200: 6c01 733c 37ac b83d 778b e53c 204b 4c3e
00000210: 22ed 373c 2e22 ac3d 7d20 cd3c 2b14 9fbe
00000220: f242 ec3d 593b e0bd 070d d13d bf88 883d
00000230: 78dd cebe 4728 363e 1c62 22be d799 b7bc
00000240: 3127 e63b e211 31be de7c 58bc 643a 52bc
00000250: 92e5 6fbd fffb 7c3d 781e f83d d501 8a3d
00000260: 8a3b 4a3e 304f e43d 20d2 263b 6adc fb3d
00000270: 9922 02bd 1835 6b3e b4d2 e0bd 4c93 55bd
00000280: 4ad3 6ebc a667 933d 7039 1d3e 6cd2 00bb
00000290: 4ed8 02be 2976 2fbd 0bee cf3d 7d06 163e
000002a0: c166 0d3e 09ca 30bd e34e 31bb e061 16be
000002b0: e9fc a9bc a614 d7bd 2726 bdbd 6dca 81bd
000002c0: 704c a3bd 0570 febc 2cea 08be bdca c33c
000002d0: 9d48 12be b53a 003e a18e 683c 4763 a6bd
000002e0: 23f0 f5bd e51f 97bd 542b 47bc a1ad 853d
000002f0: 8fd6 ba3b 82d3 463e f8f5 ea3c a171 d13d
00000300: 63e0 d53c a57c 8c3d 7c3e bf3e 1a3c e0bc
00000310: 7a81 8cbd 69ff ad3d 0f63 bb3d 883d d63b
00000320: 8af9 023e 1114 4abd 4c97 f8ba 41f7 07be
00000330: 65d3 1d3e dd43 bfbd c061 723d 6488 f3bd
00000340: 6e9a 023e 93da 7b3e 3c62 a03d 9d69 353d
00000350: 4c94 643d b940 1d3e e0dc e13d 54ac 83bd
00000360: fc5a d03d dfbf 533d 19e3 4a3d 1779 bc3e
00000370: 66dc 62bd db78 87bc 64bb 413e d4d6 02be
00000380: ccdf 8abd f366 3fbe c0f7 443d aef4 fe3d
00000390: de5a d43d 9c32 aa3d 3923 ccbc eb70 12be
000003a0: cac0 c4bc 5627 13bd aad0 dcbd 7b80 02be
000003b0: 856d aabd 26ff 1c3d 9b4f 9dbd e8ef dabd
000003c0: 47a8 6fbd 2a74 eebd 90fa e63c 6588 ca3c
000003d0: 402d 763c 2499 133d 968f 13be f5d4 9dbc
000003e0: adfc 863b 7346 8abd dcc6 84bd 53b2 743d
000003f0: 39c5 513e 7f86 1dbe b1c0 973d 9985 9c3d

hidden_layers.0.bias f4 [128]
-0.04652827 -0.09482265 -0.043776155 -0.1395522 -0.055118375 0.12598935 -0.093988635 -0.033625744
0.11717543 -0.06645151 -0.04659559 -0.001469777 0.034752756 0.009713172 0.092542425 -0.054896686
-0.1347613 -0.10733356 -0.059284627 0.06732086 0.029238619 0.1655429 0.0445179 0.0027281228
-0.16783325 0.019855546 -0.038219154 0.012626117 -0.111991785 0.0052710287 0.09657386 0.023997098
-0.17865266 -0.14106938 -0.16786513 -0.041433375 0.02149706 -0.051774193 -0.1523911 0.12695959
-0.1466041 0.051722936 -0.074948266 0.11618361 0.089250416 -0.16127485 0.085659936 0.019397257
-0.0764487 -0.026556956 -0.1694207 -0.09343797 0.03443513 -0.0035362253 0.07632716 0.06024609
-0.12382267 -0.034439664 0.11213396 0.21026927 0.06989018 -0.03944512 -0.012447854 -0.015829282
0.16167898 -0.12193509 -0.087154955 -0.120461576 -0.17596124 -0.12868237 0.060155418 -0.10693601
0.0036240797 -0.08952386 -0.16150689 -0.12740247 -0.14365838 0.106048934 -0.058210894 0.14749894
0.011668781 -0.060342487 0.03263447 -0.19902267 0.02081475 -0.06352553 -0.08317102 -0.021984663
0.00952143 -0.017942956 0.109461464 0.06394086 -0.16562404 0.013969643 -0.046339523 0.10799299
-0.036034066 0.12164024 0.07379658 -0.08676815 -0.08315849 0.05606178 0.08252702 -0.15441926
0.10810294 -0.064473055 -0.08113507 0.17955382 -0.100636534 -0.05726757 0.028901841 0.06015521
0.0041404744 -0.11999607 -0.13388872 -0.13949734 0.13262796 -0.15279004 -0.07238032 -0.172767
0.08192057 -0.14116944 0.042765543 -0.17274216 -0.059681974 -0.1076508 0.11284733 0.032691754
00000000: 6d94 3ebd 6132 c2bd a04e 33bd c6e6 0ebe
00000010: cec3 61bd 5a03 013e 1d7d c0bd 26bb 09bd
00000020: acf9 ef3d bb17 88bd 04db 3ebd 88a5 c0ba
00000030: e858 0e3d ff23 1f3c e286 bd3d 59db 60bd
00000040: defe 09be b3d1 dbbd 70d4 72bd 85df 893d
00000050: d485 ef3c 1484 293e 6758 363d 4eca 323b
00000060: 7bdc 2bbe 19a8 a23c b08b 1cbd c6dd 4e3c
00000070: f35b e5bd 98b8 ac3b 84c8 c53d 9095 c43c
00000080: b9f0 36be 7e74 10be d6e4 2bbe 0bb6 29bd
00000090: 9a1a b03c 2d11 54bd 6a0c 1cbe b201 023e
000000a0: 631f 16be 6edb 533d 7a7e 99bd acf1 ed3d
000000b0: ecc8 b63d 3c25 25be 7a6e af3d ffe6 9e3c
000000c0: 2391 9cbd f98d d9bc 9f7c 2dbe 685c bfbd
000000d0: da0b 0d3d 04c0 67bb 6a51 9c3d 9bc4 763d
000000e0: bd96 fdbd 9b10 0dbd 7da6 e53d d450 573e
000000f0: 9522 8f3d 3591 21bd 15f2 4bbc 69ac 81bc
00000100: 2d8f 253e 1bb9 f9bd 4c7e b2bd 8fb4 f6bd
00000110: 2f2f 34be 50c5 03be 8765 763d 4401 dbbd
00000120: f881 6d3b 4958 b7bd 1062 25be cb75 02be
00000130: 2f1b 13be 2f30 d93d 8c6e 6ebd f609 173e
00000140: 6a2e 3f3c af29 77bd b9ab 053d 99cc 4bbe
00000150: b283 aa3c ac19 82bd 9155 aabd 2e19 b4bc
00000160: c6ff 1b3c 1bfd 92bc 552d e03d 6df3 823d
00000170: 5999 29be eee0 643c 83ce 3dbd 6e2b dd3d
00000180: 7598 13bd 851e f93d a922 973d 80b3 b1bd
00000190: 004f aabd 09a1 653d ed03 a93d 1520 1ebe
000001a0: 1365 dd3d 730a 84bd 252a a6bd f5dc 373e
000001b0: 871a cebd 6691 6abd 8ec3 ec3c 4f65 763d
000001c0: d1ac 873b 80c0 f5bd 201a 09be 64d8 0ebe
000001d0: a0cf 073e fe74 1cbe 223c 94bd d5e9 30be
000001e0: f9c5 a73d b98e 10be ec2a 2f3d 52e3 30be
000001f0: 1675 74bd 0678 dcbd 801c e73d cae7 053d

hidden_layers.1.weight f4 [128, 128]
-0.076649204 0.035536446 0.10094847 0.03248535 -0.013736361 -0.00079281005 -0.014617212 0.11278129
0.07154058 -0.032888576 -0.0045252633 -0.18795544 0.021649066 -0.086732976 -0.017035527 -0.0045944997
0.052733265 -0.021506973 -0.14550918 -0.015156216 0.06186184 -0.02176207 0.065123156 -0.008597787
0.0016273595 0.046092268 0.012159454 0.029062571 -0.06981727 -0.00078887056 -0.038536817 -0.004411393
-0.02903187 -0.0074136215 -0.047446962 -0.05915136 0.086706504 -0.08826962 -0.10080772 -0.07118789
0.0996722 -0.02845199 0.015517613 -0.069093615 -0.027604666 -0.07014604 -0.037768938 -0.009829996
0.013684622 -0.11380358 -0.06870131 -0.12221325 0.050471384 0.14319885 -0.06712401 0.031095434
-0.037961897 0.067966565 0.052565537 -0.025763929 0.043788463 -0.033885486 0.078598924 -0.0446586
0.03067077 -0.06950559 0.010987929 0.030938257 -0.023847906 -0.108833045 -0.11562303 -0.013151395
0.014378726 -0.08487918 -0.02903351 -0.02315819 0.060724646 0.013781291 -0.04298634 0.09469243
0.030205805 -0.052436203 -0.017417047 -0.06524137 -0.032984238 -0.063011065 -0.050206285 0.062559836
0.011667256 -0.05709563 -0.049549315 0.0040026577 -0.07623648 -0.0908208 0.0476354 -0.058118563
-0.046876676 0.06668609 0.037720233 -0.086761184 -0.0007971407 0.0005746329 -0.008308559 -0.033468112
-0.07680764 0.10139525 0.010373074 0.022793207 0.0068785055 0.060269393 -0.07537556 -0.041708954
-0.053167526 0.044505138 -0.011004257 -0.0026673465 0.064104185 -0.020432567 -0.050292145 0.004824609
0.0077323937 -0.076717295 -0.0247299 0.008272499 0.05075034 -0.034215968 -0.046189867 -0.025726328
-0.018291272 -0.080424614 -0.068348885 -0.0179574 -0.009502632 -0.049718145 -0.04462749 -0.04579381
0.022948744 -0.0042979806 0.041998345 0.03426338 -0.09567015 -0.006774454 0.08049367 -0.03697381
0.09687863 0.051191486 -0.101963446 -0.023833532 -0.002150439 -0.05999935 0.039069243 -0.09282627
0.05288245 -0.06568802 0.020337185 0.009019615 -0.055305034 -0.095481075 0.039715413 -0.016620502
0.07450027 0.06853107 -0.08163351 0.052286886 -0.06434982 -0.06418891 0.004656957 -0.035755076
0.027541108 0.059428662 -0.007176707 -0.08726221 0.071436696 -0.0642703 -0.06338456 0.068133265
0.020018138 0.058632217 0.011653493 -0.079242356 -0.0026833646 9.459474e-05 -0.07891335 -0.0801462
0.009319339 -0.024440307 -0.042601075 -0.0762301 -0.030858252 -0.07096162 -0.018915016 0.03871468
-0.033479713 -0.016621603 -0.040902633 0.07213123 -0.056365706 -0.016586116 -0.040559705 0.06581491
-0.053405203 -0.03996722 -0.016229803 0.035980783 -0.0319387 0.07389342 -0.056358334 0.026196726
-0.023759153 0.0018635873 -0.040640708 0.03794574 0.007647232 -0.07086537 0.050505888 -0.108286195
-0.036306992 0.102802925 0.00601248 0.02200543 -0.020005416 -0.07088115 0.033154104 -0.042486243
0.017251944 0.02380425 -0.047832254 0.043444183 -0.08320271 0.035107516 -0.07833327 -0.043812465
-0.061276965 -0.057143033 0.020004727 0.05108062 0.060077127 -0.09687184 0.018826317 -0.075802416
0.015183548 0.0032596025 0.0323919 0.085468285 0.03918012 0.06911486 -0.06813774 0.047730897
-0.0036093292 -0.027576774 0.034242544 -0.05017366 -0.016811907 -0.015047208 -0.05274542 0.0048987004
00000000: 42fa 9cbd aa8e 113d 12be ce3d 5c0f 053d
00000010: 790e 61bc 95d4 4fba 087d 6fbc e1f9 e63d
00000020: de83 923d 2cb6 06bd a948 94bb 6477 40be
00000030: 6259 b13c 0fa1 b1bd 178e 8bbc 758d 96bb
00000040: d6fe 573d 642f b0bc 5c00 15be c751 78bc
00000050: d762 7d3d 5e46 b2bc 4a5f 853d bbdd 0cbc
00000060: 204d d53a 3fcb 3c3d 7238 473c a114 ee3c
00000070: 5bfc 8ebd 35cc 4eba c8d8 1dbd 728d 90bb
00000080: 3fd4 edbc f7ed f2bb bf57 42bd b248 72bd
00000090: 2e93 b13d b4c6 b4bd 4774 cebd f5ca 91bd
000000a0: f020 cc3d 2614 e9bc 963d 7e3c f480 8dbd
000000b0: 2e23 e2bc baa8 8fbd 9ab3 1abd fe0d 21bc
000000c0: 7735 603c da11 e9bd 46b3 8cbd f14a fabd
000000d0: 15bb 4e3d b8a2 123e 5078 89bd dabb fe3c
000000e0: ef7d 1bbd 0e32 8b3d f64e 573d e00e d3bc
000000f0: 885b 333d 82cb 0abd 79f8 a03d f0eb 36bd
00000100: 4441 fb3c f258 8ebd b706 343c 3a72 fd3c
00000110: af5c c3bc dce3 debd c4cb ecbd f378 57bc
00000120: bf94 6b3c 23d5 adbd afd7 edbc 3fb6 bdbc
00000130: 68ba 783d edca 613c 7212 30bd 1bee c13d
00000140: 2a72 f73c 58c7 56bd 32ae 8ebc 449d 85bd
00000150: 7b1a 07bd f20b 81bd 1ba5 4dbd 5f1f 803d
00000160: 0528 3f3c 1bdd 69bd 39f4 4abd ba28 833b
00000170: df21 9cbd 4100 babd 561d 433d bb0d 6ebd
00000180: c201 40bd b792 883d 8880 1a3d d9af b1bd
00000190: 35f7 50ba f6a2 163a 9f20 08bc dc15 09bd
000001a0: 534d 9dbd 50a8 cf3d d3f3 293c d2b8 ba3c
000001b0: 1665 e13b 0add 763d 805e 9abd 02d7 2abd
000001c0: 31c6 59bd 054b 363d 334b 34bc a6ce 2ebb
000001d0: 0e49 833d 3362 a7bc 23ff 4dbd c117 9e3b
000001e0: 0560 fd3b f51d 9dbd 5c96 cabc 6089 073c
000001f0: 97df 4f3d 0b26 0cbd 9631 3dbd 05c0 d2bc
00000200: 94d7 95bc a9b5 a4bd 80fa 8bbd 661b 93bc
00000210: edb0 1bbc 41a5 4bbd 51cb 36bd 4a92 3bbd
00000220: 01ff bb3c 13d6 8cbb 7506 2c3d c257 0c3d
00000230: b6ee c3bd 3dfc ddbb ded9 a43d da71 17bd
00000240: 4e68 c63d 2aae 513d 36d2 d0bd 8a3e c3bc
00000250: 61ee 0cbb e1c1 75bd 1207 203d b31b bebd
00000260: 459b 583d 7187 86bd 2b9a a63c 02c7 133c
00000270: 8887 62bd 958b c3bd a1ac 223d b827 88bc
00000280: 9993 983d 055a 8c3d 782f a7bd c62a 563d
00000290: d7c9 83bd 7a75 83bd 6399 983b ea73 12bd
000002a0: e49d e13c 786b 733d 952a ebbb 88b6 b2bd
000002b0: 674d 923d 26a0 83bd c4cf 81bd 7489 8b3d
000002c0: 14fd a33c 5628 703d 4bee 3e3c d149 a2bd
000002d0: 63db 2fbb 2a61 c638 539d a1bd b123 a4bd
000002e0: 24b0 183c 0a37 c8bc 777e 2ebd 871e 9cbd
000002f0: 72ca fcbc 5354 91bd aaf3 9abc 4993 1e3d
00000300: 0622 09bd 072a 88bc 8589 27bd 8ab9 933d
00000310: badf 66bd 9bdf 87bc ef21 26bd f8c9 863d
00000320: 6abf 5abd abb4 23bd 5df4 84bc 9660 133d
00000330: 27d2 02bd 6f55 973d ffd7 66bd 849a d63c
00000340: 8ea2 c2bc 9d43 f43a df76 26bd fe6c 1b3d
00000350: a295 fa3b dd21 91bd 43df 4e3d 27c5 ddbd
00000360: a4b6 14bd 578a d23d 5604 c53b bb44 b43c
00000370: 66e2 a3bc 232a 91bd 99cc 073d 0e06 2ebd
00000380: f353 8d3c 2101 c33c c1eb 43bd 87f2 313d
00000390: 2f66 aabd e6cc 0f3d 326d a0bd b374 33bd
000003a0: 8efd 7abd d00e 6abd f4e0 a33c ea39 513d
000003b0: 6f13 763d be64 c6bd a639 9a3c 4c3e 9bbd
000003c0: 6bc4 783c 0e9f 553b 5ead 043d ff09 af3d
000003d0: 557b 203d 178c 8d3d cd8b 8bbd 7981 433d
000003e0: 7f8a 6cbb b0e8 e1bc e941 0c3d e582 4dbd
000003f0: 20b9 89bc 9188 76bc 950b 58bd 4785 a03b

hidden_layers.1.bias f4 [128]
0.042601544 -0.05582981 0.068341374 -0.0111778965 -0.05677445 0.05471761 -0.083396755 -0.019509537
-0.051745165 0.07390506 0.040719446 0.05486416 -0.075434655 0.012975281 -0.06828473 -0.08246303
0.029531388 0.04399555 -0.0068087312 0.046870854 0.009236259 -0.06647422 0.073039725 -0.07383087
0.016803756 -0.10183747 0.01749973 -0.012908323 0.013239148 -0.09649852 0.07949205 -0.04221167
-0.030157916 0.03443813 0.000295418 -0.10156304 -0.024870938 0.043190036 -0.0023858189 0.074879274
-0.031680986 -0.02205461 0.02322898 -0.074383296 -0.07514924 0.018049743 0.0016744839 -0.06636919
0.08380988 -0.085582286 -0.04317981 -0.029607529 0.06587859 -0.04417364 0.017344726 0.0406282
-0.043726295 0.062130682 -0.05667308 0.012342605 -0.07413743 0.100510515 0.021018747 -0.033910193
0.07970081 0.018347384 -0.004920374 -0.119195044 0.04736953 -0.08398866 -0.0038974534 -0.036790453
0.046151698 -0.029576382 -0.055214252 -0.073971674 0.048511002 -0.110021755 -0.033027165 -0.061327204
0.0664227 -0.015561683 -0.027962368 0.027849603 0.0116510745 -0.041007277 0.029234884 0.017773831
0.018688304 0.012537224 -0.053756446 0.015514133 -0.010788758 -0.08548891 0.019494236 0.02593042
-0.056302622 0.025862679 -0.019974677 -0.05633539 -0.0029101418 -0.11768209 -0.04267697 -0.07395932
-0.008008132 0.060205735 -0.027325071 -0.010691817 0.074231 -0.03544635 0.102166206 0.05928364
0.049942363 0.0070285155 0.113710955 0.07513616 -0.030602654 0.023136973 -0.074582025 -0.049790043
-0.07403416 -0.094721 -0.026924945 -0.07718205 -0.05328293 -0.02157019 -0.10575303 0.011848991
00000000: f57e 2e3d cdad 64bd 90f6 8b3d 7f23 37bc
00000010: 538c 68bd 931f 603d ebcb aabd 77d2 9fbc
00000020: bdf2 53bd 895b 973d 6fc9 263d 3eb9 603d
00000030: 7c7d 9abd 4696 543c ddd8 8bbd 61e2 a8bd
00000040: cfeb f13c ae34 343d c71b dfbb a7fb 3f3d
00000050: ae53 173c a323 88bd da95 953d a434 97bd
00000060: 08a8 893c 2a90 d0bd 985b 8f3c 6e7d 53bc
00000070: 03e9 583c 04a1 c5bd bacc a23d 25e6 2cbd
00000080: bc0d f7bc ff0e 0d3d 55e2 9a39 4800 d0bd
00000090: 23be cbbc 09e8 303d 665b 1cbb 4e5a 993d
000000a0: ecc3 01bd dfab b4bc b44a be3c 4556 98bd
000000b0: d8e7 99bd 0edd 933c 5b7a db3a 92ec 87bd
000000c0: 84a4 ab3d c445 afbd 50dd 30bd 7d8b f2bc
000000d0: 5beb 863d 6bef 34bd 8716 8e3c c169 263d
000000e0: 581a 33bd be7c 7e3d 0822 68bd a338 4a3c
000000f0: 5dd5 97bd 75d8 cd3d 822f ac3c 6ae5 0abd
00000100: 2e3a a33d 414d 963c 173b a1bb 881c f4bd
00000110: 8d06 423d 3f02 acbd 6b6c 7fbb 96b1 16bd
00000120: 9009 3d3d 2b4a f2bc 5728 62bd 767e 97bd
00000130: 79b3 463d 1653 e1bd 7e47 07bd 3c32 7bbd
00000140: a008 883d 6ef6 7ebc 5611 e5bc da24 e43c
00000150: 26e4 3e3c 3ff7 27bd ff7d ef3c 6d9a 913c
00000160: 3718 993c ee68 4d3c b82f 5cbd fd2e 7e3c
00000170: 55c3 30bc cf14 afbd 60b2 9f3c 086c d43c
00000180: 949d 66bd f8dd d33c efa1 a3bc f0bf 66bd
00000190: 14b8 3ebb 4f03 f1bd 0cce 2ebd fc77 97bd
000001a0: 8a34 03bc 4a9a 763d d4d8 dfbc bb2c 2fbc
000001b0: 6c06 983d 3130 11bd 843c d13d 67d3 723d
000001c0: 5d90 4c3d 764f e63b 4ae1 e83d fde0 993d
000001d0: 6bb2 fabc c089 bd3c 76be 98bd a5f0 4bbd
000001e0: 399f 97bd 15fd c1bd b491 dcbc 9f11 9ebd
000001f0: 343f 5abd f8b3 b0bc 0b95 d8bd 4522 423c

output.weight f4 [4, 128]
-0.06618318 -0.065335065 0.070542395 0.06800215 0.0811377 0.10647561 -0.017372975 0.12936893
-0.04902122 0.006554792 -0.041331634 -0.01754629 0.015314137 0.013965213 -0.02910096 -0.0313932
-0.036763433 -0.05526994 -0.03807093 -0.060893428 0.05582255 -0.0687865 -0.07605052 0.053911
-0.029476684 0.0042999415 -0.017584363 0.03194145 0.03483826 -0.010382715 0.08797557 0.017050818
-0.020944554 -0.030873373 -0.09939236 -0.07328064 -0.08862029 -0.05088241 -0.053689793 0.02007447
-0.0066075367 -0.038459063 0.013213668 0.059219692 -0.00044983393 0.0030946692 0.0011883354 -0.016829588
0.047328588 -0.06520396 -0.07375856 -0.035152934 -0.032720372 -0.015333507 -0.028653186 0.019910004
0.10338498 -0.02085957 -0.065357335 0.003100863 0.046649847 0.03675172 -0.029645607 -0.016294938
-0.044987317 -0.04953049 0.008189535 -0.029493887 0.036906265 0.033739418 -0.027270338 0.013009392
0.07279049 -0.039979722 0.03707194 -0.026401576 0.06494947 0.0016233975 0.048919503 0.06834015
0.034279417 0.033557028 0.034658916 0.11305737 0.028907632 0.0014542375 -0.051631447 0.012644692
0.021086017 0.11465134 0.102176726 0.024471998 0.016613793 -0.08402155 -0.052908946 -0.09877672
-0.044105936 0.0018257456 0.0038768738 -0.06821991 0.09104499 -0.031232556 0.03580425 0.04338218
0.18744256 0.013193527 0.0026228325 0.05671376 0.054170154 -0.0409217 0.110731736 0.0706245
0.087596364 0.065622695 0.024839092 0.07851871 -0.028412215 -0.005844263 -0.00035935605 -0.046005297
-0.022030843 -0.0091751395 -0.057448927 0.08657025 0.030529656 -0.0033128313 -0.0019374813 0.13150464
0.02074678 -0.076628044 0.09021502 0.12639076 -0.054375134 -0.02136459 0.14796999 0.08266231
-0.043855805 0.040408354 -0.029013956 0.049267825 0.08132564 0.0047046356 -0.016363502 -0.052709915
0.028866462 -0.03412257 -0.0474855 -0.014037043 0.029988375 -0.0247586 0.032246802 -0.026935035
0.06372587 -0.005087992 0.094185494 0.04069515 -0.023367055 -0.013183615 0.06631342 0.058873728
0.088001974 0.04864949 0.059302878 0.087833315 -0.030716179 -0.044678986 0.040133536 0.05822891
-0.006649994 -0.05623765 -0.0048913714 0.030937416 0.05007714 0.003181748 -0.0010814035 0.03652503
-0.016912583 -0.035640936 0.03744159 -0.023745256 -0.051659994 -0.01980769 -0.05517875 0.052749917
0.11431898 -0.0062162867 -0.032552883 -0.06531935 -0.012334838 -0.040726785 -0.05787784 -0.05958008
0.12233798 -0.035356358 -0.024995513 0.03346562 -0.008074452 -0.028501244 -0.014437677 -0.059900463
-0.034623854 0.038639847 -0.059629496 0.016110534 -0.06736649 0.008746206 -0.020264974 0.061482687
-0.009061075 -0.028506353 0.058807526 0.059693288 -0.0007212967 -0.0057260366 -0.08925833 0.11257164
0.042749137 0.09321646 -0.0010918708 0.033294406 -0.071490064 -0.07749075 0.031520568 -0.07938411
0.007120029 0.07408516 -0.02532676 -0.036421042 -0.032065276 0.05075096 -0.06472941 -0.0074601094
0.05233288 -0.0005156456 0.0055446834 -0.051677577 -0.025435964 -0.0006134863 0.010639232 0.013740165
-0.018707326 0.023983536 -0.00032178283 0.008766952 -0.033766273 0.00790719 0.008037861 -0.071885645
0.032768276 0.0016100762 -0.06540188 -0.04939589 -0.07465286 0.05595379 -7.8355064e-05 0.042564932
00000000: 0c8b 87bd 64ce 85bd 8878 903d b644 8b3d
00000010: 862b a63d e20f da3d c551 8ebc 4a79 043e
00000020: 7aca 48bd 95c9 d63b 5c4b 29bd 3dbd 8fbc
00000030: 25e8 7a3c 59ce 643c 2365 eebc 2896 00bd
00000040: 4195 16bd bc62 62bd 43f0 1bbd 636b 79bd
00000050: 30a6 643d f0df 8cbd 60c0 9bbd c8d1 5c3d
00000060: 1679 f1bc 86e6 8c3b 150d 90bc 0ad5 023d
00000070: 90b2 0e3d 431c 2abc 892c b43d 28ae 8b3c
00000080: ea93 abbc 28ea fcbc 398e cbbd 2914 96bd
00000090: 8e7e b5bd 136a 50bd d4e9 5bbd 3773 a43c
000000a0: 0984 d8bb 4087 1dbd 247e 583c 5990 723d
000000b0: b0d7 ebb9 efcf 4a3b ebc1 9b3a 34de 89bc
000000c0: 9fdb 413d a789 85bd ba0e 97bd 86fc 0fbd
000000d0: cc05 06bd 6439 7bbc 16ba eabc 4e1a a33c
000000e0: 81bb d33d b0e1 aabc 11da 85bd d937 4b3b
000000f0: e913 3f3d f988 163d 58db f2bc f67c 85bc
00000100: 9f44 38bd 7ce0 4abd 662d 063c 2a9d f1bc
00000110: 062b 173d 5832 0a3d 0b66 dfbc 5825 553c
00000120: 2e13 953d c7c1 23bd bfd8 173d 1e48 d8bc
00000130: 3a04 853d 2ec8 d43a d15f 483d ecf5 8b3d
00000140: 9368 0c3d 1873 093d 82f6 0d3d 9f8a e73d
00000150: b3cf ec3c 1d9c be3a 7f7b 53bd af2b 4f3c
00000160: 95bc ac3c 52ce ea3d 0842 d13d 8079 c83c
00000170: a619 883c 7e13 acbd 0db7 58bd 734b cabd
00000180: 6da8 34bd db4d ef3a 2613 7e3b e1b6 8bbd
00000190: cc75 ba3d 6bdb ffbc 7aa7 123d 83b1 313d
000001a0: f1f0 3f3e aa29 583c d4e3 2b3b b04c 683d
000001b0: 86e1 5d3d 839d 27bd 52c7 e23d 94a3 903d
000001c0: b965 b33d 3165 863d 5a7b cb3c 6bce a03d
000001d0: bcc0 e8bc 3b81 bfbb f467 bcb9 0d70 3cbd
000001e0: 077a b4bc 5353 16bc 914f 6bbd be4b b13d
000001f0: 5419 fa3c 161c 59bb 16f3 fdba 27a9 063e
00000200: 27f5 a93c 2aef 9cbd a7c2 b83d 946c 013e
00000210: 76b8 5ebd cb04 afbc 7285 173e db4a a93d
00000220: 25a2 33bd 3b83 253d adae edbc 0fcd 493d
00000230: 0f8e a63d 5829 9a3b c00c 86bc 5ae6 57bd
00000240: 5c79 ec3c 1cc4 0bbd 2880 42bd a0fb 65bc
00000250: 2eaa f53c 8cd2 cabc 3915 043d dda6 dcbc
00000260: b582 823d 2cb9 a6bb 53e4 c03d f5af 263d
00000270: 446c bfbc 1700 58bc 55cf 873d 9425 713d
00000280: 613a b43d b044 473d 93e7 723d f4e1 b33d
00000290: 7fa0 fbbc 5001 37bd 1063 243d 7081 6e3d
000002a0: 31e8 d9bb 7359 66bd cc47 a0bb 7770 fd3c
000002b0: b01d 4d3d e084 503b e1bd 8dba 459b 153d
000002c0: 428c 8abc 3bfc 11bd 5a5c 193d 6985 c2bc
000002d0: 6e99 53bd bd43 a2bc 1d03 62bd 4c10 583d
000002e0: 1220 ea3d feb1 cbbb 2c56 05bd 27c6 85bd
000002f0: 0f18 4abc 21d1 26bd 5011 6dbd 3e0a 74bd
00000300: 568c fa3d d4d1 10bd 64c3 ccbc 3f13 093d
00000310: b54a 04bc 717b e9bc 028c 6cbc 305a 75bd
00000320: bed1 0dbd d144 1e3d 0f3e 74bd 3dfa 833c
00000330: 71f7 89bd 3f4c 0f3c bb02 a6bc 45d5 7b3d
00000340: e774 14bc 2886 e9bc 29e0 703d f380 743d
00000350: 6715 3dba 7aa1 bbbb 12cd b6bd f68b e63d
00000360: b819 2f3d 45e8 be3d 1b1d 8fba b75f 083d
00000370: 6269 92bd 78b3 9ebd b61b 013d 2394 a2bd
00000380: 224f e93b f6b9 973d 117a cfbc 3b2e 15bd
00000390: e156 03bd 3de0 4f3d da90 84bd ef73 f4bb
000003a0: 015b 563d 642c 07ba 2db0 b53b deab 53bd
000003b0: 155f d0bc 5ed2 20ba 2c50 2e3c 6e1e 613c
000003c0: 1b40 99bc 1f79 c43c f6b4 a8b9 43a3 0f3c
000003d0: 814e 0abd 298d 013c 3cb1 033c c838 93bd
000003e0: 0738 063d 3109 d33a 6cf1 85bd 5853 4abd
000003f0: 99e3 98bd cd2f 653d 8e52 a4b8 9158 2e3d

output.bias f4 [4]
0.0018865991 -0.023681663 -0.024833145 0.030995676
00000000: c347 f73a 0c00 c2bc e16e cbbc a5ea fd3c
