checkpoints/state_size_37__action_size_4__hidden_layers_[128-128]__drop_p_0.0__seed_0__GAMMA_0.99__LR_0.0005__UPDATE_EVERY_25__BUFFER_SIZE_100000__BATCH_SIZE_64__TAU_0.001.pth (torch, 89687 bytes, 6 tensors)

hidden_layers.0.weight f4 [128, 37]
-0.0109341275 -0.31452817 -0.078961596 0.14513041 0.17732559 -0.15281044 -0.23072359 0.078489326
-0.31961185 -0.10848491 0.013999151 -0.21016727 -0.029175822 -0.15974212 -0.06731865 0.13486208
-0.018101206 -0.077941425 -0.070041865 0.1493145 -0.06208652 -0.18063508 0.21584505 0.014431365
-0.1485255 0.028768124 -0.27215734 -0.18444218 0.034630086 -0.2591694 0.040988218 0.047884088
0.013689335 -0.06634572 -0.14246497 0.036379773 0.016178142 -0.0033589941 -0.041789375 0.010756603
-0.024935251 -0.05628984 0.202289 0.18287092 0.086227454 0.12255723 -0.08494825 -0.019685917
0.02970901 0.05053935 0.096012324 0.09114655 -0.07881359 -0.033589154 -0.054455046 -0.02774312
0.077412345 0.0022617881 -0.0141777955 0.0687302 0.10916882 0.11586963 0.31225315 -0.46375513
-0.50108355 -0.37434524 -1.9397174 0.057499655 0.10046773 0.11608017 0.14529958 0.16221642
0.013649046 0.002852684 -0.21038704 -0.08539152 -0.0720611 -0.16668333 -0.062798575 -0.17765445
-0.24600244 0.23663196 0.099244885 -0.8111002 -0.035163824 -0.1785451 -0.08035138 -0.05347133
-0.14353992 -0.24760726 0.13804373 -0.024631253 -0.02794689 -0.25961295 -0.08415349 0.08140036
-0.064311326 0.026843578 -6.861228e-05 0.018640198 0.07271573 0.1499753 0.014325549 -0.28942966
0.1429244 -0.1724113 -0.112883456 -0.051763576 -0.8593819 -0.081918664 0.03885856 -0.4361955
0.16466072 0.11314799 0.07078439 -0.272724 0.04829024 0.16965577 0.11122253 0.17552884
0.06968081 -0.049874682 0.10098746 0.07537199 0.17075998 0.011716717 -0.37695786 0.10614214
0.12608996 -0.08956901 -0.44934216 -0.040274065 -0.034854636 0.02257898 0.025438497 0.12027177
-0.40605405 0.18175007 0.25328663 0.06337471 -0.31879264 -0.07143569 -0.0762245 0.040080566
0.0127509935 -0.016151242 0.009143322 -0.00055822404 0.16783807 -0.08531842 0.012117209 -0.16264118
-0.29997948 -0.19045247 -0.071192205 0.1570681 -0.16340114 0.04766545 0.12812491 0.01531655
-0.03378935 0.09186105 0.013263608 -0.11345868 -0.029220901 0.07873628 -0.038945034 -0.07905769
0.14816083 0.059806377 -0.1093248 -0.051699284 -0.3638808 -0.1729416 -0.28363407 0.0014937858
0.109446034 -0.31232923 -0.043250456 -0.0919283 0.10484168 -0.0773542 0.076337226 -0.098680556
-0.026570838 0.029699195 0.10151468 0.06257825 0.032911733 -0.059650008 -0.06671919 -0.07095002
0.006858071 0.094042175 0.18043104 0.05104937 -0.036936603 0.14928634 0.1452825 0.023985494
0.10253364 0.061609898 0.13351677 0.060066078 -0.031568676 -0.15208255 0.08545832 -0.01373845
-0.10594082 0.06851839 -0.0822171 -0.07772232 0.011133146 -0.0049340976 0.15115832 0.25112408
-0.39080927 -0.40528947 -0.25116572 -1.4602156 -0.008092103 -0.0020443122 0.05493067 -0.14994453
0.032045852 0.020122955 0.1793074 -0.0036163095 -0.045953132 0.09697455 0.094336726 -0.017221838
-0.03390659 0.08537577 0.016664134 -0.027702084 0.07816786 -0.3155788 -0.14321336 0.14261003
0.10209986 -0.17847341 -0.14055993 -0.036110993 -0.07048713 -0.074033424 0.3449374 -0.15446247
0.024638386 0.018262524 0.13213986 0.25087965 -0.11384973 -0.17538361 -0.121268585 0.15119871
00000000: 0e25 33bc d609 a1be 9eb6 a1bd 119d 143e
00000010: d794 353e 577a 1cbe ce42 6cbe 03bf a03d
00000020: 2aa4 a3be 562d debd b25c 653c 1736 57be
00000030: 2202 efbc 7093 23be 5cde 89bd 4919 0a3e
00000040: fb48 94bc c19f 9fbd 1c72 8fbd e6e5 183e
00000050: 6f4e 7ebd 67f8 38be 7c06 5d3e 8871 6c3c
00000060: 1217 18be 21ab eb3c 3558 8bbe 69de 3cbe
00000070: 47d8 0d3d dab1 84be 43e3 273d 1b22 443d
00000080: 3c49 603c 44e0 87bd 56e2 11be f502 153d
00000090: 0688 843c 9222 5cbb 562b 2bbd 773c 303c
000000a0: 0345 ccbc 2d90 66bd d924 4f3e 8442 3b3e
000000b0: 0598 b03d 49ff fa3d 59f9 adbd 5c44 a1bc
000000c0: 4f60 f33c 5902 4f3d 1ca2 c43d 0bab ba3d
000000d0: 0569 a1bd c894 09bd 410c 5fbd 8a45 e3bc
000000e0: 5d8a 9e3d 823a 143b fc49 68bc 6bc2 8c3d
000000f0: e793 df3d 0e4d ed3d a5df 9f3e 5071 edbe
00000100: 0347 00bf 2eaa bfbe a948 f8bf c284 6b3d
00000110: 06c2 cd3d 71bb ed3d 6ac9 143e 101c 263e
00000120: 40a0 5f3c 18f4 3a3b b36f 57be c0e1 aebd
00000130: c594 93bd 09af 2abe 8a9c 80bd 0ceb 35be
00000140: 10e8 7bbe a64f 723e e740 cb3d 43a4 4fbf
00000150: f107 10bd 87d4 36be 448f a4bd c104 5bbd
00000160: 21fc 12be c28c 7dbe 565b 0d3e 7bc7 c9bc
00000170: e0f0 e4bc fdeb 84be aa58 acbd 3bb5 a63d
00000180: a8b5 83bd 10e7 db3c f0e3 8fb8 54b3 983c
00000190: fceb 943d 2093 193e b5b5 6a3c 2030 94be
000001a0: c65a 123e 968c 30be 712f e7bd 0b06 54bd
000001b0: 7400 5cbf f9c4 a7bd 272a 1f3d 0455 dfbe
000001c0: d29c 283e 22ba e73d 68f7 903d 7ba2 8bbe
000001d0: fdcb 453d 3eba 2d3e a3c8 e33d d5bd 333e
000001e0: d0b4 8e3d 6549 4cbd 83d2 ce3d a15c 9a3d
000001f0: b4db 2e3e 79f7 3f3c 9f00 c1be 0d61 d93d
00000200: ba1d 013e f56f b7bd 2d10 e6be 6bf6 24bd
00000210: bcc3 0ebd 8ef7 b83c 6564 d03c 0c51 f63d
00000220: 51e6 cfbe b11c 3a3e c9ae 813e 9aca 813d
00000230: ca38 a3be e04c 92bd 971b 9cbd 852b 243d
00000240: 8be9 503c 9c4f 84bc dfcd 153c c855 12ba
00000250: bedd 2b3e 6cbb aebd 4287 463c 698b 26be
00000260: e996 99be f905 43be 38cd 91bd 76d6 203e
00000270: a152 27be d93c 433d 2d33 033e 44f2 7a3c
00000280: b466 0abd a521 bc3d 9b4f 593c 065d e8bd
00000290: ac60 efbc 7d40 a13d d484 1fbd 00e9 a1bd
000002a0: 79b7 173e 88f7 743d aee5 dfbd a1c2 53bd
000002b0: 964e babe 9a17 31be 7c38 91be 22cb c33a
000002c0: 3e25 e03d 9ee9 9fbe 6427 31bd e844 bcbd
000002d0: 3cb7 d63d e16b 9ebd b156 9c3d 0819 cabd
000002e0: 16ab d9bc ba4b f33c eee6 cf3d 0729 803d
000002f0: 74ce 063d 9153 74bd 12a4 88bd 3e4e 91bd
00000300: abb9 e03b 2f99 c03d eac2 383e 2519 513d
00000310: d64a 17bd 85de 183e f0c4 143e 3a7d c43c
00000320: 28fd d13d a95a 7c3d 9fb8 083e d907 763d
00000330: 284e 01bd 87bb 1bbe c604 af3d 3c17 61bc
00000340: 80f7 d8bd 5f53 8c3d 7061 a8bd e12c 9fbd
00000350: cc67 363c 36ae a1bb 3fc9 1a3e 5693 803e
00000360: 2718 c8be 1a82 cfbe cb98 80be 58e8 babf
00000370: bd94 04bc def9 05bb fbfe 603d 0f8b 19be
00000380: 8342 033d e5d8 a43c 5c9c 373e 9bff 6cbb
00000390: 5a39 3cbd 989a c63d 9d33 c13d d014 8dbc
000003a0: a3e1 0abd 7ed9 ae3d 3983 883c 7bef e2bc
000003b0: 7916 a03d 8b93 a1be 86a6 12be 5d08 123e
000003c0: bb19 d13d bcc1 36be f1ee 0fbe 1fe9 13bd
000003d0: 8e5b 90bd d69e 97bd a39b b03e 692b 1ebe
000003e0: 71d6 c93c 4a9b 953c ac4f 073e 4c73 803e
000003f0: 0c2a e9bd c397 33be aa5b f8bd d6d3 1a3e

hidden_layers.0.bias f4 [128]
0.007350199 -0.02538371 -0.12673289 -0.10884391 -0.09680501 0.115719 -0.07685368 0.053801887
0.2020511 0.15959206 0.043342844 0.08659199 0.06688245 -0.15204634 0.034208033 -0.15749173
-0.10171655 0.10682917 0.034998298 -0.18089135 -0.16013952 0.011741476 -0.15348685 -0.022224084
-0.009623896 -0.048958488 0.17428154 -0.10795769 -0.20009471 -0.060994048 -0.16463356 0.09511902
-0.103836596 0.07978227 0.15571168 -0.093940996 -0.17737518 0.050583106 -0.14496356 0.069159806
-0.074660406 0.04715444 0.0834588 0.12963602 -0.11499758 -0.008036307 0.04197862 0.059806354
-0.04800137 0.1835489 0.124787256 -0.11572721 -0.026724229 -0.11888574 -0.11281658 -0.03260125
-0.07271059 0.08262528 -0.05308262 0.048870504 -0.14097035 0.15348892 -0.12343144 0.14758596
-0.11234912 0.1043924 -0.10374371 0.072858416 -0.0362805 -0.23101012 -0.10709957 -0.18218598
0.08302889 -0.15461513 0.14201565 -0.076780625 0.03634375 0.090949774 0.064859845 0.07702666
-0.02596248 -0.12693574 0.032808505 -0.044959307 0.013392597 -0.1717667 0.024093913 -0.14288972
0.04579676 -0.16102575 -0.058136716 0.05891827 0.12583259 -0.0024663499 0.14045212 0.07014614
-0.097591765 -0.1146716 -0.08636172 0.08420436 0.1495815 -0.14809933 0.11778198 -0.019848408
-0.18192984 -0.10140767 -0.16932988 -0.05629521 -0.11623822 0.1944322 0.045299254 -0.07466407
-0.107089125 -0.082344405 -0.07786107 -0.0069588306 -0.096506536 -0.08103752 -0.15033637 0.18646702
-0.121579245 0.20571761 0.095868185 -0.20515968 -0.06871755 0.043237682 -0.17209522 0.10714585
00000000: f0d9 f03b 80f1 cfbc 44c6 01be 8ee9 debd
00000010: b541 c6bd 15fe ec3d 7665 9dbd 5e5f 5c3d
00000020: 7ce6 4e3e 1a6c 233e 4488 313d 2457 b13d
00000030: aaf9 883d 09b2 1bbe b91d 0c3d 8345 21be
00000040: c450 d0bd 40c9 da3d 605a 0f3d 953b 39be
00000050: 9dfb 23be 525f 403c a82b 1dbe 480f b6bc
00000060: 8cad 1dbc b288 48bd dc76 323e ec18 ddbd
00000070: a1e5 4cbe e5d4 79bd b395 28be c3cd c23d
00000080: 48a8 d4bd e364 a33d e272 1f3e 2364 c0bd
00000090: d7a1 35be 3b30 4f3d 5471 14be a8a3 8d3d
000000a0: 8ee7 98bd 0425 413d 73ec aa3d 4ebf 043e
000000b0: da83 ebbd b7aa 03bc c6f1 2b3d 82f7 743d
000000c0: 169d 44bd 3ef4 3b3e 7690 ff3d 6302 edbd
000000d0: c5ec dabc 5e7a f3bd 610c e7bd e388 05bd
000000e0: 4ae9 94bd 7137 a93d 296d 59bd 702c 483d
000000f0: 885a 10be 332c 1d3e 9fc9 fcbd c620 173e
00000100: 4c17 e6bd afcb d53d 9577 d4bd cb36 953d
00000110: dd9a 14bd eb8d 6cbe 0557 dbbd f68e 3abe
00000120: 0d0b aa3d 6e53 1ebe 8d6c 113e 293f 9dbd
00000130: 2fdd 143d e043 ba3d 3dd5 843d 27c0 9d3d
00000140: 44af d4bc 71fb 01be 3662 063d 4027 38bd
00000150: a06c 5b3c 9ce3 2fbe 9960 c53c af51 12be
00000160: 6295 3b3d efe3 24be c420 6ebd 4954 713d
00000170: 42da 003e 7ca2 21bb aed2 0f3e c8a8 8f3d
00000180: 31de c7bd f2d8 eabd 6ade b0bd 5673 ac3d
00000190: e52b 193e 5aa7 17be ae37 f13d 2199 a2bc
000001a0: d14b 3abe d3ae cfbd d064 2dbe ce95 66bd
000001b0: 4e0e eebd 3c19 473e b68b 393d 7ae9 98bd
000001c0: 8b51 dbbd 2fa4 a8bd a075 9fbd e706 e4bb
000001d0: 38a5 c5bd 00f7 a5bd c7f1 19be 36f1 3e3e
000001e0: 8afe f8bd a3a7 523e 8a56 c43d 6115 52be
000001f0: c9bb 8cbd ff19 313d bb39 30be 496f db3d

hidden_layers.1.weight f4 [128, 128]
0.045203943 0.05351984 -0.10497333 -0.10547433 -0.12795822 -0.07739706 -0.0472015 0.036475472
-0.13028486 -0.086076364 0.01868324 -0.057639156 0.036755286 -0.03389589 0.030264216 0.10858218
-0.13393132 -0.018930208 -0.056308687 -0.061888386 0.05565797 -0.0022181836 -0.05733442 0.11882746
0.1070185 -0.12498969 0.0704747 -0.12405909 -0.08373046 -0.059857678 -0.03538884 -0.037530717
0.014398149 0.043412667 -0.08297567 0.07387902 -0.07894788 -0.023825621 0.15046997 -0.06553689
-0.07455498 0.104952455 0.10899953 -0.031859484 0.085440114 0.013985898 -0.079784684 -0.022336006
-0.08815369 -0.043423858 0.0033714997 -0.09852981 -0.040910278 -0.11924269 -0.088594854 -0.010131093
0.008112667 0.11819631 -0.0091139255 0.052311532 -0.0035050875 -0.08374697 -0.03152333 -0.06566578
-0.006519715 -0.11692569 0.014628485 0.030549688 -0.1083585 0.016647339 -0.11963294 -0.0010377358
-0.045619685 -0.0047779046 0.08148696 -0.11884627 0.022736773 0.08722099 -0.014838746 0.074326
-0.050443877 -0.024949908 -0.016895695 -0.07495435 -0.107413754 -0.03653193 -0.08022996 -0.058287185
0.005955509 0.048139416 -0.0027330082 0.06008238 -0.10041256 -0.06567804 0.011830082 -0.0075300783
-0.0057444535 -0.09554751 -0.014187437 -0.08939004 -0.07632298 0.087837644 0.0047440617 0.07683505
-0.075788595 -0.06170398 0.003057946 -0.04366033 -0.033705857 0.023897165 -0.055245407 -0.016193429
0.04312692 -0.1056641 0.07194139 -0.063474745 0.032880317 0.05291498 0.007971378 0.057727978
-0.05812777 -0.060772263 -0.07921235 -0.14072834 0.0515862 -0.047182232 -0.12815297 -0.05633907
0.089388035 0.39904866 0.035344914 -0.38519537 0.081090406 -0.040181506 -0.15654452 0.050654616
-0.045671284 0.046858415 -0.09424307 0.03136864 -0.095539585 -0.1564101 0.03132051 -0.1305945
0.06686683 0.34814557 0.019395964 0.111732796 -0.077511884 -0.076911226 -0.0608308 0.13833392
-0.09014431 -0.14150107 -0.08152615 -0.076217934 -0.053863022 -0.06829388 0.016728753 0.028708668
-0.078690715 -0.14937899 0.033662498 0.075217865 0.08308415 -0.0014662296 0.027356878 0.0140389325
-0.028669525 0.07574564 0.00045341504 0.26990965 -0.005735305 -0.02708232 -0.059692718 -0.11124497
0.12198287 0.08644922 0.01977303 0.03867641 0.07255449 0.11520362 -0.08056846 -0.026734756
0.051031344 -0.018308831 -0.056465063 0.12615913 -0.068063624 -0.09955329 -0.0685192 0.009898781
-0.045017134 0.095640644 -0.089532234 -0.031977378 -0.12819779 -0.09263981 0.08090178 -0.073152184
-0.024283191 -0.07032458 0.050369296 -0.10748102 -0.07403805 0.06639764 0.17314087 -0.025758142
0.051707588 -0.037906677 -0.02847955 -0.10084012 0.004344423 0.021995556 -0.048606813 0.055458497
-0.18737961 -0.089719586 0.2168913 0.24969874 -0.06297847 -0.07202464 0.101523 -0.009392718
-0.009594482 -0.0917654 0.021791397 0.06550828 -0.1275912 0.1372547 -0.034167517 0.00991529
0.07207034 -0.017743502 -0.023589892 -0.008201501 -0.004251118 -0.04168334 -0.023641028 0.047454618
0.015899433 0.0073094317 0.029985016 -0.34071934 -0.08251725 -0.14581563 -0.12358857 0.053448983
-0.030346418 0.040170312 0.09601955 0.081816226 0.18783751 -0.1271465 -0.020582065 -0.006681524
00000000: c527 393d 9f37 5b3d 42fc d6bd ed02 d8bd
00000010: 7b07 03be 5a82 9ebd 5c56 41bd 4e67 153d
00000020: 6569 05be ce48 b0bd 980d 993c 0917 6cbd
00000030: b68c 163d 6bd6 0abd a9ec f73c 5660 de3d
00000040: 4b25 09be 8613 9bbc f0a3 66bd ad7e 7dbd
00000050: 9df9 633d f25e 11bb 7fd7 6abd d05b f33d
00000060: 842c db3d 98fa ffbd 0a55 903d b112 febd
00000070: e07a abbd 532d 75bd e3f3 10bd cfb9 19bd
00000080: 37e6 6b3c 7bd1 313d 26ef a9bd e24d 973d
00000090: 6daf a1bd f32d c3bc cd14 1a3e 3438 86bd
000000a0: 48b0 98bd 50f1 d63d 253b df3d 177f 02bd
000000b0: 3afb ae3d 1c25 653c 2766 a3bd 00fa b6bc
000000c0: ec89 b4bd 37dd 31bd 61f4 5c3b ffc9 c9bd
000000d0: 8991 27bd 8335 f4bd 3871 b5bd e2fc 25bc
000000e0: feea 043c e810 f23d 9352 15bc 9e44 563d
000000f0: 9cb5 65bb 8883 abbd 9b1e 01bd c87b 86bd
00000100: 55a3 d5bb bc76 efbd 50ac 6f3c 5743 fa3c
00000110: 10eb ddbd 0060 883c 1d02 f5bd a304 88ba
00000120: b5db 3abd f88f 9cbb a3e2 a63d ac65 f3bd
00000130: 7842 ba3c eba0 b23d 361e 73bc 3b38 983d
00000140: 3d9e 4ebd c063 ccbc d768 8abc ab81 99bd
00000150: befb dbbd 81a2 15bd 9b4f a4bd 8bbe 6ebd
00000160: 6e26 c33b d62d 453d 451c 33bb f118 763d
00000170: 1aa5 cdbd 3582 86bd f6d2 413c e0be f6bb
00000180: f83b bcbb 6aae c3bd 6c72 68bc 2012 b7bd
00000190: 394f 9cbd 39e4 b33d 1374 9b3b b25b 9d3d
000001a0: 0d37 9bbd 50bd 7cbd d267 483b 2dd5 32bd
000001b0: 270f 0abd fdc3 c33c 0249 62bd 15a8 84bc
000001c0: daa5 303d 6b66 d8bd 0256 933d 0cff 81bd
000001d0: 83ad 063d 61bd 583d 629a 023c 2c74 6c3d
000001e0: 6217 6ebd 56ec 78bd 163a a2bd 171b 10be
000001f0: 0d4c 533d 2842 41bd 883a 03be ccc3 66bd
00000200: 1311 b73d 1b50 cc3e d4c5 103d 5438 c5be
00000210: ba12 a63d 5d95 24bd 354d 20be 377b 4f3d
00000220: d011 3bbd 9cee 3f3d 8302 c1bd 677c 003d
00000230: 42aa c3bd f829 20be ef49 003d 91ba 05be
00000240: 7af1 883d 2340 b23e 49e4 9e3c 2ad4 e43d
00000250: 8dbe 9ebd a283 9dbd b829 79bd 68a7 0d3e
00000260: 949d b8bd a8e5 10be 2ff7 a6bd 2618 9cbd
00000270: 799f 5cbd a9dd 8bbd bd0a 893c 712e eb3c
00000280: 9928 a1bd cef6 18be b0e1 093d d30b 9a3d
00000290: 0628 aa3d 802e c0ba 881b e03c 8d03 663c
000002a0: 5adc eabc 8820 9b3d 56b8 ed39 9931 8a3e
000002b0: 3aef bbbb bedb ddbc 5a80 74bd 67d4 e3bd
000002c0: 28d2 f93d 4a0c b13d 0dfb a13c 286b 1e3d
000002d0: 7397 943d e0ef eb3d 1401 a5bd d902 dbbc
000002e0: 3e06 513d 67fc 95bc e947 67bd dc2f 013e
000002f0: f164 8bbd 98e2 cbbd cb53 8cbd 7f2e 223c
00000300: e363 38bd 3edf c33d ad5c b7bd b6fa 02bd
00000310: 4846 03be f1b9 bdbd d5af a53d d0d0 95bd
00000320: 8bed c6bc 5506 90bd 0950 4e3d 021f dcbd
00000330: 43a1 97bd 7cfb 873d d74b 313e bd02 d3bc
00000340: 56cb 533d 0844 1bbd f24d e9bc 4485 cebd
00000350: a95b 8e3b 0630 b43c f017 47bd 7328 633d
00000360: 71e0 3fbe e7be b7bd c118 5e3e 07b1 7f3e
00000370: dbfa 80bd a881 93bd 4aeb cf3d eae3 19bc
00000380: 2d32 1dbc 7fef bbbd df83 b23c 3529 863d
00000390: 44a7 02be 7f8c 0c3e 3df3 0bbd be73 223c
000003a0: 9d99 933d d25a 91bc 973f c1bc 975f 06bc
000003b0: f64c 8bbb 26bc 2abd d4aa c1bc c65f 423d
000003c0: 873f 823c f583 ef3b 23a3 f53c c472 aebe
000003d0: cefe a8bd b150 15be 011c fdbd 52ed 5a3d
000003e0: 0d99 f8bc a089 243d e6a5 c43d 448f a73d
000003f0: 7a58 403e b132 02be b89b a8bc b0f0 dabb

hidden_layers.1.bias f4 [128]
-0.10112011 -0.03603628 -0.0936455 0.016132627 -0.09556987 0.115277745 -0.06761705 0.011382649
-0.037620377 -0.09403886 -0.077381834 -0.12801899 -0.012321934 -0.026428713 -0.041352995 -0.084600516
-0.052838147 0.06091089 -0.032125805 -0.13166094 0.025152123 0.010382987 0.00894626 -0.021680249
0.09030658 -0.0052485825 0.044377133 -0.022381052 -0.056916416 0.14943594 -0.016808795 -0.014019924
0.051953964 -0.122481056 -0.006733752 0.07472067 -0.10215938 0.15720004 -0.012342321 0.025885874
0.09461621 0.04696795 0.2703764 -0.1695416 -0.060513344 0.012594486 0.060771637 0.08795724
-0.067350484 -0.057298068 0.029471455 0.042027123 0.044542953 0.08890278 -0.0709225 0.013222427
-0.003412651 0.023639794 -0.108424954 -0.013227131 -0.09328109 -0.052581843 0.024447663 -0.10957662
-0.027448492 -0.023478044 0.2506304 0.081523724 -0.059730202 -0.0011579962 0.1066965 0.0134115415
-0.10039844 0.16699927 -0.015419613 0.021105697 -0.048303213 -0.06703648 0.07386815 0.13068913
-0.07931842 -0.06581978 -0.09184624 0.058263406 0.17568582 -0.052664626 -0.111068085 -0.0050560287
-0.035870437 -0.0030155026 0.008815375 -0.07142939 -0.045422014 -0.012045245 0.047136467 -0.015859107
0.012822772 0.055254955 -0.10027518 -0.07950976 0.052354 -0.13156527 0.040946156 -0.052585267
-0.0011075308 -0.048957508 0.2511831 -0.004014999 0.1325547 0.033469275 -0.059461325 0.1418947
-0.038853846 -0.08003766 -0.030571168 -0.047106754 -0.08689472 -0.10939883 -0.023401894 0.11665115
0.042105827 -0.08714831 0.017045178 -0.036903612 -0.11646367 -0.09732794 -0.040750496 -0.009199344
00000000: 0f18 cfbd c79a 13bd 36c9 bfbd 9228 843c
00000010: 23ba c3bd bd16 ec3d cf7a 8abd 4a7e 3a3c
00000020: d317 1abd 7297 c0bd 5e7a 9ebd 6917 03be
00000030: f0e1 49bc 0781 d8bc c261 29bd 0943 adbd
00000040: d06c 58bd b37d 793d 5996 03bd 20d2 06be
00000050: d30b ce3c 671d 2a3c 5693 123c c79a b1bc
00000060: a8f2 b83d 4dfc abbb ccc4 353d 7858 b7bc
00000070: 3021 69bd bc05 193e 99b2 89bc d3b3 65bc
00000080: aecd 543d 59d7 fabd cea6 dcbb 2707 993d
00000090: f038 d1bd 0cf9 203e 7237 4abc 9d0e d43c
000000a0: 25c6 c13d 7761 403d c76e 8a3e 509c 2dbe
000000b0: d7dc 77bd 1a59 4e3c aeeb 783d ed22 b43d
000000c0: 0def 89bd 61b1 6abd 1f6e f13c a224 2c3d
000000d0: ac72 363d a912 b63d d13f 91bd e1a2 583c
000000e0: c8a6 5fbb 3ea8 c13c e70d debd 9cb6 58bc
000000f0: 280a bfbd 0f60 57bd 7746 c83c b569 e0bd
00000100: a9db e0bc 0755 c0bc a152 803e e9f5 a63d
00000110: a8a7 74bd e8c7 97ba b283 da3d 15bc 5b3c
00000120: b39d cdbd db01 2b3e 8ba2 7cbc dbe5 ac3c
00000130: 97d9 45bd 6c4a 89bd 2f48 973d 5fd3 053e
00000140: b271 a2bd 85cc 86bd e219 bcbd 9ca5 6e3d
00000150: fce6 333e ddb6 57bd aa77 e3bd 0bad a5bb
00000160: e1ec 12bd bd9f 45bb 5d6e 103c 9249 92bd
00000170: 6f0c 3abd 6b59 45bc 2b12 413d f5ea 81bc
00000180: 9b16 523c 0553 623d 135d cdbd 03d6 a2bd
00000190: 2671 563d 0cb9 06be 28b7 273d a663 57bd
000001a0: 912a 91ba ab87 48bd 129b 803e 4190 83bb
000001b0: 6bbc 073e 1417 093d b88d 73bd d84c 113e
000001c0: 3625 1fbd c9ea a3bd 6370 fabc 03f3 40bd
000001d0: dcf5 b1bd 7e0c e0bd 54b5 bfbc cce6 ee3d
000001e0: 2977 2c3d d07a b2bd 54a2 8b3c 3e28 17bd
000001f0: 8184 eebd df53 c7bd fee9 26bd d8b8 16bc

output.weight f4 [4, 128]
0.041934058 -0.0021551365 -0.047961473 -0.13888094 -0.007345805 0.09074555 -0.008479194 0.29738805
-0.040295172 -0.038933042 0.009988063 -0.046642818 -0.21734563 -0.05364703 0.046420544 -0.010258465
-0.0059970785 -0.00081534183 0.06224291 0.01883818 -0.041335125 0.008650778 -0.14470808 0.057579707
0.08172583 0.03248429 0.06293787 -0.1447544 0.004721833 0.15619785 -0.010554405 0.06352738
-0.019928649 -0.015884293 -0.0883766 0.00092759327 -0.008365123 0.13407059 0.13284475 0.29744783
0.016989341 0.069644764 0.108278766 -0.06293195 -0.0042148526 0.4045917 -0.046114326 0.4329196
0.02655582 0.0029588484 -0.0016814342 0.0696519 0.13787447 0.12502593 0.0074813934 0.02574137
0.09803667 -0.025021423 -0.05044227 0.22375165 -0.009132479 0.06873832 0.10028887 -0.10294527
-0.031455744 -0.019973302 0.084014334 0.07240302 -0.10395135 -0.0070383954 0.007822428 -0.054680843
-0.01597526 0.040482413 0.13067026 0.27764937 -0.13950169 0.060658384 0.0029301064 0.07378522
0.0020024294 0.008334226 0.0002660051 0.22058438 0.068960674 0.047991157 -0.014661623 0.031027406
-0.06385762 -0.24359135 0.01762464 -0.112312935 -0.100658715 -0.040846147 -0.015608966 0.009470488
0.11818418 0.070615254 0.005151851 0.085315116 0.073082544 -0.044078216 0.08552755 0.2804793
0.11309586 0.006240865 0.09518416 0.081888236 0.09297364 -0.05313408 -0.07808055 0.21510027
0.0031009663 -0.048915137 0.09054821 0.21838568 -0.029087223 -0.0341529 0.052931122 0.03987272
-0.009747042 0.05625929 0.08531804 0.04744355 -0.017783264 -0.02439622 -0.0913886 0.16463467
0.03739046 0.092780806 -0.04459097 -0.029763294 0.00035296803 0.11989766 -0.01574456 0.24293604
0.00019449017 -0.039639212 0.05313669 -0.06484693 0.0045395936 0.038222924 0.0141276065 0.024064254
0.035137825 0.023798605 -0.03782891 -0.092165984 0.08220731 0.05132695 -0.09670186 -0.02990699
0.099511884 0.10254085 0.03763298 0.0041516097 -0.08283586 0.07909987 -0.016379457 0.09699626
0.06731873 -0.029657712 -0.008511635 0.093536854 -0.056346018 0.12823687 0.06779968 0.29900113
0.006037155 0.084523775 0.08455096 -0.13092631 -0.04110688 0.2199143 0.0917744 0.20052764
0.02980892 0.09659936 0.050127566 0.14376546 0.15722449 0.1157741 0.1352184 0.09889542
0.16202164 -0.052468397 -0.13585874 0.184603 -0.11337338 0.10679509 0.107711345 -0.10247997
-0.062004715 -0.04163453 0.076534234 0.056893196 -0.10553426 -0.030182777 0.120004155 -0.05120364
-0.022457235 0.09653419 0.124600835 0.22290803 -0.06888395 -0.07517006 0.045130163 0.044024393
-0.11991643 0.01966918 0.056669388 0.17052992 0.07688772 0.122763835 0.04910105 0.0638319
-0.0023450744 -0.06535884 0.020839075 -0.0633387 0.029965468 0.00037055791 0.041660395 -0.0015177703
0.15098792 0.09705578 -0.046258617 0.029047562 0.004662783 -0.0057240203 0.06549662 0.29061395
0.17815198 0.084197864 0.078944415 0.06844052 0.056125205 0.1765152 0.0008342263 0.145916
0.03175801 0.02461233 0.032884724 0.22755684 -0.063884765 0.03256722 0.083387464 0.04028183
0.012260161 -0.07093915 0.04974435 0.006391776 0.00615787 0.007190025 0.0038149175 0.11977902
00000000: 0cc3 2b3d 313d 0dbb 4073 44bd ce36 0ebe
00000010: 14b5 f0bb ced8 b93d 51ec 0abc 3f43 983e
00000020: 8d0c 25bd 4178 1fbd f9a4 233c 8a0c 3fbd
00000030: da8f 5ebe fdbc 5bbd 7823 3e3d 1f13 28bc
00000040: 2483 c4bb aabc 55ba 6cf2 7e3d 8752 9a3c
00000050: 054f 29bd febb 0d3c 5b2e 14be b3d8 6b3d
00000060: df5f a73d 3f0e 053d 92e5 803d 7f3a 14be
00000070: 9bb9 9a3b 54f2 1f3e 62ec 2cbc a51a 823d
00000080: 6841 a3bc c71f 82bc cafe b4bd bb29 733a
00000090: de0d 09bc cd49 093e 7408 083e 154b 983e
000000a0: 3b2d 8b3c eaa1 8e3d 42c1 dd3d 77e2 80bd
000000b0: bf1c 8abb a526 cf3e 60e2 3cbd a3a7 dd3e
000000c0: 978b d93c 3de9 413b 9263 dcba a8a5 8e3d
000000d0: f72e 0d3e cc06 003e 7a26 f53b 91df d23c
000000e0: 73c7 c83d baf9 ccbc 8e9c 4ebd 271f 653e
000000f0: 65a0 15bc adc6 8c3d 4064 cd3d f8d4 d2bd
00000100: bdd7 00bd 0d9f a3bc b50f ac3d 0948 943d
00000110: 72e4 d4bd 57a2 e6bb a429 003c 05f9 5fbd
00000120: 8cde 82bc e3d0 253d 6dce 053e 0f28 8e3e
00000130: 88d9 0ebe ed74 783d 0707 403b b51c 973d
00000140: 313b 033b 478c 083c 9a76 8b39 dfe0 613e
00000150: 413b 8d3d 6092 443d 4e37 70bc 302d fe3c
00000160: c9c7 82bd 0370 79be 8d61 903c 5304 e6bd
00000170: 2826 cebd 4a4e 27bd c0bc 7fbc 1b2a 1b3c
00000180: 8c0a f23d bb9e 903d dcd0 a83b b1b9 ae3d
00000190: 4dac 953d 5c8b 34bd 1129 af3d fc9a 8f3e
000001a0: cd9e e73d 2c80 cc3b eaef c23d 05b5 a73d
000001b0: f768 be3d 1fa3 59bd b2e8 9fbd 3f43 5c3e
000001c0: 9539 4b3b 3d5b 48bd 5771 b93d 7fa0 5f3e
000001d0: 5448 eebc e9e3 0bbd 4ece 583d 9451 233d
000001e0: 0fb2 1fbc 2470 663d 39bb ae3d 2b54 423d
000001f0: 35ae 91bc 95da c7bc f229 bbbd fe95 283e
00000200: bd26 193d dd03 be3d 05a5 36bd 27d2 f3bc
00000210: 910e b939 e88c f53d bcfa 80bc 3ac4 783e
00000220: 0ff0 4b39 ba5c 22bd dca5 593d 78ce 84bd
00000230: dfc0 943b a48f 1c3d 7a77 673c 6622 c53c
00000240: aeec 0f3d 4bf5 c23c 7df2 1abd 85c1 bcbd
00000250: 4e5c a83d 353c 523d a00b c6bd 81ff f4bc
00000260: e3cc cb3d f000 d23d 0a25 1a3d 3a0a 883b
00000270: d9a5 a9bd 1dff a13d 362e 86bc faa5 c63d
00000280: 67de 893d bbf4 f2bc 6274 0bbc 4090 bf3d
00000290: 15cb 66bd 8750 033e 8fda 8a3d ad16 993e
000002a0: 54d3 c53b cd1a ad3d 0e29 ad3d 8c11 06be
000002b0: b05f 28bd 3731 613e 37f4 bb3d 1e57 4d3e
000002c0: d631 f43c e3d5 c53d 9052 4d3d 4137 133e
000002d0: 75ff 203e f91a ed3d b176 0a3e af89 ca3d
000002e0: 00e9 253e 1ae9 56bd 8e1e 0bbe 9208 3d3e
000002f0: 4d30 e8bd 62b7 da3d c497 dc3d 05e1 d1bd
00000300: a8f8 7dbd f888 2abd fbbd 9c3d d708 693d
00000310: 5922 d8bd df41 f7bc bdc4 f53d e8ba 51bd
00000320: 3cf8 b7bc b8b3 c53d b92e ff3d 0142 643e
00000330: 0713 8dbd c3f2 99bd 68da 383d ec52 343d
00000340: bf96 f5bd 4321 a13c 291e 683d 659f 2e3e
00000350: 4f77 9d3d 9b6b fb3d 2f1e 493d 4dba 823d
00000360: d2af 19bb dbda 85bd b5b6 aa3c b8b7 81bd
00000370: 247a f53c 7147 c239 17a4 2a3d ecef c6ba
00000380: 949c 1a3e 2ec5 c63d ad79 3dbd 27f5 ed3c
00000390: 42ca 983b 9090 bbbb 1823 863d 5acb 943e
000003a0: 796d 363e ee6f ac3d 9cad a13d 8b2a 8c3d
000003b0: 8be3 653d 67c0 343e fbaf 5a3a 016b 153e
000003c0: b014 023d cc9f c93c 22b2 063d a904 693e
000003d0: 04d6 82bd 3565 053d 0cc7 aa3d 8ffe 243d
000003e0: d8de 483c 8c48 91bd bbc0 4b3d 1a72 d13b
000003f0: f5c7 c93b 4d9a eb3b b203 7a3b b44e f53d

output.bias f4 [4]
0.20753536 0.14828974 0.14021912 0.16409606
00000000: 2684 543e 44d9 173e 9a95 0f3e cc08 283e
