checkpoints/state_size_37__action_size_4__hidden_layers_[128-128]__drop_p_0.25__seed_0__GAMMA_0.99__LR_0.0005__UPDATE_EVERY_50__BUFFER_SIZE_10000__BATCH_SIZE_64__TAU_0.001.pth (torch, 89687 bytes, 6 tensors)

hidden_layers.0.weight f4 [128, 37]
00000000: fbae 37be 5b7c 633d 00eb 2bbe 5ebc 9e3c
00000010: 4ca6 d9bd 9cbf dfbd 56de 13bd b794 b6bd
00000020: 86cb 70be 272b 463e 95a5 e23c a88c 5abe
00000030: 21f8 ce3d 6864 34bc 8f33 1ebe 12ab 853c
00000040: e18e d73d 8be7 a7bd 3782 fabd b675 35be
00000050: 19a7 fdbb e54d ea3d a736 41be c118 f73d
00000060: 6d82 373d b939 62bd 3b7e e7bc 12c3 a7bd
00000070: 6f49 e63d 761f 193e 57e1 39be aaf2 27bd
00000080: 2e12 5abe ebb4 803d 4b70 16be c0f6 293b
00000090: 14b3 ff3c e029 e13c 30c6 003d fd86 b23d
000000a0: 1824 183d b896 e3bd fac1 95be eae2 703e
000000b0: 2371 a73e 8244 c13e 68b3 213e e62a 6abd
000000c0: cadc d4bc c260 c93c a810 cfbb c35b 80bc
000000d0: 7bf9 c6bc c9a2 503b 5290 eabc 5485 81bc
000000e0: 0ab5 40bc 07a5 16bd e4e9 2b3d 0852 103e
000000f0: 128c 0f3e 2275 413d fada 6abe eca3 f6bc
00000100: c8b0 043e 35e9 6f3d e439 88bd 44e6 76be
00000110: b52b bb3d 91c2 103e 42a3 843d e222 5b3d
00000120: d310 173c 8d79 73bc 3fad bd3d f2c8 3fbe
00000130: f488 83bc 5b19 fcbc 8b7c 293d eba8 a2bc
00000140: dfec d33d 3bc9 093e fb8b 10bb 85e4 ba3d
00000150: 7e83 2a3d dc17 fdbd 14ca 1ebe b3c9 923b
00000160: 0ce6 75be a946 943d 1352 403d 216a 773d
00000170: 6b72 7bbd 7319 803c 8b1a 283e 5f77 5abd
00000180: e6de 04be 944e 13be a860 d3be 08e6 563d
00000190: aa54 e93d 4f88 11bd be9b 31bd 1794 46bd
000001a0: 289d 123e 3ed3 6a3d 3a91 0ebc ee17 98bd
000001b0: d0ac 88be ea99 d03d dac9 6ebc 572a 61bd
000001c0: c126 0c3d 8c90 f43d 2ee1 863b 6b5a cb3c
000001d0: c418 1e3d fb67 3e3e 76a7 1a3c b5a6 1a3d
000001e0: 31bf d93e 4262 923c 9c21 193d 6345 dabd
000001f0: 5a58 f53d 59fe 913d 2788 e73d 6ec7 963d
00000200: 324d 81bd 5f1e 953c 705e bcbd 0950 82be
00000210: c8fd eebd efcb 553d f255 373d 1ab5 403c
00000220: 3083 09be 5170 b1bd a6fc bdbd a152 9e3d
00000230: 541b 4a3c ff56 6a3d e9b3 103c ca60 863e
00000240: 4668 4d3e 453d a53e 8f35 4839 29ad 90bc
00000250: c6c6 073d 5ea7 263b 368f 75bc c475 b13d
00000260: 0a0f aa3c f5b0 283d e504 98be 42ef 0cbe
00000270: 3f1a bebe a9d7 99bf 44b0 79bd 3ddb d4bd
00000280: bfe8 8dbd b49b a63d c3fa 1d3e c99d 4ebc
00000290: 96a0 df3b 81d6 67bd 01db 30bd c401 b4bd
000002a0: ed47 9fbd 7956 1c3d 7527 54bd bf84 523d
000002b0: a17e 913b dc08 18be c4b6 84ba 6a10 24bc
000002c0: 8cb9 653d 33f5 513d c280 02be d1ed 1dbb
000002d0: f433 543c e105 68ba dd72 f13c df60 06be
000002e0: 3252 da3c e262 10be 1fdd 2bbe 0972 15be
000002f0: 029b c4bd 4a7b 233d e404 d3bd 0443 68bd
00000300: cb5d 67bd 073a ad3c 7662 c0ba 4513 583d
00000310: 10f1 79bc 11d2 dcbd 5d0a c6bd 2f72 bd3d
00000320: 1f7c 503d 3608 a83d bed3 5a3b c4b2 5b3d
00000330: ed77 0b3e a261 46be f8ec 39be c943 79bc
00000340: dc76 a43d 0dbf 08be f2b9 28bd 2304 0f3d
00000350: 2c9c bebd 90eb 91bd ffcf 913d fe9d 6a3c
00000360: 8cb7 343d 19ed e93c 3ad3 a93c 719c 8dba
00000370: fa8d 9d3c c6e6 99bd c29a 13bd afd2 053d
00000380: dda8 01bd df81 d9bd 3a7b 723d af44 833d
00000390: 3070 06be aeb8 c73d b31d 0dbe c263 49bf
000003a0: 1c8e 82bb 3006 dbbd eac9 5d3c 5ecc 52bd
000003b0: 6a9a f0bd f70d 973d 14cd c63d fa96 e4bd
000003c0: 57f6 ffbc 3740 53be def8 56be f450 30be
000003d0: 2143 ad3d febf 8d3d e858 dbbd 867e bdbd
000003e0: 6e45 69bd 2506 1d3d 1a51 da3c 18ae abbe
000003f0: 072c 0fbe fb6c 4abd 58b5 053e 7679 71bd
-0.17937844 0.055538516 -0.16788864 0.01937693 -0.10627422 -0.109252185 -0.036100708 -0.08915084
-0.23515138 0.19352399 0.027666846 -0.21342719 0.101059206 -0.011010267 -0.15449356 0.016316924
0.10525299 -0.0819846 -0.12231868 -0.17720684 -0.007740867 0.114406385 -0.18868504 0.12065268
0.044802118 -0.05523083 -0.028258434 -0.081915036 0.11244475 0.14953408 -0.18152367 -0.041002907
-0.21295998 0.06284507 -0.14691274 0.0025934428 0.03121332 0.027485788 0.031439006 0.08717153
0.037143797 -0.11112732 -0.29249555 0.23524061 0.32703504 0.3774758 0.15791094 -0.057169817
-0.025984187 0.02458227 -0.0063191243 -0.015668755 -0.024288883 0.0031835309 -0.02863327 -0.015810646
-0.011761913 -0.036778476 0.041971102 0.14093792 0.14018276 0.047230847 -0.22935095 -0.03010746
0.12958062 0.058572013 -0.06651667 -0.24111277 0.09139196 0.14136721 0.064764515 0.053500064
0.00922032 -0.014860523 0.0926156 -0.18728998 -0.016056515 -0.03077381 0.04137854 -0.019855937
0.10347914 0.1345567 -0.002205609 0.09125618 0.041629307 -0.123580664 -0.15506774 0.004479611
-0.24013537 0.0724004 0.046953272 0.060403947 -0.061388414 0.015637135 0.16416375 -0.053336497
-0.12975654 -0.14385444 -0.4128468 0.05246547 0.113931015 -0.035530385 -0.043361418 -0.048481073
0.14317763 0.057330362 -0.008701617 -0.07426439 -0.26694345 0.10185607 -0.014574492 -0.05497202
0.034216646 0.11941633 0.004116199 0.024823388 0.038597837 0.18594353 0.00943934 0.03775664
0.4252868 0.017869119 0.037385568 -0.10657766 0.11979742 0.07128591 0.11305266 0.07362257
-0.06313552 0.018202959 -0.091977 -0.25451687 -0.11669499 0.05219644 0.0447597 0.011761928
-0.1342895 -0.08664001 -0.092767045 0.07730604 0.012335617 0.057211872 0.008831956 0.2624572
0.20059308 0.32273307 0.00019093438 -0.017660694 0.03314855 0.0025429348 -0.014987757 0.0866504
0.020759124 0.041184384 -0.29691234 -0.13763145 -0.371294 -1.2018939 -0.060959116 -0.10393379
-0.069291584 0.08135167 0.15427689 -0.012610861 0.0068245633 -0.05660105 -0.04317761 -0.08789399
-0.07777391 0.038168404 -0.05179544 0.051396128 0.004440144 -0.1484713 -0.0010125269 -0.010013679
0.056085154 0.05125923 -0.1274443 -0.0024098048 0.01295184 -0.00088509737 0.029473716 -0.13122891
0.026650522 -0.14100221 -0.1678357 -0.14594282 -0.09599878 0.0399125 -0.10303667 -0.056704536
-0.056485932 0.021145834 -0.0014677781 0.05275275 -0.015255228 -0.107822545 -0.096699454 0.092502944
0.05089962 0.08204691 0.0033390368 0.05363728 0.13619967 -0.19373181 -0.18156803 -0.015213915
0.08030483 -0.1335413 -0.041192956 0.034916054 -0.09307131 -0.07125008 0.0711975 0.014319895
0.044120356 0.02855544 0.020730603 -0.001080407 0.019232739 -0.0751472 -0.03603626 0.032671627
-0.03165518 -0.10620474 0.05919955 0.06409585 -0.13128734 0.09752022 -0.1378086 -0.78667843
-0.003984226 -0.106945395 0.01353691 -0.05146443 -0.11748202 0.073757105 0.09707084 -0.11161609
-0.031245394 -0.20629965 -0.20993373 -0.17218381 0.084600694 0.06921385 -0.10710317 -0.09252648
-0.05695098 0.038335938 0.02665 -0.3353126 -0.13981639 -0.049420338 0.13057458 -0.058953725

hidden_layers.0.bias f4 [128]
00000000: 4152 04be 38fd 15bd 0523 fdbc 0bbd 41be
00000010: 25d8 753c 781c 90bd 32f8 3bbe 4f6f 19bd
00000020: 88d4 673b f8a1 3b3c 17ff 25be 1fde a9bc
00000030: 71a2 223e ea0d 163e 20fa 5dbe 868d d3bd
00000040: 121e e2bc b000 653d ea64 67bd 8c52 503c
00000050: cff4 44bc cc97 25be edbc 4dbc 4455 67bd
00000060: 00ea c1bd 57f4 b5bd 79d9 28be aa1c a8bd
00000070: 37e7 ecbd 93bc 2bbd 6b96 0cbe a4e1 07be
00000080: 021a 60be 9268 18bd ebeb 8abb 6403 c33b
00000090: eaef 403b 3cdd ea3d dcee e0bc edd5 08be
000000a0: 298e 11be d0d2 8d3b 7b12 c43d aca0 2c3d
000000b0: e0e2 9dbd d3c5 eabd efac 18be 7d88 b43d
000000c0: e1da 4fbd 932e 203c 7ff5 373d 2b9c 59bd
000000d0: 06e8 c7bc e381 453e 4954 a53d bead 4bbe
000000e0: 7f40 51be cf59 673d 3dc2 45bd f9d1 3e3c
000000f0: c160 febc 5b85 19be 01cd 833d 11af aabd
00000100: 85ea 893c f2b3 093c 91d5 9cba 24c5 d73d
00000110: 3979 52be 6a96 bcbd 0b01 24be 8259 c7bd
00000120: b98d aa3d 7e7f 23be 5014 333d a7e3 1fbe
00000130: f5e0 fbbd 52ff 483c 878a 323d d8f1 b5bd
00000140: cf98 21be 2797 59bd ae88 1a3b 4438 723d
00000150: 96d0 43be 36d1 743b 6936 1cbe fa8d 98bd
00000160: 8386 15bd 98e9 5cbc a9dc 423c 3cf8 07be
00000170: fe69 46bd be52 a5bd 47b9 24bd e876 76bc
00000180: 5988 9cbd d040 13be 3dd8 bc3d 36d3 ab39
00000190: 300d 1ebe 65b7 e03d 77c5 16be a229 27be
000001a0: 73a0 b7bd 860a 4abe e6b7 0c3e 736f 8c3d
000001b0: 0d09 ea3c 4ad8 4dbd 61af 53bd 0bc0 f6bd
000001c0: 41f6 14be 2d17 943d d898 a7bd 4d87 41be
000001d0: d2df d3bd 1e59 c13d 99da 473d a620 513d
000001e0: a90b 05be dc3d 0fbe 295d 323d b751 703d
000001f0: c416 0cbd e660 cfbd 3677 c23d e972 51be
-0.12922002 -0.03661844 -0.030900488 -0.1891977 0.015005146 -0.0703668 -0.18356398 -0.037459668
0.0035374481 0.011452191 -0.1621059 -0.020735798 0.15882279 0.14653745 -0.21677446 -0.10329728
-0.02760223 0.05590886 -0.056492724 0.012714993 -0.012021258 -0.16171187 -0.01255725 -0.0564778
-0.0946846 -0.08884495 -0.16489209 -0.08208592 -0.11567538 -0.041927885 -0.13729255 -0.13269669
-0.21884921 -0.0372091 -0.0042395494 0.005951332 0.0029439875 0.11467978 -0.027457647 -0.13362856
-0.14214386 0.0043281093 0.09573837 0.042145416 -0.077092886 -0.11463513 -0.14909719 0.088150956
-0.05074585 0.009776729 0.044911858 -0.05312745 -0.02440263 0.19287829 0.08072717 -0.19890496
-0.2043476 0.056482133 -0.048280943 0.011646741 -0.031051995 -0.14992277 0.06435586 -0.083341725
0.01683546 0.008404719 -0.0011965503 0.105356485 -0.20554055 -0.09208377 -0.16016023 -0.09733869
0.08327813 -0.15966603 0.043720543 -0.15614186 -0.122987665 0.012267904 0.04358914 -0.08884019
-0.15780948 -0.053122666 0.0023580003 0.05913569 -0.19122538 0.0037356145 -0.15255131 -0.07448955
-0.036505233 -0.013483427 0.01189343 -0.13278288 -0.048440926 -0.080724224 -0.040215757 -0.015042998
-0.07643194 -0.14380193 0.09220932 0.00032773026 -0.15434718 0.1097248 -0.14723764 -0.16324475
-0.0896615 -0.19730577 0.13742027 0.06857195 0.028568769 -0.050255097 -0.051680926 -0.12048348
-0.14547063 0.07230983 -0.081834495 -0.1889927 -0.10345425 0.09440826 0.048792455 0.051056527
-0.12992729 -0.13988441 0.043545876 0.05867168 -0.0342014 -0.10125904 0.09495394 -0.20453991

hidden_layers.1.weight f4 [128, 128]
00000000: 2118 d63d 99b2 17bd 46d0 6abd ebfb 863d
00000010: f024 2a3c 4e30 c93c 501b 9fb9 3253 ca3d
00000020: 9828 97bd 7f15 59be bbfc 453d 4e33 d13c
00000030: b903 e93c 1c7f f03d c05b d33c db3e 003d
00000040: 5d50 67bc 6b77 433e 2fbb 063c 332a 4bbd
00000050: b693 dfba b490 2abe c8c4 923c 5a2b 263d
00000060: 6202 9c3a 78eb abbd c22d 15be 0c56 083d
00000070: 87d4 55bd 5507 21bd c373 953c 5225 6ebd
00000080: e393 6f3d 34d3 5eba 6df8 97bd 8628 e53b
00000090: 6323 e03c 9c72 06bd ac68 afbd bc89 5cbd
000000a0: c8d5 1cbd 25b4 0dbe cc62 82bd b4f3 073e
000000b0: 04b8 413d 4c78 0e3d 8141 22bd 1140 b6bd
000000c0: cd52 343c bea1 6d3d ba53 9fbd 7161 b7b8
000000d0: 3f43 03be 3cef 34bc e53f d3bc 9893 423d
000000e0: d3c7 c4bd fa89 6fbd 34e4 50bd 8c70 463d
000000f0: 550d fdbd 986b c3bd 1fd2 6a3d 3de5 49bd
00000100: 33d2 983d 1853 4dba a323 acbc d6ce 3fbd
00000110: be19 153d 7125 d6bd 7081 b63d a135 e6bc
00000120: c529 523b 9f9e 3f3d 2d17 cfbd c4e4 aebd
00000130: 3ef6 cabc 7168 6c3d 734e 0f3d 0644 cabd
00000140: 71b9 9abd 244d 82bd 9805 8bbd 1922 73bc
00000150: 3c38 29bd b83d 13be 7452 16bd c5bc bebd
00000160: a7f2 7a3d 3356 7f3d 203a 9fbd b08e 2cbd
00000170: 5733 84bd 0b98 dc3d aa89 c1bd b1be fd3c
00000180: 2f0b 353d 0d2b babd 71fd 96bc 6e2a 76bc
00000190: 3b1d 5c3d dd42 aebc 6d48 43be f24b 3ebd
000001a0: 0d1a ef3d 31cd 29be 0c0d 4dbd b3a8 7dbb
000001b0: 88d4 bcbd e29b 84ba 2bf0 c33c bea6 253c
000001c0: 56e9 d1bb 9a9a 533d afea 053e 64d3 37bd
000001d0: bce6 8f3d a11b d0bd 1b9e afbd 5db6 dcbc
000001e0: 9c95 ebbc f4b2 50bc 6c7a 6ebd 92a2 c4bd
000001f0: c869 83bd 03d7 cbbd a0f0 a7bd a93e 13be
00000200: a128 1bbd 4bbf 8abc 792e 15bd 5eb4 8dbd
00000210: b0b7 5dbd 3d76 92bd f063 6cbd c4f5 8bbd
00000220: 3f9f cbbd e005 b6bc 1ace 50bd 1376 be3c
00000230: 7b5d 913c a4d4 7bbd 3902 0f3c 258c 07bc
00000240: 9292 7fbd ada8 4a3d ede4 c2bc 35e5 c5bc
00000250: f2e2 0d3d 982a f53c d8ac 7fbd 1f32 353d
00000260: a4d2 30bd be85 58bd a2ea 70bd 236a 9cbd
00000270: dc1b 66bc 6d83 0bbd 0d56 4b3d 0a45 473d
00000280: 0f0e e33c f02d a23d 11cb edbd b697 c9bd
00000290: a0dd 6abd 98a0 3cbd ad50 403d 840a 6bbd
000002a0: c4a4 e1bc 3841 abbd 22d7 bcbc b1fd 323d
000002b0: 8347 b43b fdd5 64bd 8cff 0e3d 0a31 6fbb
000002c0: ed42 87bb fe70 adbc a976 56bb 6273 19bd
000002d0: e04f d2bd 9623 bdbb 6bc2 233d f268 46bd
000002e0: 201e 81bd 0482 283d bd22 053d 225e 10bd
000002f0: bc0b 00bd b2cf 04bc 288b 5cbb 8746 103d
00000300: 7c1a a0bd 966b d9bc 5961 863c ede5 8e3c
00000310: 012a c6bb 31ee c43c 4735 7cbc 866f 05be
00000320: cc0e 95bc 8236 9bbc 5262 573c 789c 36bd
00000330: 8d43 79bd e987 b8bd 6b17 7e3d 966a c33c
00000340: 8ab5 9ebd b6fa 84bd b33b 643d cc9d 02bc
00000350: aadd c0b9 b9b9 13bd 9c90 ebbc 2c85 adbc
00000360: c1b6 afbb 0090 c83c 98bf b9bb f978 91bc
00000370: 1ff4 06be 19ab 1fbd 8606 abbd ee7a fc3c
00000380: 9250 2cbd 327e a2bc 02bc a5bd 067c 42bd
00000390: aed0 95bd a6cf a03d a77e fdbd 03e9 a7bc
000003a0: 8a97 c1bd 435a da3c 8ab1 d2bc 5af7 283d
000003b0: 1d89 8dbd d081 9b3c e588 dbba 5548 6e3d
000003c0: dc9f a5bd 909b a1bd 6a52 623d a9a8 823b
000003d0: d569 643c 33e2 ac3c 20f7 073d f916 02be
000003e0: c4b0 b13d 18a9 843c 868e 9fbd be7f 4e3c
000003f0: b0e1 bdbd fdd5 8d3b 9784 0fbc a820 4dbd
0.10453821 -0.03703556 -0.05732753 0.06591018 0.010384783 0.024559166 -0.00030347193 0.098791495
-0.073807895 -0.21199606 0.048336726 0.02553716 0.028444158 0.11742994 0.025800586 0.031309944
-0.014118281 0.19088523 0.008223339 -0.04960079 -0.0017057571 -0.16656762 0.017916098 0.040568687
0.0011902566 -0.083945215 -0.14568236 0.033285186 -0.052204635 -0.039313633 0.018243676 -0.05814106
0.058490645 -0.00085000996 -0.0742043 0.006993356 0.027360624 -0.032824144 -0.085648865 -0.05384229
-0.038289815 -0.13838251 -0.063665 0.13276559 0.04729463 0.034782693 -0.03961325 -0.088989384
0.011006069 0.058015577 -0.077796414 -8.74427e-05 -0.12818621 -0.011043366 -0.025787303 0.047504038
-0.09608426 -0.058481194 -0.05099888 0.048447177 -0.123560585 -0.09542006 0.057329293 -0.049290884
0.07461967 -0.00078325113 -0.021013087 -0.046828113 0.036401503 -0.1045636 0.08911407 -0.028101744
0.0032068354 0.046782132 -0.10111842 -0.08539727 -0.02477562 0.05771679 0.034986924 -0.09876256
-0.075549014 -0.0636237 -0.06788176 -0.0148396725 -0.041313395 -0.14379013 -0.036699727 -0.09313349
0.061266568 0.062338065 -0.07774758 -0.042128265 -0.06455105 0.107711874 -0.094500855 0.030974718
0.04420012 -0.090902425 -0.018431397 -0.015024764 0.053738814 -0.021272117 -0.19070597 -0.046459146
0.11674891 -0.1658218 -0.05006127 -0.003870529 -0.092202246 -0.0010117257 0.023918232 0.010110555
-0.0064059896 0.05166111 0.13077806 -0.044879332 0.07026431 -0.1016152 -0.08575078 -0.026942426
-0.028757863 -0.012737978 -0.05822222 -0.0960132 -0.064166605 -0.099531196 -0.082001925 -0.14379372
-0.037880544 -0.016936919 -0.036421273 -0.06919168 -0.054130256 -0.071514584 -0.057712495 -0.068339854
-0.09942483 -0.022219598 -0.050977804 0.023249662 0.01774477 -0.061482087 0.008728557 -0.008273159
-0.06239564 0.049477268 -0.023790801 -0.024157146 0.03464026 0.029927537 -0.062420696 0.044237252
-0.043169633 -0.05286192 -0.058817513 -0.076374315 -0.014044728 -0.034060884 0.04964261 0.048649825
0.027716665 0.07918918 -0.116109975 -0.0984339 -0.057340264 -0.04605159 0.04695194 -0.057383075
-0.027544387 -0.08362049 -0.023051802 0.04369897 0.005501689 -0.055868138 0.034911677 -0.0036497735
-0.004127851 -0.021172043 -0.0032724536 -0.037463553 -0.10269141 -0.0057720644 0.039980333 -0.048439927
-0.06304574 0.041139618 0.032503832 -0.035246022 -0.03126119 -0.008106159 -0.003365228 0.03522351
-0.078175515 -0.026540559 0.01640384 0.017443622 -0.0060474877 0.02403936 -0.015393562 -0.13030824
-0.018195532 -0.01894689 0.013146 -0.044582814 -0.060855437 -0.09010298 0.062034052 0.023854535
-0.077494696 -0.06493132 0.055720996 -0.007972192 -0.00036786246 -0.03606579 -0.028755479 -0.021181665
-0.005362362 0.024482727 -0.0056685917 -0.01775788 -0.13179062 -0.03898153 -0.083508536 0.030820336
-0.042069025 -0.019835565 -0.080925 -0.04748156 -0.07315193 0.07852106 -0.12377673 -0.02049685
-0.09452732 0.026654368 -0.025719423 0.041251518 -0.06910918 0.018982798 -0.0016749172 0.05817445
-0.080871314 -0.07890999 0.055254377 0.003987391 0.013941248 0.021103954 0.03319466 -0.12704076
0.086762935 0.016193911 -0.07790856 0.012603698 -0.09271562 0.004328488 -0.008759639 -0.05007997

hidden_layers.1.bias f4 [128]
00000000: bd92 db3c bca9 73bd c46b 6a3d 15c7 2f3d
00000010: 3f65 ba3d 626d a33d 3da8 023d b8d5 8dbd
00000020: e88a c63d 34de 06be d77c f93d 7953 fcbd
00000030: 24f8 80bd 133d 09bd 93de fa3d 3b6f a3bd
00000040: ee46 1d3e 1c05 b1bd bc15 4bbd 07e2 393e
00000050: 2815 1b3e 1623 9e3d 6d8b 00be 5e6e 043e
00000060: dec1 9fbd 9648 12bd cf00 4c3e 38ad 8f3d
00000070: 2d5c 09be 1daf d83d 718e 273d 9d13 103e
00000080: 3971 09be d7e9 13bd 8b8a 2e3e a206 77bd
00000090: 06e8 9cbb 58a3 e6bd 372a b93d d844 d53d
000000a0: da3e 2a3e 3517 fb3d 04d0 e43d 2b29 23bc
000000b0: 2cb4 203e bf6c bfbd 41d2 e63d 9931 b5bd
000000c0: 2b2f b6bc 37d2 dfbd e8ec 263e f08d a13d
000000d0: 7710 383e 5b79 fc3d b4bf ee3d bb95 1c3e
000000e0: 46d8 b23d 340d df3d 0fdc 323d 547d e43d
000000f0: 7afe 1e3d 5ad4 213d 936b b73d ca5f d339
00000100: 392d c1bd 1c84 9cbd 985f 35bd f817 8e3d
00000110: e08b c8bc 5089 1d3e 03ff 013e 80d5 c2bb
00000120: 126a 3f3e abb6 babd a1ac 4d3e 9e4f 963d
00000130: f7f1 233e b9c3 83bc 8a45 febd 37a4 1bbd
00000140: 72cb fcbc 5391 dfbc d2f8 d3bd 6fe6 033d
00000150: 17f4 84bc 59b8 0d3e 2f9d 2b3e 29fd 373e
00000160: 0427 4f3e 50b1 353e c2c2 4abc a0b1 293e
00000170: 5de3 ddbc 10be 1cbc 1bfb cf3d 453c d43d
00000180: 9f84 3ebd 6f2d 053e a339 9abd efdc ff3c
00000190: 1f90 a0bd 3e04 b23d 2b5a c6bd 71ae 9abd
000001a0: d4ef 113e 575d a6bd 5e45 8c3d 7bb4 9a3d
000001b0: 965f 33bb a616 23bd 38ca 4a3e 0f02 bfbd
000001c0: b578 153e 9e05 4b3e 7600 9f3d 333b 413e
000001d0: 5364 593e dc2a a63d fd4a 89bd 0afc 183e
000001e0: 7649 223a 7191 9d3d e0a9 2a3e c2bc adbd
000001f0: 6428 da3d b65e 3d3e e392 293e 6fb0 edbd
0.026803369 -0.059488043 0.05723168 0.04291447 0.091013424 0.079798475 0.031898726 -0.06925529
0.09694463 -0.13170701 0.121820144 -0.12320609 -0.06297329 -0.03350551 0.12249484 -0.079802
0.15359089 -0.08643553 -0.049581274 0.18152629 0.15144789 0.07721536 -0.12553187 0.12932727
-0.07800649 -0.035713755 0.19922183 0.07015461 -0.13414069 0.10580275 0.040907327 0.14069982
-0.13422097 -0.03611168 0.17045037 -0.06030906 -0.0047884015 -0.11261624 0.09041255 0.104135215
0.16625538 0.12260286 0.11172488 -0.009958546 0.1569373 -0.093469135 0.112705715 -0.088473506
-0.022239288 -0.10928767 0.1630131 0.078884006 0.17975031 0.12327834 0.11657658 0.15291493
0.08732657 0.1089119 0.043666895 0.11156717 0.038816907 0.039509155 0.08956065 0.00040316425
-0.09432454 -0.07642385 -0.04428062 0.069381654 -0.02448076 0.15384412 0.12694936 -0.0059458613
0.18692806 -0.091168724 0.20085384 0.073394045 0.16010271 -0.016084539 -0.12415607 -0.037998404
-0.030858729 -0.027290976 -0.10350193 0.03220218 -0.016229672 0.13839854 0.1675918 0.17967667
0.20229727 0.1774342 -0.012375535 0.16571665 -0.027085954 -0.009566799 0.101553164 0.10363058
-0.046513196 0.13005613 -0.075305246 0.031233279 -0.07839989 0.086922154 -0.09685167 -0.07552803
0.14251643 -0.08123272 0.06849168 0.07553955 -0.0027370206 -0.03981652 0.19803703 -0.093265645
0.14596827 0.19826362 0.0776376 0.18870239 0.21229677 0.081136435 -0.06703756 0.14939895
0.0006190756 0.07693756 0.16666365 -0.08483268 0.10652235 0.1849316 0.16559939 -0.11605918

output.weight f4 [4, 128]
00000000: e03b 8ebd 2c1a 423a 3468 8fbd b548 0ebd
00000010: 0ff6 593d c645 0c3d e893 f2bc 1f8f ecbc
00000020: cccf 29bd 5567 12bd 512a 183d 093f edbb
00000030: c0a9 c7bb c9fb bcbd a569 623d 9da0 4ebb
00000040: 0e16 8c3d 0eca a7bc ff90 253b f40e a13d
00000050: a6dc 9d3d eb2b a13d b5b1 e0bc c7e0 6b3d
00000060: 061e a6bc 8cbc 16bd dce7 6b3d 939f bcbd
00000070: d0af 913c 231f 1dbd 3816 55bd bc2a 913d
00000080: ae7b d73c dd53 17bc c9d8 ac3d 788e 823d
00000090: b69b b6bd ad4c 353d cb62 293c 529f 823d
000000a0: 8782 cc3d d467 a33d 75f6 3e3d 7814 773d
000000b0: f7db 9f3d b22a abbc 7ddf 663d 07a6 43bd
000000c0: 10d6 0bbd 3785 14bd b38d 483d 6d7c 1c3d
000000d0: 6d0f 7c3d 60d7 bf3d 41c0 683d 30c2 a33d
000000e0: 04c6 633d 5788 843d 5703 733d 5877 403d
000000f0: fcfd 28bd dbd9 283d 5b5e 8abd d02a 83bc
00000100: ff1e 853b 7f42 38bc b4ca 96bb d439 8a3d
00000110: 99bb 8c3b b75e 613d 2061 533d 2cdd 6fbc
00000120: 1897 873d dd17 cbbb d5b8 543d 2a2a 463d
00000130: 316e 763d 6670 1a3c 63a8 aabc a2c7 1abd
00000140: 7d4e 963d c2b6 94bd 7cf1 8cbd 3512 f63c
00000150: f490 01bd d173 ac3d 2f87 b63d 9813 8d3d
00000160: be54 2f3d 43c3 cc3d 0d00 48bd 85d6 723d
00000170: f01f d4bb eacb c5bb 2530 703d 16b3 dbbd
00000180: 378e 4bbc 1568 b03d 07f8 8abd b6f7 1abe
00000190: 44e2 fdbc 30a3 933d 63dc 46bc 3ac9 f3bc
000001a0: a5bd 843d 71fa b13c e2da 05bd 191c 8a3d
000001b0: b460 2d3d e59a 9fbc bda4 ac3d aa94 89bb
000001c0: 961a 8d3d c4d2 9e3d f88d 573d 2eda 8b3d
000001d0: 700d 8f3d bb9a 673d b73a 4ebc 8a2f 503d
000001e0: 2ac5 75bd 2cca 2d3d 6cec b83d 627a 1dbd
000001f0: ac82 6abd 5d47 973d 82f0 8d3d 9e80 013d
00000200: 73ae 4abd 1f35 153c eb23 833c 734a d93b
00000210: bd43 fc3c f206 073d a4d7 813c 750d 88bd
00000220: 8c6d 083c 33dc 45bc 07c1 e13c 2976 5f3c
00000230: c113 90bd 37b7 b3bd 50d6 8c3c 4e9a d33b
00000240: 1b43 913d 81db 6d3d 32f8 86bd 0bde e93c
00000250: bd2c c03d 38d5 d63b 746e ef3c 5259 193d
00000260: 4367 c83d 7eeb f7bc 1923 843d dc11 5a3d
00000270: 3831 c6bc 9649 433c 1c5f 1a3a 609d 94bc
00000280: 9fbc 183d 16ef 8abd 5f4d 003c f777 f1bc
00000290: 3146 efbc 0179 113d 4133 c9ba 788c 0e3d
000002a0: b1fb 7e3c 5664 0a3d dd85 cc3d 4963 11bc
000002b0: cd6b b93b fb65 33bb cf5d b43d 7c10 5c3d
000002c0: 0377 893b d4fa 2cbd 71ba c63c c760 743d
000002d0: 1015 273d 28c4 a83c 6411 813d 1161 0c3d
000002e0: b65b 513d a374 193d 8225 a53d 9e32 543d
000002f0: 0c91 673c 4075 473d 13a2 0bbd d9d3 cf3b
00000300: fe37 f2bc 1e0b f13d cc3d 133d efe8 0a3d
00000310: 9a81 34bd 9ef6 423d e4f4 6e3d 9fc5 3cbd
00000320: 0403 b63c e3b5 053d a461 0c3d 0b57 c03d
00000330: cc2c 4d3d 37bf 17bd 42e6 9fbb d94e e0bc
00000340: c9d9 69bd e45e 6abc 993b 32bc b9f0 343d
00000350: 6a57 fdbc 7ac1 e83c 644f 9eba cb80 a73d
00000360: 057e 7b3d f437 233d a5a5 acbc 2930 783d
00000370: ed56 6f3d 6afd fd3c 32d0 823d 2e30 66bb
00000380: 5a54 a3bc 49ff c33d f72c 4e3d adae b9bc
00000390: 5f0e 0b3d f7c3 983d 17c1 833a 637a 683b
000003a0: bb5b 933c f99c fabc 8332 e0ba 7c9b 5abc
000003b0: ab80 31ba f80a 393d 1f0f 993d 6707 e53c
000003c0: b984 113d e6b5 8c3d 235d 2f3d 14cf eb3c
000003d0: d71d b03c fa6c 663d d92c af3c 19f4 493d
000003e0: 583c 03bc 08c9 933d 7121 d33d f9a1 63bd
000003f0: 5858 3fbc 4a4c 843d e710 4b3d c6e5 493d
-0.06945014 0.00074044126 -0.07002297 -0.034737308 0.053213175 0.03424623 -0.029611543 -0.02887684
-0.041457936 -0.035743076 0.03714973 -0.0072401804 -0.006093234 -0.09227712 0.05527653 -0.0031528838
0.06840144 -0.02048209 0.0025263426 0.0786418 0.07708101 0.07869705 -0.027428487 0.05758741
-0.020277988 -0.036800906 0.057594165 -0.09210124 0.01778403 -0.038359772 -0.052023143 0.07088229
0.026304092 -0.009236303 0.08439786 0.0637483 -0.08916418 0.044262577 0.0103384955 0.06378044
0.099858336 0.07978788 0.04662176 0.060322255 0.07805627 -0.020894382 0.05636548 -0.047765758
-0.034139693 -0.036259856 0.04896326 0.0382046 0.06153815 0.093672514 0.056823973 0.07996023
0.055608764 0.06471317 0.059329357 0.046988815 -0.041257843 0.04122339 -0.06756278 -0.016011626
0.004062533 -0.011246323 -0.004601801 0.06749311 0.0042948243 0.055021968 0.051606297 -0.014640134
0.06620616 -0.006197913 0.051934082 0.048380055 0.06016368 0.009426212 -0.020832246 -0.03778804
0.07339189 -0.07261421 -0.06881997 0.030037979 -0.03163238 0.08420528 0.08912503 0.06888503
0.042805426 0.09998181 -0.048828173 0.059286613 -0.006473534 -0.0060362713 0.058639664 -0.10727517
-0.012424043 0.08613602 -0.06785589 -0.15133557 -0.03099168 0.0720886 -0.012137505 -0.029759038
0.06481484 0.021725865 -0.032679446 0.067436405 0.04232855 -0.01948304 0.08429859 -0.0041986303
0.068898365 0.07755044 0.052625626 0.06828724 0.06984985 0.056544047 -0.012587241 0.050826587
-0.060002483 0.042429134 0.09029469 -0.03844679 -0.057253525 0.07386658 0.06930639 0.0316168
-0.049482774 0.009106903 0.016008338 0.0066311895 0.030794019 0.032965608 0.015849896 -0.06643192
0.008326899 -0.012076425 0.027557863 0.013639011 -0.07035018 -0.0877518 0.017192036 0.0064576035
0.070928775 0.058070663 -0.06590308 0.028548261 0.09383533 0.0065561794 0.029227473 0.037438698
0.097853206 -0.030263659 0.06452007 0.05323969 -0.024193391 0.0119194 0.0005888806 -0.018141448
0.037289258 -0.06783883 0.007830947 -0.029476149 -0.029208275 0.03551579 -0.0015350358 0.03480193
0.015562938 0.033787094 0.0998647 -0.008873769 0.005658603 -0.0027374018 0.08806955 0.05372666
0.0041950955 -0.042231396 0.024258824 0.059662607 0.04079157 0.020601347 0.06302145 0.034272257
0.051112853 0.03746475 0.08063795 0.051806085 0.014133703 0.048695803 -0.034090113 0.006342393
-0.029567715 0.117696986 0.035947606 0.03391355 -0.04406891 0.047598474 0.058339015 -0.046086904
0.022218235 0.032644164 0.034272805 0.09391602 0.05009155 -0.03704759 -0.004879744 -0.027381347
-0.05709246 -0.01430485 -0.010878467 0.044174884 -0.030925471 0.02841257 -0.0012078104 0.08178862
0.06139948 0.039848283 -0.02107508 0.060592804 0.05843251 0.031004626 0.06387366 -0.0035123932
-0.019937683 0.09570176 0.05033585 -0.0226663 0.033949252 0.07459252 0.0010052052 0.0035473339
0.017988076 -0.030592429 -0.0017104897 -0.013342734 -0.0006771187 0.045176476 0.07473587 0.027957631
0.035526965 0.06870632 0.04281343 0.028785266 0.021498604 0.056256272 0.02138369 0.049305055
-0.008009993 0.07216078 0.10309113 -0.05557439 -0.011678778 0.064598635 0.049576666 0.049291395

output.bias f4 [4]
00000000: c27b 0e3e 0e4a aa3d 92b1 d73d f2d7 ee3d
0.13914397 0.08314906 0.10531916 0.11662282
