checkpoints/state_size_37__action_size_4__hidden_layers_[256-256]__drop_p_0.5__seed_0__GAMMA_0.99__LR_0.0005__UPDATE_EVERY_10__BUFFER_SIZE_10000__BATCH_SIZE_64__TAU_0.001.pth (torch, 308311 bytes, 6 tensors)

hidden_layers.0.weight f4 [256, 37]
000000 a9 a7 68 be 1c 01 84 3c 48 15 96 bd 63 71 10 be
       -0.22720207 0.01611381 -0.07328278 -0.14105754
000010 aa 99 7c be a5 46 b8 be e4 2f 1f 3e e0 0b 80 bc
       -0.24667993 -0.35991398 0.15545613 -0.015630662
000020 cc 85 80 3e 1b 6b 13 be fe 0a a5 3d e7 ec 81 3b
       0.2510208 -0.14396326 0.08058737 0.0039650085
000030 3d f0 e0 3d 36 c9 70 bd 43 98 44 be b1 de 3d bc
       0.10983322 -0.05878564 -0.19198708 -0.011588738
000040 7c 92 1d 3e 9b 1c ed bd 3d a8 48 be fe 09 35 bd
       0.1538791 -0.11577722 -0.19595428 -0.044198982
000050 da 87 de bd 9f 7c f6 3d ef bf ff 3c 7f 94 f0 3d
       -0.108657554 0.12035488 0.03121945 0.117470734
000060 7f 88 4e 3c f6 e3 f1 bd b9 72 84 be c3 0a 22 3d
       0.012605785 -0.11811058 -0.25868776 0.039561044
000070 f0 3e dc 3d 77 67 6b be a9 28 88 be 95 e1 e5 bd
       0.10754192 -0.22988687 -0.2659352 -0.11224667
000080 2f 88 a2 bd 7c 38 5e 3e b0 dd a2 be ba 2b 05 bd
       -0.07936131 0.21701235 -0.3180976 -0.032512404
000090 f2 12 86 bd 42 7a 22 3d 26 f7 b0 3c b9 f9 00 3d
       -0.06546582 0.039667375 0.021602225 0.031488154
0000a0 92 54 c2 3c 49 a5 ce 3c 43 00 c4 bd d1 4e d4 bd
       0.023721967 0.025225298 -0.095703624 -0.103665955
0000b0 83 ec 03 3e 95 ca ea 3e 2d 89 be 3f cb f1 c0 bd
       0.12883191 0.45857683 1.4885613 -0.09421118
0000c0 02 57 fd bd a4 83 e4 bd 7f e6 dc bd b1 9c d8 3b
       -0.12370111 -0.11157921 -0.10786151 0.006610476
0000d0 3f 05 cc 3d c1 1c e9 3d 28 b1 d5 3d 0d 53 88 3d
       0.09961938 0.113824375 0.104341805 0.06656466
0000e0 a9 9e 7b bc 00 81 f8 3b c3 ac 50 3c 77 5c 15 bc
       -0.015357652 0.0075837374 0.012736502 -0.009116284
0000f0 64 a7 a1 bc 27 63 64 bd 18 29 76 3d 05 f9 07 3d
       -0.019733138 -0.05575862 0.060097784 0.033196468
000100 7a c7 9f 3d f1 96 07 3d 65 47 33 bc c5 c6 a8 bd
       0.07801719 0.033102933 -0.010942315 -0.08241037
000110 d8 3c fe bd 89 54 c4 bd 2a eb dc bd 5f c6 54 bc
       -0.12413949 -0.09586436 -0.107870415 -0.0129867485
000120 42 f8 db 3b 3a 06 9c 39 4f 73 9d bd 26 d9 c2 bc
       0.0067129442 0.00029759278 -0.07688009 -0.023785185
000130 7a 71 a5 bc 78 e2 4b bd 80 23 b0 3d 4e cc fd be
       -0.020195711 -0.049776524 0.08600521 -0.49569935
000140 cc 41 ee 3d 05 d9 64 3e a7 58 24 3e 63 09 63 3e
       0.116336435 0.22348411 0.16049443 0.2217155
000150 15 23 2e bc d6 a9 40 bc 00 02 57 3d ab 4f 7a bd
       -0.010628481 -0.011759242 0.05249214 -0.061111134
000160 f1 b4 17 3d c5 41 e4 bd 6c f0 4f bc a3 6a cd bc
       0.037037794 -0.11145357 -0.012691598 -0.025075262
000170 7e a6 a9 3b f1 b9 64 3e c4 25 23 be 3f a2 4f 3d
       0.005177318 0.22336556 -0.15932375 0.05069184
000180 71 8a c7 bc 8c ca b2 3d 80 8f 4f 3e c0 d8 a6 bd
       -0.024358006 0.08730039 0.20269585 -0.081468105
000190 c5 35 53 be c5 6f 2f be 60 c8 a0 bd 82 91 6a 3d
       -0.2062598 -0.1713248 -0.078507185 0.057267673
0001a0 4f fd 3a 3d c7 5a 2a 3d 3e d5 37 3d 99 49 2c 3d
       0.04565173 0.04159048 0.044881098 0.042062376
0001b0 11 f6 a2 3b c8 f1 e0 bc 78 21 9d bd 8e 07 1b bd
       0.004973181 -0.02745904 -0.07672399 -0.037849
0001c0 ef 18 79 bd e6 96 d8 bc af e9 d9 bc 0d eb ab bc
       -0.060814794 -0.026439141 -0.026600687 -0.020986104
0001d0 f1 d7 bb 3d 37 d0 42 be 81 df 09 be b3 a9 92 be
       0.09172047 -0.1902474 -0.13464166 -0.28645095
0001e0 e5 fa c0 bf 49 2f 38 bd df a8 a8 3c cf 2b 48 bd
       -1.5076567 -0.04496697 0.020588337 -0.048869904
0001f0 5f 6c ac 3d ae 1f 06 3e 97 2f be bd c4 f8 3d bd
       0.08419108 0.13098022 -0.09286421 -0.04637982
000200 cb 8b 92 bd 24 cf a9 bd a4 0f 3d 3c 65 15 04 be
       -0.0715557 -0.08291462 0.011539374 -0.12898786
000210 b3 bd f9 bd 10 38 ed bd d0 13 49 be 47 58 58 bd
       -0.121943854 -0.11582959 -0.19636464 -0.052818563
000220 c6 79 86 3d 45 a1 af 3d 52 36 af 3d 73 3e 10 3e
       0.06566195 0.085756816 0.08555283 0.14086322
000230 ca b7 c2 3d 15 94 07 3e 34 4e e2 bd 38 08 0d bc
       0.09507711 0.13240083 -0.11050072 -0.0086079165
000240 bc 2c a8 3d cf 80 87 bf 53 99 87 3c e8 9a a4 3b
       0.082116574 -1.0586184 0.016552603 0.005023349
000250 46 dc 42 be d7 99 a9 bd cf 89 6a 3d 9d 90 42 bd
       -0.1902934 -0.08281296 0.05726033 -0.047501195
000260 b3 8d f6 bc b7 64 eb 3d a6 a7 7b bb 78 7d 36 be
       -0.030096864 0.11493819 -0.0038399487 -0.178213
000270 e6 61 8d be a3 27 91 bf 25 0a ce 3c ab a7 b2 3d
       -0.27613753 -1.1340221 0.025151322 0.087233864
000280 72 e7 04 3e 92 65 a2 bd 31 82 a4 bd 9c 07 8e bd
       0.12978914 -0.07929529 -0.080326445 -0.06935045
000290 2e 8b c8 bd dd 17 e3 3d 7f d4 dc 3c 95 80 83 bd
       -0.097921714 0.11088536 0.026956795 -0.064210095
0002a0 57 11 02 be a9 6e 08 be f5 25 1f bd 58 d9 bc 3a
       -0.12701927 -0.13323463 -0.038854558 0.0014408035
0002b0 26 cb ce bd 80 c4 0b 3e 7c 17 44 be 73 c8 d3 bd
       -0.10097341 0.13649178 -0.19149584 -0.10340967
0002c0 9a 98 36 3e 55 a9 53 bf 68 c2 a1 bd 24 99 c6 3d
       0.1783165 -0.82680255 -0.07898408 0.09697178
0002d0 d7 d6 b5 3d 9a 0d 68 be d6 7b 12 3e 07 6a 11 3d
       0.08878868 -0.22661439 0.14305052 0.035501506
0002e0 78 7f 15 bd 94 3a 42 bc fc 92 64 bc 23 6e 6b 3d
       -0.036498517 -0.011854786 -0.013951059 0.05747808
0002f0 1d e1 b8 39 54 10 09 3e 04 ae 8a 3b 3b 98 1c ba
       0.00035262937 0.13385135 0.00423217 -0.0005973612
000300 db 91 1d 3e f3 35 72 3e bd 82 10 3f 74 aa c7 3d
       0.1538767 0.23653392 0.5644949 0.09749308
000310 cd 37 a9 3d f6 a4 ad bb 2a 02 8d 3b af e9 dd 3c
       0.08262596 -0.005299206 0.0043032365 0.027088968
000320 c3 35 fb bd d2 99 cf bd 3d 94 5b bd f5 a1 ac 3d
       -0.122661136 -0.10136761 -0.053608168 0.08429328
000330 fa e7 4c 3e 45 ed bc bd 97 42 a9 bc c3 fc fa bc
       0.20010367 -0.09224943 -0.020661635 -0.030638104
000340 a3 11 f0 3d a8 77 1c 3e b3 a1 45 be dc f9 de bd
       0.11722114 0.1528002 -0.19299965 -0.10887501
000350 05 69 f2 3c 32 0a ca 3b 9e 0b a2 3e 83 4d e2 bd
       0.029591093 0.006165766 0.31649488 -0.110499404
000360 10 7e 30 3d 3f 0f 6d 3d 6c c5 e7 3d 23 05 ac 3e
       0.043088973 0.057875868 0.11316952 0.3359767
000370 6a f6 54 bb de 5b 4a bc 3a 98 21 bd 9c e3 27 be
       -0.0032495507 -0.012351004 -0.039451815 -0.1639542
000380 f9 8d 87 bd a3 f4 31 be 8f 92 ae bd 82 51 48 be
       -0.06618876 -0.17378478 -0.085240476 -0.19562343
000390 a3 e3 34 be a6 0c 72 3e 5b 9f ef bd 43 4c a1 bf
       -0.17664962 0.23637637 -0.117003165 -1.2601398
0003a0 33 47 79 be 3c af b1 bc 7c 8e de bc fd 1d 05 bd
       -0.24343567 -0.021690004 -0.027167551 -0.032499302
0003b0 80 b1 61 be 37 f5 7e be 2b 3c 52 3b 9f da 83 3d
       -0.22040367 -0.2489823 0.003207932 0.06438183
0003c0 ca 3d 92 be b4 5f d8 be e1 86 a1 be c0 42 bc be
       -0.28562766 -0.42260516 -0.31548217 -0.36769676
0003d0 f3 30 d4 3b 3a a3 85 be 2c 1e d6 be 37 24 8b be
       0.0064755618 -0.26101094 -0.41819894 -0.27176067
0003e0 91 b5 7f be d5 82 14 3e b4 ef 5e be 46 e8 89 bf
       -0.24971606 0.14503033 -0.21771127 -1.0774009
0003f0 c0 81 35 be c5 0a 88 be 71 ff 02 bd fd 23 60 be
       -0.17725277 -0.26570717 -0.03198189 -0.21888728

hidden_layers.0.bias f4 [256]
000000 70 66 53 be 86 29 18 bd f2 f1 16 3d c8 20 6b bc
       -0.20644546 -0.037148975 0.03685183 -0.014351077
000010 2c 77 47 be 50 ed 63 be 57 5d e2 3c 6e 79 3c be
       -0.19479054 -0.22258496 0.027632399 -0.18405697
000020 49 f3 2c be 23 f1 34 be f0 9f 5c be 72 c2 a5 bd
       -0.16889681 -0.17670111 -0.21545386 -0.08093728
000030 84 cc d7 bb c2 10 83 be 37 4d 5a be 12 5f a8 bd
       -0.0065856595 -0.25598723 -0.21318518 -0.08221258
000040 9b 69 10 be e5 31 87 be f7 fc 79 be b3 eb 03 3d
       -0.14102785 -0.26405254 -0.24412905 0.032207202
000050 5f cc c8 3c 60 72 35 be 32 34 39 bd 8c 84 c2 bd
       0.024511514 -0.17719412 -0.045215793 -0.094979376
000060 33 e5 6a ba ca 31 d2 bd ea 3b 23 be 50 19 7d be
       -0.0008960545 -0.10263403 -0.15940824 -0.24716687
000070 88 61 16 be d7 71 7a be c1 ad 3f be bd 30 1c be
       -0.14685643 -0.24457489 -0.18718626 -0.15252967
000080 49 5d 3f be cb e5 1d be 4e c9 cd bc 8a 6c 48 3d
       -0.18687929 -0.1541969 -0.025120404 0.048931636
000090 db 6f 4f be 83 74 60 bd 4f 13 2e be 25 b4 4e be
       -0.20257513 -0.054798614 -0.16999553 -0.20185907
0000a0 9e 76 be 3c c5 cc d7 bc 41 85 28 be 8b 2d 3a be
       0.02324992 -0.026342759 -0.16457082 -0.18181436
0000b0 47 11 26 bd cf b7 ad bd a3 46 5a be b8 02 5c be
       -0.04054382 -0.08482324 -0.21316008 -0.21485412
0000c0 e3 6b 24 be 95 6e 5f bd b3 a9 79 be 46 bc f8 3d
       -0.1605678 -0.05454882 -0.24381141 0.12145285
0000d0 60 56 5c 3b 13 d3 df 3b eb 32 36 be 20 c1 04 3d
       0.003362082 0.006830582 -0.17792861 0.03241074
0000e0 4d df 78 be 49 25 ae bc f7 25 87 be 4b 8a 44 be
       -0.24303932 -0.021258013 -0.26396152 -0.1919338
0000f0 8c 1f 31 be cb 79 33 be 9c a2 31 bd 7f 1e 51 3d
       -0.1729719 -0.17526929 -0.043367967 0.051054474
000100 ea 05 69 bb 7c 8e 90 be 6f 0b c7 bd 4e bc 88 be
       -0.0035556504 -0.28233707 -0.09718978 -0.26706165
000110 6f d3 8b bd ea 44 ff bd 29 e7 c5 bc 8b 19 0a be
       -0.06827437 -0.12464316 -0.024158077 -0.13486306
000120 88 02 86 bd 3a 5b d7 bd b9 79 01 3c 04 38 a2 bd
       -0.065434515 -0.10515447 0.007902556 -0.079208404
000130 1e 70 0f be 0e 30 0b be 51 6c d8 3c e4 d4 23 be
       -0.14007613 -0.1359255 0.026418837 -0.1599918
000140 44 c7 52 3d ae ed 84 be 81 dd d9 bd 6c 89 7a bd
       0.051459566 -0.25962585 -0.10637952 -0.061166212
000150 33 76 c9 3d 77 a3 22 be 05 db cd bd c7 73 58 bd
       0.09836998 -0.1588267 -0.1005154 -0.05284479
000160 cf 3a 79 bd 2c 82 33 be 6c 41 dd bd 56 1f 85 3c
       -0.0608471 -0.17530125 -0.10803494 0.016250294
000170 71 4e fe bd 45 44 e1 bd 7e df e0 bd a4 46 af 3c
       -0.12417305 -0.109993495 -0.10980128 0.021395989
000180 5c 33 55 be d3 f1 49 be cd d5 29 3d 54 71 bc be
       -0.20820373 -0.19721155 0.041463662 -0.36805212
000190 83 c7 92 3c 6b e3 37 3d 6e 78 82 be 78 38 e0 bd
       0.0179174 0.044894617 -0.25482506 -0.109482706
0001a0 ee 7b 00 bd 8b 42 90 be d6 61 10 be 24 b8 81 be
       -0.03136819 -0.28175768 -0.14099821 -0.253358
0001b0 59 03 c8 be 0d 7f cc bd 3f 1d aa be c0 fa 90 be
       -0.39065054 -0.099851705 -0.33225438 -0.28316307
0001c0 f5 8d 91 be 58 5f 6f be ea 97 68 3d a4 09 a9 bd
       -0.28428617 -0.23376215 0.0567855 -0.08253792
0001d0 bd e7 fd bd 40 f9 74 be 32 ae 1c be ed 1d 84 be
       -0.12397716 -0.23923206 -0.15300825 -0.25804082
0001e0 84 56 f6 bd d0 da 80 be 58 d9 75 bd 44 40 aa bc
       -0.1202822 -0.2516694 -0.06002173 -0.020782597
0001f0 af d1 44 bd 61 55 30 be b9 e8 19 be 69 8b c0 bd
       -0.048051532 -0.1722007 -0.15030183 -0.094015904
000200 ca 8b cd bd ee b6 c4 bd 2b 57 9b be 26 50 2d bc
       -0.10036428 -0.096052036 -0.3033994 -0.010578191
000210 b6 6c ba bd 79 38 81 bd 9a 5b 0e be ad 8d 3b bd
       -0.09102766 -0.063095994 -0.1390213 -0.04578941
000220 01 3c 74 bd c4 47 8d be fe b5 b7 3b 5d 0d 32 be
       -0.059627537 -0.27593815 0.005606412 -0.1738791
000230 6c 09 b7 bd 19 85 e6 bd f5 e7 57 be 2a e2 a3 bd
       -0.08937344 -0.11255855 -0.21084578 -0.08002122
000240 a4 d3 15 be 26 25 65 be b5 33 21 be 10 cf 85 be
       -0.14631516 -0.22377452 -0.15742381 -0.2613454
000250 12 97 9b bd 2c 4a 58 bd 01 d0 33 be fc 5c 33 be
       -0.07597174 -0.05280511 -0.17559816 -0.1751594
000260 a2 17 22 be 01 32 78 bd 23 21 28 bd 74 6d 67 bd
       -0.15829328 -0.060594562 -0.041047227 -0.056500867
000270 28 31 76 3d 83 71 6c be 8a 10 cd 3c c3 34 54 be
       0.060105473 -0.23090176 0.0250323 -0.20723252
000280 ff 11 d2 bd d2 87 07 be bb 84 a0 be f2 de 8d 3b
       -0.10257339 -0.13235405 -0.31351265 0.0043295557
000290 72 5b 4e be 97 99 43 be 1b 3c 3b bd e2 c4 26 be
       -0.20152071 -0.19101559 -0.045711618 -0.16286042
0002a0 21 21 6f be 81 52 3c be c2 5d 33 be 89 2b e8 bd
       -0.23352481 -0.18390848 -0.17516235 -0.11336429
0002b0 7f a0 fd bd 50 73 41 be 98 ef ea bd e5 a2 46 3c
       -0.12384128 -0.18891644 -0.1147148 0.012123798
0002c0 af fe 9c be f5 4e 3c be 49 31 bd bd 3a 1c b6 bc
       -0.30663058 -0.18389495 -0.09237916 -0.022230256
0002d0 b3 4c 96 be a2 67 96 be c1 69 04 be 4f a7 0a be
       -0.29355392 -0.2937594 -0.12930967 -0.13540386
0002e0 e7 e4 12 be 2b 7f ca bd 85 ee 86 bd 79 69 58 be
       -0.14345132 -0.098875366 -0.06588463 -0.21133985
0002f0 8e 88 07 be 82 da 3f bd 20 3c 16 be 09 5e 2b be
       -0.13235685 -0.046839245 -0.14671373 -0.1673509
000300 6a 02 42 be 73 ab a2 be 16 9c 24 bd 9f be f6 bd
       -0.18946233 -0.3177143 -0.040187918 -0.12048077
000310 c9 ee 57 3d 1a b1 39 bd f5 ee 95 be 20 6e 3b be
       0.052717958 -0.045334913 -0.29283872 -0.18303728
000320 45 9e 84 bd ad d5 c7 bd 19 a4 c2 bd 62 8a 6c be
       -0.064755 -0.09757552 -0.095039554 -0.23099664
000330 15 44 b0 bc 3f 24 98 3c 3c d4 1d be f5 71 9e be
       -0.021516839 0.018571971 -0.15412992 -0.30946317
000340 79 92 26 bd e8 ef 30 bd a8 b0 b5 bd d8 66 48 be
       -0.04066703 -0.043197542 -0.08871585 -0.19570482
000350 d5 9a 59 3c f9 fb a3 3d b0 3f a9 bc 64 46 a2 3d
       0.013281544 0.08007044 -0.020660251 0.07923582
000360 c2 f8 4d bc 44 db dc 3c b9 40 3f be cf a3 fc bd
       -0.0125715155 0.026960023 -0.18677033 -0.123359315
000370 67 8b 88 bd 37 cc 42 be e2 27 1b be 8a 06 4b be
       -0.06667214 -0.19023214 -0.15151933 -0.19826713
000380 8e 2c 7b bc 1d 72 fe bd 79 04 76 be 3c a9 18 bd
       -0.015330447 -0.12424109 -0.24025144 -0.03727077
000390 6c e3 d9 3a 8b df 51 be b6 06 3f be 7c fd ca bc
       0.0016623563 -0.20495431 -0.18654904 -0.024779074
0003a0 77 75 b0 bd 60 f5 7b bd 7a 5f f3 3a 30 6b c6 ba
       -0.08616155 -0.061513305 0.0018567883 -0.0015138146
0003b0 1a c7 1c bc ab 61 48 be 56 09 a9 3c 47 6b 3b be
       -0.009568954 -0.19568507 0.020634335 -0.18302642
0003c0 36 8c 4a 3d da a0 96 be 28 95 40 be c7 90 0f be
       0.04945012 -0.29419595 -0.18806899 -0.14020072
0003d0 76 55 41 be 96 de 0c bd c2 fe 7a bd d5 af b0 be
       -0.18880257 -0.034391962 -0.061278112 -0.3450915
0003e0 05 d8 7d be 19 f2 f2 bd 25 a9 43 3c 79 86 26 3d
       -0.24789436 -0.11862583 0.011942183 0.040655587
0003f0 1e 81 53 bc 85 58 88 be 4c 63 51 be 49 b1 27 be
       -0.012909202 -0.26630035 -0.20448035 -0.16376223

hidden_layers.1.weight f4 [256, 256]
000000 2b 9a 3d 3d bc ff 84 3d 93 dc 4d 3d c1 bb 88 bc
       0.046289604 0.0649409 0.050259184 -0.01669109
000010 30 c5 48 bd 3d fd 42 be 56 74 0c bc 4a a7 a6 3c
       -0.049016178 -0.19041915 -0.0085726585 0.020343442
000020 e0 f1 d8 3d 6e 64 aa bd 8a 29 79 be 58 03 48 3c
       0.10593009 -0.08319937 -0.24332252 0.012207828
000030 5c 75 8b bd d0 56 a3 bd dc 7f 60 be e4 d8 cc bd
       -0.06809494 -0.079755425 -0.21923774 -0.10002306
000040 28 e8 a5 bd 61 95 75 be 26 dd 6e 3b 41 13 6c 3d
       -0.08100921 -0.23982765 0.0036447733 0.05763555
000050 17 ea 09 bd ad 33 70 bc 94 dc fb 3c 7a e1 9e 3d
       -0.03367051 -0.014660758 0.030744828 0.0775785
000060 36 30 0d be 4f 1a 62 3d 24 5e 41 3d 47 7e 83 be
       -0.13787922 0.05520087 0.04720892 -0.2568228
000070 ea 4b 04 3e aa 89 5b be 58 64 94 bd b1 8d a2 3d
       0.12919584 -0.21439233 -0.072457016 0.07937182
000080 cf 59 75 3c 48 86 13 be 4b c7 99 3d 3f 0b b5 bb
       0.014975025 -0.14406693 0.07508715 -0.0055250223
000090 dc 55 d0 bb 3b 62 14 be 26 1f a2 be a8 60 df bd
       -0.0063578915 -0.14490597 -0.3166439 -0.109071076
0000a0 5b 95 ba bc 53 b9 0b 3e df 06 17 be 35 64 02 be
       -0.022776296 0.13644914 -0.14748715 -0.12733538
0000b0 6a 67 3a 3d 42 f2 96 3c 9d 3e 88 bd 04 a5 16 be
       0.04550878 0.018426064 -0.066525675 -0.14711386
0000c0 d2 f3 61 bd 2d e9 2c bd d4 a7 64 bd 71 0f 77 3d
       -0.055164166 -0.04221456 -0.055824116 0.06031746
0000d0 a0 a4 de bc c8 e5 09 be 85 f7 46 bd bd ec 5c bd
       -0.027178109 -0.13466561 -0.048575897 -0.05393671
0000e0 bb f5 ff 39 0e e2 36 bc c5 3c b9 bd 9e 82 34 be
       0.00048820474 -0.011162294 -0.09044794 -0.17627952
0000f0 29 a4 00 3d 25 a6 bd ba 2e 41 d9 bd a1 12 34 3d
       0.031406555 -0.0014469071 -0.10608135 0.04396308
000100 25 6e 3a bd 60 ec 05 3d 70 96 21 be 1b 37 0b be
       -0.0455152 0.032696128 -0.15780044 -0.1359524
000110 60 5a 76 3d 9e 33 fd bc dd 31 32 3d d4 96 16 be
       0.060144782 -0.030908402 0.043504585 -0.14705974
000120 17 0c bc 3d b4 c6 24 be c6 33 6f 3d 87 64 f3 bc
       0.091819935 -0.16091424 0.058398984 -0.029711021
000130 74 60 8e be 34 6f c2 39 ed 14 be bc 76 b8 57 3d
       -0.27807963 0.00037085416 -0.023203338 0.05266615
000140 79 0b a4 bd 1f 89 b6 bd 44 f7 7c be 77 74 4f 3a
       -0.08010001 -0.089128725 -0.247037 0.0007913778
000150 fa ef 15 bd af 9e 68 bd 90 7a 08 3c cc c8 75 bd
       -0.036605813 -0.056791957 0.008330002 -0.060005948
000160 c4 dc c9 3b 0f 05 97 3d a3 09 e9 bd 18 91 b4 3c
       0.0061603505 0.07374012 -0.11378791 0.022041842
000170 bb 2a 64 bc 65 5a 94 bd 31 83 ee bc 6e d4 01 bd
       -0.013926203 -0.07243804 -0.029115291 -0.03169673
000180 6a 95 77 bd 82 1b 81 be 5e 51 d0 3c 1c ae e8 be
       -0.060445227 -0.252163 0.025429424 -0.45445335
000190 c3 96 97 bc 5c 64 1e bd 7d 66 a7 3d c9 f0 07 3a
       -0.018504506 -0.03866993 0.08173845 0.0005185721
0001a0 df d1 8d bd dc 4b f0 bd 27 16 4f be 1c d1 0b 3b
       -0.06924795 -0.11733219 -0.20223294 0.0021334356
0001b0 42 a5 87 be 2c 6e 35 bc 86 15 a1 3d c4 29 39 be
       -0.2649327 -0.01107363 0.078654334 -0.18082339
0001c0 4a 55 c1 3d 8f 68 54 be f6 e8 9b 3d 80 93 a7 3d
       0.09440096 -0.20743011 0.07612793 0.0818243
0001d0 24 fd 48 bc 63 17 c7 bc fe 7d 01 3c aa 78 57 3c
       -0.012267385 -0.024303144 0.007903574 0.013151327
0001e0 46 55 fe 3c bc 3f e9 3c 84 3e cf 3d dc 07 14 be
       0.03104652 0.028472774 0.10119346 -0.14456123
0001f0 81 73 ed 3d 54 c7 7a bc 66 ab 44 3d e3 1f 6d bd
       0.11594296 -0.015306313 0.04801502 -0.057891738
000200 42 cc 36 3e e3 76 15 3e 90 f0 42 3c c3 c8 10 3d
       0.17851356 0.14596133 0.011898175 0.03534771
000210 42 c7 12 be c4 37 80 3d 56 dd 1f bd 28 20 cc bd
       -0.14333823 0.062606364 -0.03902944 -0.09967071
000220 db ee 9d bc cf 6f 68 bc 59 1b 5f bb 0c f0 97 3d
       -0.019278934 -0.0141868135 -0.00340434 0.07418832
000230 af 80 53 bd 3b 8c cd bb fd 6c 70 3d c4 ed 23 be
       -0.051636394 -0.0062728203 0.05869769 -0.16008669
000240 d6 74 cc bd d7 5a b0 bd 9a 50 f7 3d f8 93 48 be
       -0.09983222 -0.08611076 0.120759204 -0.19587696
000250 dc 3e 72 bd d2 d0 05 bc 82 4b 7e bc 0b 17 1a 3d
       -0.05914198 -0.008167462 -0.015520932 0.03761963
000260 96 79 2a be 5d 22 f5 3d fb f6 10 be 1d f3 a6 bc
       -0.16647944 0.11969445 -0.14156716 -0.020379597
000270 42 93 ab 3d e4 a6 1b be 29 2c ae bd 3b b1 7c bd
       0.083776966 -0.15200382 -0.08504517 -0.061692458
000280 c3 ea 48 be 77 65 0d bd 90 7e 89 3b 42 95 3a 3c
       -0.19620804 -0.034520593 0.0041959956 0.011388125
000290 f6 0e 9a be e3 d2 bc be 2e 45 8c 3d 10 34 3d 3d
       -0.3008954 -0.36879644 0.068491325 0.04619223
0002a0 06 f7 48 bd 68 d2 90 3d 96 a9 b6 bd db 2b b0 bd
       -0.049063705 0.07071382 -0.08919065 -0.08602115
0002b0 15 1b b4 bc 32 85 0e 3d 68 3d a3 bb 37 a0 1a bd
       -0.02198557 0.034794994 -0.0049816854 -0.03775045
0002c0 74 34 ae bd fe ed e9 bd b0 2e 20 3d bb 48 03 bd
       -0.085060984 -0.114223465 0.039107025 -0.032051783
0002d0 92 ed 31 3c c8 f4 08 be 1b 8f ee bd 13 44 51 be
       0.010859864 -0.13374627 -0.11648389 -0.20436125
0002e0 b7 39 c1 3d 5a 6d 63 be 6a c4 18 3d 4a 7b 83 bc
       0.09434836 -0.22209683 0.03729669 -0.01605
0002f0 34 cc 0c be d0 c8 91 be e1 90 79 3d 47 c8 0f 3d
       -0.13749772 -0.2847352 0.060929183 0.03510311
000300 3a 5b 1c bd 79 54 eb bd 9c f6 68 bb 51 89 80 be
       -0.038172938 -0.11490721 -0.0035547381 -0.25104764
000310 d5 76 eb 3d f4 57 d6 bd 6b 88 4a be c6 42 d5 bd
       0.11497275 -0.104659945 -0.19778602 -0.10413127
000320 43 82 81 be 7c 9a 07 be fb 7a 8c 3c 92 e9 ef bd
       -0.25294694 -0.13242525 0.017148485 -0.11714472
000330 93 8f ea bb 7f fc 95 3c 38 c4 f7 bc 90 50 8b bd
       -0.0071582287 0.018308876 -0.030244932 -0.068024755
000340 26 a7 74 bc 23 8a 83 3d a0 e2 b1 3b df c1 8a bd
       -0.014932429 0.06422832 0.005428627 -0.06775259
000350 44 d7 2f 3d 03 70 7f 3d 22 2b 69 3a cd e1 d2 bc
       0.042929903 0.062362682 0.0008894672 -0.025742436
000360 65 47 83 3b 74 03 9f bd a1 f8 28 3d 1b 25 7a be
       0.0040063136 -0.077643305 0.041252736 -0.24428217
000370 60 b0 7b bd e3 c9 28 bd 54 c3 44 bd 19 a0 5c be
       -0.0614475 -0.04120816 -0.048037842 -0.21545447
000380 28 0b 59 bd ad 51 3a 3d 45 25 85 3d 2c 7a 26 3c
       -0.052989155 0.04548805 0.06501249 0.010160964
000390 ad 82 05 be 04 23 c9 bd 78 db 93 bd b2 6a dc 3d
       -0.1303813 -0.09821132 -0.07219595 0.10762538
0003a0 b7 2a b1 bd d9 72 36 3e d5 26 f9 b8 5a 16 9c bc
       -0.08650725 0.17817248 -0.00011880478 -0.019053627
0003b0 9f a0 c8 bc 4d 88 2f 3d e6 e2 05 3d 43 4a 0b 3d
       -0.024490653 0.042854596 0.03268709 0.03400637
0003c0 18 1c 4f 3c f9 26 30 be ab f7 1a 3c 0f e5 b5 bd
       0.012640975 -0.17202367 0.009458463 -0.0888158
0003d0 df fd ae 3c 2a fa f5 3c 7d 3c b4 bd 24 a5 42 be
       0.02136129 0.030026514 -0.088006 -0.19008309
0003e0 24 23 92 bb 7f f6 1d bd b9 eb 2b bd 0b 8a 15 be
       -0.0044597555 -0.038565155 -0.04197285 -0.1460344
0003f0 ec 31 a3 3c 3c 37 f5 bd e1 af 27 be b5 18 e3 bc
       0.019921266 -0.11973426 -0.16375686 -0.027721742

hidden_layers.1.bias f4 [256]
000000 87 7a 39 3e 76 3e a3 bc c7 7a c7 bd a6 7d 3e 3e
       0.18113147 -0.019927245 -0.09740215 0.18602619
000010 ba 78 20 3e 5d fc 26 3e 4b f8 39 3e 85 be 03 3e
       0.15671054 0.16307206 0.18161123 0.12865646
000020 97 8c cd bd 5a b2 1c 3e 33 4e 28 3e 63 7e 0d 3e
       -0.10036581 0.1530241 0.1643608 0.13817744
000030 26 b1 bd bd 37 07 33 3e f7 dd de bd c6 d9 3c 3e
       -0.09262304 0.17483221 -0.1088218 0.18442449
000040 d9 5b 2b 3e 12 c2 13 3e 76 7d 34 3e 27 08 f5 bd
       0.16734256 0.144295 0.17625985 -0.119644456
000050 7a b1 53 3e 4c aa 38 3e e6 82 5a 3e 1f 46 9b bd
       0.2067317 0.18033713 0.21338996 -0.07581734
000060 b0 4c 37 3e aa f2 47 3e 9e 7b 40 3e 33 bf 1f 3e
       0.17900348 0.19526163 0.18797156 0.1560028
000070 4a 5d e5 bd b0 a5 2d 3e b0 a8 49 3e 40 33 36 3e
       -0.11199434 0.16957736 0.19693255 0.17792988
000080 b0 ce 4a 3e 40 67 fc bd f3 ad 60 3d e4 8f 57 3e
       0.19805408 -0.12324381 0.05485339 0.21050984
000090 68 6c 26 be 56 a3 3f 3e f5 ee 33 3e 53 be 3e 3e
       -0.16252291 0.18714651 0.17571624 0.1862729
0000a0 b2 3a d4 3d 88 8e 09 3e dd 1f 42 3e 6c 75 1d 3d
       0.10362758 0.13433278 0.18957467 0.03844206
0000b0 9f 58 74 bd bc 03 80 3d a5 c7 0e be 35 00 ae 3d
       -0.05965483 0.06250712 -0.13943346 0.08496133
0000c0 fe a9 33 3e ed df 70 3c fe 50 0d 3e 60 aa e9 3d
       0.17545316 0.014701826 0.13800427 0.114094496
0000d0 a6 e5 40 3e ce ea 4a 3e fb 89 0c 3e 0f d2 0b be
       0.18837604 0.19816133 0.1372451 -0.1365435
0000e0 58 41 a9 3c 5d 30 5d 3e 34 68 ff 3d c5 27 0d 3e
       0.020661041 0.2160048 0.12471047 0.13784702
0000f0 e1 7a 6f 3d 0e e4 3a 3e 9a ab cc bd eb 2a 20 3e
       0.058466796 0.18251058 -0.09993668 0.15641372
000100 34 c1 07 3e de cd 17 3e e2 23 31 3e e2 5f 3d 3e
       0.13257295 0.14824626 0.17298844 0.18493608
000110 80 c5 81 3d ed 7b dc bd 62 df 2c 3e 79 ed 50 3e
       0.06336498 -0.107658245 0.16882089 0.20403089
000120 31 4b 19 3e d8 12 f7 3d 99 91 01 be e3 c1 45 3e
       0.1497009 0.12064141 -0.12653197 0.19312243
000130 0b f1 14 3e 9e 6b 32 3e 11 91 39 3e 59 44 45 3e
       0.14545076 0.17423865 0.18121745 0.19264354
000140 42 f3 3a be a5 b5 46 3e 96 9a 34 3e c5 58 2c 3e
       -0.18256858 0.1940523 0.17637095 0.16830738
000150 fa b9 38 3e b1 ed 33 3e 58 fc 3e 3e a0 4d 01 3e
       0.18039694 0.17571141 0.18650949 0.12627268
000160 38 97 31 3e 8d 50 5f 3e d6 cd 1c 3e 45 a3 d1 bd
       0.17342842 0.21808071 0.15312895 -0.10236219
000170 9f 86 56 3e b8 52 0b be d5 12 c4 bd 18 5d 4b 3e
       0.20949791 -0.13605773 -0.095739044 0.19859731
000180 ad 84 22 3e c7 f7 5b 3e 19 ed 38 3e fa 7c 36 3d
       0.15870924 0.21481238 0.18059196 0.04455278
000190 92 59 00 3e dc cd b6 3d 93 46 37 3e 97 07 43 3e
       0.12534168 0.08925983 0.17898016 0.19045864
0001a0 9b 0b 60 3d 6a f1 e3 3d 48 db 00 3e 16 78 35 3e
       0.054698568 0.111300305 0.12583649 0.1772159
0001b0 5a c7 cf 3d 21 44 0d 3e 77 42 af 3d 3e c1 dc 3d
       0.10145445 0.1379552 0.08557599 0.107790455
0001c0 32 64 11 3e 93 bf 2b 3e 46 c9 c4 3d 8a 80 26 3e
       0.14198378 0.16772299 0.09608702 0.16259971
0001d0 17 dc 5c 3e 91 bf 56 3e c5 7c 41 3e c7 14 37 3e
       0.21568333 0.20971514 0.18895252 0.1787902
0001e0 2d 48 7c 3c 15 a2 36 3e 07 cd fa 3d 9e 6d 15 3e
       0.015398067 0.17835267 0.12246137 0.14592597
0001f0 b0 07 44 3e dd 29 e6 3d f3 0a 37 3e 48 45 ca 3d
       0.19143558 0.112384535 0.1787527 0.098764956
000200 4e 0f fd bd 95 ea 0f 3e 87 41 1d 3e 05 b7 c0 3d
       -0.12356435 0.1405433 0.15357028 0.09409908
000210 67 2f 2d 3e ce f2 91 bd 1e aa 42 3e 6f 03 0f be
       0.16912614 -0.071263894 0.19010207 -0.13966154
000220 ae 94 26 3e 7e 7a af 3d 1f d0 35 3e 77 f7 3a 3e
       0.16267654 0.085682854 0.17755173 0.18258463
000230 22 82 44 3e 47 27 08 be e8 37 69 3d b4 52 fc 3d
       0.19190267 -0.13296233 0.056938082 0.12320462
000240 74 34 34 3e 39 db 4c 3e e6 92 2f 3d 11 61 0b 3e
       0.17598134 0.20005502 0.042864703 0.13611247
000250 24 00 1b 3e 9d ff de bd 36 b5 b9 3d 70 56 2a 3e
       0.15136772 -0.10888598 0.09067766 0.16634536
000260 84 a6 10 3e fd 3f 38 3e 0d 2f d4 bd 66 cb 28 3e
       0.1412602 0.1799316 -0.10360537 0.1648384
000270 c2 22 ad 3d 5c ea 38 3e 1f 5e 2a 3e 61 e7 03 be
       0.08453895 0.18058151 0.16637467 -0.12881233
000280 ad 53 80 bd 83 6b a1 3d 3c f7 3a 3e be 5b 80 be
       -0.0626596 0.07881834 0.18258375 -0.25069994
000290 07 a8 21 3e 59 4f 36 3e c0 38 f8 3d 83 7d 23 3d
       0.15786754 0.17803706 0.12120199 0.03991462
0002a0 1f 7d 04 3e c5 36 1e 3e 54 77 fb 3d 5f 87 04 3e
       0.12938355 0.1545058 0.122786194 0.12942265
0002b0 86 7b 9e 3d 98 cc 43 3e 1d a8 80 3d 06 98 c2 bd
       0.07738404 0.19121015 0.06282065 -0.095016524
0002c0 b8 1f 5b 3d 6e 3a 3a 3e 8b 49 17 3e 07 8b 0e be
       0.053497046 0.18186352 0.14774148 -0.13920222
0002d0 81 44 e2 3d b8 f0 24 be e3 90 42 3e c1 7a 12 3e
       0.11048222 -0.16107452 0.19000582 0.1430464
0002e0 4e 53 3f 3e 63 36 f7 3d a9 9f 36 3e 1b 3e 1a be
       0.18684122 0.1207092 0.17834343 -0.15062754
0002f0 49 02 54 3e 1b 4c 23 3e d9 c3 46 3e 82 bc 4d 3e
       0.20703997 0.15947 0.19410647 0.20091441
000300 4e 04 48 3e 5b cb 48 3e 2b de 13 3e 9f 24 21 3e
       0.19532892 0.19608824 0.14440219 0.15736626
000310 ff 56 34 3e d8 bf 0c be 50 ee 04 bd 67 4a 78 bd
       0.17611311 -0.13745058 -0.032453835 -0.06061783
000320 e5 74 11 3e 6b bd 3a 3e ef 12 3a 3e b8 45 34 3e
       0.14204748 0.1823632 0.18171285 0.1760472
000330 5b 0f 30 3e 7b 44 37 3e 99 ef 44 3e 0f 98 6d 3d
       0.17193358 0.17897217 0.19232024 0.058006343
000340 f3 4d 4f 3e 64 60 41 3e 37 1b 4d 3e 2c 0e be 3c
       0.20244579 0.18884426 0.20029913 0.023200117
000350 7b b5 08 3e 09 27 39 3e 7d 9b 02 be 9d 22 22 3e
       0.1335048 0.18081297 -0.12754627 0.15833516
000360 c1 e0 12 3e b6 e0 1d 3e b9 e7 6b 3d ce 0d 4e 3e
       0.1434355 0.15417752 0.057594035 0.20122454
000370 81 8b 35 3e ea 9d 5c 3e ce 0e f7 bd e6 02 e2 3d
       0.17728998 0.21544614 -0.12063371 0.11035709
000380 9f d8 15 3e 39 8c 11 3e 82 46 33 3e 4e 86 24 3e
       0.14633416 0.14213647 0.17507365 0.16066858
000390 08 04 69 3d c8 cb f8 bd cb 9d 25 3e e9 2b 01 be
       0.05688861 -0.12148243 0.16173474 -0.12614407
0003a0 17 b9 21 3e aa 38 67 3e 26 9d 24 3e 64 cf ac 3d
       0.15793262 0.2258021 0.16075572 0.08437994
0003b0 f8 8f 1e 3e 79 76 e8 bd 2d dd 11 be 8f 8f 37 3e
       0.15484607 -0.11350722 -0.14244528 0.17925857
0003c0 3a 4b 98 3d 98 59 ec bd e0 e6 f7 bd 60 b0 93 3d
       0.07436223 -0.11540526 -0.12104583 0.07211375
0003d0 73 5d bd bd 80 e3 31 be 44 dc 10 3e e3 8f 0e 3e
       -0.0924634 -0.1737194 0.14146525 0.13922076
0003e0 9d 82 fb bd 85 56 53 3e ab ef ea bd d8 ba 81 bd
       -0.12280772 0.20638473 -0.11471494 -0.06334466
0003f0 eb f4 48 3e 10 b2 fd 3d 38 a9 34 3e af 85 0a 3e
       0.19624679 0.12387478 0.17642677 0.13527559

output.weight f4 [4, 256]
000000 92 d7 0e 3d d6 5d d6 bc dc f7 da bb 57 b7 14 3d
       0.034873553 -0.026167791 -0.006682379 0.03630766
000010 cf 60 8b 3c 6a 6f 02 3d d3 9b b2 3c 02 01 16 bd
       0.017013935 0.031844534 0.021802818 -0.036622055
000020 ee de 65 3c 51 54 c3 3c 6d ec 99 3c f1 31 9b 3c
       0.014030201 0.023843916 0.018789494 0.018944712
000030 de 38 08 be e6 a0 d5 3c cc 8a d1 bb dc bb f6 3c
       -0.13302943 0.026077699 -0.0063947197 0.030118875
000040 27 96 96 3c 0b 6f 64 bd 6a e9 cc 3c 49 6e 87 3b
       0.018382145 -0.05576996 0.025013644 0.00413302
000050 57 c1 04 3d 4b 78 1c 3d 1c 42 05 3d a3 cd 7e 3c
       0.032410946 0.038200658 0.03253375 0.015551957
000060 02 0a 5c 3d d6 9e d6 3c 60 cb 00 3d 18 04 40 bd
       0.05372048 0.026198786 0.031443954 -0.046878904
000070 5c 1b 64 bc a3 fe c8 3c 03 4f 34 3c c9 f5 10 3d
       -0.013922539 0.024535483 0.011005166 0.03539065
000080 92 0f ca 3c dc d2 e8 3b 39 69 1f bd 73 e7 e1 3c
       0.024665628 0.0071052145 -0.038918708 0.027576184
000090 85 32 f2 bc 8a 43 9e 3c 93 53 43 3d 5e b0 93 3c
       -0.029565105 0.019319315 0.047687124 0.018028434
0000a0 28 64 54 bd f1 5e 87 3c e5 a6 b7 3c b8 7c 29 3d
       -0.05185333 0.016524764 0.022418449 0.041378707
0000b0 71 2a 16 be 82 a6 99 bd f0 20 f1 ba 3a 46 d5 bc
       -0.14664628 -0.07502462 -0.0018396657 -0.026034463
0000c0 f1 8b e3 3c 52 51 b0 bd 4a 21 57 3c 31 a5 d3 bb
       0.02777669 -0.086092606 0.013130495 -0.0064589013
0000d0 2f 92 00 3d 56 be 19 3d 46 d4 46 3d d8 fb 79 bb
       0.03138941 0.037535034 0.048542283 -0.0038144495
0000e0 bb 9a 28 be eb 2e 2d 3c 0c 50 84 bd 8a 22 1e 3d
       -0.16465275 0.010570268 -0.0646058 0.038607158
0000f0 96 0c 22 3c fe 48 fa 3c db f6 4b bc 49 da 92 3c
       0.009890696 0.030552384 -0.012448992 0.017926352
000100 70 71 ab 3b 01 94 bb 3c 0f 1c e5 3c 9c 3b 10 3d
       0.0052320287 0.022897722 0.027967481 0.035213098
000110 bb f8 52 3d 83 33 9c bd 29 69 a7 3c 31 00 11 3d
       0.05150674 -0.076270126 0.020435886 0.035400573
000120 d1 fa c9 bc b3 91 d1 3c 75 5b 1b ba 87 5a fb 3c
       -0.024655731 0.02558217 -0.0005926409 0.030682815
000130 25 31 c5 3c 91 f1 32 3b 9f ed f7 3c 41 b4 cf 3c
       0.024071286 0.002730463 0.030264674 0.025354506
000140 e9 97 ab ba ec 53 3d 3d bc 92 b8 3c 19 08 0d 3d
       -0.0013091537 0.046222612 0.022530906 0.03443155
000150 29 55 27 3d 5a 40 0d 3d 56 6c dc 3c da 19 3a bb
       0.0408527 0.0344852 0.026907127 -0.0028396756
000160 cf 10 86 3c 9d 3d 32 3d 2e 97 bf 3c 68 0f 1c be
       0.016365437 0.04351579 0.023387518 -0.15240252
000170 5a 1a 9d 3c 22 f3 08 3b db 6a d3 bb b5 5e 35 3d
       0.019177604 0.0020896872 -0.006451947 0.044279773
000180 7e 9a 87 3c 1a 97 1a 3d 30 65 00 3d 0a 35 1d be
       0.01655316 0.037741758 0.0313465 -0.15352264
000190 c0 0f 85 3c 84 22 2d bd 9e dc 76 3c a2 35 00 3d
       0.016242862 -0.042269245 0.015067248 0.03130115
0001a0 95 a5 aa bc a3 b2 d0 3c c5 0a cb 3c cf 0d d5 3c
       -0.020830909 0.025475806 0.024785409 0.026007561
0001b0 bb 10 db 3c 10 de 9a 3c f1 b3 02 bd 2e 2d 95 3c
       0.026741376 0.018904716 -0.031909887 0.01821002
0001c0 e1 f9 94 bb a4 ff 16 3c 84 b0 66 bd b7 65 09 3d
       -0.0045463894 0.009216223 -0.056320682 0.03354427
0001d0 3f 76 17 3d 3c 63 d4 3c 1c ec 01 3d 37 ce 10 3d
       0.036978003 0.025926225 0.031719312 0.03535291
0001e0 fc 50 de bd b8 30 c9 3c e7 2c a8 3c 6f 47 86 3c
       -0.1085529 0.024559364 0.020529224 0.016391484
0001f0 3a df cc 3c 5c 7e 90 3c 1f 0e 10 3d 1d 68 47 3c
       0.025008786 0.017638378 0.035169717 0.012170819
000200 c5 e7 c2 bb b6 49 b3 3c 18 ab ec 3c 63 99 ac bc
       -0.0059480392 0.021885734 0.028890178 -0.021069234
000210 7d 62 06 3d d4 f5 d6 bb 28 96 d4 3c 2f 20 b7 b9
       0.03280877 -0.0065600667 0.025950506 -0.0003492846
000220 09 3a 3f 3d 98 a4 24 bc 0a b8 23 3d 0b c5 e7 3c
       0.046686206 -0.010049008 0.039970435 0.0282922
000230 34 12 03 3d 05 5f 13 3c 1b 69 5c bc 58 07 da 3c
       0.03199978 0.008994822 -0.0134527935 0.02661483
000240 73 4c eb 3c 25 6c 74 3c 51 7b db bc 3c 83 8e 3c
       0.028722977 0.014918362 -0.0267922 0.017396562
000250 c7 f0 c4 3c 1a fa a1 bb 92 92 ea bd f7 c0 91 3c
       0.024040593 -0.0049431445 -0.11453737 0.017792208
000260 a0 0a 27 bd 0f b0 59 bd 08 4b c2 3b 75 60 2c 3d
       -0.040781617 -0.05314642 0.0059293546 0.042084176
000270 91 1e 0c be b6 1a e5 3c 80 48 9b 3c 31 d2 92 bc
       -0.13683535 0.027966838 0.01895547 -0.017922493
000280 21 68 2d bc ad ad f8 bd ac 3d 17 3d c5 fe 3f bd
       -0.010583908 -0.12142501 0.03692405 -0.046873827
000290 16 15 96 3c f6 60 07 3d 7a 52 d7 3c 54 bb 6a 3d
       0.018320601 0.033051454 0.026284445 0.057307556
0002a0 25 ac c1 3c d9 96 f0 3c e7 05 13 bd 78 3f c3 bc
       0.023641655 0.029368805 -0.0358943 -0.023833975
0002b0 7f 71 c8 3c 27 48 51 3d c0 3c 81 3c 40 b9 1b bb
       0.024468182 0.0510942 0.015776038 -0.002376154
0002c0 70 ec df bc b9 a9 b1 3c bd f2 16 3d fb 4b 88 3b
       -0.027334422 0.021687375 0.036852587 0.004159448
0002d0 5b 65 d6 3c e5 7d ff bb 8f 57 c2 3c ef be e1 3c
       0.026171377 -0.00779699 0.023723392 0.027556865
0002e0 08 5e 19 3d 86 4a 4d 3c 97 9d f0 3c 04 24 56 3c
       0.03744319 0.012529975 0.02937202 0.01307011
0002f0 55 c0 82 3c 4f da a7 3c 7d 46 18 3d 54 c5 f8 3c
       0.015960852 0.02048984 0.037176598 0.03036753
000300 51 9b bf 3c 8c 5c 07 3d ea 63 a8 bb d1 b2 9a 3c
       0.02338949 0.033047244 -0.005138864 0.018884094
000310 eb 49 ed 3c 36 0c bc 3b 32 59 ec bd 19 60 34 bd
       0.02896591 0.0057387603 -0.1154045 -0.04403696
000320 7a 2c e6 3c ba ee b4 3c dc 77 e3 3c 62 a0 00 3d
       0.02809738 0.02208649 0.027767114 0.031402953
000330 60 8b ca 3c 3f 7c 16 3d f0 d6 e4 3c 9f 09 9d bc
       0.024724662 0.036739584 0.027934521 -0.019169627
000340 c7 53 1a 3d 10 07 bd 3c e2 d2 cf 3c 2e be a3 bd
       0.037677553 0.023074657 0.025369111 -0.07995258
000350 52 23 38 3c 80 3f 20 3d c8 fd 5f 3b 63 40 a8 3c
       0.01123889 0.03912306 0.0034178365 0.020538514
000360 74 ab 8f bd 4c aa 90 3c eb 0c d4 3c 6f 11 90 3c
       -0.07015124 0.017659329 0.025885066 0.017586438
000370 0c 46 ea 3c df 0b 01 3d 83 c6 79 3c 9b f1 7c bb
       0.028597854 0.03150546 0.015245083 -0.0038596157
000380 a4 cb ae 3c 07 6d 2d bd 56 c4 ac 3c 87 22 dd 3c
       0.021337338 -0.042340305 0.021089714 0.026994003
000390 b8 d5 fe bb 14 bd 5d bc aa a0 e2 3c 1a eb 30 bc
       -0.007776942 -0.013533849 0.027664501 -0.01079824
0003a0 98 11 7d 3c 1d ad 19 3d 81 2a 79 3c 5c d6 05 3d
       0.015446089 0.03751861 0.015207888 0.032675132
0003b0 3a 60 f6 3c 55 93 18 be 2f 18 2f 3b 61 8f 2e 3d
       0.030075181 -0.14899953 0.0026717295 0.042617206
0003c0 0c 0d b8 ba d7 8b 3f bb 6f bc 70 bc 88 52 11 bd
       -0.0014041974 -0.0029227638 -0.014693364 -0.0354791
0003d0 17 c4 d7 bc 9e ac 89 3b 1c bb ce 3c 1b dc 89 3c
       -0.02633862 0.004201486 0.025235705 0.016828587
0003e0 ca c7 17 3d ba b2 3b 3d 9b c3 56 3d 29 1f e6 3a
       0.037055768 0.045824744 0.052432638 0.0017556894
0003f0 94 34 c9 3c b5 74 09 bd 98 0d c4 3c 45 04 d5 3c
       0.024561204 -0.033558566 0.023932263 0.026003012

output.bias f4 [4]
000000 c7 82 c8 3f 3e 77 b8 3f 74 79 c3 3f db fb c0 3f
       1.566491 1.441139 1.527144 1.507686
