checkpoints/state_size_37__action_size_4__hidden_layers_[256-256]__drop_p_0.25__seed_0__GAMMA_0.99__LR_0.0005__UPDATE_EVERY_10__BUFFER_SIZE_10000__BATCH_SIZE_64__TAU_0.001.pth (torch, 308311 bytes, 6 tensors)

hidden_layers.0.weight f4 [256, 37]
0.0053925654 0.06670811 -0.122915946 -0.20613313 -0.5621721 -0.045106474 0.0781827 0.10304633
0.13088827 0.1974588 -0.14440842 -0.10709612 -0.037332565 -0.14664546 0.069862194 0.23043913
-0.508039 -0.22084992 -0.29329407 -1.284058 -0.16726778 0.022045096 0.09292597 0.02502626
0.012473772 -0.28802007 0.003453358 0.08828909 0.15670663 0.24380773 -0.192368 -0.057202287
0.07242655 0.038696777 0.10056696 -0.025943615 -0.009027255 0.015053059 0.047542 -0.26156217
-0.15370336 -0.040632557 -0.61020577 -0.04865041 -0.00507133 0.120179445 -0.50464875 0.08837089
-0.06844055 -0.01152852 -0.17089215 0.016661095 -0.20188938 -0.04164583 -0.16845201 -0.2460831
0.014875032 -0.13872649 -0.2697531 0.039025538 -0.25885028 -0.1066641 -0.36346856 -0.21685076
0.090676926 -0.2508719 -0.34073403 -0.14585634 -0.13514575 0.028878946 -0.10645832 -0.26757047
0.006884888 0.0011139703 0.04904613 0.052591544 0.08006278 0.06992449 0.027072368 0.16868411
0.10227107 0.18011087 0.24966173 0.18552874 0.07280895 0.048040245 0.074277095 0.03580635
2.8036622e-05 0.0004067124 0.04910527 -0.015269231 -0.077797614 -0.13673665 -0.11782564 -0.05484769
-0.094772674 -0.15381822 -0.03849054 0.21916083 -0.18031763 -0.24037923 -0.27732286 -1.0422361
-0.03976016 -0.101735964 -0.10382955 -0.011749349 -0.0008530206 0.008109375 0.0068102106 0.038659375
0.034711767 0.094548 0.08317664 0.045451418 -0.069668494 -0.016414652 -0.03504159 0.025043922
0.18700753 0.28046885 -0.32857546 -0.20254265 -0.16670689 -1.2283279 0.0015611163 -0.008574107
-0.026846431 0.009871206 0.030142905 0.015860813 0.003232846 -0.015118273 -0.019985424 0.026690627
-0.13334171 -0.09127204 -0.13510807 -0.21885641 -0.04376078 -0.019092813 -0.074161746 -0.013750493
-0.065290906 0.029202508 -0.0033662484 0.00014719309 -0.011054711 0.015535464 -0.01701091 -0.026312426
-0.039949212 0.13904205 0.014988973 -0.2457173 -0.31936362 -1.4820021 0.036494486 -0.021938644
0.018604793 -0.42384133 -0.026776738 -0.0534398 -0.22510338 -0.038866084 -0.20190123 -0.086079836
0.023793729 -0.010940241 0.07272733 0.06433697 0.049242917 -0.112635925 -0.102539666 -0.12971792
-0.027727418 0.02326534 0.11035341 -0.13060506 0.125664 0.03393611 -0.100935794 -0.030027254
0.019497994 0.006667334 -0.0094799185 0.029875666 -0.047001746 0.010777738 -0.051804617 -0.00061365904
0.037860107 0.050503954 0.13058855 0.0045363437 0.008464132 0.042655237 0.018701218 -0.003392683
0.03374439 0.10110029 0.066979766 0.046634465 -0.02140063 0.16009088 -0.63226867 -0.49018502
-0.5794935 -1.8660928 -0.025216341 0.038878296 -0.004067864 0.06672336 0.13097198 -0.051922373
-0.09177611 0.010438363 0.056753177 0.21169361 -0.010074099 -0.001398496 -0.055776622 0.05102603
-0.10454031 -0.24243256 -0.27097046 -0.06753217 0.054775394 0.02002372 -0.15885857 -0.26780123
-0.03420164 -0.2222527 0.002271879 -0.25625858 -0.12118924 -0.07621511 -0.11396367 -0.18279001
-0.3479493 -0.1682519 -0.029093899 -0.27919707 -0.01709029 -0.31448478 -0.5784391 -0.011757764
-0.2234321 -0.06318063 -0.11609456 -0.491 -0.06716234 -0.03482235 0.012407253 -0.10265127
00000000: 1eb4 b03b 439e 883d 5bbb fbbd 9014 53be
00000010: 83ea 0fbf 91c1 38bd 401e a03d f409 d33d
00000020: 9307 063e a432 4a3e cddf 13be 3655 dbbd
00000030: 08ea 18bd 3a2a 16be e913 8f3d 3cf8 6b3e
00000040: d80e 02bf 7b26 62be a42a 96be 035c a4bf
00000050: 3f48 2bbe eb97 b43c f94f be3d df03 cd3c
00000060: cb5e 4c3c 5e77 93be bc51 623b e9d0 b43d
00000070: b477 203e bca8 793e 1efc 44be f24c 6abd
00000080: 5f54 943d 8380 1e3d 0df6 cd3d b487 d4bc
00000090: 0de7 13bc 1ba1 763c 66bb 423d 7aeb 85be
000000a0: 6a64 1dbe 536e 26bd 7236 1cbf a745 47bd
000000b0: 662d a6bb a420 f63d a930 01bf ccfb b43d
000000c0: 8f2a 8cbd 1ee2 3cbc 5afe 2ebe d97c 883c
000000d0: 17bc 4ebe d194 2abd af7e 2cbe 35fd 7bbe
000000e0: 68b6 733c 510e 0ebe 141d 8abe 3ed9 1f3d
000000f0: 0688 84be b572 dabd 8d18 babe 200e 5ebe
00000100: d3b4 b93d 4872 80be b174 aebe 5d5b 15be
00000110: a663 0abe 8a93 ec3c d206 dabd fffe 88be
00000120: a09a e13b a402 923a 98e4 483d 3b6a 573d
00000130: f4f7 a33d 9234 8f3d dfc6 dd3c 87bb 2c3e
00000140: 7f73 d13d fc6e 383e 53a7 7f3e 3ffb 3d3e
00000150: dc1c 953d d9c5 443d 971e 983d aea9 123d
00000160: 3030 eb37 043c d539 9c22 493d cc2b 7abc
00000170: 5b54 9fbd b104 0cbe 924e f1bd f9a7 60bd
00000180: 2d18 c2bd 8682 1dbe 42a8 1dbd b26b 603e
00000190: 2fa5 38be f925 76be 43fd 8dbe fe67 85bf
000001a0: 8ddb 22bd f25a d0bd 96a4 d4bd 5780 40bc
000001b0: 3e9d 5fba 2fdd 043c 3028 df3b 4b59 1e3d
000001c0: ed2d 0e3d 62a2 c13d 8458 aa3d 442b 3a3d
000001d0: 5bae 8ebd 0578 86bc c587 0fbd e928 cd3c
000001e0: e77e 3f3e 9d99 8f3e 0b3b a8be 5767 4fbe
000001f0: 36b5 2abe d939 9dbf 5f9e cc3a 697a 0cbc
00000200: 0ced dbbc d7ba 213c 41ee f63c 89ee 813c
00000210: 28de 533b a2b2 77bc 79b8 a3bc 4da6 da3c
00000220: bb8a 08be d6ec babd c559 0abe e51b 60be
00000230: 813e 33bd 8868 9cbc 1de2 97bd bf49 61bc
00000240: 3db7 85bd 193a ef3c 479c 5cbb d857 1a39
00000250: d21e 35bc 7588 7e3c 775a 8bbc 288d d7bc
00000260: c9a1 23bd 0a61 0e3e 4f94 753c 519d 7bbe
00000270: a183 a3be 3fb2 bdbf 3e7b 153d acb8 b3bc
00000280: 1469 983c bb01 d9be e45a dbbc b1e3 5abd
00000290: 8081 66be 0b32 1fbd 32bf 4ebe a04a b0bd
000002a0: 11eb c23c b23e 33bc 11f2 943d 1ac3 833d
000002b0: f1b2 493d aaad e6bd 5100 d2bd c6d4 04be
000002c0: 9c24 e3bc f496 be3c f800 e23d 55bd 05be
000002d0: 10ae 003e 9700 0b3d 6db7 cebd b7fb f5bc
000002e0: 42ba 9f3c a779 da3b a951 1bbc d0bd f43c
000002f0: e784 40bd 1c95 303c 1431 54bd f6dd 20ba
00000300: 3313 1b3d 3cdd 4e3d 01b9 053e 9ca5 943b
00000310: 25ad 0a3c 42b7 2e3d 4c33 993c c757 5ebb
00000320: 8f37 0a3d ab0d cf3d b02c 893d c803 3f3d
00000330: 6050 afbc ddee 233e 5cdc 21bf 88f9 fabe
00000340: b059 14bf 21dc eebf 8092 cebc d93e 1f3d
00000350: b74b 85bb 42a6 883d 851d 063e 8eac 54bd
00000360: 1df5 bbbd ab05 2b3c 0576 683d 36c6 583e
00000370: d50d 25bc bd4d b7ba 0776 64bd ac00 513d
00000380: 3b19 d6bd 3e40 78be a4bc 8abe 4e4e 8abd
00000390: 2a5c 603d c908 a43c d2ab 22be 3e1d 89be
000003a0: 0517 0cbd 3696 63be cee3 143b 5334 83be
000003b0: 1032 f8bd ab16 9cbd c965 e9bd 4e2d 3bbe
000003c0: 6926 b2be 3a4a 2cbe 5456 eebc ebf2 8ebe
000003d0: f000 8cbc 2604 a1be 9614 14bf a3a3 40bc
000003e0: 62cb 64be d964 81bd fcc2 edbd 5a64 fbbe
000003f0: 698c 89bd e1a1 0ebd ca47 4b3c d43a d2bd

hidden_layers.0.bias f4 [256]
0.021950964 -0.3035681 -0.11222334 0.020017928 -0.02721655 0.017460087 -0.12603883 -0.13399398
-0.23232241 -0.17069224 -0.16311035 -0.018506374 0.05629792 -0.06501371 -0.02885102 -0.030276144
-0.13150017 -0.23733339 -0.30780464 -0.18104967 0.016007105 -0.14437939 -0.15155514 0.08632772
-0.0648067 0.053326916 -0.14033414 -0.20428625 -0.207262 -0.16583098 -0.26586804 -0.10426071
-0.19395456 -0.115663394 -0.2574657 -0.17422426 -0.20138903 -0.24151891 -0.2966616 -0.21692556
-0.1294732 -0.17226122 -0.12783322 -0.12777753 -0.20528446 -0.036354616 -0.15970989 -0.18737836
0.11759838 -0.16950263 -0.13695818 -0.03420275 -0.16865914 -0.0379292 -0.24243313 0.07462184
-0.18124908 0.085611425 -0.13697696 -0.0075840447 -0.29099673 -0.32163286 -0.15260787 -0.13964844
-0.21822332 -0.117580704 -0.09969305 -0.24254183 -0.15744501 -0.1455139 -0.15093337 -0.19587107
-0.040443186 -0.16770224 -0.08516185 -0.19490255 0.008453386 -0.16150676 -0.1839788 -0.04066291
-0.25832132 -0.19238259 -0.057749968 -0.17626321 -0.059325777 -0.21939057 -0.15952119 -0.045720253
-0.3373837 -0.11572896 -0.13443832 -0.03057747 -0.068108946 -0.2542283 -0.20815325 -0.12083894
-0.28173998 0.0041184844 -0.22659382 0.03495303 -0.120332494 -0.08362783 -0.2259537 -0.31155434
-0.20961118 -0.019547177 -0.05022885 -0.17652498 -0.171813 0.042030215 -0.21275179 -0.0062591066
-0.17231035 0.063959084 -0.1391939 -0.07417662 -0.14350048 -0.12849347 -0.1165771 -0.19526185
-0.20187664 -0.19412877 -0.15862048 0.04515707 0.031437073 -0.20303206 -0.12246063 -0.3193234
-0.11624538 -0.30787215 -0.06091476 -0.054629706 -0.17840171 -0.09086689 -0.23818076 -0.1636212
-0.08020749 -0.115740135 -0.1615201 -0.053798515 -0.11072172 -0.13138425 -0.20424922 0.06249091
-0.20942691 -0.23307982 -0.087456465 -0.1844255 -0.2681137 -0.17620853 -0.1743503 -0.10954315
-0.1788598 -0.09682386 -0.053653628 -0.3715132 -0.19313869 -0.24175906 -0.19025524 0.12747559
-0.11035695 0.017097887 -0.027244 0.028883321 -0.049986012 -0.031182632 -0.22444974 -0.39407825
-0.35268492 -0.1422034 -0.20233224 0.0210232 -0.19983527 -0.07359192 -0.017338693 0.023559717
-0.15515588 -0.21061458 -0.21064016 -0.2516745 -0.17056818 0.0005927507 0.050366703 -0.08728821
-0.047560498 -0.283772 -0.27707943 -0.23787032 -0.11323183 -0.09147536 0.0033080352 -0.021343907
-0.015014899 -0.17820336 0.045059495 -0.049306016 -0.12752007 -0.041516017 -0.11068372 -0.16051084
-0.07637835 0.00566151 -0.03282715 -0.24448691 -0.23205648 -0.11289993 -0.23686777 -0.14999478
-0.2609873 -0.00089370046 -0.008082484 -0.075358085 -0.001887026 -0.025226425 -0.16733651 -0.098433204
-0.21399316 -0.15899575 0.0029392366 0.060013738 -0.11833405 -0.28867814 -0.12918013 -0.11213654
-0.12916188 -0.2227846 -0.06794591 0.030602591 -0.21306205 0.11515539 -0.029934706 -0.1666549
-0.005563794 -0.18326019 -0.08895263 -0.20642619 -0.035195764 -0.08406731 -0.09847235 -0.27062178
0.12584394 -0.21305928 -0.043020297 -0.00091989 4.051659e-05 -0.07844605 -0.12739706 -0.096526965
-0.24208733 0.03400783 -0.10235784 -0.36336568 -0.16138327 -0.0880628 -0.08142654 -0.04875566
00000000: 82d2 b33c 476d 9bbe 5ad5 e5bd a3fc a33c
00000010: 3ef5 debc 7508 8f3c 5310 01be b835 09be
00000020: ede5 6dbe f2c9 2ebe 6606 27be ae9a 97bc
00000030: a698 663d e825 85bd f958 ecbc ad05 f8bc
00000040: fba7 06be 8607 73be 9298 9dbe 1665 39be
00000050: 5521 833c 31d8 13be 4531 1bbe 96cc b03d
00000060: 60b9 84bd 536d 5a3d c1b3 0fbe 6a30 51be
00000070: 7d3c 54be 99cf 29be db1f 88be a486 d5bd
00000080: 069c 46be eee0 ecbd 8bd2 83be d867 32be
00000090: ed38 4ebe bc50 77be 07e4 97be bc21 5ebe
000000a0: 9f94 04be 3f65 30be b6e6 02be 1dd8 02be
000000b0: 1736 52be 94e8 14bd fd8a 23be 1de0 3fbe
000000c0: 6bd7 f03d 1992 2dbe c43e 0cbe 2f18 0cbd
000000d0: fbb4 2cbe a65b 1bbd 6440 78be 56d3 983d
000000e0: 5c99 39be 0b55 af3d b043 0cbe 9483 f8bb
000000f0: 86fd 94be 10ad a4be 3d45 1cbe 0000 0fbe
00000100: ef75 5fbe 27ce f0bd df2b ccbd e35c 78be
00000110: 4439 21be 9901 15be 478e 1abe 6d92 48be
00000120: c1a7 25bd 23ba 2bbe 5669 aebd 8994 47be
00000130: 1280 0a3c 0762 25be f064 3cbe 278e 26bd
00000140: b142 84be f1ff 44be 3b8b 6cbd 587e 34be
00000150: 96ff 72bd eca7 60be 8659 23be 2945 3bbd
00000160: 8ebd acbe 4e03 edbd 33aa 09be 9a7d fabc
00000170: b47c 8bbd 362a 82be 2026 55be 687a f7bd
00000180: 3940 90be 5af4 863b 3608 68be e92a 0f3d
00000190: e270 f6bd 1145 abbd 6860 67be 0d84 9fbe
000001a0: 50a4 56be 6721 a0bc c4bc 4dbd f7c2 34be
000001b0: bfef 2fbe e027 2c3d 9bdb 59be 3119 cdbb
000001c0: 2072 30be fbfc 823d d988 0ebe e9e9 97bd
000001d0: caf1 12be cb93 03be f9bf eebd b9f2 47be
000001e0: c0b8 4ebe b1c9 46be 686d 22be 9ff6 383d
000001f0: 29c4 003d a3e7 4fbe a4cc fabd 5b7e a3be
00000200: 0f12 eebd 6ba1 9dbe c181 79bd 66c3 5fbd
00000210: f0ae 36be 6c18 babd a8e5 73be 518c 27be
00000220: d343 a4bd 2a09 edbd 8665 25be d55b 5cbd
00000230: 12c2 e2bd 9889 06be b526 51be 78f6 7f3d
00000240: 0274 56be 7aac 6ebe 601c b3bd 0ada 3cbe
00000250: 3346 89be 0270 34be e388 32be 2958 e0bd
00000260: 0627 37be 974b c6bd e8c3 5bbd fa36 bebe
00000270: 26c6 45be b08f 77be 45d2 42be f688 023e
00000280: d302 e2bd de10 8c3c cf2e dfbc b79c ec3c
00000290: 22be 4cbd b872 ffbc 27d6 65be a0c4 c9be
000002a0: 1e93 b4be c59d 11be 2f30 4fbe d938 ac3c
000002b0: 9ea1 4cbe 5cb7 96bd e009 8ebc 4f00 c13c
000002c0: 2fe1 1ebe 59ab 57be 0eb2 57be 7bdb 80be
000002d0: 6da9 2ebe d362 1b3a 514d 4e3d 29c4 b2bd
000002e0: ccce 42bd 904a 91be 5bdd 8dbe 4794 73be
000002f0: 17e6 e7bd 6f57 bbbd 9fcb 583b 6bd9 aebc
00000300: 0d01 76bc f17a 36be 4e90 383d 1bf5 49bd
00000310: 9f94 02be b30c 2abd 25ae e2bd f45c 24be
00000320: 416c 9cbd 3084 b93b c375 06bd c75a 7abe
00000330: 37a0 6dbe 1438 e7bd 778d 72be 3b98 19be
00000340: 21a0 85be 3947 6aba 656c 04bc 5755 9abd
00000350: 1656 f7ba a6a7 cebc 435a 2bbe 5997 c9bd
00000360: 0621 5bbe c8cf 22be 35a0 403b f7d0 753d
00000370: 1f59 f2bd 9fcd 93be cc47 04be d8a7 e5bd
00000380: 0343 04be a521 64be 3a27 8bbd 49b2 fa3c
00000390: f02c 5abe 97d6 eb3d a139 f5bc 95a7 2abe
000003a0: 7d50 b6bb 8fa8 3bbe cc2c b6bd 6361 53be
000003b0: 6f29 10bd 7b2b acbd dfab c9bd f08e 8abe
000003c0: 3cdd 003e 362c 5abe 0d36 30bd c624 71ba
000003d0: 5bf0 2938 53a8 a0bd 6074 02be eeaf c5bd
000003e0: bee5 77be cb4b 0b3d fda0 d1bd 110b babe
000003f0: a841 25be 455a b4bd f5c2 a6bd 04b4 47bd

hidden_layers.1.weight f4 [256, 256]
0.041666813 -0.07336901 -0.057047244 -0.06950069 -0.008056886 -0.13770518 -0.00038821547 -0.06164885
-0.108337365 0.069801226 0.18055223 -0.022831231 0.15072507 -0.050754603 0.021200733 -0.016253578
-0.13599505 -0.12095122 0.046222042 -0.032020915 0.018708866 -0.06394107 0.015488799 -0.0052817706
0.17048496 -0.0023908752 0.23796982 -0.063645504 0.052040197 0.2639954 0.030353453 -0.02821041
-0.10173728 0.06780847 -0.025571682 0.08635735 0.09912548 0.06993998 0.13657133 0.13651781
0.046007346 0.01870247 -0.07725512 0.014853224 -0.1183228 0.05468577 -0.035807505 -0.056339033
-0.10872863 -0.051633883 0.090675876 -0.05552184 -0.07809557 -0.108030036 -0.27954996 -0.03886251
-0.04622124 -0.0768569 0.12905143 -0.105171904 0.12606268 0.068097405 -0.04134291 -0.22233586
-0.2269946 0.14741689 -0.05473629 -0.01620676 -0.090610586 -0.031459317 0.044135008 -0.11771582
0.001459908 -0.006207856 0.03013594 0.0723273 -0.021320451 0.08778403 -0.14078858 -0.04187295
0.0047830734 0.039597824 -0.031402405 -0.028634166 -0.02894629 -0.02205232 -0.06936131 -0.07243926
-0.028876709 -0.0009751507 0.06644539 0.15942413 0.010067341 -0.295581 -0.16263448 0.07276465
0.124832705 0.05207978 -0.08701601 -0.03764733 0.05255932 0.115252495 -0.025427414 -0.017935157
-0.14554682 -0.007130499 0.09455416 -0.21088374 -0.002229009 0.04462307 -0.10159024 -0.14533412
0.056586657 0.02262132 -0.0363236 -0.09804697 -0.26930743 0.013126173 -0.10905972 -0.09138569
0.12981802 -0.013315618 -0.20743299 0.043064874 -0.0023290224 -0.0110371 -0.1658934 -0.19395271
-0.06515825 -0.07660709 0.020155262 0.10067969 -0.08369423 0.04921817 -0.02326358 -0.10428602
-0.0045090793 0.049834557 -0.07923273 0.059900645 0.0030954964 -0.054973524 -0.12245424 -0.07947018
-0.2777494 -0.2968051 -0.006315244 -0.02197047 0.01579107 -0.019027641 0.015240015 -0.0012797306
-0.056336574 -0.0933364 -0.054915775 -0.119267836 -0.08953083 -0.16459213 -0.028354349 0.06550223
-0.18148114 0.10711369 0.050743293 -0.09694051 0.14614221 0.024081578 0.07009616 0.19300796
-0.12587236 0.11185452 -0.043588217 -0.070690475 -0.06847402 0.059871648 -0.30758083 0.075692885
0.071648076 -0.14529786 0.081354655 -0.09475485 0.06891473 0.10771689 0.04851427 -0.0052145673
-0.0893639 0.075010635 -0.09523159 -0.16284576 0.07943245 -0.05455557 0.0503731 -0.079743035
0.038646333 -0.03738177 -0.008543652 -0.05136987 -0.054133404 0.005390039 -0.071837805 -0.079259336
0.062352397 -0.061796993 0.09662813 0.07810323 -0.06371516 -0.010074799 -0.022253048 -0.04976176
0.0845494 0.0385469 0.010630077 0.12659752 0.16650897 0.039484024 0.16738413 0.02796987
0.01263883 -0.07054893 0.05637889 -0.1442011 0.05044969 -0.039130494 -0.004228323 0.11041913
0.024945602 0.016850883 -0.18196209 -0.030986048 -0.042243358 0.08000534 -0.09643875 -0.30082652
-0.107836135 -0.000676334 -0.02450271 0.04908759 -0.045191497 -0.24302264 -0.05820403 0.11089115
0.095682286 0.033126842 0.0470376 -0.08400176 -0.047174662 0.021008227 -0.011947667 -0.119544156
-0.11469507 0.11057591 0.10734543 -0.088871576 -0.02377492 0.017007979 -0.079142444 -0.04014846
00000000: d2aa 2a3d 7e42 96bd 5faa 69bd 6156 8ebd
00000010: 0701 04bc 9602 0dbe 6689 cbb9 8183 7cbd
00000020: fbdf ddbd f2f3 8e3d afe2 383e 9008 bbbc
00000030: ac57 1a3e 0fe4 4fbd 29ad ad3c 3926 85bc
00000040: 4942 0bbe 46b5 f7bd 5353 3d3d 5d28 03bd
00000050: 5643 993c 89f3 82bd bbc4 7d3c b412 adbb
00000060: 9c93 2e3e 3bb0 1cbb 5cae 733e 9358 82bd
00000070: 1a28 553d 682a 873e cea7 f83c 8519 e7bc
00000080: a35b d0bd 2bdf 8a3d b47b d1bc 1fdc b03d
00000090: 4d02 cb3d b13c 8f3d 5bd9 0b3e 53cb 0b3e
000000a0: 3372 3c3d ec35 993c ef37 9ebd f05a 733c
000000b0: 3953 f2bd 30fe 5f3d e4aa 12bd c2c3 66bd
000000c0: 1ead debd 0d7e 53bd 46b4 b93d de6a 63bd
000000d0: 92f0 9fbd da3e ddbd 2c21 8fbe 4c2e 1fbd
000000e0: 7c52 3dbd 2667 9dbd 0f26 043e 5e64 d7bd
000000f0: 9316 013e a776 8b3d 2f57 29bd 03ac 63be
00000100: 4671 68be 74f4 163e 2933 60bd 0ac4 84bc
00000110: 0b92 b9bd 7cdb 00bd e9c6 343d fe14 f1bd
00000120: 625a bf3a 456b cbbb a6df f63c 5620 943d
00000130: 3aa8 aebc 1dc8 b33d e22a 10be f882 2bbd
00000140: 54bb 9c3b 5431 223d cf9f 00bd 3392 eabc
00000150: c520 edbc 11a7 b4bc 4d0d 8ebd 095b 94bd
00000160: d98e ecbc 41a1 7fba 8514 883d 1440 233e
00000170: 7df1 243c 6556 97be a789 26be a205 953d
00000180: 4aa8 ff3d 9b51 553d 7335 b2bd 1634 1abd
00000190: 7148 573d 8009 ec3d 274d d0bc c0ec 92bc
000001a0: 3a0a 15be f6a6 e9bb 9da5 c13d e8f1 57be
000001b0: 9114 12bb aec6 363d 8b0e d0bd 78d2 14be
000001c0: 69c7 673d 5950 b93c 0ec8 14bd dacc c8bd
000001d0: aae2 89be 290f 573c b45a dfbd 6c28 bbbd
000001e0: 04ef 043e c029 5abc 5069 54be cb64 303d
000001f0: 83a2 18bb f4d4 34bc f6df 29be 8a9b 46be
00000200: b071 85bd 2ee4 9cbd a61c a53c 2731 ce3d
00000210: e167 abbd fe98 493d 4393 bebc e993 d5bd
00000220: e6c0 93bb 521f 4c3d c544 a2bd 615a 753d
00000230: d0dd 4a3b eb2b 61bd 4ac9 fabd 43c1 a2bd
00000240: 2b35 8ebe d7f6 97be 1bf0 cebb 6afb b3bc
00000250: 465c 813c dbdf 9bbc 42b1 793c a2bc a7ba
00000260: 2ec1 66bd 2827 bfbd 5def 60bd b242 f4bd
00000270: f15b b7bd d78a 28be 6147 e8bc 0826 863d
00000280: 31d6 39be 6c5e db3d 33d8 4f3d bf88 c6bd
00000290: 4ea6 153e bb46 c53c 938e 8f3d e1a3 453e
000002a0: afe4 00be fc13 e53d 8f89 32bd 2bc6 90bd
000002b0: 1b3c 8cbd f93b 753d 3c7b 9dbe df04 9b3d
000002c0: 3abc 923d f6c8 14be 459d a63d d50e c2bd
000002d0: 2a23 8d3d ac9a dc3d e6b6 463d f6de aabb
000002e0: 6c04 b7bd 2d9f 993d c808 c3bd 0ac1 26be
000002f0: 7bad a23d a975 5fbd 0654 4e3d 5150 a3bd
00000300: 9e4b 1e3d a01d 19bd acfa 0bbc 3669 52bd
00000310: fdba 5dbd ed9e b03b b31f 93bd b852 a2bd
00000320: 3a65 7f3d d81e 7dbd f8e4 c53d 96f4 9f3d
00000330: 187d 82bd c510 25bc 064c b6bc fdd2 4bbd
00000340: 3c28 ad3d 5be3 1d3d c629 2e3c c8a2 013e
00000350: 5481 2a3e 00ba 213d bf66 2b3e 1221 e53c
00000360: 1813 4f3c f57b 90bd 8ded 663d 74a9 13be
00000370: 56a4 4e3d 4c47 20bd bf8d 8abb 6d23 e23d
00000380: b85a cc3c dd0a 8a3c 4554 3abe 74d6 fdbc
00000390: 5f07 2dbd d7d9 a33d ae81 c5bd ef05 9abe
000003a0: 31d9 dcbd 024c 31ba e8b9 c8bc 1210 493d
000003b0: b81a 39bd edda 78be 5967 6ebd e61a e33d
000003c0: 13f5 c33d 03b0 073d 80aa 403d 1d09 acbd
000003d0: 383a 41bd 7219 ac3c 26c0 43bc 91d3 f4bd
000003e0: 40e5 eabd 9f75 e23d ecd7 db3d 4d02 b6bd
000003f0: 9fc3 c2bc 5154 8b3c 6f15 a2bd b672 24bd

hidden_layers.1.bias f4 [256]
0.20121238 -0.11344718 0.16809961 0.16553876 0.21856888 -0.10470122 -0.10996864 0.20969723
0.099723235 -0.07355898 -0.06997661 -0.37727886 0.17589502 -0.37947285 -0.11218387 -0.074698105
0.026392717 0.189576 0.021162655 0.11395277 0.060383298 0.05292544 0.17019176 0.14000396
0.12440203 0.13412477 0.08276793 0.23338379 0.13545458 0.19860637 -0.09550536 0.19708873
0.12533794 0.038943388 0.19017808 0.17856213 0.094955295 0.17569807 0.1947797 -0.12333016
0.18560445 0.18918602 -0.010499344 0.18988818 -0.08930074 0.17611186 0.0492769 0.16497922
0.16372626 0.199169 0.17688666 0.1981899 0.18614982 -0.0921956 -0.06513955 -0.09049318
0.20297597 0.17964612 0.18393345 -0.12793116 0.19365197 0.20674612 0.19215812 0.055353265
0.039763883 0.049601838 0.12669215 0.11778877 0.18640776 0.18928184 -0.08689312 0.11805137
0.16010167 -0.08383736 -0.12608352 0.055395104 0.15328409 0.19395758 0.19986753 0.022635834
-0.060192063 0.09074482 0.1843014 0.13506618 0.19323657 -0.09228694 0.1317705 -0.11953303
0.10561441 0.196085 0.14216927 -0.09608103 -0.11531672 0.06352396 0.18793002 0.15065439
0.09196553 0.10589077 0.13220397 -0.08601912 0.1800172 0.13530995 0.1791642 0.19900481
0.2069479 0.15267366 0.18166958 -0.014469913 0.09157394 0.16347978 0.19231556 0.16833901
0.1834221 0.21288088 0.124172434 0.14445709 0.19523099 0.13618079 0.06020815 0.0554701
-0.09313981 0.19006845 0.09526717 -0.048613448 0.18452287 0.22545579 0.07121011 0.12186708
0.1636529 0.15996735 -0.1128671 0.11269354 0.12545352 0.19081856 0.14808692 0.10914791
-0.08352758 0.08583482 0.18044153 -0.100361675 0.0886381 -0.07890476 0.04917215 0.17957
0.16277027 -0.070377015 0.19574967 0.18191998 0.16273445 -0.07882532 0.18266971 0.17686427
0.20682463 0.07882518 0.18686008 0.13474251 -0.07007076 0.20018761 0.113361984 -0.06727421
0.09352828 0.19201587 -0.057428718 0.08615927 -0.02329129 -0.054952163 0.15688796 0.19317175
0.20116301 0.16322473 -0.23151593 0.09362575 0.17749044 -0.1447335 0.16215111 -0.09108986
-0.12959631 0.071224354 0.17637457 0.19143221 0.14101024 0.17645447 0.19134554 -0.12868802
0.18535277 0.16260798 0.13332893 -0.109334834 0.1682944 0.18660477 0.19375968 -0.069625095
0.068445146 0.1841794 0.07121959 0.030017626 0.18336514 0.19528238 0.0723481 0.04887362
-0.11689443 0.13681762 -0.09913118 0.07252787 -0.101969846 0.08284995 0.16386928 0.14764965
0.21635886 0.061262127 0.0519526 -0.066015 0.031717986 -0.080409154 0.15115577 0.1665649
-0.30342272 0.15557684 -0.39453882 0.03840639 0.1607139 0.18528111 0.027113872 0.15044904
-0.09504164 0.017771425 0.16653904 0.17345008 0.18415779 -0.19781047 0.19257109 -0.090893865
0.055562124 0.1757902 0.22257167 0.20251901 -0.012874308 -0.2608418 0.034743916 -0.07614354
0.18173201 -0.10032626 0.20116636 0.15771754 0.19481555 0.18996316 0.1822262 0.15479727
0.09975125 0.15319426 0.1983475 -0.09284223 -0.075989544 0.043076683 -0.09893206 0.1785517
00000000: 9e0a 4e3e ff56 e8bd 4e22 2c3e fe82 293e
00000010: 85d0 5f3e 986d d6bd 3d37 e1bd dfba 563e
00000020: b23b cc3d 17a6 96bd e64f 8fbd b22a c1be
00000030: d31d 343e 444a c2be a8c0 e5bd 52fb 98bd
00000040: 8a35 d83c 3620 423e 4e5d ad3c 1260 e93d
00000050: 7a54 773d 59c8 583d c046 2e3e 335d 0f3e
00000060: 7ec6 fe3d 0158 093e 3c82 a93d 29fc 6e3e
00000070: 9bb4 0a3e 785f 4b3e 5098 c3bd a1d1 493e
00000080: 9758 003e 1a83 1f3d 0bbe 423e fed8 363e
00000090: ec77 c23d 32ea 333e 5474 473e 8694 fcbd
000000a0: 180f 3e3e fbb9 413e 7105 2cbc 0c72 423e
000000b0: 4ee3 b6bd ab56 343e 93d6 493d 50f0 283e
000000c0: dba7 273e f5f2 4b3e c721 353e 4bf2 4a3e
000000d0: 0f9e 3e3e 0cd1 bcbd e267 85bd 7d54 b9bd
000000e0: efd8 4f3e 27f5 373e 0d59 3c3e 6300 03be
000000f0: b44c 463e 41b5 533e 19c5 443e 1bba 623d
00000100: 74df 223d 4c2b 4b3d 96bb 013e 3d3b f13d
00000110: ade1 3e3e 19d3 413e 05f5 b1bd ebc4 f13d
00000120: b1f1 233e ecb2 abbd 0a1c 01be fae5 623d
00000130: 81f6 1c3e d19c 463e 13aa 4c3e c96e b93c
00000140: f48b 76bd 6cd8 b93d 82b9 3c3e ca4e 0a3e
00000150: cfdf 453e ef00 bdbd d9ee 063e bccd f4bd
00000160: 5e4c d83d 82ca 483e d294 113e 22c6 c4bd
00000170: 2c2b ecbd da18 823d ba70 403e 2545 1a3e
00000180: 6c58 bc3d 43dd d83d 7a60 073e cb2a b0bd
00000190: 6e56 383e b18e 0a3e d276 373e ebc7 4b3e
000001a0: 26ea 533e 7c56 1c3e 9707 3a3e 3713 6dbc
000001b0: 1e8b bb3d 3e67 273e 5fee 443e 1061 2c3e
000001c0: 01d3 3b3e 72fd 593e 1e4e fe3d 8fec 133e
000001d0: a2ea 473e fa72 0b3e d29c 763d 9e34 633d
000001e0: 16c0 bebd 4ea1 423e 6f1b c33d e51e 47bd
000001f0: 90f3 3c3e e2dd 663e 9bd6 913d 7395 f93d
00000200: a094 273e 7bce 233e de26 e7bd dfcb e63d
00000210: e376 003e f165 433e 19a4 173e f088 df3d
00000220: 8210 abbd 2bca af3d aac5 383e 6c8a cdbd
00000230: e487 b53d d298 a1bd bd68 493d 33e1 373e
00000240: 40ad 263e d321 90bd 9a72 483e 3b49 3a3e
00000250: dca3 263e 2b6f a1bd c50d 3b3e e81b 353e
00000260: d6c9 533e 196f a13d 4058 3f3e f1f9 093e
00000270: 4281 8fbd fbfd 4c3e 542a e83d 10c7 89bd
00000280: c18b bf3d cf9f 443e 603a 6bbd 4574 b03d
00000290: 60cd bebc 8515 61bd 3da7 203e d1ce 453e
000002a0: adfd 4d3e 6224 273e 8312 6dbe dbbe bf3d
000002b0: 0ec0 353e 0535 14be f10a 263e 528d babd
000002c0: e5b4 04be 13de 913d 899b 343e ce06 443e
000002d0: fd64 103e 7bb0 343e 16f0 433e cbc6 03be
000002e0: 1ecd 3d3e b582 263e 6187 083e f1ea dfbd
000002f0: 5e55 2c3e 5215 3f3e f068 463e 9a97 8ebd
00000300: f82c 8c3d 8699 3c3e 94db 913d 86e7 f53c
00000310: 12c4 3b3e 1bf8 473e 3e2b 943d b42f 483d
00000320: 5966 efbd eb19 0c3e 4a05 cbbd 7e89 943d
00000330: 91d5 d0bd 3cad a93d 59cd 273e 7831 173e
00000340: 2d8d 5d3e ffed 7a3d 40cc 543d df32 87bd
00000350: b8ea 013d 8ead a4bd 94c8 1a3e fd8f 2a3e
00000360: 395a 9bbe 894f 1f3e fe00 cabe 0550 1d3d
00000370: 2f92 243e 55ba 3d3e e91d de3c 500f 1a3e
00000380: 31a5 c2bd 6195 913c 3689 2a3e e69c 313e
00000390: dc93 3c3e d48e 4abe 5b31 453e 9026 babd
000003a0: 1c95 633d 5902 343e d4e9 633e 2561 4f3e
000003b0: c3ee 52bc 0e8d 85be a34f 0e3d 25f1 9bbd
000003c0: f517 3a3e db77 cdbd 8efe 4d3e b580 213e
000003d0: ba7d 473e b485 423e 8199 3a3e 2d83 1e3e
000003e0: 624a cc3d f5de 1c3e 9b1b 4b3e 1124 bebd
000003f0: 68a0 9bbd 2d71 303d e49c cabd 42d6 363e

output.weight f4 [4, 256]
0.022741627 -0.035832565 0.030025132 0.027330339 0.032063052 -0.003814759 -0.025575245 0.04940907
-0.12238634 0.068556316 0.0026334957 -0.25127062 0.02646826 -0.3145097 -0.018952625 -0.013180836
0.06841284 0.033966847 0.067043066 -0.11876064 -0.17354764 -0.21636039 0.023291565 0.03542592
0.06446636 0.027301816 -0.15839818 0.03597147 -0.05542072 0.026936224 0.000625783 0.037636302
0.018837648 0.08439859 0.05524127 0.022915896 -0.11898494 0.038653538 0.02481316 0.022853637
0.030374557 0.024847636 -0.2674101 0.04632878 -0.024009181 0.046148427 0.053903587 -0.14508602
0.035470117 0.01746973 0.049289063 0.02107032 0.022655068 0.005445292 0.029687189 -0.008087019
0.02486999 0.020996576 0.04157408 0.031927545 0.052384067 0.047122657 0.021470709 -0.019990442
-0.06479599 -0.0012744529 0.024266073 0.023161832 0.026325494 0.038974594 -0.01394934 0.042988647
-0.07002952 0.0010977684 -0.052211806 0.046216175 0.028929122 0.047950763 0.0305847 -0.016052587
-0.029883917 0.049934823 0.031192454 0.038558424 0.054176584 0.026392655 0.032249372 0.022744061
-0.2217811 0.05997091 -0.1423876 -0.0035420065 0.033473946 -0.029911175 0.03496864 0.023748593
0.03635577 -0.05402675 -0.09524896 0.032556828 0.018262599 -0.044981413 0.040569924 0.04788925
0.04004047 0.03758972 0.035423726 -0.16867398 0.039294794 0.026805751 0.027228462 -0.09845536
0.026229393 0.03908783 0.037173696 0.03986332 0.045335513 0.061031073 0.011332422 -0.10847108
-0.0080961045 0.049646903 -0.02286715 -0.0577026 0.035514925 0.023257619 -0.040900975 -0.07151347
0.025752474 0.05675211 0.01647294 0.025892578 -0.09881821 0.040174823 0.028555786 -0.009377663
0.009254171 -0.15216036 0.03001614 0.032911863 -0.15396824 -0.00837782 0.049034107 0.028640112
0.03850082 0.026249638 0.028127547 0.04852192 0.026975125 -0.008826457 0.019779924 0.03273715
0.03753733 0.04612327 0.05217716 -0.2554094 0.01070216 0.029159514 -0.053741325 0.010550315
-0.05991572 0.03980272 -0.005814273 -0.07466099 0.07676429 0.03521701 0.018845087 0.032827426
-0.024580022 0.031090423 -0.11885635 -0.21882409 0.037995625 -0.022422658 0.022181943 -0.017712897
-0.09505632 -0.0538194 -0.054387078 0.03705747 -0.018511396 0.028963972 0.017141327 -0.080887526
0.034327682 0.03667249 -0.11038595 -0.024357287 0.03434719 0.028925227 0.050956815 0.009104867
-0.07448714 0.045448944 -0.034707244 0.0378769 0.0396427 0.042659704 -0.1439669 0.0042619132
0.014330811 -0.00024047315 -4.812108e-05 -0.1078933 -0.014282516 -0.03868065 0.034154803 0.029598583
0.035216767 0.15649095 0.08557455 -0.03890336 -0.17917852 -0.05431848 0.030040003 0.043110732
-0.11242925 0.036496382 -0.121671684 0.06763642 -0.033243444 0.025247078 -0.073684834 -0.08729433
0.0074686715 0.11875652 -0.07258253 0.046469238 0.05321751 -0.06904699 0.05237303 0.0010422361
-0.0011679215 0.027817793 0.04010067 0.045414045 -0.3070006 -0.058347926 -0.10435842 -0.026870862
0.02985675 -0.07330131 0.04107251 0.035075717 0.022992693 0.048031613 0.019919377 0.03382294
-0.124524765 0.031724274 0.05371168 0.013701853 -0.0047388864 -0.16838165 -0.0202691 0.02911153
00000000: a64c ba3c 2bc5 12bd 44f7 f53c e0e3 df3c
00000010: 8c54 033d 0901 7abb 2d83 d1bc 2a61 4a3d
00000020: b0a5 fabd 4167 8c3d ba96 2c3b 8ba6 80be
00000030: f7d3 d83c 6a07 a1be 8942 9bbc 6ff4 57bc
00000040: 081c 8c3d d220 0b3d e04d 893d c738 f3bd
00000050: 79b6 31be 948d 5dbe f4cd be3c c51a 113d
00000060: f006 843d 0fa8 df3c 2233 22be d256 133d
00000070: d600 63bd 5ba9 dc3c 960b 243a 8628 1a3d
00000080: 6951 9a3c 2bd9 ac3d ac44 623d 1eba bb3c
00000090: 60ae f3bd 2c53 1e3d f844 cb3c 8d37 bb3c
000000a0: 10d4 f83c 458d cb3c fae9 88be 3fc3 3d3d
000000b0: e7ae c4bc 2206 3d3d 02ca 5c3d 6e91 14be
000000c0: 1d49 113d ae1c 8f3c 54e3 493d aa9b ac3c
000000d0: 1f97 b93c 6c6e b23b 8c32 f33c 6b7f 04bc
000000e0: 26bc cb3c 0301 ac3c 9549 2a3d 75c6 023d
000000f0: ad90 563d b003 413d 57e3 af3c ffc2 a3bc
00000100: c3b3 84bd 8b0b a7ba a5c9 c63c e2bd bd3c
00000110: 90a8 d73c d3a3 1f3d c68b 64bc dd14 303d
00000120: a36b 8fbd ffe2 8f3a 0cdc 55bd 2c4d 3d3d
00000130: c4fc ec3c 0568 443d c48c fa3c b780 83bc
00000140: 1ecf f4bc 7588 4c3d 5187 ff3c 70ef 1d3d
00000150: 44e8 5d3d 6935 d83c eb17 043d c151 ba3c
00000160: 961a 63be 0fa4 753d 0ece 11be 0221 68bb
00000170: fa1b 093d 4808 f5bc 473b 0f3d 698c c23c
00000180: cae9 143d 274b 5dbd e311 c3bd 4f5a 053d
00000190: 729b 953c 6e3e 38bd a62c 263d 8527 443d
000001a0: 7a01 243d aef7 193d 7818 113d dfb8 2cbe
000001b0: 94f3 203d bc97 db3c 390e df3c f7a2 c9bd
000001c0: 06df d63c 8f1a 203d 7243 183d b847 233d
000001d0: bbb1 393d b8fb 793d 9fab 393c 1626 debd
000001e0: 86a5 04bc 8d5a 4b3d e453 bbbc 9059 6cbd
000001f0: 1978 113d c386 be3c c887 27bd a775 92bd
00000200: daf6 d23c e774 683d 42f2 863c ac1c d43c
00000210: 3461 cabd 5b8e 243d d3ed e93c c5a4 19bc
00000220: ce9e 173c edcf 1bbe 68e4 f53c 97ce 063d
00000230: daa9 1dbe 2043 09bc fdd7 483d ab9e ea3c
00000240: 09b3 1d3d 7b09 d73c be6b e63c ecbe 463d
00000250: f0fa dc3c d89c 10bc 8209 a23c 6417 063d
00000260: bec0 193d c1eb 3c3d b8b7 553d 05c5 82be
00000270: 1d58 2f3c efdf ee3c dd1f 5cbd 3adb 2c3c
00000280: 306a 75bd 2d08 233d a885 bebb dce7 98bd
00000290: 9936 9d3d b63f 103d 0361 9a3c 0d76 063d
000002a0: 0b5c c9bc 58b1 fe3c f56a f3bd 6c13 60be
000002b0: 4da1 1b3d b9af b7bc e8b6 b53c a31a 91bc
000002c0: e3ac c2bd bb71 5cbd fcc4 5ebd 93c9 173d
000002d0: 36a5 97bc da45 ed3c f86b 8c3c 5ca8 a5bd
000002e0: 2f9b 0c3d e535 163d 0712 e2bd ef88 c7bc
000002f0: a4af 0c3d 99f4 ec3c 18b8 503d 942c 153c
00000300: b78c 98bd ac28 3a3d 2f29 0ebd cf24 1b3d
00000310: 6260 223d f1bb 2e3d 0f6c 13be 85a7 8b3b
00000320: c7cb 6a3c 8527 7cb9 9ed5 49b8 2af7 dcbd
00000330: 3701 6abc 9a6f 1ebd e8e5 0b3d ba78 f23c
00000340: 753f 103d 2a3f 203e b641 af3d 2159 1fbd
00000350: 937a 37be 0e7d 5ebd 7416 f63c e194 303d
00000360: 4e41 e6bd 3b7d 153d 012f f9bd f784 8a3d
00000370: 472a 08bd f6d2 ce3c 13e8 96bd 5fc7 b2bd
00000380: c2bb f43b 9e36 f33d 26a6 94bd 8756 3e3d
00000390: 9bfa 593d 8268 8dbd 1a85 563d a49b 883a
000003a0: f114 99ba 24e2 e33c 9a40 243d 1404 3a3d
000003b0: 2f2f 9dbe 3cfe 6ebd deb9 d5bd 4820 dcbc
000003c0: 2596 f43c ff1e 96bd a63b 283d 8eab 0f3d
000003d0: 2c5b bc3c ccbc 443d f62d a33c ec89 0a3d
000003e0: d706 ffbd 50f1 013d c700 5c3d bd7d 603c
000003f0: a948 9bbb 3d6c 2cbe 620b a6bc 4e7b ee3c

output.bias f4 [4]
1.5517727 1.3089666 1.3814012 1.375897
00000000: 7da0 c63f 388c a73f c1d1 b03f 651d b03f
