checkpoints/state_size_37__action_size_4__hidden_layers_[256-256]__drop_p_0.0__seed_0__GAMMA_0.99__LR_0.0005__UPDATE_EVERY_25__BUFFER_SIZE_100000__BATCH_SIZE_64__TAU_0.001.pth (torch, 308311 bytes, 6 tensors)

hidden_layers.0.weight f4 [256, 37]
00000000: 609c ad3d 5051 e4bd f978 e83d 6768 3fbd
00000010: 351e 47bd 135f 46be 7f66 093d 5565 b1bd
00000020: 254b 633d dad6 70bc a579 95bd a174 05be
00000030: 8e46 c23c cc5f f6bd 35e7 ed3d 0fca bebd
00000040: b611 b73d 6d92 3b3e c19e 24bd 852c ac3c
00000050: 4395 06bd 01e3 e43d 96ce d8bd ee3e fc3d
00000060: a4e8 5ebd e61d 0c3e 1c67 6cbe 60f4 40be
00000070: 7fc9 a8bd bdff cdbe cc06 c1bd 3c07 df3c
00000080: e80c 21be 7b72 1d3d 2917 fb3d abcb a03c
00000090: 0909 f7bc 903f 37be 3479 1dbd 2927 543d
000000a0: adb5 013d eb96 bd3d ab02 c43c 8d9e 693d
000000b0: 0553 75bd 2781 8e3d d4b9 babd 66d7 8dbc
000000c0: 3f7f 6e3d 0398 7a3c 1e17 b03d 357f 163d
000000d0: 53f6 303e 2cde 28bf 8f46 bbbe 11d1 b6be
000000e0: 4e91 8ebf bbfb f1bd fa4a f33d ff24 08bc
000000f0: 25ac bf3b 9a78 37bd c409 d1be 181b de3d
00000100: 0b7f 05be 10f0 04be a965 e4be 9600 8ebd
00000110: 3e72 273d 9fda c23d c073 4c3e 3706 d53d
00000120: 1198 c23d 8c7a cc3c 2b20 2cbd 2645 e43d
00000130: a815 583d 2234 063e c161 f13d 953d db3b
00000140: ff93 3b3d 9c25 673c bd55 c33d 61a3 59ba
00000150: cf91 4ebc 12ed 96bb 2bb0 943c 47db a73d
00000160: c359 efbb 279b c23e 1b79 0dbf 2b4c 8dbe
00000170: 3968 18be 8298 cebf 70ec b43d f2f3 003e
00000180: acaa a03d 6cf6 ff3d 5aec 77bc 49cf 86bd
00000190: 02ea aa3d 2779 debc 0438 aabd ba60 7bbe
000001a0: c8d1 d03d f8f0 d03d 4332 093e bf29 353e
000001b0: eabd 1f3d 077b b23b 91d3 09b7 5200 953d
000001c0: e777 973d 7ca9 c1bd dd5c 31bc 3be9 e7bd
000001d0: 5203 4bbe cda3 e0bd eee1 ba3a 5405 813d
000001e0: 276a 623e eb47 24be 5a06 aa3d a68f 1bbd
000001f0: 8e28 8ebd b41b 94bc 8d11 d4bd cdd7 33be
00000200: b4c9 7dbd b7cc cf3b 3e18 f23c 9476 28bd
00000210: 2ec2 e4bd 2953 cb3d 4f46 c93c 21cb 433e
00000220: 4c24 b53d d20c 40bd 0f51 6bbd cd90 24bd
00000230: 8d8b b73c a2d1 163e 378d 79bd d310 08be
00000240: 7966 a6be 24df 7abf de4f 11be b317 663d
00000250: 0bf6 fcbd 5578 713a b13d 2dbe 5e06 923d
00000260: dbfc 66be 054e 13bd 6588 18be f93f 33bd
00000270: 7bea 8f3d bb6e 143d d059 16be 39ca 48bd
00000280: e020 b23d 7b7a 043e b969 ed3a cbf9 dc3d
00000290: 8078 a9bd bdb1 7f3d 8695 0ebe 8439 b73d
000002a0: 762f d93d 0d8c babd 4d40 3fbd 31a1 2abe
000002b0: 77f6 1a3e ef9a 263d 95fd 453c cc6f 80bd
000002c0: ddea 02be 8edd 093e c030 62be 63ed 283d
000002d0: 745e 223e 1276 183e 0c38 1d3c 390f d23c
000002e0: 4b55 47bd ecf0 ea3d 494f 96bd 79ca 00be
000002f0: 33ee e93c bd76 f3bd bbf0 66be 9635 53be
00000300: 0983 143e cd87 57be ffe2 29bf 80c4 6dbd
00000310: 513e 0f3b f2b7 173c 377d 95bb 1aeb 0c3e
00000320: 2b19 40bc 3fd5 c5bd c00b 553d 2703 08be
00000330: 30dc 3ebe 9d1f 5ebe 6e2e efbb 37bd 283d
00000340: f902 37be cba9 983d c650 623b 1658 8dbe
00000350: c380 54be d1a3 8abe 3d2e 67bf 8e1c 663d
00000360: 3a9d 49be 5a88 123e 6e3c 44be 36e7 19bf
00000370: 8526 d53d bb10 3f3c 6b19 843d 671d 7cbd
00000380: b130 093d 8a2a c6bd f643 70be 49b0 66be
00000390: a767 64bd fa61 673e 8ada 99be 55a3 6dbf
000003a0: 9362 83bc 42f0 d1bc ea56 a0bc ebea 47be
000003b0: e441 b93c 5729 3b3e d0f2 8b3c 572e 393d
000003c0: 2403 e2bd 8234 a6bd dc50 6fbd d73e 98bd
000003d0: a077 fa3d 6f14 62be 2e1e 57be a69e 6d3d
000003e0: c73d 4fbe c434 493e 4398 2bbe 2758 e53c
000003f0: 3ea1 10be 4915 d7bd 0649 593e 62ef b2be
0.08477092 -0.11148322 0.11351199 -0.046730425 -0.048612792 -0.19372205 0.033545014 -0.08661906
0.055491585 -0.014699662 -0.072985925 -0.13032772 0.023715284 -0.120299906 0.11616365 -0.09315883
0.08938925 0.18317576 -0.040190462 0.021017322 -0.03285719 0.1117611 -0.10586278 0.123166904
-0.054421082 0.1368328 -0.23086208 -0.18843222 -0.08241557 -0.40234175 -0.094251245 0.02722513
-0.1572758 0.038439255 0.12260277 0.019628366 -0.030155675 -0.17895341 -0.038445666 0.05179516
0.0316674 0.09257301 0.023927053 0.05703597 -0.059893627 0.069582276 -0.09117475 -0.017314624
0.05822682 0.0152950315 0.08598159 0.036742408 0.17281465 -0.6596401 -0.3657727 -0.3570638
-1.1138093 -0.11815592 0.11879535 -0.008309602 0.0058493786 -0.04479275 -0.40827763 0.108450115
-0.13036744 -0.12982202 -0.4460881 -0.069337055 0.040880434 0.09514355 0.1996603 0.10401576
0.095016606 0.024960779 -0.042022865 0.111460015 0.052755028 0.13105825 0.11786223 0.0066906908
0.045795437 0.014108088 0.09537838 -0.00083022384 -0.012608006 -0.0046058977 0.01815041 0.08196121
-0.0073044016 0.38008997 -0.5526292 -0.27597174 -0.14883508 -1.6140292 0.088341594 0.12593058
0.07845053 0.12498173 -0.015132034 -0.06582505 0.08345415 -0.02715738 -0.083114654 -0.24548617
0.101962626 0.10202211 0.1339808 0.17691706 0.038999476 0.005446795 -8.2150955e-06 0.07275452
0.073959164 -0.09456155 -0.010825363 -0.11323782 -0.19825485 -0.109687425 0.0014258006 0.062998444
0.22110806 -0.1604306 0.08301993 -0.03797879 -0.06941329 -0.018079616 -0.1035491 -0.1756279
-0.061959937 0.0063415426 0.029552575 -0.04112871 -0.11169849 0.09927971 0.024569659 0.19120456
0.08844814 -0.046887226 -0.05745035 -0.040177155 0.02240541 0.14728406 -0.06092569 -0.13287668
-0.32500055 -0.97996736 -0.14190623 0.056174945 -0.123516165 0.0009211351 -0.16918065 0.07130121
-0.22557394 -0.035963077 -0.1489578 -0.04376218 0.070271455 0.036238413 -0.14682698 -0.04902098
0.08697677 0.12937348 0.0018113173 0.10789832 -0.08274937 0.062425364 -0.13924226 0.08946517
0.106047556 -0.09108744 -0.04669218 -0.16663052 0.15133081 0.0406751 0.012084384 -0.062713236
-0.12784906 0.13463423 -0.22088909 0.041242015 0.15856344 0.1488879 0.009595882 0.025642024
-0.048665326 0.114717335 -0.07339341 -0.12577237 0.028555965 -0.11887882 -0.22552769 -0.2062591
0.14503111 -0.21047898 -0.66361994 -0.058048725 0.0021857212 0.009260165 -0.004562046 0.13761559
-0.0117247505 -0.09659814 0.05201316 -0.13282453 -0.18638682 -0.21691747 -0.007299236 0.041196074
-0.17872228 0.074542604 0.0034533008 -0.27606267 -0.20752244 -0.27078107 -0.9030493 0.056179576
-0.19688883 0.14309826 -0.19163677 -0.60118425 0.10407738 0.011661704 0.064501606 -0.061551478
0.0334937 -0.096760824 -0.23463425 -0.22528185 -0.055762913 0.22595969 -0.30049545 -0.9282735
-0.016038215 -0.02562726 -0.019572694 -0.19523208 0.022614427 0.18277489 0.017083555 0.04521021
-0.11035755 -0.08115484 -0.058426723 -0.07433861 0.12229848 -0.22078107 -0.21007606 0.058012627
-0.2023841 0.19649035 -0.16757302 0.027996136 -0.14124009 -0.10502107 0.21219262 -0.3494826

hidden_layers.0.bias f4 [256]
00000000: b49a 35be 10dd ddbd ca45 4dbd 7e6a 60be
00000010: a4ef 1abe 2829 4ebe eb97 3fbb e553 a5bd
00000020: c830 e2bd 37c1 4b3d 3245 8dbd 7521 f73d
00000030: 5fcf 9e3d 711c 45bd b14e 3fbe 728f df3d
00000040: b7b5 73be f0af 8abe 8a19 09be c4c6 edbd
00000050: aee6 07be 2006 0bbe 1248 3ebe e28f 1e3d
00000060: d96b 223e d99e 1cbd adc8 b9bc 52f1 0cbe
00000070: 221b cebd 6c81 1abe 5249 0bbd a134 ddbd
00000080: cce5 40bd 109a 16be 0681 f6bc 36e4 b13b
00000090: dbef 213d 6d9b 8fbc 24ce 3abb f372 483e
000000a0: 1c23 34bc cc14 96bc 4800 9cbc 96b5 8c3d
000000b0: 3846 3a3d 473b 173e 90f8 5cbe 77a5 28be
000000c0: 6a25 c03d cd78 ccbd 2017 963d c4ba 4ebe
000000d0: 1f98 92bd 208c 52be 3632 003e 0c21 fabc
000000e0: 02a6 bfbd 44da 1abd fc88 083e 0e17 b83d
000000f0: 0548 9e3d 39b2 9ebd 06d1 90bd 29e8 dcbd
00000100: cfb3 03be d6bd 6f3e 4874 1fba e581 a53d
00000110: 6b67 56be 339f eabd 9a62 1abe 3a7e 983d
00000120: 436c b23d d089 ef3c b664 193d d8f7 13be
00000130: a856 47be 9ffb 223a 55b7 28bd 0c22 80bd
00000140: f47d 89bd f774 a13d 09f5 f8bc 2a8d 8abd
00000150: c6f7 12bd 1532 24be 744d b7bd 95e1 be3d
00000160: 0cdd e4bb 9abb 26be 3422 3fbe 82aa 65be
00000170: 8f5a 41bd cef1 153e 58a6 05be 8551 0bbe
00000180: b8cb 9e3d a1fe 14be 50a6 2d3d 59ef b53d
00000190: ea41 743d 7d80 06be bf1d 2f3d 1b21 1d3e
000001a0: 44ba ef3d 1378 23be 1224 12be 0029 32be
000001b0: ae16 78bd cf8c 6abe e627 efbd 7e79 80bd
000001c0: d9d0 09be 4530 cf3c 122b 7f3d 64dd 44be
000001d0: f675 41bd d1f9 15be 7372 1fbd 798e 49be
000001e0: aeb4 1e3e 004b 7c3d d510 28be 07e3 963d
000001f0: 4944 46bd e9bf 60bc 51a7 2d3e e653 a9bd
00000200: 6390 163e 636a 66be 2105 ad3b 94e5 05be
00000210: 63b5 673d a168 513d 6ba8 723e 7017 003e
00000220: b108 413d a1ba 053e 0d3d 453d cc77 f03d
00000230: 437e 103e af7d 90bd 5097 8c3c 30d2 573d
00000240: 5434 35be 5b3a b63d 9596 6ebb 9562 d4bc
00000250: cb78 e1bd 7e75 39be c082 053e df1b 32bd
00000260: 8b4c cbbd beb3 cc3d 24dc e63d 3bba 4abe
00000270: 7522 6d3d 3c05 4dbe 660a f1bc 1e99 f03b
00000280: 6820 bebc 39a0 03bd abe1 ac3c dbd7 a13d
00000290: 4cbf b0bd 82e5 113d a777 e53d adaf b0bd
000002a0: 2700 2d3d 6ffb edbd 99d3 433e f324 bc3d
000002b0: 9c5b 1bbe 5c2a 503c b951 0a3e d4ec f7bd
000002c0: 7f64 c1bd 93bb 233e 59ca 963d 0a97 72bb
000002d0: 8aad 073e 2e30 493c 35c1 55be 0075 83ba
000002e0: 2498 63bd 5dff 0cbe c4af 063e 4ae2 083c
000002f0: cbfe 3dbd 8147 c33d 7ed4 b0bd 88e5 ef3d
00000300: a052 413d 831f ebbd 3669 bbbc b0ec 60be
00000310: c518 2a3e f168 a03c 2df8 d13d 0a6c b33c
00000320: 3458 3fbd 96ea fdbc 758d 213e 46a8 6e3d
00000330: 999c ee3b 6646 8bbd 1260 193d 0d30 a7bd
00000340: 0382 19be 5898 85be cfe1 d9bd ce20 96bd
00000350: 25a6 1f3e e98b 1b3c 888d c5bd 7bc0 d93d
00000360: 42e9 7f3d cddf d33d 4584 08be 1379 3cbe
00000370: 60db 08bd 9ea6 1dbe fb1f be3d c752 a3bd
00000380: f1d6 e3bc 5b05 8fbd 17a7 d83c db5e 04be
00000390: db31 a0bd dd52 043b 70ba 05be 6229 b7bc
000003a0: 72e9 36be 4e69 21be 9516 6a3c e342 e0bd
000003b0: cbda 9fbd 9d34 d63d 5b38 59be 6e2a 8cbd
000003c0: 4c3c 933d e8b8 623d c538 4a3d 5ba1 8ebc
000003d0: b883 11be 2b0e a03d 15d1 41be e66e 15be
000003e0: 1e66 d53d be98 16be 3a4a 44be 97f8 66bc
000003f0: e12c e13c 15f9 b23d 7957 44be 89e5 703d
-0.17734796 -0.1083318 -0.050115384 -0.21915624 -0.15130478 -0.20132887 -0.0029234837 -0.08072642
-0.110444605 0.04974481 -0.068979636 0.12066928 0.07754397 -0.048122827 -0.18682362 0.10916032
-0.23799787 -0.27087355 -0.13388649 -0.11610177 -0.13271591 -0.13576555 -0.1858218 0.038711436
0.15861453 -0.038237426 -0.022678697 -0.13763931 -0.10063769 -0.15088433 -0.03400547 -0.10801054
-0.04709415 -0.14707208 -0.03009082 0.005428816 0.039535385 -0.017530167 -0.0028504217 0.195751
-0.010994699 -0.018320464 -0.019043103 0.06870572 0.045477122 0.14768706 -0.21579194 -0.1646937
0.09382136 -0.099839784 0.073286295 -0.20188433 -0.07157921 -0.20561266 0.12519154 -0.030533336
-0.09357835 -0.03780581 0.13333505 0.08988772 0.077285804 -0.07748837 -0.07071118 -0.107864685
-0.1286156 0.2341226 -0.0006082696 0.08081416 -0.20937888 -0.11456146 -0.15076676 0.07445951
0.087120555 0.029240519 0.03744956 -0.14450014 -0.1946665 0.0006217304 -0.041190464 -0.06256494
-0.06713477 0.078836374 -0.03039028 -0.06765206 -0.035880826 -0.1603473 -0.0895032 0.0932037
-0.0069843587 -0.16282502 -0.18665391 -0.22428325 -0.047205504 0.14643022 -0.13051736 -0.13605316
0.077537 -0.14550258 0.042394936 0.088835426 0.059633173 -0.13134952 0.042752977 0.1534466
0.11705449 -0.15963773 -0.14271572 -0.17398453 -0.060568504 -0.22905277 -0.11677532 -0.06273173
-0.13458575 0.025291571 0.062296934 -0.19225079 -0.047231637 -0.14646079 -0.038927507 -0.19683255
0.15498611 0.061594963 -0.16412671 0.07367521 -0.048404966 -0.01371763 0.16958357 -0.082679555
0.14703517 -0.22501521 0.0052801524 -0.13075858 0.05656947 0.051125173 0.23697059 0.1250894
0.04712743 0.13059475 0.048153926 0.117415994 0.14110665 -0.07055222 0.017161995 0.052690685
-0.17695743 0.08897849 -0.0036405672 -0.025925914 -0.110093676 -0.18111226 0.13038158 -0.04348361
-0.09926709 0.099952206 0.11272457 -0.19797604 0.05789419 -0.20021528 -0.029423904 0.0073424717
-0.023208812 -0.032135222 0.0211037 0.07902499 -0.08630237 0.035619266 0.112044625 -0.086272575
0.042236473 -0.11620223 0.19123687 0.09186735 -0.15171665 0.012705412 0.13507737 -0.12105718
-0.09442996 0.15989523 0.073628135 -0.0037016296 0.13249794 0.012279553 -0.20874484 -0.0010029376
-0.055565014 -0.13769288 0.13152987 0.008354733 -0.046385568 0.09535123 -0.0863428 0.117137015
0.047197938 -0.1148062 -0.022877317 -0.21965289 0.16611011 0.01958129 0.10252414 0.021902103
-0.046714976 -0.030995648 0.15776618 0.058265947 0.0072818515 -0.06800537 0.037445135 -0.08163462
-0.14991002 -0.26092792 -0.10638773 -0.07330476 0.15590723 0.009493806 -0.096461356 0.10632416
0.06247831 0.10345421 -0.13331707 -0.18405561 -0.033412337 -0.1539559 0.092834435 -0.07974773
-0.027812453 -0.06983443 0.026446862 -0.1292681 -0.07822009 0.0020190992 -0.13059402 -0.0223586
-0.1786249 -0.15762827 0.014287611 -0.10950258 -0.07805403 0.10459254 -0.21212904 -0.0684403
0.07189235 0.05535212 0.049370546 -0.017410925 -0.14210403 0.07815202 -0.18927415 -0.14593086
0.10419868 -0.14706704 -0.1916894 -0.014097354 0.02748722 0.08738915 -0.19173993 0.05881265

hidden_layers.1.weight f4 [256, 256]
00000000: 8093 18bc 31de 5b3c b230 17bc df7a 10bd
00000010: 6e6a c2bd 8e95 a5bc 0746 713c ca64 5bbd
00000020: d260 e73c 317a 5dbd b58b 7ebd b8b9 a2bd
00000030: 38f7 333b c78b 273c 05b1 2f3d da3e 87bd
00000040: bb67 813b 5a6e 54ba 16a6 5ebb 31d7 94bd
00000050: e6ed 8b3d 6d76 093d 6ebb 383b 1b9f 2bbd
00000060: 3f27 4dbd 58ab 3abd e791 88bd 8136 9d3d
00000070: f093 4cbd c39a a2bc dacc 29bd 0774 0ebc
00000080: b54e 8ebc 4714 bebc 4db6 283d 1bd8 8cbd
00000090: 4003 ea3c cf28 84bd cc28 bf3c 7439 4bbd
000000a0: 0774 85bd 69d3 46bc 2710 18bd dfbe 853c
000000b0: 2a13 3b3b 9515 1dbc 21e4 63bd d8c4 9f3c
000000c0: eafc 383c 61c1 343c 25a2 4f3c 24c5 e1bc
000000d0: b2d0 a53b 6c84 e33b 1b2e a4bd f806 2cbd
000000e0: f05a 06bc 9447 4c3d 7a9e 583d 2a09 913d
000000f0: 8052 9cbd 2ad9 a3bd 8cd6 2a3c 148a 68bd
00000100: 6d3f 89bd 53b1 5dbd f887 f1bc 2bf0 fcb9
00000110: f578 183d c4f9 a03c a6f0 01bd 8986 b9bb
00000120: 3507 8ebb b270 38bd 5489 febc d5c0 113c
00000130: 70d2 fbba 81db 5e3a bc8b 193d 6b96 d6bd
00000140: f109 e8bc 289b cabb 161d 3fbd 8c28 b9bc
00000150: ed30 1c3b c79d 8fbd 23ba 943c caed 2a3d
00000160: aee0 593c 704b 1abd 04f4 223c 03d4 48bd
00000170: 6232 b4bc c996 4b3b 75f2 563c e125 2ebd
00000180: e62b 4fbb f651 eabd fa69 4cbd d38e e8bb
00000190: 034b 9dbb f4bf 453d d60a 1a3d 3325 94bb
000001a0: c3fe 39bc 7472 b9bd 1a11 bc3c 1f68 41bd
000001b0: f311 23bd e718 443c ae90 1abd 96ce c93c
000001c0: 149a e1bc d411 03bd 9773 9dbd cbf5 e9bd
000001d0: 799e 9bbb b661 14bd b07b 353d d714 2d3c
000001e0: 3a54 e3bb f9a8 1abd 7dff cc3c 031b 443d
000001f0: 03fe 0bbd 7656 803d 350b 0dbd fbea 7d3c
00000200: 8560 03bd b1b0 3b3d 206f 97bd 9ade 6d3c
00000210: b50f 473d 7c2b e6ba 0e9e b5bd ebac 2a3c
00000220: 3c8f 6c3d c738 e53c cec2 3cbb b834 84bb
00000230: 583f 50bd 97d1 c4bd 8a0c 9cbd d1e3 83bd
00000240: 22b0 393c 99f3 eb3c dd86 ba3c ac8f 94bc
00000250: 7340 1abd 355c 1ebd 056f b03c bb62 52bc
00000260: 7488 3eba d3c6 febc a3d4 443c be82 0d3d
00000270: f7e0 37bc 8c57 f6bc b699 5c3d ed95 923c
00000280: e904 8f3c e255 4cbd 567a f43c b57a f6bb
00000290: b6f6 c63c a959 00bc 98bc 70bd 377e 45bd
000002a0: c58d fcbc bc85 4f3d 3872 3fbd 3c20 a0bd
000002b0: f50b be3c f72b 44bd 400b 883d 16b6 19bd
000002c0: 5876 a5bd ca06 d5bc 2b5c f73c 33c8 1ebd
000002d0: 1f42 893d 5174 2d3d e3a0 37bd 81c0 46bb
000002e0: 5976 f6bc 5830 26bd 7785 2bbd 7c67 1cbd
000002f0: ea00 93bd 39ea 60bd 3dee 47bd 4347 8fbd
00000300: 5507 42bd f720 58bd e636 ee3c 7de6 09bd
00000310: 0eaa 2dbd 2cd4 51bc e70c 873d a208 9ebd
00000320: e46f 94bb f534 bf3b 2bef 81bd 6f46 9c3c
00000330: 8dc2 a83c afca 00bd b07a a1bd 6b58 84bd
00000340: b32b 40bb ed29 683c 2395 a23b f7b6 57bc
00000350: f709 45bd 87f6 843a 065d 2c3c 2024 2cbd
00000360: 72d5 2e3c 011b 7abd b356 ec3c e46e aaba
00000370: a7da 883c a6a0 893d 8980 16bd 11f0 b23c
00000380: 5b63 23bd aa5a 183d 5cd9 5c3d f348 e0bd
00000390: e903 e63c 848b f1bc da0d 033d 9bf2 8abd
000003a0: e896 76bd d3d0 9bbd b7e1 2abd c69e c43c
000003b0: 0a15 84bd fae3 133d b7ca 0dbc 71b1 33bc
000003c0: 93d4 68bd 6988 c43c 4d7b 35bd ebd6 29bd
000003d0: 6125 783d 1e7d 0d3c 3441 c2bd 5385 76bd
000003e0: 10eb 1ebd eddb d03b 7834 09bd f5d1 05bd
000003f0: 8cd7 dbbc 050f 4dbc 79d2 73bd 2888 debc
-0.0093125105 0.013419674 -0.009227918 -0.03527343 -0.09492956 -0.020212915 0.0147261685 -0.053562917
0.02824441 -0.05407161 -0.062144954 -0.07945579 0.0027460586 0.010226197 0.04289343 -0.06603785
0.003949133 -0.0008103602 -0.0033973507 -0.07267607 0.06832485 0.033560205 0.0028187889 -0.04189978
-0.050086256 -0.045573562 -0.06668454 0.076764114 -0.04994577 -0.019849187 -0.041455127 -0.008694655
-0.017371515 -0.023203028 0.04118948 -0.06877156 0.028566003 -0.06453096 0.023334883 -0.04961534
-0.06516271 -0.012135365 -0.03712478 0.016326366 0.0028545358 -0.009587665 -0.055637483 0.019503042
0.011290768 0.011032433 0.012672936 -0.027559824 0.005060279 0.006943276 -0.080166064 -0.041998833
-0.008200392 0.04987295 0.05288551 0.07081826 -0.07632923 -0.08000405 0.0104271285 -0.056772307
-0.06701551 -0.054124188 -0.02948378 -0.00048244125 0.03722473 0.019650348 -0.03172364 -0.00566179
-0.0043343552 -0.04502935 -0.031071343 0.008896072 -0.0019212496 0.00085013366 0.037486777 -0.10477909
-0.028325053 -0.006183047 -0.046658598 -0.022602342 0.0023832873 -0.070125155 0.018155163 0.04173068
0.013298197 -0.0376696 0.009945873 -0.049030315 -0.02199668 0.0031065217 0.01311933 -0.042516593
-0.003161186 -0.11441414 -0.049905755 -0.007097104 -0.004800202 0.048278764 0.03760799 -0.004521036
-0.011352244 -0.09055033 0.022957373 -0.04721844 -0.03981204 0.011968828 -0.037735634 0.02463464
-0.02753929 -0.031999424 -0.07688063 -0.114238344 -0.004749116 -0.036225997 0.04430741 0.010564051
-0.006937531 -0.0377588 0.02502417 0.047877323 -0.03417779 0.06266491 -0.034434516 0.015497918
-0.03207447 0.045822803 -0.07394242 0.014518404 0.048598964 -0.0017560567 -0.08868037 0.010417203
0.057753786 0.027981175 -0.0028802636 -0.004034605 -0.05084166 -0.096102886 -0.07619579 -0.06439937
0.011333497 0.02880268 0.022769386 -0.018134914 -0.03765912 -0.038662154 0.021537313 -0.012840922
-0.0007268258 -0.031100666 0.012013587 0.034548514 -0.011223069 -0.030071042 0.053857528 0.017893756
0.017458396 -0.04988659 0.02984349 -0.007521952 0.024287563 -0.007833877 -0.058773607 -0.04821607
-0.03082932 0.05066465 -0.046739787 -0.07818648 0.023199061 -0.04789349 0.06642771 -0.037527166
-0.08079213 -0.026004214 0.030195316 -0.038765144 0.06702065 0.042347256 -0.044831168 -0.0030327144
-0.03008573 -0.040573448 -0.04187533 -0.038184628 -0.07177909 -0.054910872 -0.048811186 -0.06996014
-0.047370274 -0.052765813 0.029078912 -0.033667076 -0.042398505 -0.012806933 0.06594258 -0.0771649
-0.00452994 0.0058351704 -0.06344446 0.019076554 0.020600582 -0.031443294 -0.07884729 -0.06462177
-0.0029322922 0.014170152 0.004961626 -0.013166181 -0.048105206 0.0010144272 0.010520225 -0.04202664
0.0106710065 -0.06106091 0.028849935 -0.0013003019 0.016705824 0.067200944 -0.036743674 0.021842988
-0.039889675 0.03719584 0.053918228 -0.10951414 0.028078036 -0.029485472 0.03199563 -0.067845546
-0.06020251 -0.076081894 -0.041719165 0.02400149 -0.064493254 0.036106087 -0.008654288 -0.010967598
-0.05684335 0.023990827 -0.044307042 -0.041464727 0.060582522 0.008635787 -0.09485093 -0.06018574
-0.03879839 0.0063738734 -0.033497304 -0.032670934 -0.02683618 -0.012515788 -0.059526894 -0.027164534

hidden_layers.1.bias f4 [256]
00000000: 9970 97bc 52c3 5dba dc83 fabc 5b21 06be
00000010: 0f07 ae3c 6e2d 83bd ff4b 0b3d ed99 89bd
00000020: 9c27 bfbc 7169 abbc 178e f43d 6d63 52bd
00000030: ab16 68bd ade8 eabc 667a 64bb 8ff5 b8bc
00000040: 86df 33bd af5a 80bc 5bf5 92bc 2b8f 9dbc
00000050: 19fe 563d 47e6 65bd 471a 8abd 98b5 b2bd
00000060: 92ba 2f3e 940a 44bd ab47 32ba 8a66 033d
00000070: b05f 4c3c 638a 85bb 39d4 e03c ef4a ae3c
00000080: 91d6 6fbd 168b a43d fdaf c73c 2722 2cbd
00000090: e741 80bd d69b 19bd 6b39 a2bc ba1a 91bd
000000a0: 87a2 d2bc 4a8b b1bd 0826 91bd 1a61 423b
000000b0: 5408 b63d df36 b2bd 312d b2bd 4bf4 9bbd
000000c0: d33c 9fbd ed28 cfbb ae05 b0bc c682 f23b
000000d0: 5034 02bc 7f51 55bd fa3e 87bd 6499 b4bc
000000e0: c10a 443c 91e3 623d afda 9ebc 72c8 8dbd
000000f0: 7926 d83c 19d6 5c3d 66ec 88bc 5194 c3bd
00000100: dd77 92bd 30d1 80bc 8907 6ebd 24b6 423b
00000110: ae79 98bd b5e2 bdbd 690a 3ebc 150e 5cbd
00000120: 6e8a b03c 068d af3d 9f18 ab3d dc87 2ebd
00000130: 6539 a7bd ccf0 46bc e2a3 893c f683 a0bc
00000140: f300 b3bd f6c6 66bc bc4b 3e3d 492d a6bb
00000150: 59d7 1e3d 274d fabc 0c2b b53c 811a 93bd
00000160: 8f92 a8bc 9a5a babc df3a 70bd 65ae b7bc
00000170: 739a 093d a410 57bd 97b7 48bc fde4 b4bd
00000180: 7bde fabc 2cb4 10bd 0486 adbb 5870 faba
00000190: ee09 3bbd b04d 9cbd 404b a5bd 17ce 223c
000001a0: 9055 abbd 55fd 143d aac1 81bd c041 e6bd
000001b0: 902f b73c f218 70bd 94bf 2cbc 45a9 2b3d
000001c0: 2b5e 9cbd 4694 85bd 702a 4bbd 5a27 e53c
000001d0: 8a24 e5bd 4d24 c0bc d140 653c 9ae0 8cbd
000001e0: ad55 9bba 7663 dabb 59f5 19bc e86a 7b3d
000001f0: f8f3 a9bc 71dc a0bd df55 80bd 8545 74bd
00000200: a662 973c 966e 13bd 3e5d a3bd 8de2 6fbd
00000210: c62a 84bd d61d 96bd a9b0 93bd 1451 41bc
00000220: 3773 483c 3ef9 ce3d 04ce 1ebd cca2 88bd
00000230: b49c 6bbd 9433 0cbe c45e 08bd 07b5 cabc
00000240: 8d4b 373c 215f ceba 1c9e d03c b84f 3ebd
00000250: a7fc 903c ce00 b8bb 3481 a1bc c043 b53d
00000260: aea3 ba3d 281a 3ebd 572e c8bd 59ad 83bc
00000270: 4165 cbbd e59f aebc 6bb1 73bd 49d5 79bd
00000280: 2f2b 193e f663 42bd 5679 71bd 9729 7fbd
00000290: 0b0f 9e3c ca7d 52bc 2511 84bc 1b51 d93c
000002a0: db26 80bc 2b6c ccbc a69e 6dbd 0273 3dbd
000002b0: 8bc3 aa3d a3ae 0bbd 07f5 3a3c 79d3 5fbd
000002c0: 5737 b1bd fac3 fb3c 77b2 0d3d a6ca c6bd
000002d0: 3aad 98bc ab04 e13d 025c 903d 669f 95bb
000002e0: 494e 8b3a 22a5 94bd 590b ffbd 69c1 8abd
000002f0: 4a1c 31bd f6d5 3bbd 1f2d 91bd cabc 63bd
00000300: 0882 94bc 2468 83bd 483f 173d 2eb7 a4bd
00000310: 64c9 6cbd 2e73 a43e 8952 b23c fcc5 37bd
00000320: 40dc b8bd 745e a2bb fa0c 76bd 4b09 363d
00000330: 961b ddbc 3c58 8dbd 753c a0bd 7a6e a4bc
00000340: c846 983c 5253 1bbd 29c0 633c 014b 5c3b
00000350: fc79 3abd 0d91 0dbd 3227 29bd 72c3 843b
00000360: 9679 bbbc e008 8cbd fede 7cbc 21a1 87bc
00000370: 5a80 7fbd bdd4 5f3c c850 4dbd d27f 89bd
00000380: 1787 18bd 87ae f13c 71cd 0c3c 57a7 54bd
00000390: 12c1 80bd 8621 abbc b5eb 8abd 7f6e 84bc
000003a0: a601 fbbc 67c6 c13d f151 40bb 02f5 59bd
000003b0: c80c 38bd c779 b6bd 021d febc d46e de3c
000003c0: 7acc 6d3d cc7e a23c 409e 763c eef8 a1bd
000003d0: 05e1 dfbc cfaf 31bd 9237 afbd f2aa 023c
000003e0: b172 01bd f560 8bbd f512 53bd 725d 83bd
000003f0: a538 0b3c 6c29 3dbd f31b 9bbc 396d d43d
-0.018486308 -0.0008459586 -0.030580454 -0.13098662 0.0212436 -0.064051494 0.034008022 -0.06718812
-0.023334317 -0.020924302 0.11941164 -0.05136435 -0.056662243 -0.028675402 -0.0034862994 -0.022578029
-0.04391434 -0.015668241 -0.01793926 -0.019233307 0.05248842 -0.056127813 -0.06743293 -0.087260425
0.17161015 -0.04786165 -0.00068008405 0.03208021 0.012473986 -0.004075335 0.027444946 0.021275965
-0.058554236 0.08034341 0.02437591 -0.042024758 -0.0626257 -0.037502132 -0.01980277 -0.07085176
-0.025712265 -0.086691454 -0.07087332 0.0029659928 0.08888307 -0.08701872 -0.08700026 -0.076149546
-0.07775273 -0.0063220174 -0.021487083 0.0074008433 -0.007947043 -0.052079674 -0.06603809 -0.022045799
0.011965455 0.055392805 -0.019391386 -0.069229975 0.026385533 0.053915117 -0.016714286 -0.095497735
-0.07151768 -0.015724748 -0.058112655 0.0029710615 -0.074450836 -0.092717566 -0.011599162 -0.053724367
0.021550383 0.0857182 0.083543055 -0.042610034 -0.08165244 -0.012142371 0.016801778 -0.019594174
-0.087404154 -0.014085522 0.046458945 -0.0050713164 0.03877959 -0.030554367 0.022115253 -0.071827896
-0.020577697 -0.02274828 -0.058649894 -0.022422025 0.03359456 -0.052506104 -0.0122508025 -0.088327385
-0.030623665 -0.035328075 -0.005295517 -0.0019106967 -0.045663767 -0.07632005 -0.080709934 0.009936831
-0.08365929 0.03637441 -0.063357666 -0.112430096 0.022361547 -0.05861754 -0.010543723 0.041909475
-0.076351486 -0.065224215 -0.04960102 0.027972866 -0.1118861 -0.02345481 0.013992504 -0.06878777
-0.0011851095 -0.0066646887 -0.009396874 0.06138125 -0.020746216 -0.07854546 -0.062663786 -0.05963661
0.018479656 -0.035994135 -0.07976769 -0.058565665 -0.06453471 -0.073299095 -0.072114296 -0.011799116
0.012234501 0.10106133 -0.03877069 -0.06671676 -0.05752249 -0.1369155 -0.0332935 -0.024744524
0.011187446 -0.0015744903 0.025466017 -0.046462744 0.017698599 -0.0056153303 -0.01971493 0.08850813
0.09113251 -0.046411663 -0.097744636 -0.01607387 -0.09931422 -0.021316478 -0.05949537 -0.06099442
0.1495788 -0.04745861 -0.058953606 -0.062295523 0.019294282 -0.012847373 -0.016121456 0.026527932
-0.015643528 -0.024953922 -0.058012627 -0.046252258 0.08338078 -0.034102093 0.011410958 -0.054645035
-0.08653133 0.030733097 0.034594025 -0.09706621 -0.018637288 0.109872185 0.07048799 -0.004566121
0.0010628189 -0.07258059 -0.12453336 -0.06775171 -0.04323987 -0.045858346 -0.07088684 -0.055599965
-0.01812841 -0.064163476 0.036925584 -0.08042751 -0.05780925 0.32119125 0.021767871 -0.044866547
-0.09026384 -0.0049551073 -0.06007097 0.044442456 -0.026990693 -0.06901595 -0.07824031 -0.02007221
0.018588439 -0.037921257 0.013900795 0.0033614042 -0.04552649 -0.03456216 -0.041297145 0.004051619
-0.022885125 -0.0683763 -0.015434025 -0.016556324 -0.062378265 0.013661561 -0.050125867 -0.06713833
-0.037238207 0.029502166 0.008593903 -0.0519174 -0.06286825 -0.020890009 -0.06783239 -0.01616597
-0.030640434 0.0946167 -0.0029345716 -0.053212173 -0.044934064 -0.08909946 -0.031019691 0.027152456
0.058056332 0.019835852 0.015052378 -0.07908808 -0.027328977 -0.043380555 -0.08555521 0.007975327
-0.03160352 -0.068056025 -0.05153175 -0.06414308 0.008497392 -0.04618208 -0.018934226 0.10372395

output.weight f4 [4, 256]
00000000: 85ac 833d fd9a 0e3b 9f34 1fbc 81a3 cebd
00000010: 2baf 05bd 4523 debc 2fab febc c0b3 f93d
00000020: 1397 74bc 2e8e 073d b288 783d d8be a03c
00000030: 6f57 88ba a247 b8bd 4f4c 19bd 360c 3e3d
00000040: 6a69 953c 7fdc 563d 06e0 353d d492 913c
00000050: 70a4 dbbd fbea 6fbc dc50 903a 4d80 f4bc
00000060: 3b76 883d 2620 0fbd 0279 fc3c 0f9c 1f3d
00000070: 6f23 94bb 38d5 3c3d 5cc2 063e b813 5c3c
00000080: 465b 30bd 16b1 c8bb 609c 1f3b 85b9 64bc
00000090: 70f0 7338 6378 b2bd 105b 8e3d bfc7 81bd
000000a0: d063 043d ecc8 8f3c 2097 24bd 55af ecbb
000000b0: d174 733d e8ac 7fbc 5294 a53c 8107 5dbc
000000c0: 7b08 6dbc 7b05 5e3e 9e6a 323d 84f3 0bbd
000000d0: ee07 78bd 6cbb 61bc b19c 5b3e 4720 01be
000000e0: ced1 81bd 4613 6d3e d1df 8fbc 7db7 363e
000000f0: 7218 fb3c 6215 853d 07fd be3c 07df c7bb
00000100: 0650 e8bc c4c6 393d 164b 0f3c 0d38 903c
00000110: 6c4d 52bd b09e 38bd ef48 edbc f546 c83c
00000120: baf3 0fbe f629 b73e 909c 623d 2c79 a03c
00000130: 41e5 603c ef9e 8fbc 909c d9bc 5cda 5fbc
00000140: dbc0 0a3c 5131 ed3c bfa1 f3bd 6492 133b
00000150: f573 95bc 955d 85bc bff7 d9bc d317 60bc
00000160: 7324 c0bb 1aa3 803b 6a59 a2bc c04a 393c
00000170: 954a 3f3d ef65 1f3e 40b1 9c3c 3b8e d83b
00000180: 8c4c 09be f7ca cabc ffaa 3338 8682 cf3c
00000190: 6fd2 1ebd 74f2 31bd 7852 4b3d edd6 cabd
000001a0: 4c02 f0bc 9f38 ab3c 5fc6 ee3b b282 4fbd
000001b0: c9e2 f6bd e60b ed3c 7f10 07bd 8da7 913d
000001c0: 59a1 1fbd 1f8a 1fbc beb6 40bc 43a1 f4bb
000001d0: c6a0 9fbd 7497 52bc dce7 32bb d47f 043c
000001e0: 97e0 5fbc 8199 db3c ddc1 17bd 71c5 223e
000001f0: 3205 7abd 023b 123d 5437 813d 67fc 2c3b
00000200: 3552 b63e acdb 3fbc 2f66 a0bc bb1a 06b9
00000210: ef49 a53c 82ba 23bd 6d1b f4bc b5ee 143c
00000220: 9295 ef3b ef2e f63d 2da8 af3c 0116 1a3d
00000230: e3e8 13be 90e5 27bd 9877 2c3d b552 9f3c
00000240: 72f3 c83a 3a41 b5ba 8fdb c33b ed0b 1ebe
00000250: 2051 5bbc fdbe 84bc 9e1c cdbc 3bd1 543c
00000260: 45a4 6a3d f865 dfbc e313 7a3c 7bd3 c73c
00000270: 33b8 8fbc c9da 25bc f85a 19bb 43f2 99bc
00000280: d36e 933d 2c1d b7bd f116 5bbc addf 9fbc
00000290: 4b24 1abc b136 c23c 94fc e1ba 1e4f 293c
000002a0: f402 cb3c e2d1 25bd 5f42 803c 7178 013d
000002b0: bc14 723e aa40 b23c cc97 533d e036 8cbc
000002c0: 1f5d 163d f9c3 d0bd fbb4 9a3c 8115 0abc
000002d0: 8fbb be3d 7028 2e3d 8083 c83c 157b 61bd
000002e0: dcc9 84bc 4643 0c3c ac65 45bd 538c 623d
000002f0: eec0 b73c b9be 2fbc 28e5 4fbd aabd 943b
00000300: c6c7 ccbc 844e 553c 0337 0abd 7ddf a63c
00000310: ac1f 3abd 6014 c93d c918 143d 7f15 28bb
00000320: 18fd 07bd eaed d4bc 80b1 f5bb da88 83bb
00000330: 5c82 f53c 3f8f 4a3d c162 753c 5ba2 87bc
00000340: 005c c4bb c30b c3bb eee3 2fbe cff8 3bbc
00000350: 9506 7fbc f146 e8bc fb2f 63be 7f66 543e
00000360: 66d0 b8bc 6a71 2fbd 76d9 ab3b ac84 c8bb
00000370: d07f 01bb 671f 643d eab8 1b3d 4afe 3a3c
00000380: 1ead 72bd 25dc 66bc 8942 583c 5831 93bc
00000390: 67f1 963c 508d 863b 6903 b5bc 87dd 153c
000003a0: 969d 973c 784e d93d ef6c 82bd 0e94 11be
000003b0: ed8c dfbb 24f6 19bd e8e9 1bbd 0162 bdbd
000003c0: 1ecd 743c b037 39bd dd7f 7f3d efee 783c
000003d0: a167 cebc 4583 453d c032 2abb f51c 563c
000003e0: 068f 27bd 53ca 44bd b3f2 043e 5d56 e1bc
000003f0: 938c 10bc 2677 47bb 9e04 5f3c 8b73 d93d
0.0642939 0.002175986 -0.009717136 -0.1008978 -0.032637756 -0.027116427 -0.031087486 0.12192488
-0.014928597 0.033094577 0.060677238 0.019622251 -0.0010402034 -0.08998038 -0.03742629 0.046398364
0.018238742 0.052456375 0.0444031 0.017770208 -0.10724723 -0.014643426 0.0011010426 -0.029846335
0.06663176 -0.03494277 0.03081942 0.03896719 -0.0045208256 0.04610178 0.1316008 0.013432436
-0.043055795 -0.006124626 0.0024354681 -0.013960247 5.815964e-05 -0.08714368 0.069509625 -0.06336927
0.03232175 0.017551862 -0.040183187 -0.0072230496 0.059437577 -0.015605189 0.020212326 -0.013490559
-0.014467354 0.21681778 0.04355871 -0.03416778 -0.060554437 -0.013777595 0.21446492 -0.12609969
-0.06338845 0.23151883 -0.017562779 0.17843433 0.030651305 0.06498219 0.023314012 -0.006099585
-0.02835847 0.045355573 0.008745929 0.017604852 -0.051343367 -0.04507321 -0.028965442 0.024447897
-0.14057818 0.357742 0.05532509 0.01958903 0.013726533 -0.01753184 -0.026563913 -0.013662901
0.008468832 0.02895418 -0.11896085 0.0022517676 -0.01824377 -0.016279975 -0.026607392 -0.013677555
-0.00586372 0.003925693 -0.019818027 0.011309326 0.046701986 0.15566228 0.019127488 0.006608752
-0.13408107 -0.024754984 4.283618e-05 0.025330793 -0.038774904 -0.043444112 0.049639195 -0.09904275
-0.02929797 0.020901022 0.0072868313 -0.05066175 -0.120549746 0.028936338 -0.032974716 0.07112036
-0.038972232 -0.0097375205 -0.011762319 -0.007465513 -0.07794337 -0.012853492 -0.0027298843 0.008087117
-0.013664386 0.026806595 -0.037050117 0.1589563 -0.06104011 0.035700805 0.06309381 0.002639556
0.35609594 -0.011710089 -0.019579975 -0.00012789194 0.020176856 -0.03997279 -0.029798234 0.009090115
0.0073115313 0.120206706 0.021442497 0.03761864 -0.14444308 -0.040990412 0.04210624 0.019448617
0.0015331341 -0.0013828643 0.005977101 -0.15434237 -0.013386041 -0.016204352 -0.02503806 0.012989338
0.057285566 -0.027270302 0.01526353 0.024392834 -0.017543888 -0.010122963 -0.002340017 -0.018792277
0.071988724 -0.08941111 -0.013372169 -0.019515837 -0.009408067 0.02370772 -0.0017241412 0.010333804
0.024781682 -0.040483363 0.015656648 0.031609003 0.23640722 0.02175935 0.051658437 -0.01711601
0.0367099 -0.10193629 0.018885126 -0.0084279785 0.09313118 0.042519033 0.024476767 -0.05504902
-0.016209535 0.008560961 -0.048192665 0.055309605 0.022430863 -0.010726624 -0.05075565 0.0045392113
-0.024997603 0.013019208 -0.03374387 0.02037024 -0.04544036 0.09818339 0.03615645 -0.0025647578
-0.033200353 -0.025992353 -0.0074979663 -0.0040141167 0.029969387 0.049453016 0.014977158 -0.01655691
-0.0059924126 -0.00595233 -0.17176792 -0.011472895 -0.015565534 -0.02835414 -0.22186272 0.20742224
-0.02256031 -0.04283277 0.005244429 -0.0061193313 -0.001976002 0.05569401 0.038018145 0.011413166
-0.05924713 -0.0140905725 0.013199457 -0.017967865 0.018425656 0.004106201 -0.022096353 0.0091470545
0.01850776 0.1061067 -0.06368434 -0.14216635 -0.0068222196 -0.037588254 -0.038064867 -0.092472084
0.014941482 -0.045219123 0.0623778 0.015193685 -0.025195898 0.04822089 -0.002597019 0.013068427
-0.040907882 -0.048044514 0.12983207 -0.027507002 -0.008822578 -0.0030436008 0.013611941 0.10617741

output.bias f4 [4]
00000000: 243d 5a3e 5168 173e 6a4b 363e 7817 183e
0.21312386 0.14785887 0.17802206 0.14852703
