checkpoints/state_size_37__action_size_4__hidden_layers_[256-256]__drop_p_0.0__seed_0__GAMMA_0.99__LR_0.0005__UPDATE_EVERY_25__BUFFER_SIZE_10000__BATCH_SIZE_64__TAU_0.001.pth (torch, 308311 bytes, 6 tensors)

hidden_layers.0.weight f4 [256, 37]
0	0x3d813027	0.063080125
1	0xbe3244d3	-0.17409067
2	0xbea24f99	-0.31701353
3	0x3c40c449	0.011765548
4	0x3d8070fb	0.06271549
5	0x3dbedf41	0.09319926
6	0x3d137c07	0.036006954
7	0x3bf29c28	0.007403869
8	0xbe6caf63	-0.2311378
9	0xbe53d91a	-0.20688286
10	0xbd8c16ac	-0.06840262
11	0xbe372c66	-0.1788803
12	0x3e1f3725	0.1554838
13	0x3cb0b92f	0.021572677
14	0x3d1c19b7	0.03811046
15	0x3d65f7ed	0.056144644
16	0xbe88c8fc	-0.2671584
17	0xbe19e637	-0.15029226
18	0x3e0a0630	0.13478923
19	0xbe41a255	-0.18909581
20	0x3df4c7b0	0.1195215
21	0xbdda350f	-0.106546514
22	0xbe2ba501	-0.16762163
23	0x3d71c719	0.059027765
24	0xbe8a6ee1	-0.2703772
25	0x3d566368	0.052340895
26	0x3deb52a5	0.114903726
27	0xbdc9636b	-0.098334156
28	0x3d4676bf	0.04845309
29	0xbd4ce5e0	-0.050023913
30	0xbde62ec9	-0.11239392
31	0xbd242d9d	-0.040082563
32	0xbcf440c6	-0.029816043
33	0xbe418b4c	-0.18900794
34	0xbeab0f7b	-0.33410248
35	0x3ce028ea	0.02736326
36	0xbd565d98	-0.05233535
37	0xbe2a4e29	-0.16631378
38	0xbe94682d	-0.2898573
39	0x3e13ff0f	0.14452766
40	0xbe0ce60e	-0.13759634
41	0xbd71a9d1	-0.05899984
42	0xbcfb7d25	-0.030699322
43	0x3de504a9	0.111825295
44	0x3d3708fc	0.044686303
45	0xbde76047	-0.1129766
46	0xbf105c48	-0.5639081
47	0xbe65d566	-0.22444686
48	0xbbdccd40	-0.006738335
49	0x3dd22c9d	0.102624156
50	0xbc3c6249	-0.011498042
51	0xbd02c2bf	-0.031924006
52	0xbe8ad58c	-0.27116048
53	0xbe866389	-0.26247814
54	0xbc98373c	-0.018581025
55	0x3d911c04	0.07085422
56	0x3bf50758	0.007477682
57	0x3ca915d9	0.0206403
58	0x3c9103c7	0.017701996
59	0x3e10b9b5	0.14133342
60	0xbe8e8996	-0.27839345
61	0xbf1347bf	-0.5753135
62	0xbe097ae2	-0.13425782
63	0x3de79762	0.11308171
64	0x3d313a4a	0.04326848
65	0xbde1e454	-0.11029878
66	0x3dc6b1e8	0.09701902
67	0x3d890ea5	0.06692246
68	0x3dac7e85	0.08422569
69	0x3cc21ed3	0.023696339
70	0x3cc861ef	0.02446076
71	0xbf6a265c	-0.9146478
72	0xbdf6b9a1	-0.12047125
73	0xbca93df9	-0.020659434
74	0x3e01d28c	0.12677974
75	0x3e0cb056	0.13739142
76	0xbdd7dd6d	-0.105402805
77	0xbcc146e7	-0.02359338
78	0xbe1b5f4a	-0.15173069
79	0xbead53ed	-0.33853093
80	0x3cc058b3	0.023479795
81	0x3e4fc16f	0.20288633
82	0x3e4389e9	0.19095577
83	0x3e80e8ff	0.25177762
84	0xbd9735ec	-0.07383332
85	0xbd1f642e	-0.0389139
86	0x3d4241cf	0.04742604
87	0x3dcc49d7	0.09975021
88	0x3d4936a6	0.049124382
89	0x3ccd4bc0	0.025060534
90	0xbe7e3eb0	-0.24828601
91	0x3db570d2	0.088594094
92	0x3def146b	0.11673816
93	0x3e22619d	0.15857549
94	0xbe152592	-0.14565113
95	0x3d93ccc6	0.07216792
96	0xbcfd2854	-0.030903019
97	0xbd678a37	-0.056528296
98	0x3d92ceba	0.07168336
99	0xbcb126a5	-0.021624872
100	0xbc0c70a6	-0.008571779
101	0xbd20bba6	-0.039241455
102	0x3d87991e	0.06621002
103	0x3d5eaa58	0.05436167
104	0xbe67ea6e	-0.22648022
105	0x3e0a5f87	0.13513003
106	0x3dadfbac	0.08495268
107	0x3e190b7e	0.1494579
108	0x3e12c339	0.14332284
109	0x38b4f7d4	8.6292304e-05
110	0x3cee3270	0.029076785
111	0xbe4455fd	-0.19173427
112	0xbdf7ff1b	-0.121092044
113	0x3d69c5f2	0.05707354
114	0x3d2125ee	0.039342813
115	0xbe2522f0	-0.16126609
116	0xbeaeca7a	-0.34138852
117	0x3e20c9d1	0.15701987
118	0x3e586cd7	0.21135269
119	0xbe32e7f5	-0.17471297
120	0xbed9152c	-0.42398965
121	0xbe0e181f	-0.13876389
122	0xbd801967	-0.06254845
123	0xbe41c11d	-0.18921323
124	0xbde68af5	-0.11256973
125	0xbdae19ff	-0.08501052
126	0xbd581618	-0.052755445
127	0xbe92f717	-0.2870414
128	0x3d8943be	0.06702374
129	0x3cd7c390	0.026338369
130	0xbeb86493	-0.36014232
131	0xbddf864b	-0.10914286
132	0xbe0090f3	-0.12555294
133	0x3c60ea37	0.013727716
134	0xbda3c9d2	-0.079974785
135	0xbe6c8fb2	-0.2310169
136	0xbe2ade68	-0.16686404
137	0x3e21bab0	0.15793872
138	0x3bd30eb9	0.006440964
139	0x3ca4092a	0.020023901
140	0xbec547eb	-0.38531432
141	0xbe572a05	-0.21012123
142	0x3e091bf6	0.13389573
143	0xbb41acb7	-0.002955241
144	0xbe0a707e	-0.13519475
145	0xbe1ccc4f	-0.15312313
146	0x3cb0107e	0.02149224
147	0x3c877ee9	0.016540008
148	0xbcf7074b	-0.030154845
149	0x3d61e288	0.055147678
150	0x3d9f8afb	0.0779018
151	0xbb7f59f2	-0.0038963524
152	0x3da129a6	0.07869272
153	0xbdf2c053	-0.11853089
154	0x3cd17400	0.025568008
155	0x3e057bf4	0.13035566
156	0x3bb08ee7	0.005388129
157	0xbdcc19ac	-0.09965834
158	0xbde9cb65	-0.114157476
159	0xbd53aade	-0.051676624
160	0xbddbdcf6	-0.10735504
161	0x3da9600b	0.08270272
162	0x3dd53ea4	0.104123384
163	0x3da32584	0.0796614
164	0xbe49629c	-0.19666523
165	0xbd95e80c	-0.0731965
166	0xbcca7b78	-0.024717078
167	0x3efa742e	0.48916763
168	0x3e113952	0.14182022
169	0xbd7707b7	-0.06031009
170	0x3d9dfac6	0.07713847
171	0x3e2749fe	0.1633682
172	0xbcdac5f0	-0.026705712
173	0xbe12ff43	-0.14355187
174	0xbd660579	-0.056157563
175	0x3d34ddbc	0.044156775
176	0x3d617113	0.055039477
177	0x3c8f3660	0.017481983
178	0xbc45e06b	-0.012077431
179	0xbe00daf7	-0.12583528
180	0xbd35b2d1	-0.044359986
181	0x3cb27ccc	0.021788023
182	0x3e942b65	0.28939357
183	0x3d5a940e	0.053363852
184	0xbd0ac0f3	-0.033875417
185	0x3d343dfd	0.04400443
186	0xbdd70962	-0.104998365
187	0x3d66f434	0.056385234
188	0xbd613733	-0.054984283
189	0x3d15ea0a	0.03660015
190	0xbe802f3d	-0.2503604
191	0x3cc9c282	0.024628881
192	0x3e7b152a	0.24519792
193	0x3e26cc91	0.16288973
194	0xbd35b6b8	-0.044363707
195	0x3e075d2f	0.1321914
196	0xbe35bc0e	-0.17747518
197	0xbe20f49f	-0.15718316
198	0x3dd7d2ae	0.10538231
199	0x3d88e168	0.06683618
200	0xbd8e2b18	-0.06941813
201	0x3de54ce3	0.111963056
202	0xbe3edfd6	-0.18640074
203	0xbd93e63f	-0.0722165
204	0xbe12ba60	-0.14328909
205	0xbc9f000d	-0.019409204
206	0x3d6dc20b	0.058046382
207	0xbe5dcc89	-0.21660055
208	0x3e3e9d78	0.18614757
209	0x3de858ff	0.113451
210	0xbcbaf603	-0.022822386
211	0x3d8dc2b7	0.069219045
212	0x3daf0316	0.085455105
213	0x3d30a459	0.043125484
214	0x3d3c1ef4	0.045927957
215	0xbd410b4a	-0.047129907
216	0x3cb29e4e	0.021804001
217	0x3da36e4d	0.079800226
218	0x3dae37e4	0.08506754
219	0xbe8c053e	-0.2734775
220	0xbba498ab	-0.0050230823
221	0xbd25f5ac	-0.040517494
222	0x3d91a13f	0.071108334
223	0xbd440f17	-0.047865953
224	0x3d2ad9bd	0.041711558
225	0x3cb70668	0.022341922
226	0x3deaf16a	0.11471827
227	0x3ea1f8c3	0.31635103
228	0xbe30f210	-0.1727984
229	0xbec9047a	-0.39261228
230	0xbecf1033	-0.40442047
231	0xbf953095	-1.1655451
232	0xbccc1847	-0.02491392
233	0xbdbe617d	-0.09295938
234	0x3cdd5888	0.027019754
235	0xbd0b66dc	-0.03403364
236	0xbd4a5637	-0.049398627
237	0xbdd3edf4	-0.1034812
238	0x3d2d5a0f	0.042322215
239	0xbdbf410c	-0.093385786
240	0x3dc316bb	0.0952582
241	0xbde176be	-0.110089764
242	0xbdb2eb2a	-0.0873626
243	0x3d97f719	0.07420177
244	0xbdb93a0a	-0.09044273
245	0xbd4061e6	-0.046968363
246	0xbd469d4c	-0.048489854
247	0x3d940c35	0.07228891
248	0x3c296f85	0.01034153
249	0xbd289baa	-0.041164078
250	0x3dffd306	0.124914214
251	0xbc91584b	-0.017742297
252	0x3d44f3a8	0.04808393
253	0x3def3b5e	0.11681245
254	0x3def338e	0.11679755
255	0xbd02714b	-0.031846326

hidden_layers.0.bias f4 [256]
0	0x3d10f4cf	0.035389718
1	0xbcf2a7e0	-0.029621065
2	0xbcec9152	-0.028877888
3	0xbd3370a0	-0.04380858
4	0xbd591f75	-0.053008515
5	0xbdb6a6af	-0.08918511
6	0xbd33d2ef	-0.043902334
7	0xbe282c19	-0.16423072
8	0x3de7375f	0.11289858
9	0xbe380eef	-0.17974447
10	0xbdc64757	-0.09681576
11	0x3de8ba77	0.1136369
12	0xbded7b3b	-0.1159577
13	0xbd0f8b93	-0.035045218
14	0x3d76b752	0.06023342
15	0xbdc29a1a	-0.09502049
16	0x3e2aeec5	0.16692646
17	0x3c998ca4	0.01874382
18	0x3db96cdc	0.090539664
19	0xbd3d8faa	-0.046279587
20	0x3daa5d04	0.083185226
21	0xbe126239	-0.14295281
22	0x3e04724d	0.12934227
23	0xbe234160	-0.15942907
24	0x3e051c8c	0.12999171
25	0x3e3b423f	0.1828699
26	0x3d327d3a	0.043576457
27	0xbe04de60	-0.12975454
28	0xbcff4f5d	-0.031165773
29	0xbddad0cc	-0.10684356
30	0x3d834f6d	0.06411634
31	0x3d04aa62	0.032389052
32	0x3cf2bf83	0.029632336
33	0x3de7f51c	0.11326048
34	0xbd1074ea	-0.035267748
35	0xbe196e14	-0.14983398
36	0x3c8933e9	0.016748386
37	0x3de061be	0.10956143
38	0xbe00c747	-0.12576018
39	0xbe0e011a	-0.13867608
40	0x3d16c873	0.036812257
41	0xbdaf8b52	-0.08571495
42	0xbd972ac7	-0.07381206
43	0xbd45c786	-0.048285984
44	0x3e2206ca	0.15822902
45	0xbe2687b3	-0.16262703
46	0x3c8ea313	0.017411744
47	0x3dcf0c9a	0.101098254
48	0xbe50fd72	-0.20409182
49	0xbdc838d8	-0.09776467
50	0xbde5ad5e	-0.11214708
51	0xbda11c01	-0.078666694
52	0xbe52be9b	-0.20580523
53	0x3da6e5ce	0.081493005
54	0xbddc92af	-0.10770165
55	0x3c91148a	0.01770999
56	0xbc17f31f	-0.009274273
57	0x3e3dce30	0.18535686
58	0xbe3ea093	-0.18615942
59	0xbb6fa58e	-0.0036567184
60	0xbe0e295c	-0.13882965
61	0x3d65cedf	0.05610549
62	0xbe043126	-0.12909374
63	0xbe278a98	-0.16361463
64	0x3e02a8f1	0.12759759
65	0x39a9e750	0.00032406533
66	0xbdcfdcc8	-0.101495326
67	0x3d865216	0.065586254
68	0xbd748027	-0.059692528
69	0xbabf3506	-0.0014587946
70	0x3d83bde2	0.06432702
71	0xbd5536c3	-0.052054178
72	0xbceb7b5c	-0.028745346
73	0xbd44de7f	-0.04806375
74	0x3c1058a9	0.008810201
75	0xbe1a43ba	-0.15064898
76	0xbc5ba705	-0.01340652
77	0xbd21afdf	-0.039474364
78	0x3d92c9de	0.07167409
79	0xbe1868ff	-0.14883803
80	0x3c83a0b7	0.016067846
81	0xbdc00af5	-0.0937709
82	0x3c56de2c	0.013114493
83	0x3d99ac7f	0.07503604
84	0xbd4014ca	-0.046894826
85	0x3d9ab587	0.07554155
86	0x3e02ae79	0.12761869
87	0xbe13f2a8	-0.14448035
88	0xbda6bc41	-0.08141375
89	0xbe4414dd	-0.19148584
90	0xbce34da5	-0.027746985
91	0xbe0b5412	-0.13606289
92	0x3cb885d0	0.022524744
93	0x3cd8d196	0.026467126
94	0xbe016180	-0.1263485
95	0x3e284752	0.16433457
96	0x3d350737	0.044196334
97	0xbd13543b	-0.035969
98	0x3d2d6c53	0.042339634
99	0xbdde3281	-0.108494766
100	0xbe4fade4	-0.20281178
101	0xbbd695b7	-0.006548609
102	0xbd86bc46	-0.06578879
103	0xbd264361	-0.0405916
104	0x3da2f7ce	0.07957421
105	0xbe3f67a8	-0.18691885
106	0xbdcc4c9a	-0.09975548
107	0xbde9c519	-0.114145465
108	0xbbd882c5	-0.006607386
109	0xbd82f89c	-0.06395075
110	0x3d4f04b2	0.050541587
111	0xbdb4ac85	-0.08821968
112	0xbc900dcd	-0.017584706
113	0xbdfa2b44	-0.122152835
114	0xbdc4d1a0	-0.09610295
115	0x3dedcf52	0.11611809
116	0x3c1840b8	0.009292774
117	0xbe0707bd	-0.13186546
118	0xbcba36e0	-0.022731245
119	0xbdf974c8	-0.121804774
120	0x3dec8f98	0.11550826
121	0xbd921f09	-0.07134826
122	0xbde3ba5f	-0.11119532
123	0x3d570a92	0.052500315
124	0x3dac9c70	0.084282756
125	0xbe5a8e89	-0.21343435
126	0xbbaa3e06	-0.005195382
127	0xbe0436dc	-0.12911552
128	0x3e2f45f0	0.17116523
129	0xbd8aa829	-0.06770355
130	0x3e068e7c	0.13140291
131	0x3ce8fbe0	0.028440416
132	0x3e0c5af3	0.1370657
133	0x3da946f8	0.08265489
134	0xbe0469bd	-0.12930961
135	0xbd028e24	-0.031873837
136	0xbd5f5d91	-0.05453259
137	0xbdc015fe	-0.09379195
138	0xbd9b9158	-0.075960815
139	0x3cf22513	0.029558694
140	0xbcf02dec	-0.029318772
141	0xbe08af86	-0.13348207
142	0xbd9429cd	-0.07234535
143	0xbe0ec0fd	-0.13940807
144	0xbda2cf7f	-0.07949733
145	0xbe00bb3a	-0.12571421
146	0xbe33bbca	-0.17552105
147	0x3d2db03d	0.042404402
148	0xbdebf3f0	-0.11521137
149	0xbc8016bf	-0.015635846
150	0x3e321756	0.17391714
151	0xbbd7fa87	-0.0065911445
152	0x3df28c1a	0.118431285
153	0x3d31a0cb	0.043366235
154	0x3c7dba5a	0.015486324
155	0x3c11362e	0.008863015
156	0xbdee349a	-0.11631127
157	0xbd60258f	-0.05472332
158	0xba56a696	-0.00081882754
159	0xbe1bd950	-0.15219617
160	0xbca514e5	-0.020151565
161	0x3d95a0ed	0.07306085
162	0xbe11b10e	-0.14227697
163	0xbe03e42b	-0.12880008
164	0xbe237591	-0.15962817
165	0x3d0b03a8	0.033939034
166	0x3d580ca6	0.052746437
167	0xbd056ee6	-0.032576464
168	0xbe060ee2	-0.13091615
169	0xbe0eca9d	-0.13944478
170	0x3e06fff6	0.13183579
171	0xbe2a1f10	-0.16613412
172	0x3e14ad6c	0.1451928
173	0xbe62a8c1	-0.22134687
174	0x3e01c45e	0.12672564
175	0x3ce4f354	0.02794806
176	0xbd75a342	-0.059970148
177	0xbe56b043	-0.20965676
178	0x3de186aa	0.11012013
179	0x3d2da3aa	0.04239241
180	0x3ca0e11f	0.019638596
181	0xbd2c2167	-0.042024042
182	0x3c57a46e	0.013161762
183	0x3db5bf3a	0.08874364
184	0x3de75392	0.11295237
185	0x3da26589	0.079295225
186	0x3e224811	0.15847804
187	0xbdd1127a	-0.10208602
188	0xbdd08ade	-0.10182737
189	0xbe534958	-0.20633447
190	0x3dbe7694	0.09299961
191	0xbe257fe7	-0.16162072
192	0x3dafb80e	0.085800275
193	0xbd3dbf9b	-0.046325307
194	0x3dc5d82d	0.09660373
195	0xbce89fc6	-0.028396498
196	0xbdacc483	-0.08435919
197	0x3dcd1830	0.10014379
198	0xbaa68ea6	-0.0012707307
199	0xbe4f2300	-0.20228195
200	0x3b976c36	0.004621054
201	0x3dabe7cf	0.08393823
202	0x3d6e2fc7	0.058151033
203	0xbe525b5f	-0.20542668
204	0xbbf52869	-0.007481624
205	0xbd0cb724	-0.034354344
206	0x3d8b47ff	0.068008415
207	0x3cadea98	0.021230027
208	0x3d9800ce	0.074220285
209	0xbe47b4ea	-0.19502607
210	0xbdcdc693	-0.10047641
211	0xbe08a22c	-0.13343114
212	0x3c93c705	0.018039236
213	0x3da7230a	0.0816098
214	0x3b4dfaf7	0.0031430104
215	0x3d142208	0.036165267
216	0xbe1f8f14	-0.15581924
217	0xbc9e887b	-0.019352188
218	0xbe50b072	-0.20379809
219	0xbe26e357	-0.16297661
220	0xbd9ee73e	-0.0775895
221	0xbe20c0eb	-0.15698592
222	0x3db2e1f6	0.08734505
223	0xbe2896ac	-0.16463727
224	0xbb613050	-0.0034361072
225	0xbdf4996e	-0.11943327
226	0x3d97e91e	0.074175104
227	0x3deebbbd	0.11656902
228	0xbe0682ab	-0.13135783
229	0x3da5d9c9	0.0809818
230	0xbdc7fb85	-0.097647704
231	0xbdc5d0d0	-0.096589684
232	0x3dabda1e	0.08391212
233	0x3d4acc16	0.049511038
234	0xbe014f93	-0.12628011
235	0xbc7b6fec	-0.0153465085
236	0x3bb8e716	0.005642782
237	0xbe193a34	-0.14963609
238	0xbd0365ed	-0.032079626
239	0x3e0bd301	0.1365471
240	0x3d8bfa95	0.06834904
241	0xbc9df2f7	-0.019280894
242	0xbd28f58c	-0.041249797
243	0x3bd8e91e	0.0066195866
244	0xbdc23f22	-0.09484698
245	0xbc47b221	-0.012188465
246	0xbda4a8c4	-0.08040002
247	0x3d601b76	0.05471369
248	0xbdde8ca4	-0.10866669
249	0x3b1958b1	0.0023398811
250	0x3cddad4f	0.027060179
251	0xbe1e5598	-0.15462339
252	0x3c0fb8ad	0.0087720575
253	0x3d6d0bfe	0.057872765
254	0xbe13c683	-0.14431195
255	0x3c58c3d6	0.013230285

hidden_layers.1.weight f4 [256, 256]
0	0x3d2d6033	0.04232807
1	0xbba5cb93	-0.0050596683
2	0xbda7146b	-0.08158191
3	0xbca2b448	-0.019861355
4	0x3cda6cad	0.026663149
5	0xbd92cd7d	-0.071681
6	0x3c8be632	0.01707754
7	0x3d9edae1	0.077565916
8	0xbc98cb5d	-0.018651659
9	0x3d8142c5	0.063115634
10	0xbd016789	-0.03159288
11	0xbcb4e80d	-0.022083307
12	0xbd9fcf22	-0.07803179
13	0x3d885e50	0.06658614
14	0xbbea0325	-0.007141488
15	0xbd5bd550	-0.053670228
16	0xbce4b180	-0.02791667
17	0xbd1c581b	-0.03816996
18	0x3da83619	0.08213443
19	0xbdc0d9df	-0.094165556
20	0x3b14433d	0.0022623085
21	0xbe871312	-0.26381737
22	0xbdce83f9	-0.100837655
23	0xbc9bc8aa	-0.019016583
24	0x3c7a7ab5	0.015288045
25	0x3d9d4f74	0.0768117
26	0x3deabd1d	0.11461852
27	0xbcd1ab89	-0.02559449
28	0x3d07e5a5	0.03317799
29	0x3c444430	0.011979148
30	0x3dbb6799	0.09150619
31	0xbe0a5235	-0.13507922
32	0xbd89a606	-0.067211196
33	0xbdaa7cce	-0.08324586
34	0xbd7e9758	-0.06215605
35	0x3d0bef07	0.0341635
36	0x3da1b36d	0.07895551
37	0xb9752c38	-0.00023381494
38	0x3cadf976	0.021237116
39	0xbd3134f2	-0.043263383
40	0xbd9ea6b9	-0.077466436
41	0xbde7c651	-0.11317123
42	0xbc478f70	-0.012180194
43	0xbbf07ab9	-0.0073388484
44	0x3df65d6f	0.1202954
45	0x3d8d274f	0.06892263
46	0x3db983f3	0.090583704
47	0xbc2bcea5	-0.01048628
48	0xbce40c2c	-0.027837835
49	0x3d8b94bd	0.06815479
50	0xbdcaf4b3	-0.09909954
51	0xbcada0a2	-0.02119476
52	0xbe245d11	-0.16051127
53	0x3d6a2caf	0.05717152
54	0x3ca48eae	0.020087566
55	0xbdd57556	-0.10422771
56	0x3d0cd3e3	0.03438176
57	0x3d5b7924	0.053582326
58	0xbdee59ab	-0.116381966
59	0x3cd4a095	0.025955478
60	0xbe27d7ac	-0.16390866
61	0xbdb9b92d	-0.090685226
62	0xbdd767e8	-0.105178654
63	0x3c141fea	0.009040812
64	0xbcd8dc6a	-0.02647229
65	0xbe233d94	-0.15941459
66	0xbdc38f46	-0.095488116
67	0xbe1daf98	-0.15399015
68	0xbd0ba25d	-0.03409039
69	0xbdb432ca	-0.0879875
70	0xbe023c9a	-0.1271843
71	0x3d446fc7	0.04795816
72	0x3c5b084c	0.013368677
73	0x3caa0782	0.020755533
74	0xbde66d78	-0.11251348
75	0x3c20ec7c	0.009822007
76	0xbd4b15ad	-0.04958122
77	0xbd6211a9	-0.055192623
78	0xbd1a9d20	-0.037747502
79	0x3ab67c10	0.0013922472
80	0xbd8463b7	-0.064643316
81	0xbda28854	-0.07936159
82	0x3bc35d34	0.0059620384
83	0x3d94022f	0.07226979
84	0xbd9fd235	-0.07803766
85	0x3d927653	0.07151475
86	0xbd56e0e5	-0.05246057
87	0xbd03a00a	-0.032135047
88	0xbaca6330	-0.0015440937
89	0x3d9410c9	0.07229764
90	0xbdca3dc0	-0.09875059
91	0x3dde29cb	0.10847815
92	0x3d3841b0	0.04498452
93	0x3cad8135	0.021179775
94	0x3ddeac4d	0.108727075
95	0x3d0699b6	0.032861434
96	0x3cf6b739	0.030116664
97	0xbd067866	-0.032829665
98	0x3d8dd5bc	0.06925532
99	0xbbca5b42	-0.0061754296
100	0xbcf48716	-0.02984957
101	0x3c9499e1	0.018139781
102	0xbc9b84d1	-0.01898423
103	0x3c26c4b4	0.010178734
104	0x3c7db6b3	0.015485453
105	0xbd6c82aa	-0.0577418
106	0x3ca4002f	0.020019619
107	0xbd8c80fa	-0.06860538
108	0xbd95c35f	-0.07312655
109	0xbd08937e	-0.033343785
110	0x3cff5dba	0.031172622
111	0x3e2cc855	0.16873296
112	0xbd1f48ff	-0.038887974
113	0x3e47b39c	0.1950211
114	0x3ca05dcb	0.019575974
115	0x3e2678cd	0.1625702
116	0xbd92c92e	-0.07167278
117	0xbe337c76	-0.17527947
118	0xbca5d1e6	-0.020241689
119	0xbdbcaf0d	-0.09213076
120	0xbbe86bb6	-0.0070929183
121	0x3d1819a3	0.037133824
122	0x3de4a170	0.11163604
123	0xbd87471b	-0.06605359
124	0x3dca26ca	0.0987068
125	0xbd8c2013	-0.06842055
126	0xbc5a0891	-0.013307706
127	0xbda4eae4	-0.08052614
128	0xbd0f4863	-0.034981143
129	0x3c734e19	0.014850163
130	0x3d2d7d4a	0.042355813
131	0x3d7cb7b6	0.061698638
132	0xbd09a8e4	-0.033608332
133	0x3d6d8112	0.05798442
134	0x3db6a8ac	0.0891889
135	0xba7a9c0a	-0.0009559995
136	0x3d06b645	0.03288867
137	0x3dedf54d	0.11619053
138	0x3c91d8b4	0.017803527
139	0x3ce3c977	0.027806027
140	0xbd47b8ca	-0.048760213
141	0xbe30bc70	-0.17259383
142	0xbd8113c2	-0.06302597
143	0xbaf1d7ef	-0.0018451194
144	0xbe3401f5	-0.17578872
145	0xbd24ea5d	-0.04026257
146	0xbe37643f	-0.17909335
147	0xbdc885b8	-0.0979113
148	0xbd81f585	-0.06345657
149	0xbdebddd5	-0.115169205
150	0xbca412e3	-0.020028537
151	0xbcba6cc0	-0.022756934
152	0xbc85bbb3	-0.016324854
153	0xbe1e218d	-0.15442486
154	0x3d6f134c	0.058368012
155	0x3ca4b20d	0.020104432
156	0xbd2dce13	-0.042432856
157	0xbd417362	-0.04722918
158	0xbd9c2daa	-0.07625897
159	0xbd35e42c	-0.044407055
160	0x3d7244e9	0.05914775
161	0xbcca88cd	-0.024723435
162	0xbe579fff	-0.21057127
163	0x3c345548	0.011006661
164	0x3dcb42d4	0.09924856
165	0xbd72091a	-0.05909071
166	0xbe2a4b31	-0.16630246
167	0xbb01a515	-0.0019782234
168	0xbbc9b77a	-0.0061559053
169	0xbbc16559	-0.005901974
170	0xbd0525c5	-0.032506723
171	0xbd229cbe	-0.039700262
172	0x3d92ef56	0.07174556
173	0x3d75062d	0.059820343
174	0x3c58c81d	0.0132313045
175	0xbc7a8a73	-0.015291798
176	0x3dd1a95e	0.10237382
177	0xb9a216be	-0.00030915992
178	0xbd86d2ea	-0.065831974
179	0xbdc1536d	-0.0943974
180	0x3c8a9deb	0.016921004
181	0xbe588c11	-0.21147181
182	0xbe3d0883	-0.18460278
183	0xbd8cc052	-0.0687262
184	0x3d5c71d4	0.053819492
185	0xbd92f9c8	-0.07176548
186	0x3d2549c5	0.040353555
187	0xbd025624	-0.03182043
188	0xbd6d1970	-0.057885587
189	0xbdb61e85	-0.0889254
190	0xbb0917fd	-0.002091884
191	0x3d48670e	0.048926406
192	0x3d1d49c5	0.03840043
193	0x3c8b8d7d	0.01703524
194	0xbe4e2478	-0.20131099
195	0x3d9962f9	0.07489581
196	0x3e03b613	0.12862425
197	0xbd61dea3	-0.055143964
198	0xb9369e41	-0.00017415827
199	0x3d8f77d9	0.07005281
200	0x3cc6a20c	0.024247192
201	0xbd3883b7	-0.045047488
202	0xbdd19e3b	-0.10235258
203	0x3c6136f2	0.01374601
204	0xbe29c7de	-0.1658015
205	0xbd2b5366	-0.04182758
206	0x3dae0a3d	0.084980465
207	0x3d99ee2f	0.07516133
208	0x3c7f6fa4	0.015590582
209	0xbc822736	-0.015887838
210	0xbe16d6a7	-0.14730321
211	0xbd0965f7	-0.033544507
212	0x3c8fc092	0.01754788
213	0x3c8e8c6f	0.017400948
214	0xbd17169b	-0.036886793
215	0xbda77dc3	-0.08178284
216	0x3e277dcf	0.16356586
217	0xbc715aed	-0.014731151
218	0xbbe6753b	-0.007033018
219	0xbc3edf36	-0.011649897
220	0x3ca87447	0.020563258
221	0x3c0be304	0.008538011
222	0xbd0e291f	-0.034707185
223	0x3d61cdd4	0.055127934
224	0x3da5300c	0.08065805
225	0x3deb505d	0.114899375
226	0xbdaaa358	-0.083319366
227	0xbd25821d	-0.04040729
228	0xbdca1714	-0.09867683
229	0x3d0929e1	0.033487204
230	0xbd0842c2	-0.03326679
231	0x3d354f8c	0.044265315
232	0x3cb83e1c	0.022490554
233	0xbc790b8e	-0.015200509
234	0xbdcb695d	-0.09932206
235	0xbbf51663	-0.0074794753
236	0xbdbfaf34	-0.09359589
237	0x3cb21b4e	0.021741536
238	0x3d0a9753	0.03383572
239	0x3d94f5fa	0.07273479
240	0xbde2c577	-0.1107282
241	0x3d769b52	0.06020672
242	0xbdc601a1	-0.096682794
243	0xbea13804	-0.3148805
244	0x3c94cc3f	0.018163798
245	0xbe35fd6f	-0.17772458
246	0x3d58b877	0.052910294
247	0xbddfd9b7	-0.10930198
248	0x3c3a402d	0.01136784
249	0x3cb45006	0.022010814
250	0x3dcff760	0.10154605
251	0xbe24425e	-0.16040942
252	0x3d2a9ff5	0.041656453
253	0xbd9ee77a	-0.077589944
254	0xbd00b861	-0.031425837
255	0xbda425bd	-0.080150105

hidden_layers.1.bias f4 [256]
0	0x3c960aee	0.018315759
1	0xbd75fcf3	-0.060055684
2	0x3cac4b3a	0.021031965
3	0xbd5c7600	-0.05382347
4	0xbcdefa6d	-0.027219022
5	0xbd2f265c	-0.04276119
6	0xbdb87206	-0.09006123
7	0xbd95333a	-0.07285161
8	0xbcb3c38c	-0.02194383
9	0xbcfffaaa	-0.031247456
10	0x3bf684e7	0.0075231674
11	0xbd8df756	-0.06931941
12	0xbd314062	-0.04327429
13	0xbdb912bf	-0.09036779
14	0xbc94c161	-0.018158616
15	0x3da6a630	0.081371665
16	0x3c24ff15	0.010070582
17	0x3da8f102	0.082490936
18	0x3cd89421	0.02643782
19	0xbc34ec56	-0.011042675
20	0xbcf2d611	-0.02964309
21	0xbd766351	-0.06015331
22	0xbda6aa17	-0.08137911
23	0xbc907b24	-0.017636843
24	0xbd7e8646	-0.062139772
25	0xbd8384ce	-0.06421815
26	0x3dba6050	0.091004014
27	0x3d0bba46	0.03411319
28	0x3d800b99	0.06252212
29	0xbd879373	-0.066199206
30	0x3c64874d	0.013948274
31	0xbd81283f	-0.063065045
32	0xbd8e7a2c	-0.06956896
33	0x3da581cd	0.08081398
34	0xbd59a5a3	-0.05313648
35	0xbdb8896e	-0.09010588
36	0xbd1da3f0	-0.03848642
37	0xbbffb17c	-0.00780314
38	0x3ccd7962	0.025082294
39	0xbd534bbb	-0.051585894
40	0xbda109ad	-0.07863174
41	0xbd8adcba	-0.067803815
42	0xbcb94f0a	-0.022620697
43	0x3c6e3177	0.0145381605
44	0x3cec835f	0.028871236
45	0xbd742f31	-0.059615318
46	0x3d0d3a71	0.034479562
47	0x3cf73760	0.030177772
48	0xbd61a1c6	-0.05508592
49	0xbde65e4f	-0.11248457
50	0xbda2f111	-0.07956136
51	0x3c77106b	0.015079598
52	0x3cfc683a	0.030811418
53	0xbd7828da	-0.060585834
54	0xbd2015f9	-0.039083455
55	0xbc6e617f	-0.014549612
56	0x3df60d9e	0.12014316
57	0x3cb9b12d	0.022667492
58	0xbc6fcef4	-0.014636744
59	0x3cbcfc5b	0.023069551
60	0xbd61dcd7	-0.05514225
61	0x3c173368	0.009228565
62	0xbd8dba7f	-0.06920337
63	0xbd1741ed	-0.036928106
64	0x3d4572a1	0.04820502
65	0x3d7bbdd1	0.06146032
66	0xbe0d041f	-0.13771103
67	0xbdb24508	-0.08704573
68	0x3db072b6	0.086156294
69	0xbd509459	-0.050922725
70	0xbd6aed44	-0.05735518
71	0xbdaaf168	-0.08346826
72	0xbca5164f	-0.02015224
73	0xbd8891f8	-0.06668466
74	0xbd7f210f	-0.062287387
75	0x3dcdd5a3	0.100505136
76	0x3e79ef82	0.24407771
77	0x3c129538	0.008946709
78	0xbd3171ac	-0.043321297
79	0x3caacf06	0.02085067
80	0x3c3208ae	0.010866327
81	0xbdb9041b	-0.09033986
82	0xbd5abd42	-0.053403147
83	0xbd2b22d1	-0.04178125
84	0xbd4a36f4	-0.049368814
85	0xbc5b9461	-0.0134020755
86	0x3cb2f1dc	0.021843843
87	0xbc868d5c	-0.016424827
88	0x3cb231c9	0.021752255
89	0xbd94605f	-0.07244944
90	0xbd254c9b	-0.04035626
91	0xbdae641e	-0.085151896
92	0xbdeb96e3	-0.11503389
93	0xbd7a038c	-0.06103854
94	0xbd5a30aa	-0.053269066
95	0xbac63e30	-0.0015124734
96	0xbe1181fb	-0.1420974
97	0xbd88ed2f	-0.06685864
98	0xbd966fa1	-0.0734551
99	0xbd45b901	-0.048272137
100	0xbd868e7e	-0.06570147
101	0xbda9069d	-0.082532145
102	0x3c5d1662	0.013494106
103	0xbd9379cc	-0.07200965
104	0xbd24bde8	-0.04022017
105	0xbd9d1ba4	-0.07671288
106	0x3cde144c	0.027109288
107	0x3c872150	0.016495377
108	0xbc519e7e	-0.012794135
109	0xbdd10895	-0.10206715
110	0xbdb4ed8c	-0.08834371
111	0xbe048471	-0.12941147
112	0xbd37b575	-0.044850785
113	0x3cbd620d	0.023118043
114	0x3daeb80a	0.085311964
115	0xbd0937e0	-0.033500552
116	0xbd0ca133	-0.03433342
117	0xbcb13f1b	-0.021636536
118	0xbcfe479e	-0.03104001
119	0x3d671dc5	0.056424875
120	0xbd067909	-0.032830272
121	0xbd10ce1e	-0.03535282
122	0x3d712d2b	0.058880966
123	0xbd275554	-0.04085286
124	0x3c0e0cf4	0.00867008
125	0xbc3aee76	-0.011409393
126	0xbc978af8	-0.018498883
127	0x3c98c85c	0.018650226
128	0xbca0b18a	-0.019615907
129	0x3cfb0253	0.030640757
130	0x3cacf28b	0.021111747
131	0xbd24e960	-0.040261626
132	0xbc964ef0	-0.018348187
133	0xbc08d882	-0.008352401
134	0xbd309414	-0.04310997
135	0x3cc1afe8	0.023643449
136	0xbd805372	-0.06265916
137	0xbd891864	-0.06694105
138	0xbd371af4	-0.04470344
139	0x3bc77075	0.006086404
140	0xbd86760f	-0.06565487
141	0x3d0be1f4	0.034151033
142	0xbd8fd61c	-0.0702326
143	0x3d178c2a	0.036998905
144	0x3c654bad	0.013995093
145	0x3cbd7292	0.02312592
146	0xbd305adf	-0.04305541
147	0xbd39c6e0	-0.045355678
148	0xbc42a172	-0.011879312
149	0xbbfce254	-0.00771741
150	0xbd8b2b4e	-0.06795369
151	0x3bca9ffa	0.0061836215
152	0xbd098e4f	-0.03358298
153	0xbcb3691b	-0.021900704
154	0x3dcbc849	0.09950311
155	0xbd7bd7cb	-0.061485093
156	0x3d46e456	0.048557602
157	0x3ce4be76	0.02792285
158	0x3d08726d	0.03331225
159	0xbd066935	-0.032815177
160	0xbcb43040	-0.021995664
161	0xbc60aca3	-0.013713035
162	0xbcc39c4e	-0.023878243
163	0xbc96931c	-0.018380694
164	0xbdb2b466	-0.087258145
165	0xbbdc4962	-0.006722615
166	0xbddf842b	-0.10913881
167	0xbd310664	-0.043218985
168	0xbcf281ba	-0.029602874
169	0xbce7bee8	-0.028289273
170	0x3d0f2a8e	0.034952693
171	0xbd108e9d	-0.035292257
172	0x3abd97b3	0.0014464766
173	0x3c03ee88	0.008052476
174	0xbe04200c	-0.1290285
175	0xbd82fd11	-0.06395925
176	0x3b1feb5d	0.0024401762
177	0xbd345bd3	-0.044032883
178	0x3cdb6a14	0.02678398
179	0xbd1b9993	-0.037988257
180	0x3bfebb9e	0.0077738306
181	0xbdda4d9e	-0.106593356
182	0xbbc0d821	-0.0058851396
183	0x3d83ea67	0.06441193
184	0xbc3afd54	-0.011412937
185	0x3d9fbdad	0.0779985
186	0xbd42ce1a	-0.047559835
187	0x3d7f12d9	0.062273834
188	0xbd7f2c70	-0.06229824
189	0x3d147c6e	0.036251478
190	0x3e09bbed	0.13450594
191	0xbb3f557a	-0.0029195235
192	0x3aad801a	0.001323703
193	0xbd240482	-0.04004336
194	0xbdcabaf9	-0.098989435
195	0xbd2ed924	-0.04268755
196	0xbd8a9842	-0.06767322
197	0xbdd6fdc9	-0.104976244
198	0x3b004cb4	0.0019576969
199	0x3c419cd1	0.011817173
200	0xbce5e4d6	-0.028063219
201	0xbd0b42e6	-0.033999346
202	0xbd2e8c7a	-0.042614438
203	0x3d5e946b	0.05434076
204	0x3d43f563	0.04784144
205	0xbcdc8735	-0.02691994
206	0x3c990e60	0.018683612
207	0xbc190a1e	-0.009340791
208	0xbd07eabe	-0.033182852
209	0x3d3c4f43	0.045974027
210	0x3c12bd70	0.008956298
211	0xbd9f81dd	-0.07788441
212	0x3d6e1c55	0.05813249
213	0x3be9c1be	0.0071336916
214	0xbc61f89a	-0.013792181
215	0xbcfc1f5f	-0.030776678
216	0xbbac3c27	-0.005256194
217	0x3d10b413	0.035327982
218	0xbd83a817	-0.06428545
219	0xbd0e6d18	-0.03477201
220	0xbc067060	-0.008205503
221	0x3da7a2aa	0.081853226
222	0xbd748474	-0.05969663
223	0xbcc25642	-0.023722772
224	0xbdc8f358	-0.09812039
225	0x3c1921a4	0.009346399
226	0x3c7b911d	0.015354422
227	0x3cef7597	0.029230876
228	0xbc8fc4cf	-0.0175499
229	0xbcce9a89	-0.025220172
230	0xbca29e2a	-0.01985081
231	0x3dc49b0d	0.09599886
232	0xbc6a0978	-0.014284484
233	0x3d8c5cd2	0.068536416
234	0xbc8a7e09	-0.016905801
235	0xbd690f2f	-0.056899246
236	0xbd94ad39	-0.07259602
237	0xbd03f0f8	-0.032212228
238	0x3d803bb5	0.06261388
239	0xbc116995	-0.00887527
240	0xbdc318d0	-0.09526217
241	0xbd78e8c3	-0.060768854
242	0xbda29d4a	-0.07940157
243	0xbc808396	-0.015687745
244	0xbbbedc70	-0.005824618
245	0x3d259e03	0.040433895
246	0x3e0494ef	0.12947439
247	0xbddec541	-0.10877467
248	0x3a3420ad	0.0006871324
249	0xbd732edf	-0.05937087
250	0xbbf74986	-0.0075466065
251	0xbd7b9087	-0.06141713
252	0x3b06d409	0.002057316
253	0xbcbc68c2	-0.022999171
254	0xbd3e19f4	-0.04641147
255	0x3cbbb8ae	0.02291521

output.weight f4 [4, 256]
0	0x3aa0cb31	0.0012267587
1	0x3cb9ff98	0.022704884
2	0x3e026e75	0.12737449
3	0x3c933c44	0.017973073
4	0x3c49cd31	0.012316988
5	0x3c8c959b	0.017161181
6	0x3ac40586	0.0014955259
7	0xbcd8ab23	-0.026448792
8	0xbcd59e21	-0.026076378
9	0x3c3c690f	0.011499657
10	0xbd412a3a	-0.04715941
11	0xbd8e6eb9	-0.069547124
12	0x3b84c1f9	0.0040514437
13	0xbddc857a	-0.10767646
14	0x3ca33005	0.019920358
15	0xbd00a6a1	-0.03140891
16	0xbc0c4126	-0.0085604545
17	0x3dad3158	0.08456677
18	0xbe862b68	-0.2620499
19	0xbacf2999	-0.0015805244
20	0x3cc0c897	0.023533149
21	0xbd187c63	-0.037228
22	0x3c6a6009	0.014305123
23	0x3d41b8b6	0.047295295
24	0x3ddf6b58	0.10909146
25	0xbd86072b	-0.06544336
26	0x3d773da8	0.060361534
27	0xbe08bfef	-0.13354467
28	0x3c8b34ee	0.016993012
29	0xbcca699d	-0.024708563
30	0xbdeb2d96	-0.11483304
31	0x3ca4b878	0.020107493
32	0xbb5b5f71	-0.0033473636
33	0x3d8c042b	0.068367325
34	0xbd3b0388	-0.045657665
35	0xbdc1ba37	-0.09459346
36	0x3d1fca9b	0.03901158
37	0xbd2776e5	-0.04088487
38	0x3d606a1b	0.05478869
39	0xbdf04536	-0.11731951
40	0xbc177517	-0.009244225
41	0xbcfdd411	-0.03098491
42	0x3c51b479	0.012799376
43	0x3bfefc58	0.0077815466
44	0x3e2d9385	0.16950805
45	0xbc9cb127	-0.019127442
46	0x3c881d0a	0.01661541
47	0xbbb8124f	-0.005617417
48	0x3c6886b0	0.014192268
49	0xbb4bc9a2	-0.0031095524
50	0x3c28d6a8	0.010305084
51	0xbcfc4ca7	-0.03079827
52	0x3db58c24	0.0886462
53	0xbb9e910a	-0.0048390673
54	0xbbfd2038	-0.007724788
55	0x3d8b60ee	0.06805597
56	0x3e1c153c	0.15242475
57	0x3d3cb61f	0.04607212
58	0x3981db93	0.00024768393
59	0xbcc21171	-0.023689957
60	0xbc4b0e66	-0.01239357
61	0x3c3e2a2b	0.011606733
62	0xbd5fc6a4	-0.054632798
63	0x3ca90ffd	0.020637507
64	0xbc078864	-0.008272264
65	0x3ea9189f	0.33026597
66	0xbd9e6ad3	-0.07735219
67	0xbd9fd03b	-0.07803389
68	0x3e331113	0.17486982
69	0x3b943c1f	0.0045237686
70	0xbdf6ae81	-0.12045003
71	0x3bfe284b	0.007756268
72	0xbb8e5bae	-0.004344425
73	0xbd937272	-0.07199563
74	0xbcd24729	-0.025668697
75	0x3ddcaadb	0.107747756
76	0x3db8daa1	0.09026075
77	0x3d8faaf8	0.070150316
78	0xbcd30cda	-0.025762964
79	0xbb8c0013	-0.00427247
80	0x3d401a23	0.046899926
81	0x3c0c3fa7	0.008560098
82	0xbc1141c7	-0.00886578
83	0x3a72e2f2	0.0009265385
84	0x3b47c6a3	0.0030483387
85	0xbcc2e765	-0.023791978
86	0x3cd97e3f	0.026549457
87	0xbcb9cdfe	-0.022681233
88	0xbd1cf528	-0.038319737
89	0x3d8a18c1	0.06743003
90	0xbd6f4887	-0.058418777
91	0xbd91de3e	-0.071224675
92	0x3da6996b	0.08134731
93	0xbc9d1c68	-0.019178584
94	0x3d5349d2	0.051584072
95	0x3d3599b2	0.04433603
96	0xbd76a6d8	-0.06021771
97	0x3d0285bf	0.03186583
98	0x3c2067aa	0.00979034
99	0xbcb99b35	-0.022657016
100	0x3c378ce7	0.011203027
101	0xbb07f47d	-0.0020745092
102	0xbd090cc2	-0.033459432
103	0xbcdc2c04	-0.026876457
104	0x3d341c83	0.043972503
105	0x3d052f11	0.03251559
106	0x3d87ecb6	0.06636946
107	0x3c9434ff	0.018091677
108	0x3e1fb747	0.15597259
109	0x3c89cafd	0.016820425
110	0xbc6b9999	-0.014379882
111	0xbd13df4b	-0.03610162
112	0xbc0fed06	-0.008784538
113	0x3bfd3317	0.0077270376
114	0x3db54154	0.08850351
115	0x3b7af291	0.0038291554
116	0x3d86c27c	0.06580064
117	0x3cdbc714	0.026828326
118	0xbc9ebfa4	-0.01937849
119	0x3d8a3885	0.067490615
120	0xbc2eee56	-0.010676941
121	0x3d7fe809	0.062477145
122	0x3abc6424	0.0014373106
123	0xbc7a3d27	-0.015273369
124	0x3dc4356b	0.09580501
125	0x3c786814	0.015161533
126	0xbb8be50c	-0.004269248
127	0x3cc878db	0.02447169
128	0xbc18c59b	-0.009324457
129	0x3c9b37ea	0.01894756
130	0xbd06a67b	-0.032873612
131	0xbd21484f	-0.0393756
132	0x3d264861	0.04059637
133	0xbdfafdcc	-0.12255439
134	0x3b539c11	0.0032289068
135	0xbb3c1454	-0.002869864
136	0x3c86a72e	0.01643714
137	0x3d39e474	0.045383886
138	0xbd8943cf	-0.067023866
139	0xbca61eca	-0.020278353
140	0xbd29dfe6	-0.04147329
141	0x3d8f0eb2	0.06985225
142	0xbc75f0a7	-0.015010989
143	0x3ccc4489	0.024935024
144	0xbc43baa3	-0.011946353
145	0xbd6de9bb	-0.05808423
146	0xbd5df880	-0.054192066
147	0x3d37ca83	0.044870865
148	0x3d496551	0.04916889
149	0xbd48350c	-0.048878714
150	0xbdab486f	-0.08363425
151	0xbd3cfa3a	-0.046137072
152	0x3d1f317d	0.038865555
153	0xbc360fb6	-0.011112144
154	0x3e2d21ff	0.169075
155	0x3bfc3509	0.007696752
156	0x3d57f92d	0.052727867
157	0x3e18edcc	0.14934462
158	0x3d889a9e	0.06670116
159	0xbc126b83	-0.008936766
160	0x3c8b9d85	0.017042885
161	0xbae4b293	-0.0017448239
162	0xbdfcb440	-0.123390675
163	0x3d253563	0.040334117
164	0xbd535570	-0.05159515
165	0x3c186843	0.009302202
166	0xbd8cf8ed	-0.06883416
167	0x3b34d0ee	0.0027590352
168	0x3d1cabbc	0.038249716
169	0xbe021a3e	-0.12705323
170	0x3dab039f	0.083503
171	0xbc10aa9a	-0.008829737
172	0x3cdb1025	0.026741097
173	0xbdbbc504	-0.09168437
174	0xbd7b1d41	-0.061307196
175	0x3d9e5e0d	0.077327825
176	0xbbd01d67	-0.0063511613
177	0x3c81c248	0.01583971
178	0x3e460070	0.19336104
179	0x3c2e5860	0.010641187
180	0xbd0a02d8	-0.03369412
181	0xbbc76d89	-0.0060860557
182	0xbdeba38d	-0.11505804
183	0xbd5704e6	-0.052494906
184	0xbc5bd22c	-0.013416808
185	0x3e8a6326	0.2702877
186	0xbe034cf2	-0.12822321
187	0x3e412e23	0.18865256
188	0xbc029eef	-0.007972463
189	0x3c1cbb7f	0.009566187
190	0x3d9b1eb8	0.075742185
191	0xbcca7255	-0.02471272
192	0xbd9d3899	-0.07676811
193	0xbda3d702	-0.07999994
194	0x3c2c0dcb	0.010501335
195	0xbcb3f626	-0.021967959
196	0x3d249795	0.040183622
197	0xbd2d7947	-0.042351987
198	0xbd77e9ac	-0.06052558
199	0x3db91cf2	0.09038724
200	0x3dd5e56e	0.10444151
201	0x3d294745	0.041327734
202	0xbd74ed42	-0.05979658
203	0x3e8e869f	0.27837083
204	0xbe0cd845	-0.13754375
205	0xbbe89c85	-0.0070987367
206	0xbe17bbdd	-0.14817758
207	0xbbf93f5e	-0.007606431
208	0x3d6bc74f	0.057563122
209	0x3b0b9f60	0.0021304712
210	0x3cec5bd7	0.028852386
211	0xbd12aed1	-0.03581125
212	0xbd10034c	-0.035159394
213	0xbc8aa101	-0.016922476
214	0xba4b7e17	-0.00077626243
215	0xbd1f3210	-0.038866103
216	0x3cf9312e	0.030418959
217	0x3c2fe6f0	0.010736212
218	0xbd7d8b7f	-0.061900612
219	0x3d91d055	0.07119814
220	0x3d8f24ec	0.06989464
221	0x3c2785bb	0.010224755
222	0xbd6a6e7d	-0.057234276
223	0x3c19d069	0.009388068
224	0x3cad90aa	0.021187145
225	0x3d7df06b	0.06199686
226	0xbcd4c760	-0.025973976
227	0x3d92d049	0.071686335
228	0xbc7fac88	-0.0156050995
229	0xbcd8d452	-0.02646843
230	0x3d914618	0.070934474
231	0x3dc93307	0.09824186
232	0xbd2cd4d4	-0.042195156
233	0xbd015128	-0.031571537
234	0x3abd873b	0.0014459857
235	0x3d5d7617	0.054067697
236	0x3c8f6d13	0.017508065
237	0x3d5e995b	0.05434547
238	0x3d1af627	0.037832405
239	0xbc4a65ed	-0.012353403
240	0xbdb835b1	-0.08994616
241	0xbcb65ced	-0.022261107
242	0x3d547413	0.05186851
243	0xbe8aacf0	-0.27085066
244	0x3dc254f6	0.09488861
245	0x3d8b94a4	0.0681546
246	0x3d0ab66c	0.033865377
247	0x3c04bd12	0.0081017185
248	0x3d117f49	0.03552178
249	0xbd28cf26	-0.041213177
250	0xba9363a7	-0.0011244909
251	0x3cc09d83	0.023512607
252	0xbca92d7d	-0.020651573
253	0x3b400031	0.002929699
254	0xbb684fff	-0.0035448072
255	0x3d1b5954	0.037926987

output.bias f4 [4]
0	0x3e887a34	0.26655734
1	0x3e2f2c01	0.1710663
2	0x3e3f379f	0.18673562
3	0x3e312b0e	0.1730158
