checkpoints/state_size_37__action_size_4__hidden_layers_[64-64]__drop_p_0.0__seed_0__GAMMA_0.99__LR_0.0005__UPDATE_EVERY_100__BUFFER_SIZE_100__BATCH_SIZE_64__TAU_0.001.pth (torch, 29527 bytes, 6 tensors)

hidden_layers.0.weight f4 [64, 37]
00000000: a905 34be d6e6 e33d 8f65 05be 332f f83d
00000010: 9cd1 8e3d 778e 0e3e a0f7 20bd 0b6b 023e
00000020: 8b4c 393e 2269 35bd 24b2 16be 576b 18bd
00000030: 6677 a1bb ec6b ba3d 4a4b 863d 2bef 82bd
00000040: 624b 30be 17d9 8f3d 0568 d23d 861f 8a3d
00000050: 7f07 f63a c91c 123d ad6e ccbd fab1 4fbc
00000060: ac7c ae3d 95da e83d 623a a83d 373c 253d
00000070: 7a6b fabd cc2e 08be 1698 cb3d 0ea8 01bd
00000080: bf8d 193e 9118 ef3c 28ff 96bd d5c7 ae3d
00000090: ee2a 273d 6a07 78bd c394 a23c 17a1 abbd
000000a0: 6c46 13be 4180 353d bfb5 843d 80ea 0ebe
000000b0: 1200 333c 54cd 033e aa5e 33bd 3b5e f7bd
000000c0: be2e c8bd 089c 303a 634a de3d 24c7 1dbd
000000d0: 0c31 433d a3b2 11be 8d3a 6abd 361e ca3d
000000e0: f2fd 1dbc 2556 21be 7236 ea3d 8dc8 65bd
000000f0: 4dc4 563c 7dac 503a f271 39be 581c 81bd
00000100: 54da d6bd 010c 0ebe 623d cbbd a8f7 2a3d
00000110: 3060 b1bd f5f4 433d 83aa 9a3d 60d2 e2bd
00000120: 8c85 113e 83b8 b5bd d259 b43d 2ea7 00bd
00000130: 840f c63d 09da 1c3e e678 80bd f913 fdbc
00000140: 7f5d ddbd 7284 e5b9 d5e1 e33d a07d bd3d
00000150: 867c 81bd 472c 0a3e e153 83bd 551c b13d
00000160: d744 5d3d 749d 98bb 18f4 ae3d 2f0e 85bd
00000170: 3e4d d83d 8f76 ea3d b92c 263e f248 c7bd
00000180: 7dc7 793c a422 84bd 6355 0a3e 68ac f53c
00000190: 5880 003e 2961 ae3c 90a7 2cbd 9b1e 033d
000001a0: 0183 183e ea32 f23d dfe1 0bbe 1bac 803d
000001b0: 0e59 823d 9ffc 14be 8f6a fd3b 48e9 a6bd
000001c0: f8cc 093e 2066 9f3d 052e c03d 138b 3e3d
000001d0: 86c9 92bc af90 2dbe de19 aabd 36ff febb
000001e0: a80a 90bd ac96 89bb a513 8e3d 8748 28be
000001f0: 4f86 2c3b b03e ef3d a494 a4bd 9a2f f73d
00000200: 10a6 d6bd 72a9 d73d d46f 2d3d 1b88 e0bb
00000210: 5251 a7bd 5c1d 7cbd 257c d93c db63 0e3e
00000220: 3bc7 933c c993 0fbe 94fe 183e 20ee 10be
00000230: 0e82 1dbe 119a 02bd ca97 4ebd 9522 6b3d
00000240: 769a 6bbd 2be9 a1bb e3ab 813d 32db ffbc
00000250: fe64 643d ccf5 093e 2ab8 c7bd 8653 2bbe
00000260: 8457 fc3d f183 46be dba9 0abb 5b79 11be
00000270: d77f 823d b85f 4dbd 27d8 4ebd a038 1e3c
00000280: 84ac 5dbd 4051 20be 6021 f7bd f0f9 bebc
00000290: 3253 7bbb 9121 4b3c 0f8e 4abd 2970 50bd
000002a0: 7960 13bd 8fcd 19be 00d9 023e ced0 643d
000002b0: 0e83 a9bd 7bfc acbc c6d9 553d aaff 953d
000002c0: 3503 953d 4e76 85bd d6d1 b0bd 2885 083e
000002d0: 0abc 2cbe 303b 04be a9e4 23be 3132 d1bc
000002e0: bd6a 0e3c 368e 8d3d 9373 adbd 76f1 233d
000002f0: 01f3 0f3d 9daa fabc 2fb1 f73b 9fa1 f8bd
00000300: f4ba 38bd 34ae 01be 95a9 773d 03b7 8cbb
00000310: 5532 34be 67fe b03d 446b 6ebc b7e9 013c
00000320: 4144 b33d 2c1f e03d a16e a23d 997b ec3d
00000330: 6195 01be 8835 08be 4717 0b3e 5fa3 413d
00000340: a753 bfbd 66f9 2fbd 3c44 673d 7561 d93d
00000350: 9017 9c3d ed93 963d e22a ddbd f8ce 32bd
00000360: eedf 13be 49d8 0fbc f647 303d 794f fdbb
00000370: 7eb4 44bd 57c3 d33d cda9 823d 0d70 5c3d
00000380: 5c58 05be 4dd2 793d 464b 66bd 89e8 ecbd
00000390: 17fa 16bd 9f87 b5bd 5f70 9ebd ddb2 f73c
000003a0: cce3 0f3d be62 253e 6010 c63c f405 f4ba
000003b0: b730 44bc 8027 37be f980 adbc 66f4 32bd
000003c0: ccb2 81bc 0303 f7bd beae d3bd bdba 94bd
000003d0: 84a2 e0bd bf22 6cbd ca0f b3bd f9cc e13d
000003e0: b1c1 aebd 4418 f3bd e6bb 4b3d 60f5 013e
000003f0: 886b 013e 6fab 5cbd 18d7 fabd 9b0a df3d
-0.17580284 0.11128013 -0.13027023 0.121183775 0.069735736 0.13921534 -0.039298654 0.12736146
0.18095605 -0.044289716 -0.14716393 -0.037211742 -0.0049275635 0.09102616 0.06557329 -0.06393274
-0.17216256 0.070238285 0.102737464 0.06744294 0.0018770545 0.035671983 -0.09982047 -0.01267671
0.08519873 0.11369816 0.08214261 0.04034063 -0.12227531 -0.13299102 0.099411175 -0.03165441
0.14995478 0.029186519 -0.07372886 0.08534209 0.040812425 -0.060553946 0.019846326 -0.08380335
-0.14382333 0.044311766 0.06479978 -0.13956642 0.01092531 0.12871295 -0.04379145 -0.1207852
-0.0977454 0.00067371177 0.10854032 -0.038519993 0.047654197 -0.14228301 -0.057184745 0.098690435
-0.009643065 -0.15755518 0.11436166 -0.056099463 0.013108325 0.0007960273 -0.18109873 -0.06304234
-0.104908615 -0.13871767 -0.09923817 0.04174009 -0.086609244 0.04784103 0.07552054 -0.11075282
0.142111 -0.088730834 0.08806194 -0.031409435 0.09670928 0.15317549 -0.062730595 -0.030893313
-0.108088486 -0.00043776963 0.111270584 0.09252477 -0.06322579 0.13493453 -0.06412483 0.08647982
0.05402073 -0.0046574418 0.08542651 -0.06496846 0.10561608 0.114483945 0.16227998 -0.0973071
0.015245316 -0.0645192 0.13509135 0.029989436 0.1254896 0.021286564 -0.042151988 0.03201161
0.14893724 0.11826117 -0.13660382 0.062828265 0.06364642 -0.14549492 0.00773365 -0.081499636
0.13457096 0.07783151 0.093837775 0.04651935 -0.01791836 -0.16949724 -0.08305715 -0.0077818884
-0.070332825 -0.0041988697 0.06937341 -0.16433917 0.0026325171 0.116818786 -0.080361634 0.12069626
-0.10480893 0.10530366 0.042342976 -0.0068521625 -0.081698075 -0.061551437 0.026548455 0.1390528
0.018039336 -0.1402122 0.14940864 -0.14153337 -0.15381643 -0.03188521 -0.050437726 0.057406027
-0.057520352 -0.004941126 0.06331613 -0.03123245 0.055760376 0.1347267 -0.097519234 -0.1673108
0.1232138 -0.19386269 -0.002115837 -0.1420645 0.0637204 -0.050140113 -0.050499108 0.009657055
-0.0541196 -0.15655994 -0.12066913 -0.023312539 -0.0038349149 0.01239814 -0.049451884 -0.050888214
-0.035980675 -0.1501982 0.12778091 0.055863194 -0.0827695 -0.021116486 0.052209638 0.07324155
0.07276002 -0.065167055 -0.08633773 0.13332045 -0.16868606 -0.12913203 -0.16005196 -0.025536628
0.008692441 0.0691189 -0.0846931 0.040025197 0.035143856 -0.030598933 0.0075589637 -0.12140202
-0.045100167 -0.1266411 0.06046446 -0.0042942776 -0.17597325 0.086422734 -0.014551941 0.007929257
0.08753253 0.109434456 0.07931257 0.11547012 -0.1265464 -0.1330167 0.13583098 0.047274943
-0.09342127 -0.042962454 0.056461558 0.106142916 0.07621682 0.07352433 -0.10799195 -0.043654412
-0.14440891 -0.008779594 0.043037377 -0.007730421 -0.048023693 0.103399925 0.06380043 0.053817797
-0.13021988 0.060991574 -0.05622413 -0.1156779 -0.036859598 -0.08863758 -0.07736277 0.030236656
0.035129353 0.16150948 0.02417773 -0.0018617497 -0.011974505 -0.17886162 -0.021179663 -0.043690108
-0.015832327 -0.12061121 -0.10336064 -0.0726218 -0.109684974 -0.057650324 -0.08743246 0.110254236
-0.085330375 -0.11869863 0.04973974 0.1269126 0.12638676 -0.05387443 -0.12248057 0.10890695

hidden_layers.0.bias f4 [64]
00000000: 6ca8 98bc 12fe a1bd 4a08 67bc ef3d 81bd
00000010: ccf8 643d 0861 03be 534a d9bc 1c08 adb8
00000020: a6c8 40be 60c9 fbbc e76e 3fbe 6fb1 e0bd
00000030: d75c 063e 5537 8bbd 8053 2bbd a7e8 e1bd
00000040: 3997 453d a00c 273c 476b 03bd 687e 2bbe
00000050: 3e88 a0bd bea7 923d 4b61 f4bc 52ff 733d
00000060: 90c0 20be 9413 b0bd a5f7 d3bd ff80 153d
00000070: 01ef f9bd d334 283d 1033 bcbd 1aab e0bd
00000080: 83d8 18bd fe3a b83d 099a b7bd 7ffe ff3d
00000090: 3e53 303d 7932 873c 838a f2bd eeb1 b9bd
000000a0: 7464 b93c 00d0 1c3e e2f3 f0bd 7143 063e
000000b0: 3c72 ac3d 6e53 a0bd a204 fa3d dab1 673d
000000c0: cce6 0a3e d969 f2bc 7167 17be 67a2 96bd
000000d0: ae61 703c 7512 2f3e 42f3 5e3d 439a 243e
000000e0: 2bbd b5bd d43d c4bc 6fe0 19bc d3d9 223e
000000f0: 4443 a63d 9a6f b53d 94d5 9c3c afce a33d
-0.018634997 -0.07909788 -0.014101097 -0.06310641 0.055901334 -0.12829983 -0.026524698 -8.250793e-05
-0.18826541 -0.030735672 -0.1869465 -0.10971343 0.13121353 -0.06797663 -0.04182768 -0.11030703
0.04823992 0.010195881 -0.03208473 -0.16747439 -0.07838486 0.071609005 -0.02983155 0.059569664
-0.15698457 -0.08597484 -0.10349969 0.036499973 -0.122037895 0.041066002 -0.09189427 -0.10970135
-0.037315857 0.08995627 -0.08964927 0.12499713 0.043048136 0.01650356 -0.11842825 -0.090671405
0.022630908 0.1531372 -0.11765267 0.13111664 0.08420226 -0.07828413 0.12207915 0.056566097
0.13564605 -0.029591488 -0.14785554 -0.073551945 0.014671726 0.17096885 0.054431207 0.16074471
-0.088739716 -0.023955263 -0.009391888 0.15903406 0.08118299 0.08859177 0.01914481 0.07998406

hidden_layers.1.weight f4 [64, 64]
00000000: 5121 89bd 4a28 5dbd 9bf8 263c 3008 35bd
00000010: 0410 08be 7e00 fdbd ab4f 933d 715b f5bd
00000020: f118 a6bd bcfc 07be 884f d13c 8a55 523d
00000030: 3cbe 17be c841 16bd 6bbe 60bd 2713 19be
00000040: 4a8c c3bd b634 ac3d b5fc f33c 1601 453d
00000050: 6e54 19bd 2a1a 95bd c5eb 773d 0918 7c3c
00000060: 9995 e3bd 46d8 083c cfc6 423d 7cf9 c63d
00000070: a44b 0a3d e31e 8d3d fa57 063d 7885 1a3d
00000080: cfe6 f43d 6fa2 d6bd ce20 f5bc 7e64 f93c
00000090: b852 c03c 283e c3bc 9aac 453d 6cfb 5fbd
000000a0: 3f7e b8bd 3e51 4abd d71b 7abd 25c2 b1bd
000000b0: 7fbc ac3b 9716 a4bd 2459 3e3c 2e09 32bd
000000c0: 5ef7 3cbc fe58 eb3d b635 9bbd 0124 7abc
000000d0: eab1 7bbc 2c86 92bd 4973 d9bd 0c6e 2c3d
000000e0: 5c96 81bd 3ce7 9abd c203 4cbc 84a1 cebd
000000f0: 3d11 5d3c 6d59 a4bd 5216 ef3d e78f d33d
00000100: 77f7 54bd c03a 03be 5b74 b3bc 1773 2a3d
00000110: 58ad c63c 6f8c d3bd 807e c33d b40d a93c
00000120: efd1 c83c c6f0 07be 39f1 eebd 201e 2dbd
00000130: 41a8 acbc 6e8b f4bd 47a4 90bd a918 c9bd
00000140: 1d12 ba3d 2b61 56bd ce78 60bd 51dd 563d
00000150: 2ec5 413d 5e43 d13d aeaf d43d d1ac 933c
00000160: 34fa 2d3d 5d46 b0bd c511 f7bd f3ad c5bc
00000170: 68f4 88bd c8d7 be3d fa8b f1bc 6e24 413c
00000180: 6feb 5dbd 5c89 c33c 8ff5 19bd b7a0 cbbb
00000190: 9686 dc3d ace2 f2bd f238 913d 3096 8b3d
000001a0: 645b a2bd 02f2 49bd 3395 a93c ce40 983d
000001b0: e968 e7bd 12c4 54bd 308a 72bc 1d94 16bd
000001c0: 10b9 39bd 4df0 b6bd e38d e8bd b07b e63d
000001d0: 3568 c5bd b09d 803c 339a a53c ed0c ab3d
000001e0: 2e79 61bd 765a 8dbd f4dd fdbc 51a1 d4bc
000001f0: 92e5 ec3d ca5b 0c3e 9bd6 cb3c b898 0d3c
00000200: 94b8 983d f2f6 9e3c ddaa d53d 5833 a6bd
00000210: e46e 383c 30ad d6bd 2b1a c6bd c6c5 debd
00000220: cb7a efb9 2ff6 0f3d 4122 5abb 8bc2 773d
00000230: 4185 273d e16c c5bd 7bad 0c3c 0024 923d
00000240: a492 52bd 8add d5bd 913f 81bd 4500 ab3c
00000250: 0e08 dabd 1893 82bc 1f4a 9e3d 3fce a9bd
00000260: 0d20 69bd 10ec 39bd 06cc eb3d b9a2 f5bc
00000270: 6ebd 153d aafe 17be 540b 193c 1095 ebbd
00000280: 430d a0bd 35c8 553d eb0f 693d d965 993a
00000290: c513 93bd a668 273c 6a0d ccbd 2d71 7f3d
000002a0: 08c7 b83d 78b0 46bb 5202 34bc 37c7 20bd
000002b0: 1ea4 16bd e5b3 8fbb 8f48 053d 164c c2bd
000002c0: c8ed 2f3d 1e38 84bd 9a7d 90bc 3cb0 0bbd
000002d0: 29e8 3d3d 0e1a dd3d 2113 1abd 1640 47bd
000002e0: 592a b53d 3f80 e6bd f336 463c 1f3e cabd
000002f0: 9d59 ffbd f286 6dbd e7eb 5fbd 0524 00be
00000300: cf9f 6b3d 9058 38bd d9ef b53c 3eae 133d
00000310: 0fad 06bd 290b b23d 8938 59bc d997 523d
00000320: 4628 973d ee22 173d 861d 2ebd 9651 82bd
00000330: 6ba7 3cbc fe4e 1d3d 299a a5bd c9fa 7b3c
00000340: 650d 57bd 3ecd 74ba c897 a23d 5141 37bd
00000350: 66ab e9bd 8e6d cdbd 0cff a0bd 2ad4 52bd
00000360: b127 9ebd e3bb 62bd ac32 c43d 9bab d3bd
00000370: a4c9 0cbc 68ad 0f3d c2aa 133d 2874 713d
00000380: 1834 8abc 7859 883c e594 31bd 5535 0fbd
00000390: 50c0 c33d 2730 b03c 8116 87bd 128e cbbd
000003a0: 7391 f0bd af8f cf3d 777a f5bd 7cf6 ad3d
000003b0: 1bce 08be c962 b73d b89b efbd 0553 b23c
000003c0: 0bb6 bb3d e1f2 ee3c 6e3e 353d 0475 fbbd
000003d0: 4b4a 3abd 4b40 233c d5a9 0cbe 73d2 01be
000003e0: bf6c 8e3d b7e0 f9bd 7da1 cdbd 6168 cf3c
000003f0: a2a8 543d 51c2 7bbb 0179 563d 3c97 a9bd
-0.06695808 -0.0539935 0.010191108 -0.04419726 -0.1328736 -0.123536095 0.0719293 -0.11980332
-0.08110226 -0.13280004 0.025550619 0.051351108 -0.14818662 -0.036683828 -0.054869097 -0.14948712
-0.095482424 0.08408491 0.029783586 0.04809674 -0.037434034 -0.07280381 0.06052758 0.01538659
-0.11112518 0.008352345 0.04755288 0.09715554 0.033763543 0.06890657 0.032798745 0.037724942
0.11958086 -0.104802005 -0.029922869 0.030443426 0.023476943 -0.02383335 0.04826031 -0.054683134
-0.090084545 -0.049393885 -0.061061706 -0.08679608 0.005271494 -0.08012121 0.0116179325 -0.043465786
-0.011533586 0.11491583 -0.07578604 -0.015267373 -0.015362242 -0.071544975 -0.10617692 0.042097136
-0.06327507 -0.07563636 -0.012452068 -0.100894004 0.013492879 -0.08024869 0.11674179 0.103301816
-0.051993813 -0.1281538 -0.021906069 0.041613664 0.024252579 -0.1032952 0.09545612 0.020636417
0.024514167 -0.13275442 -0.11667103 -0.042265058 -0.021076323 -0.119406566 -0.070625834 -0.09819157
0.09085486 -0.05233876 -0.05480271 0.052457158 0.047307186 0.102179274 0.10385071 0.018026741
0.04247494 -0.08607171 -0.12063936 -0.024130797 -0.06687242 0.09318501 -0.029485691 0.011788471
-0.054179605 0.023869209 -0.0375877 -0.006214227 0.10767858 -0.118596405 0.070909396 0.06815755
-0.07927588 -0.049303062 0.020701027 0.074342355 -0.11299307 -0.0519448 -0.014803454 -0.036762346
-0.045342505 -0.089325525 -0.11355188 0.1125406 -0.096390165 0.015700191 0.02021513 0.08352075
-0.055047207 -0.0690202 -0.030989625 -0.025955828 0.115672246 0.1370689 0.024882605 0.008642368
0.074570805 0.019404862 0.1043298 -0.08115262 0.011256907 -0.10482252 -0.0967296 -0.10877566
-0.0004567712 0.03514689 -0.0033284577 0.060488265 0.040898565 -0.09639908 0.008586283 0.07135773
-0.05140938 -0.10442646 -0.063109525 0.020874152 -0.106460676 -0.01593928 0.07728981 -0.082912914
-0.05691533 -0.045391142 0.11513524 -0.029984819 0.036557607 -0.1484324 0.00934108 -0.11503041
-0.078150295 0.052192885 0.056899946 0.0011703327 -0.07181505 0.010217821 -0.09963496 0.062363792
0.09022337 -0.0030317586 -0.010986881 -0.039252486 -0.036777608 -0.004385459 0.0325399 -0.094871685
0.042951375 -0.06456016 -0.017638016 -0.034103617 0.046363983 0.10795985 -0.0376159 -0.0486451
0.08845968 -0.1125493 0.012098062 -0.0987513 -0.12468264 -0.057990022 -0.054668333 -0.1251374
0.057525452 -0.045006335 0.022209095 0.036054842 -0.032879885 0.08693535 -0.013258108 0.051414344
0.073807284 0.036898546 -0.042508624 -0.063632175 -0.011514525 0.03840541 -0.08086044 0.015379616
-0.05250301 -0.0009338445 0.07939106 -0.044740025 -0.11409645 -0.100306615 -0.07861146 -0.051471867
-0.07722414 -0.055354964 0.095799774 -0.103354655 -0.008592997 0.035077482 0.03605152 0.058948666
-0.016870543 0.016644225 -0.043354888 -0.03496297 0.09558165 0.021507336 -0.06596089 -0.09939207
-0.11746492 0.10134827 -0.11986249 0.08494279 -0.13359873 0.08954389 -0.11699623 0.021768102
0.09165581 0.029168548 0.04424899 -0.12278178 -0.045481008 0.009964059 -0.13736661 -0.12677936
0.069543354 -0.12201064 -0.10040567 0.025318326 0.051918633 -0.0038415382 0.052361492 -0.08280799

hidden_layers.1.bias f4 [64]
00000000: 47b8 22bc 9888 973d 27f4 9d3d cb26 debb
00000010: c9dd debd dfc8 7dbc 0b62 d83c 635e ae3d
00000020: c182 8bbd 4694 9f3d 35df dcbc ae52 a9bd
00000030: 7d66 113d b704 5dbc 0793 4e3d 2a4a 8c3d
00000040: 05c2 9f3d f1c2 d73c 33ca e5bd 2af2 12bd
00000050: d9dc 4d3d 20b1 f6bd 9a1f c9bd 651a c03d
00000060: 98a5 a23c 46bd 213d fb1f 453d 117c 1c3d
00000070: a154 4abd 5cc0 873d da99 343d d269 e83d
00000080: 3b18 973b 9116 fcbd 9979 1d3d 818a 063c
00000090: 9592 0a3e 4f0a e9bd 850a b1bd 409e aabd
000000a0: c52c 183d cb31 d43d 1918 dabd 427c bbbc
000000b0: 1cec 773c a3ed c9bd feaa a4bd 97d1 99bc
000000c0: 0dbe a13d 9c09 b2bd 8601 9abd 202d 4fbc
000000d0: 1175 07bd c97a 0bbc 32ed c2bd b6fd df3c
000000e0: fc6d e13d 40de 083d d9d1 e33c 44c0 ee3d
000000f0: f924 063b d4c7 f33b 3b69 633d 5906 0d3e
-0.00993163 0.073991 0.07712584 -0.006779527 -0.10882146 -0.015489786 0.026413938 0.085140966
-0.06812049 0.07791953 -0.026961902 -0.08267723 0.03549813 -0.013489894 0.050433185 0.06850083
0.07800678 0.026338072 -0.11220207 -0.035875477 0.050259445 -0.12045503 -0.09820481 0.09380034
0.019854352 0.039487146 0.048126202 0.038204256 -0.049397115 0.066284865 0.044092037 0.113483086
0.004611043 -0.12308992 0.038446043 0.008211733 0.13532479 -0.11378919 -0.086445846 -0.08330965
0.03715207 0.1036106 -0.106491275 -0.0228864 0.015131976 -0.09859779 -0.08040427 -0.018776698
0.078975774 -0.08693239 -0.07519822 -0.012645036 -0.033070628 -0.008513161 -0.09517898 0.027342658
0.11007306 0.03341508 0.027810024 0.116577655 0.0020468815 0.007439593 0.055520277 0.13771953

output.weight f4 [4, 64]
00000000: 962c b9bb e9a4 ae3c b3f2 48bc fbb4 4abd
00000010: 40dd fe3d 5431 b63d 47be 9b3d 403a f23d
00000020: db33 163d 32b0 d63c b31b 76bd 2ad7 17bd
00000030: 70f6 53bd d989 92bd 793d fe3d 4991 debd
00000040: 98b8 003d 448c 06bd 0f2d afbc cc9f a3bd
00000050: 885f 8c3d e296 59bd 9b00 eabd 98b0 843d
00000060: 5758 73bc 875d db3d 31cc e83d 7a28 8bbc
00000070: d561 bbbd 4aba e2bd 39a5 c83d ea72 813d
00000080: 255c b1bc 7edc fd3d 3ca8 b53d 553d e4bc
00000090: 81fa ed3d a80b 0b3d f00a 4c3c a5b5 df3d
000000a0: 254f b6bc c56a 5e3d 5aad cbbd 079f a83d
000000b0: fa2f fab9 8cc8 1f3e 8d29 9d3d 81a6 4d3d
000000c0: 2cc5 d03d 833e 96bd 2f59 323d cf08 8a3d
000000d0: 85b1 9abd 3812 91bd 5375 48bc 2047 e53d
000000e0: f906 dcbc d249 c4bd 8559 a63c 765e a43d
000000f0: c0c6 7abd fb6c a73d d790 afbc b2a6 c33d
00000100: b0d8 20bd 5cbb 84bd 6392 c13b 3e44 693c
00000110: 9681 2f3c efd1 a4bd 7eff a53b 9edf 59bd
00000120: 45b7 7dbd b395 28bc e15c a4bd 09cf 8c3d
00000130: 2b49 51bd 8ef6 c73d d69b c23d 416e 41bd
00000140: ca6a 92bc 5158 0b3d cfef 51bd 5f28 4bbd
00000150: 361b 2bbc e57c bf3d 4c26 593c 8f73 b3bd
00000160: e149 81bd 7804 213c 457c 70bc c389 41bc
00000170: c062 97bd 7203 cc3d ac10 933d e9c8 093c
00000180: 2123 b2bd 0a3b 0e3d 4ab8 66bd bcc2 933d
00000190: e8ad b5bd 070c 3ebd 8752 22bd 70f2 b83d
000001a0: d834 3abc ab8f 873d fd0e bf3b 17b3 833d
000001b0: b240 4b3d d3b4 ce3d 1c9a 593c b2de 713c
000001c0: d436 773d c009 c33d ff4e a6bb d70e 223d
000001d0: 92bc 813c 3747 fdbc 295e 103d f3f3 ddbc
000001e0: 53e3 2f3d 94b5 b73d 21e9 c9bd 6b8e 5fbd
000001f0: 7118 d43c e26f e4bb 59e3 bc3d 5721 193d
00000200: 35f3 0e3d 4b7e 26bd 54fd 49bd 31fe da3c
00000210: 7d95 833d 3a52 d4bd 2218 fdbc 9c0c dd3c
00000220: 79e0 c23d 26bd 2bbd e378 193d 12e2 13bd
00000230: e596 4abd f5e7 f13c 8905 2b3d 1879 cf3d
00000240: d7a9 e6bd 5b14 f3ba 46a9 a1bd c78c c7bd
00000250: 5553 e7bb dc60 d33d 5698 82bd 415a b93d
00000260: ae80 1dbd a3bc a73c 5ad0 b63d 5b99 88b9
00000270: c085 85bd ab3d 473d 8a23 0d3d cfbe 0ebd
00000280: 089b f83c f2f5 afbd 6af1 6b3d 6840 f93c
00000290: a012 613b abb1 86bd a03c 8eba e90a 4cbd
000002a0: b35d 93bd 684b 85bd 621f de3c 5c80 293d
000002b0: 14d3 20bd b24b 8dbd 2905 863d f5ca 9e3d
000002c0: ba92 5ebd 7773 aa3c fa64 963d 27f3 c1bc
000002d0: 79a9 cd3c cf83 b2bd f2cb 62bd 8b7d 963c
000002e0: 3fab 9cbd f55c 85bd a485 07bd f596 d03c
000002f0: 3069 a5bd 639d 7fbd dbb5 6d3d 5654 f53c
00000300: 2dd1 4f3d 410c a9bc 5a60 09bd 1531 c03d
00000310: b14c 343d 3505 313d e20c f43a cf27 a53d
00000320: 924c 3abd 2bcc c33d 8c0f 46bd 9176 a23d
00000330: 8690 9a3d 0a15 94bd c2c9 c63c 6d84 953d
00000340: 0c44 793c 257f 99bc 42af 6a3c 8c44 0abc
00000350: 2f46 c83d d7df f53d 0575 ab3d 7bb4 4c3b
00000360: 6c22 90bd d84b 5abd b848 ac3d e7d2 c23d
00000370: 876a 2ebd 3412 663d 90f9 ebb9 bb69 26bd
00000380: 004e d1bd 1983 6e3d 65e7 54bd 0cf9 bebd
00000390: 13af a23d 5757 3d3d 0654 b93d e926 2a3d
000003a0: 31a7 a3bd d02a 2f3d 7933 603c 1423 98bb
000003b0: 665e 9d3d edec 76bd 377c 01bd 9d0a cf3c
000003c0: 26b6 9bbd 2c08 113d 6e28 c33d cbe8 b33d
000003d0: a36a 6f3d ff87 9ebd 3c25 d33d 483a 253d
000003e0: d962 603d 11d3 7bbd 2f68 30bd e3ba f8bd
000003f0: 785f 60bc 8f16 dd3d 652d 9ebc cbfc adbd
-0.005651067 0.02131887 -0.012264895 -0.049489003 0.12444544 0.08896127 0.07604652 0.118275166
0.036670547 0.026207063 -0.06008501 -0.03707043 -0.051748693 -0.071551986 0.12414069 -0.10867555
0.031426042 -0.03284861 -0.02138379 -0.07989463 0.06854159 -0.05312241 -0.11425897 0.06478995
-0.014852605 0.10711198 0.113670714 -0.016987074 -0.09149519 -0.11070688 0.09797139 0.06320746
-0.021650383 0.12395571 0.08869979 -0.027861277 0.116200455 0.033946663 0.01245378 0.10923318
-0.022254536 0.054301042 -0.099451736 0.08233457 -0.0004771946 0.15603846 0.07673941 0.05020762
0.101938576 -0.07336142 0.043542083 0.06739961 -0.075533904 -0.07083553 -0.0122350035 0.11195207
-0.026858794 -0.095843926 0.020306358 0.080258295 -0.0612247 0.08175083 -0.02143137 0.09553279
-0.03926915 -0.064810485 0.0059073432 0.014237462 0.010712048 -0.08047854 0.0050658574 -0.053191774
-0.061942358 -0.010289597 -0.08025528 0.06875426 -0.05109517 0.097638234 0.095023796 -0.047224287
-0.017873187 0.034019772 -0.05125409 -0.049599048 -0.010443499 0.093499936 0.01325376 -0.087622754
-0.063129194 0.009827726 -0.014678066 -0.01181263 -0.07391882 0.09961595 0.07180914 0.008409717
-0.086981066 0.034724273 -0.056328095 0.07214877 -0.088710606 -0.04639819 -0.039629485 0.09030616
-0.011365138 0.06619199 0.005830644 0.06430643 0.049622245 0.10093083 0.013281371 0.014762567
0.060355023 0.09523344 -0.005075335 0.039564934 0.015836988 -0.030917747 0.035246048 -0.027093863
0.042941403 0.0897018 -0.09858919 -0.05457918 0.02589056 -0.0069713453 0.092230506 0.03738531
0.03489991 -0.040647786 -0.04931386 0.026732536 0.06424997 -0.10367246 -0.030895296 0.026983552
0.09515471 -0.041928433 0.037468802 -0.03610427 -0.04946031 0.029529551 0.041753326 0.10130519
-0.11262863 -0.0018545495 -0.078936145 -0.09743648 -0.0070594945 0.10321209 -0.06376712 0.09050418
-0.038452797 0.020475691 0.08926459 -0.000260542 -0.065196514 0.048642796 0.03445772 -0.034849938
0.030347362 -0.08591832 0.057603277 0.03042622 0.0034343377 -0.06576856 -0.0010851808 -0.049815092
-0.07195606 -0.06508523 0.027114574 0.04138218 -0.0392638 -0.06899203 0.06543953 0.07753555
-0.054339148 0.020807011 0.073434785 -0.023675514 0.025105225 -0.08716547 -0.05537028 0.01837041
-0.0764985 -0.06511871 -0.033086434 0.025462607 -0.080767035 -0.062405955 0.05803476 0.029947441
0.050736595 -0.020635726 -0.033539154 0.09384362 0.04401845 0.043217856 0.0018619562 0.080642335
-0.04548318 0.09560426 -0.04835467 0.07932771 0.07547097 -0.072305754 0.024266127 0.07300649
0.015213978 -0.018737385 0.014324011 -0.008439194 0.097790115 0.12005585 0.08371929 0.0031235504
-0.070378155 -0.053294986 0.084123075 0.09512883 -0.04258206 0.056169704 -0.0004500863 -0.040628176
-0.102199554 0.058230493 -0.051978488 -0.09324846 0.07943549 0.046225872 0.09049229 0.041541014
-0.079908736 0.04276544 0.013684147 -0.0046428535 0.07684021 -0.060284544 -0.0316126 0.025273615
-0.076031014 0.035408184 0.09529196 0.08784636 0.058451306 -0.07740783 0.10309836 0.040338784
0.05478177 -0.061480585 -0.043068107 -0.12145021 -0.0136946365 0.10795318 -0.019308755 -0.08495482

output.bias f4 [4]
00000000: e50b 84bd e16b 163d b039 a13d 55b8 cd3d
-0.06447581 0.036723975 0.07872331 0.10044924
