checkpoints/state_size_37__action_size_4__hidden_layers_[256-256]__drop_p_0.0__seed_0__GAMMA_0.99__LR_0.0005__UPDATE_EVERY_100__BUFFER_SIZE_10000__BATCH_SIZE_64__TAU_0.001.pth (torch, 308311 bytes, 6 tensors)

hidden_layers.0.weight f4 [256, 37]
-0.08667366 -0.030357027 -0.12508832 0.13433778 0.08290735 -0.14566119 -0.13789079 -0.108198695
-0.18425846 0.18140273 0.12255589 0.09680578 -0.12077886 -0.008616329 -0.054642115 -0.12819038
-0.06068118 0.015977481 -0.045494616 0.050056186 -0.045709055 0.12826003 -0.12548599 0.035654757
0.107010834 -0.07124403 -0.021228068 0.07487291 -0.05833285 -0.078859724 0.12973821 -0.093669236
-0.17280057 -0.18647744 0.093599446 0.13733993 -0.042584468 0.110774994 0.028839132 -0.16579223
0.11406081 0.055926673 0.041491155 -0.14750107 0.0064551244 -0.17479725 0.050056733 -0.011603102
0.15671729 0.07976159 0.20682266 -0.1085757 0.026797341 -0.12543927 0.14102314 -0.048233
-0.1797129 0.09808384 -0.14776178 -0.16725112 -0.14615889 -0.14572203 -0.17415813 -0.1084266
-0.15769759 0.0299807 0.05921684 0.031418405 -0.14998882 -0.09416138 -0.15723978 0.0031732426
-0.06548471 -0.08912465 -0.13527907 -0.10586639 0.103199534 -0.037605807 0.04736222 -0.108547136
-0.10615086 -0.08351501 -0.061227094 -0.13876134 -0.02231086 -0.10542602 -0.023995154 -0.05924158
0.040193107 -0.13664696 0.03229405 -0.035220996 -0.06048237 -0.16000193 -0.033448007 0.074254274
0.10889332 -0.009881258 0.0025871557 -0.07353371 0.018093867 0.11666349 0.017375346 0.112360194
-0.07767108 0.09445349 0.01862123 0.037853766 -0.092251174 -0.03628218 -0.023077762 -0.098965794
0.04412316 -0.04208769 0.03208372 0.084243104 -0.046253778 -0.11478496 0.020266311 0.00803905
0.038800176 0.0012542091 -0.03204397 0.13802437 0.040469915 -0.094483666 -0.05840959 -0.109483674
0.03700539 0.09406538 -0.0836931 0.0900596 -0.08216382 0.0906729 0.009555445 0.0032373022
-0.092511155 -0.07440978 0.010856892 0.13582772 0.091361865 -0.24581727 -0.08226119 0.14324956
0.039417226 0.058608513 0.1281249 -0.027428247 -0.13516137 0.026302908 -0.11581436 -0.094228335
-0.010401541 -0.09059971 0.15424377 0.035008922 0.23094586 0.20880891 -0.16749091 -0.009238737
-0.10524698 0.03480251 0.09329005 -0.010385601 0.18462183 0.08759872 0.1240439 0.060355622
-0.004173283 0.17242634 -0.02068339 0.10419113 0.021831572 0.042497706 0.12310037 -0.0029326258
0.057576794 0.2124398 -0.0035895507 -0.059748974 0.17063266 0.06120513 0.16502753 0.042513315
-0.014080212 0.07650331 0.044618245 -0.076867 -0.018493213 -0.1312348 0.03490792 -0.053704776
0.052342158 -0.1707914 -0.9552403 0.010735098 -0.17686254 0.013375013 -0.16742888 0.046096046
0.040080648 0.12371463 -0.16644704 -0.08683482 -0.20818399 -0.11359957 -0.14628983 0.011794541
0.1588526 0.04028626 0.049781486 0.0036018984 0.062912636 -0.062761575 0.021354213 0.081478804
0.026123593 -0.10313586 -0.14598785 -0.20744441 0.11807951 0.0917758 -0.15338424 -0.07963642
-0.015655614 0.034037866 0.062689506 0.07567653 -0.23764974 -0.19661838 0.0056688413 -1.1454712
0.059140295 -0.14710028 -0.051966306 -0.066062085 0.049045343 -0.013007941 0.027585434 -0.16473214
0.016784118 0.121689364 0.103886545 0.028479928 -0.14428267 -0.06995841 -0.07321952 0.14617701
-0.079232864 0.1388238 0.066950016 -0.15450145 -0.009087319 -0.03612067 -0.040535193 0.0053093103
00000000: f681 b1bd 4daf f8bc 2717 00be d88f 093e
00000010: 54cb a93d 3528 15be 3e33 0dbe 4797 ddbd
00000020: 40ae 3cbe a3c1 393e 95fe fa3d 1c42 c63d
00000030: e85a f7bd 812b 0dbc 69d0 5fbd 5744 03be
00000040: d48c 78bd 35e3 823c 9058 3abd b707 4d3d
00000050: 6b39 3bbd 9956 033e 667f 00be b90a 123d
00000060: 7f28 db3d 64e8 91bd 7ce6 adbc f856 993d
00000070: 6dee 6ebd 3581 a1bd 18da 043e a8d5 bfbd
00000080: a2f2 30be f1f3 3ebe 11b1 bf3d d7a2 0c3e
00000090: 0d6d 2ebd 00de e23d 0b40 ec3c 70c5 29be
000000a0: b798 e93d 5e13 653d a1f2 293d 850a 17be
000000b0: 8285 d33b 0dfe 32be 4a08 4d3d f01a 3ebc
000000c0: 7f7a 203e 0b5a a33d 52c9 533e f05c debd
000000d0: 1986 db3c 2773 00be 5f68 103e f78f 45bd
000000e0: a906 38be 2ee0 c83d dd4e 17be e143 2bbe
000000f0: adaa 15be 2838 15be 8256 32be c40e debd
00000100: 7a7b 21be 169a f53c 5b8d 723d 96b0 003d
00000110: ab96 19be aed7 c0bd 7703 21be 2df6 4f3b
00000120: d91c 86bd fc86 b6bd 9986 0abe 7ad0 d8bd
00000130: 475a d33d 8c08 1abd e3fe 413d f64d debd
00000140: 9f65 d9bd eb09 abbd 43c9 7abd 7417 0ebe
00000150: 44c5 b6bc 99e9 d7bd 7c91 c4bc 4da7 72bd
00000160: 87a1 243d 2eed 0bbe c446 043d e443 10bd
00000170: 5dbc 77bd 8cd7 23be c700 09bd a012 983d
00000180: 7603 df3d 00e5 21bc 458d 293b d798 96bd
00000190: 9739 943c 45ed ee3d be56 8e3c 1a1d e63d
000001a0: 0412 9fbd d570 c13d 8d8b 983c 8d0c 1b3d
000001b0: 2fee bcbd a09c 14bd 930d bdbc 94ae cabd
000001c0: 7dba 343d 2464 2cbd 386a 033d a687 ac3d
000001d0: 9a74 3dbd 6114 ebbd 8905 a63c 38b6 033c
000001e0: efec 1e3d 4664 a43a 8a40 03bd 4356 0d3e
000001f0: c8c3 253d a780 c1bd e53e 6fbd fa38 e0bd
00000200: f792 173d 5aa5 c03d 4a67 abbd 2b71 b83d
00000210: 8145 a8bd b7b2 b93d 718e 1c3c eb28 543b
00000220: 7d76 bdbd 2864 98bd 1be1 313c 6c16 0b3e
00000230: ee1b bb3d 86b7 7bbe 8e78 a8bd 03b0 123e
00000240: f573 213d 7b0f 703d 2c33 033e 34b1 e0bc
00000250: be67 0abe 3279 d73c 1430 edbd c9fa c0bd
00000260: 3a6b 2abc 578c b9bd 14f2 1d3e 8465 0f3d
00000270: 127d 6c3e 01d2 553e bd82 2bbe 125e 17bc
00000280: bb8b d7bd 148d 0e3d db0e bf3d 5e28 2abc
00000290: 810d 3d3e f566 b33d ba0a fe3d 7537 773d
000002a0: 09c0 88bb 8890 303e 3670 a9bc 2962 d53d
000002b0: 20d8 b23c 1312 2e3d 0c1c fc3d 4c31 40bb
000002c0: a5d5 6b3d d289 593e ab3e 6bbb 57bb 74bd
000002d0: 54ba 2e3e 3bb2 7a3d fafc 283e 7122 2e3d
000002e0: b1b0 66bc c4ad 9c3d 9fc1 363d 726c 9dbd
000002f0: 147f 97bc 6a62 06be 9bfb 0e3d 8af9 5bbd
00000300: bb64 563d f1e3 2ebe a18a 74bf 44e2 2f3c
00000310: 741b 35be df22 5b3c 7a72 2bbe 35cf 3c3d
00000320: 9b2b 243d 195e fd3d 1871 2abe 74d6 b1bd
00000330: 2f2e 55be e4a6 e8bd 00cd 15be e43d 413c
00000340: 42aa 223e 3503 253d ace7 4b3d d40d 6c3b
00000350: 57d8 803d 2489 80bd 08ef ae3c 5cde a63d
00000360: 2501 d63c e538 d3bd d77d 15be 4f6c 54be
00000370: acd3 f13d f3f4 bb3d c210 1dbe 6b18 a3bd
00000380: 3440 80bc 4a6b 0b3d 5b63 803d 4cfc 9a3d
00000390: 745a 73be 5456 49be b0c1 b93b cd9e 92bf
000003a0: 183d 723d 75a1 16be 9fda 54bd 8f4b 87bd
000003b0: c5e3 483d 421f 55bc d9fa e13c 8baf 28be
000003c0: d97e 893c 4638 f93d 78c2 d43d bd4e e93c
000003d0: d6be 13be 5b46 8fbd 1ef4 95bd 6daf 153e
000003e0: d744 a2bd d427 0e3e 171d 893d a135 1ebe
000003f0: fae2 14bc 45f3 13bd 3b08 26bd b9f9 ad3b

hidden_layers.0.bias f4 [256]
-0.14671376 0.007605642 0.029502353 0.045747433 -0.13041799 -0.12607968 0.05588721 -0.166126
-0.14337695 -0.06859331 0.055150747 -0.16728319 -0.19922833 0.064930715 0.04451959 -0.1919869
-0.09830064 0.028386712 -0.073994525 -0.017019557 -0.06216098 -0.14641826 0.03943895 -0.19046772
0.0114728045 0.1198602 -0.07705344 -0.06499908 -0.07457353 0.07135553 0.08614541 -0.1734662
-0.008067236 -0.11710892 -0.14216936 -0.16583513 0.09461864 0.092664495 -0.17404729 -0.08812276
0.09157396 -0.12198094 0.007378955 0.114299424 -0.1314892 -0.030932337 -0.15513158 -0.054752003
0.0317624 -0.09134949 -0.13611466 -0.11106446 -0.15083635 0.07638388 -0.06159078 -0.15672126
-0.04027795 0.107431546 -0.022034127 -0.13099839 -0.106186375 -0.09161601 0.1042986 0.086384036
0.15694718 -0.114112414 0.10323626 -0.19444428 -0.13813262 0.14899175 -0.051143784 0.076138884
0.009486921 0.058730252 0.0069998377 0.07364666 0.1177478 -0.24602054 0.09866112 -0.05191822
-0.193963 -0.054166753 -0.06873171 -0.18065923 -0.033815637 -0.14956987 0.122190475 -0.022300823
-0.07960493 0.022218881 0.10267739 0.12809262 0.024368268 0.06639412 -0.07592231 -0.19150446
-0.1963084 -0.18645203 0.05038431 -0.042048335 -0.10067805 -0.0040234528 -0.07439597 0.07827025
-0.18767932 0.010904237 0.10044979 -0.08799346 -0.14490199 0.0065483106 -0.09211852 -0.08009683
0.18010388 -0.0035522007 -0.08908574 0.13785079 -0.1645408 0.03161437 -0.067738734 0.12612101
0.076512456 0.07258945 0.021933405 -0.0026304047 -0.16826111 -0.06884798 -0.085316285 -0.18933277
-0.17221588 0.019444406 -0.05375054 -0.09567487 0.0877038 -0.10239126 0.057964332 -0.08208821
0.13161069 0.04819698 -0.14505138 0.15124331 0.07684374 -0.18238127 -0.03840677 -0.004697107
-0.17556705 -0.03330338 -0.03043547 0.0069658775 -0.13975167 0.00026958055 -0.1635454 0.0852297
0.1789185 -0.19038333 -0.13049288 -0.2011917 -0.14757453 -0.020259598 0.054890852 -0.01139959
0.06268161 0.13920426 -0.088775665 -0.029608889 -0.039052594 -0.027575197 -0.15215783 -0.01505035
0.11670348 -0.11232838 -0.009605127 -0.06627109 -0.12793362 -0.027485674 -0.03210326 -0.10783235
0.07858913 -0.020706963 0.03067314 0.18505216 0.11884607 0.08504665 -0.017062427 0.06804163
0.08053433 0.12201702 -0.20585978 -0.22434346 -0.016795926 -0.1398686 -0.08170852 0.06946817
0.020071583 0.010772003 0.075384736 -0.12771405 -0.092094615 -0.13767669 -0.0560306 -0.100462936
-0.1669167 -0.008232041 -0.06567515 -0.08351426 0.066937596 -0.15225816 0.050657168 -0.18500485
-0.030174857 -0.16894197 0.01980936 -0.06463731 -0.13440603 0.00012318222 0.053116567 0.10053354
-0.05076111 -0.14903748 0.063898824 -0.068600275 -0.06113376 0.006645466 -0.10144801 0.10515622
0.033305258 0.069597095 -0.18458766 -0.035505768 0.04476918 -0.14918 0.029484363 0.09026757
-0.008350042 0.1310207 0.005874839 -0.0072676586 -0.12952529 0.07877669 0.012739627 -0.112392716
-0.062715225 -0.13518393 -0.10238613 0.13084249 -0.08929203 0.064843394 -0.0057636984 0.055322427
-0.09943361 0.11213 -0.055396903 -0.03249693 -0.096697845 -0.051550444 -0.07190122 0.15155803
00000000: 223c 16be c038 f93b ebae f13c a961 3b3d
00000010: 4b8c 05be 081b 01be fde9 643d ef1c 2abe
00000020: 68d1 12be a67a 8cbd c0e5 613d 494c 2bbe
00000030: 8302 4cbe 65fa 843d 2c5a 363d 3798 44be
00000040: d951 c9bd 408b e83c 718a 97bd 996c 8bbc
00000050: 839c 7ebd abee 15be bd8a 213d f809 43be
00000060: 6ef8 3b3c 4479 f53d 32ce 9dbd 3d1e 85bd
00000070: 02ba 98bd d922 923d 016d b03d 20a1 31be
00000080: 712c 04bc cdd6 efbd d894 11be afd0 29be
00000090: 6bc7 c13d e2c6 bd3d 7439 32be b579 b4bd
000000a0: 218b bb3d 25d1 f9bd 29cb f13b d115 ea3d
000000b0: 1ba5 06be d065 fdbc d0da 1ebe a343 60bd
000000c0: 4a19 023d 7115 bbbd a461 0bbe c375 e3bd
000000d0: d874 1abe 276f 9c3d 9d46 7cbd 8a7b 20be
000000e0: 7efa 24bd 1205 dc3d ea80 b4bc 7124 06be
000000f0: 3e78 d9bd 2da1 bbbd 819a d53d 1dea b03d
00000100: c3b6 203e c5b3 e9bd 886d d33d 671c 47be
00000110: a372 0dbe 4b91 183e 257c 51bd b4ee 9b3d
00000120: 086f 1b3c 228f 703d e55e e53b 0fd4 963d
00000130: c225 f13d cfec 7bbe d70e ca3d 33a8 54bd
00000140: 3d9e 46be f5dd 5dbd 36c3 8cbd bcfe 38be
00000150: 4482 0abd d828 19be 003f fa3d 37b0 b6bc
00000160: e907 a3bd 5f04 b63c 8648 d23d b62a 033e
00000170: f69f c73c a4f9 873d 287d 9bbd bf19 44be
00000180: 1205 49be 48ed 3ebe c75f 4e3d e03a 2cbd
00000190: 4b30 cebd 2bd7 83bb ea5c 98bd 274c a03d
000001a0: 022f 40be afa7 323c 9fb8 cd3d ea35 b4bd
000001b0: 3061 14be 3693 d63b a2a8 bcbd cf09 a4bd
000001c0: 276d 383e 0acc 68bb 9672 b6bd c228 0d3e
000001d0: 627d 28be 127e 013d 9bba 8abd de25 013e
000001e0: 90b2 9c3d c7a9 943d afad b33c de62 2cbb
000001f0: a44c 2cbe 2b00 8dbd 4eba aebd 73e0 41be
00000200: 5c59 30be e049 9f3c 8729 5cbd 30f1 c3bd
00000210: 0d9e b33d 82b2 d1bd 026c 6d3d dd1d a8bd
00000220: f4c4 063e 326a 453d 5988 14be 87df 1a3e
00000230: 4060 9d3d 28c2 3abe 6b50 1dbd 30ea 99bb
00000240: d9c7 33be 2069 08bd cf53 f9bc 0442 e43b
00000250: 101b 0fbe 7d56 8d39 7278 27be e98c ae3d
00000260: 6936 373e d9f3 42be ed9f 05be 3205 4ebe
00000270: c71d 17be 75f7 a5bc 3bd5 603d 59c5 3abc
00000280: 375f 803d 908b 0e3e 04d0 b5bd 578e f2bc
00000290: 9df5 1fbd 61e5 e1bc 43cf 1bbe be95 76bc
000002a0: 3c02 ef3d 6c0c e6bd d35e 1dbc 23b9 87bd
000002b0: 0801 03be a329 e1bc b57e 03bd 35d7 dcbd
000002c0: 56f3 a03d a6a1 a9bc 3d46 fb3c 507e 3d3e
000002d0: 9165 f33d f02c ae3d 81c6 8bbc 6959 8b3d
000002e0: 2fef a43d 0fe4 f93d e8cc 52be 4bba 65be
000002f0: 9c97 89bc b739 0fbe cc56 a7bd 5445 8e3d
00000300: 296d a43c 0e7d 303c 5063 9a3d 79c7 02be
00000310: 1a9c bcbd 1efb 0cbe 5880 65bd 83bf cdbd
00000320: 36ec 2abe afdf 06bc b180 86bd 8609 abbd
00000330: 9416 893d 90e9 1bbe e47d 4f3d e971 3dbe
00000340: 4331 f7bc 20ff 2cbe 3d47 a23c 9160 84bd
00000350: bca1 09be 7a2a 0139 c290 593d 87e4 cd3d
00000360: e2ea 4fbd 489d 18be 63dd 823d 4d7e 8cbd
00000370: 6567 7abd 36c2 d93b f9c3 cfbd 255c d73d
00000380: 186b 083d ec88 8e3d 8c04 3dbe 7f6e 11bd
00000390: e35f 373d a4c2 18be 3189 f13c 34de b83d
000003a0: 9dce 08bc 4a2a 063e b981 c03b 8a25 eebb
000003b0: 47a2 04be ac55 a13d deb9 503c 272e e6bd
000003c0: d770 80bd a86d 0abe d2af d1bd 93fb 053e
000003d0: bdde b6bd 9dcc 843d 68dd bcbb c599 623d
000003e0: d9a3 cbbd 6aa4 e53d dde7 62bd 801b 05bd
000003f0: 8509 c6bd 8f26 53bd f240 93bd 0732 1b3e

hidden_layers.1.weight f4 [256, 256]
0.045599572 0.029272325 0.028706225 -0.035200812 -0.009504355 -0.055493273 -0.00053499773 -0.0640552
0.023591047 -0.01054947 0.006337085 -0.00795879 -0.010438111 -0.029716343 -0.0058059255 -0.052822508
0.011268021 -0.016817313 0.04019976 -0.0220317 -0.020544961 0.040889107 0.042225655 -0.054811724
-0.009958411 0.05471111 0.010665218 0.01822381 0.03550959 -0.050651237 0.030536758 -0.019913688
-0.030118978 -0.07136486 -0.033473488 -0.00022952829 0.019443901 0.015978316 -0.031817254 -0.0012425238
0.022367649 -0.049989533 0.06420791 -0.024941029 -0.07738267 0.014403725 0.0023944608 -0.014336415
0.026093703 0.030227428 0.048166636 -0.047362726 0.032409072 0.0050202557 -0.016528727 -0.028748512
-0.07180678 0.012294596 -0.06259697 0.03804927 -0.070222124 -0.02097667 -0.08162905 -0.044196423
-0.005167966 -0.007848586 0.017101126 -0.014941933 0.0084449835 -0.05177745 -0.040033758 0.03697404
-0.0307006 0.0037366995 0.05021202 0.018210638 -0.024512539 0.019210424 -0.016449375 -0.04030072
-0.008612877 -0.029515434 -0.041806765 -0.07031778 -0.026682613 -0.010210468 -0.0029228008 -0.0107311765
0.035141207 -0.02248092 -0.039123353 -0.0030318692 -0.05035551 -0.014342906 -0.056488156 0.015893752
0.07000891 0.021107802 -0.041506633 0.016866872 0.013616348 0.031679846 -0.06562381 -0.074775346
-0.021138342 -0.06339944 0.051329546 -0.037965447 -0.01347442 -0.072426714 -0.019031936 -0.0074117663
-0.006792619 -0.015690355 0.052023433 -0.0669929 0.042337157 -0.037070464 0.046702188 -0.003228173
0.033426803 0.035977196 -0.0035739609 -0.07040681 -0.03831897 -0.06245331 -0.01276604 -0.062982775
0.011299623 0.060469396 -0.020996597 -0.024107516 -0.050122842 0.015880948 -0.0048273117 -0.04270511
-0.039101813 -0.032384638 -0.0356473 0.017041832 -0.04300863 0.021714818 -0.053998422 0.007962547
0.031563282 0.031244162 -0.00798893 0.035095636 -0.015382971 -0.012672309 -0.05989269 -0.040482365
-0.01933846 -0.01652244 0.022344312 -0.052889436 -0.009238882 -0.05802408 -0.062019788 0.07217315
-0.036650855 0.0076863808 -0.06262594 -0.06497567 -0.052269526 -0.043497127 -0.045302108 -0.05095816
0.017096194 -0.05883973 -0.004433473 -0.022157013 -0.058518987 0.034230236 0.02352746 -0.05998636
0.029415593 -0.04102126 -0.0057323477 0.036659766 -0.03185198 -0.030794153 0.010179297 -0.024432227
-0.065087646 0.019805897 0.029447397 -0.040694036 0.017422892 0.038263112 -0.040402595 -0.021140724
-0.07171088 0.012510722 0.010542021 -0.05912498 0.03669354 -0.034898933 0.045164574 -0.07223349
-0.008592259 0.03229565 0.00691446 0.0008336455 -0.049409077 0.033939928 0.030120222 0.0115282
-0.05928251 -0.006669388 0.00804979 -0.026354648 0.010154589 -0.06687148 0.026002593 -0.07961295
-0.019964073 0.028967842 0.018533727 0.0073824953 0.053167447 0.0101060765 -0.0632604 -0.044403616
0.009299019 -0.035688877 -0.06247007 0.0055668945 -0.03504249 -0.018195005 0.010060979 -0.035606932
0.0017440274 -0.08445591 -0.034781914 0.03754754 0.0529506 -0.027782178 -0.012262218 0.032784972
-0.035185277 0.02816811 -0.05019942 0.028862003 0.05716969 -0.065145604 0.028797094 0.016723722
-0.019462612 0.041249223 -0.028307896 -0.004569489 0.050922718 -0.03446259 -0.06454259 -0.044396885
00000000: 9ec6 3a3d 84cc ef3c 5129 eb3c ba2e 10bd
00000010: 27b8 1bbc ea4c 63bd 173f 0cba 5f2f 83bd
00000020: 0342 c13c afd7 2cbc 52a7 cf3b 9665 02bc
00000030: 9c04 2bbc b06f f3bc a23f bebb 6a5c 58bd
00000040: 819d 383c 76c4 89bc 81a8 243d d37b b4bc
00000050: e84d a8bc 567b 273d cff4 2c3d 4282 60bd
00000060: 9a28 23bc c218 603d 2bbd 2e3c 194a 953c
00000070: 8172 113d ac77 4fbd 3928 fa3c 0822 a3bc
00000080: 13bc f6bc bd27 92bd 7f1b 09bd 88ad 70b9
00000090: d148 9f3c f5e4 823c cf52 02bd 2edc a2ba
000000a0: 5c3c b73c d3c1 4cbd 707f 833d 2151 ccbc
000000b0: ce7a 9ebd 9afd 6b3c 63ec 1c3b 48e3 6abc
000000c0: 76c2 d53c 839f f73c 614a 453d 6bff 41bd
000000d0: 60bf 043d f580 a43b 4167 87bc 0082 ebbc
000000e0: 6f0f 93bd 466f 493c d732 80bd 8dd9 1b3d
000000f0: 9ed0 8fbd 44d7 abbc 222d a7bd 4f07 35bd
00000100: 0a58 a9bb 5b97 00bc a917 8c3c 02cf 74bc
00000110: d45c 0a3c 9714 54bd 70fa 23bd 1772 173d
00000120: d37f fbbc 6ae3 743b 1eab 4d3d 7a2e 953c
00000130: 85ce c8bc 2e5f 9d3c d7c0 86bc 5e12 25bd
00000140: 061d 0dbc 5aca f1bc 923d 2bbd c502 90bd
00000150: 7f95 dabc cf49 27bc 768c 3fbb d1d1 2fbc
00000160: 3af0 0f3d e829 b8bc cf3f 20bd 53b2 46bb
00000170: 9441 4ebd 82fe 6abc 2060 67bd 9d33 823c
00000180: d560 8f3d 45ea ac3c dc02 2abd 652c 8a3c
00000190: 1a17 5f3c bac2 013d c765 86bd d123 99bd
000001a0: 512a adbc 91d7 81bd ee3e 523d a881 1bbd
000001b0: d0c3 5cbc 7554 94bd dde8 9bbc 67de f2bb
000001c0: 9e94 debb 0f89 80bc 8616 553d 9333 89bd
000001d0: ba69 2d3d 33d7 17bd cb4a 3f3d c18f 53bb
000001e0: 8bea 083d d35c 133d 1d39 6abb 7231 90bd
000001f0: 5af4 1cbd 0bcf 7fbd a728 51bc 1dfd 80bd
00000200: 0e22 393c c2ae 773d 0e01 acbc 207d c5bc
00000210: 9c4d 4dbd c318 823c 6d2e 9ebb 8eeb 2ebd
00000220: 3929 20bd c1a5 04bd e702 12bd 509b 8b3c
00000230: d129 30bd 46e3 b13c 732d 5dbd 5875 023c
00000240: 8048 013d c2f3 ff3c 00e4 02bc 71c0 0f3d
00000250: db08 7cbc 849f 4fbc 0a52 75bd d6d0 25bd
00000260: b16b 9ebc 115a 87bc 6b0b b73c 98a2 58bd
00000270: ae5e 17bc a8aa 6dbd 7608 7ebd 84cf 933d
00000280: 351f 16bd 09de fb3b 0742 80bd f711 85bd
00000290: 9218 56bd 0b2a 32bd b48e 39bd 81b9 50bd
000002a0: 510d 8c3c ee01 71bd ab46 91bb a082 b5bc
000002b0: 9bb1 6fbd 0135 0c3d a9bc c03c 42b4 75bd
000002c0: f8f8 f03c e905 28bd 6bd6 bbbb 8d28 163d
000002d0: 3977 02bd 0544 fcbc 11c7 263c 1826 c8bc
000002e0: ac4c 85bd fa3f a23c ab3b f13c caae 26bd
000002f0: 74ba 8e3c c8b9 1c3d 317d 25bd 502f adbc
00000300: 27dd 92bd c5f9 4c3c 71b8 2c3c 092d 72bd
00000310: f74b 163d 2ff2 0ebd 7dfe 383d 27ef 93bd
00000320: 8cc6 0cbc 7248 043d b292 e23b 0189 5a3a
00000330: 2c61 4abd 9804 0b3d afbe f63c c6e0 3c3c
00000340: 38d2 72bd e28a dabb 44e3 033c b4e5 d7bc
00000350: 6f5f 263c eaf3 88bd 6403 d53c 1d0c a3bd
00000360: b28b a3bc f84d ed3c 0bd4 973c dce8 f13b
00000370: 1cc6 593d f593 253c ab8e 81bd 91e0 35bd
00000380: ea5a 183c 802e 12bd 9ee0 7fbd 7f6a b63b
00000390: b788 0fbd b10d 95bc ced6 243c 93d8 11bd
000003a0: d997 e43a 38f7 acbd 7b77 0ebd 73cb 193d
000003b0: bae2 583d 7397 e3bc 78e7 48bc 8949 063d
000003c0: 701e 10bd cfc0 e63c e89d 4dbd 0270 ec3c
000003d0: c42a 6a3d 0f6b 85bd e2e7 eb3c 3000 893c
000003e0: 0e70 9fbc f2f4 283d f6e5 e7bc a7bb 95bb
000003f0: 5794 503d a528 0dbd e82e 84bd 82d9 35bd

hidden_layers.1.bias f4 [256]
0.03434292 -0.036388382 -0.005527456 0.00932262 0.04656951 0.053851042 -0.05970877 0.004413254
0.053524904 0.04169995 -0.07699909 0.028362568 -0.04207565 -0.048634704 -0.079855666 0.042742856
0.0032814625 -0.0867005 -0.041762564 -0.060418017 -0.07778217 0.00671914 -0.04273774 -0.012638315
0.026449151 0.028654316 -0.06645177 0.0005790311 0.0124968495 0.02150521 -0.056190997 0.018630318
0.029911146 0.04091643 -0.06751943 -0.012381428 0.006438884 -0.05611413 -0.038356967 -0.020119142
0.0060847704 -0.035681274 -0.009203753 0.012869565 -0.054222748 0.039061293 -0.044614315 0.020437364
0.013624838 -0.05526992 -0.053710997 -0.03382552 -0.01100728 -0.018984107 0.03552308 0.023783034
0.06532674 0.04238539 -0.051308997 -0.048083603 0.006176584 0.044941515 -0.035568397 0.03442827
-0.015321507 0.042082567 -0.0356531 -0.072262034 0.06440177 0.0009925386 -0.024884943 0.004733328
-0.028054588 -0.012230314 -0.0628727 0.075305134 -0.010326798 0.03952966 -0.050855383 0.0118169775
-0.07653398 -0.08697332 0.023219446 0.00221666 -0.07534864 0.06777444 0.043131735 0.0500145
-0.023099538 -0.03070403 -0.0013384714 -0.0360692 -0.05291213 -0.034625877 -0.0034838913 -0.031859055
0.042018447 0.011571342 -0.021432053 -0.051702704 0.037460823 0.008242978 -0.072113045 0.016465882
-0.000119274206 0.0489682 0.033520363 -0.030532101 -0.03749179 0.06342819 0.024237407 0.0007113209
-0.031267654 0.023140192 0.030459186 0.05372849 -0.0087855 0.004197208 0.004316525 -0.06005403
0.04918436 -0.025221482 0.027261768 -0.022082327 -0.045790754 0.034576464 0.04553386 -0.027000127
-0.043513566 0.05212701 0.009067145 -0.077738516 -0.027340688 0.0013755226 0.012675079 0.04320016
-0.013872355 0.07763142 0.05470607 0.026538307 -0.08232457 -0.025461221 -0.0034431138 0.025583627
0.01652657 0.018413184 -0.02533865 -0.016201343 0.029858567 -0.062004063 -0.044721533 -0.05227661
0.013568712 -0.054206442 -0.009155742 -0.0023087873 -0.0023735259 0.050515473 -0.038895164 0.013923815
-0.003886576 -0.058501728 -0.028518796 0.045941927 -0.048322313 -0.027836882 -0.09612665 -0.037705082
-0.05489435 -0.05708282 -0.017738203 -0.027087817 -0.063980475 0.055588644 -0.039396085 -0.023764396
-0.04607568 -0.028283518 -0.0763609 -0.0391943 0.02714864 -0.05094111 -0.011790339 -0.050088808
0.009052399 -0.019441009 0.025982324 -0.070369974 -0.027005801 0.0088239005 -0.06497663 0.015154673
0.03011494 0.02008788 -0.043208573 0.06834459 0.04502953 0.038860228 -0.056374747 -0.0794265
-0.018673392 0.022316467 -0.036946718 -0.03961072 -0.046786148 -0.061643302 -0.046029195 -0.03045656
0.046372827 0.009876391 0.026413366 0.022136638 -0.018681938 -0.07856604 -0.02631044 0.074594
0.024647553 -0.029136911 0.0041751126 -0.0063589336 0.02794566 -0.023743805 -0.010455333 -0.042719938
-0.05248795 -0.013077982 -0.07991866 -0.008180318 0.034588095 0.01667482 -0.026729692 -0.04943293
0.03780749 0.022697464 0.021221768 -0.005716302 0.05377761 0.02145692 0.011258648 0.011104843
0.045739666 -0.07823038 -0.026429942 0.016737323 -0.016460074 -0.008340436 -0.065186925 -0.022287747
-0.020001693 -0.01669715 -0.058804024 0.02392004 -0.0807577 -0.051512346 -0.051256925 -0.016100474
00000000: 29ab 0c3d fc0b 15bd a91f b5bb e7bd 183c
00000010: acbf 3e3d e992 5c3d 2f91 74bd 0f9d 903b
00000020: ee3c 5b3d 91cd 2a3d b3b1 9dbd 9e58 e83c
00000030: 8457 2cbd 2f35 47bd 5e8b a3bd 2213 2f3d
00000040: ce0d 573b 0890 b1bd 390f 2bbd e278 77bd
00000050: 424c 9fbd 3b2c dc3b c50d 2fbd ef10 4fbc
00000060: e4ab d83c 75bc ea3c de17 88bd 1fca 173a
00000070: 96bf 4c3c b22b b03c 8828 66bd 9c9e 983c
00000080: 3808 f53c fd97 273d a047 8abd 79db 4abc
00000090: 46fd d23b eed7 65bd 321c 1dbd e6d0 a4bc
000000a0: c162 c73b 8726 12bd 57cb 16bc deda 523c
000000b0: ac18 5ebd bcfe 1f3d 80bd 36bd 426c a73c
000000c0: b63a 5f3c b662 62bd 1000 5cbd a18c 0abd
000000d0: e157 34bc 8f84 9bbc a680 113d a3d4 c23c
000000e0: 07ca 853d 4d9c 2d3d 6229 52bd 50f3 44bd
000000f0: f164 ca3b 9814 383d 2bb0 11bd a804 0d3d
00000100: 0f07 7bbc c55e 2c3d fc08 12bd 1efe 93bd
00000110: 13e5 833d 1218 823a 82db cbbc 081a 9b3b
00000120: bcd2 e5bc a861 48bc 67c3 80bd 9439 9a3d
00000130: bb31 29bc dae9 213d bc4d 50bd ff9b 413c
00000140: d9bd 9cbd 111f b2bd b536 be3c 6245 113b
00000150: 6350 9abd 53cd 8a3d e7aa 303d 01dc 4c3d
00000160: 3e3b bdbc 0587 fbbc a66f afba 4cbd 13bd
00000170: 64ba 58bd ddd3 0dbd ff51 64bb a47e 02bd
00000180: 891b 2c3d ba95 3d3c 4692 afbc 37c6 53bd
00000190: 8570 193d 8e0d 073c 01b0 93bd 75e3 863c
000001a0: da22 fab8 e192 483d a64c 093d 751e fabc
000001b0: fe90 19bd a4e6 813d 878d c63c f077 3a3a
000001c0: 8312 00bd 8090 bd3c 8b85 f93c 6812 5c3d
000001d0: 0ff1 0fbc bc88 893b a371 8d3b 37fb 75bd
000001e0: 8a75 493d 489d cebc 1254 df3c ffe5 b4bc
000001f0: 168f 3bbd 0da0 0d3d b681 3a3d 5f2f ddbc
00000200: 483b 32bd 2283 553d 5d8e 143c 5f35 9fbd
00000210: 94f9 dfbc e14a b43a 22ab 4f3c a7f2 303d
00000220: e048 63bc 39fd 9e3d 7913 603d dd66 d93c
00000230: c999 a8bd 0d94 d0bc dda5 61bb c194 d13c
00000240: bb62 873c 3fd7 963c 0093 cfbc aeb8 84bc
00000250: f499 f43c f9f7 7dbd ed2d 37bd 0020 56bd
00000260: 4e4f 5e3c 9307 5ebd f701 16bc 064f 17bb
00000270: 288d 1bbb 50e9 4e3d 8950 1fbd b720 643c
00000280: edb5 7ebb 829f 6fbd 40a0 e9bc 9a2d 3c3d
00000290: 9eed 45bd 2c0a e4bc 0dde c4bd a570 1abd
000002a0: e6d8 60bd adcf 69bd b54f 91bc 45e7 ddbc
000002b0: 3208 83bd ebb0 633d ca5d 21bd 8dad c2bc
000002c0: dab9 3cbd d6b2 e7bc 1b63 9cbd 348a 20bd
000002d0: d366 de3c a0a7 50bd 442c 41bc ec29 4dbd
000002e0: 8350 143c c042 9fbc e2d8 d43c 221e 90bd
000002f0: 453b ddbc 1f92 103c 7812 85bd 4e4b 783c
00000300: 9bb3 f63c 568f a43c 79fb 30bd 40f8 8b3d
00000310: e270 383d e72b 1f3d 35e9 66bd 5caa a2bd
00000320: f1f8 98bc 06d1 b63c 7155 17bd da3e 22bd
00000330: d5a2 3fbd b07d 7cbd 1c89 3cbd 0980 f9bc
00000340: 6ff1 3d3d 96d0 213c d860 d83c e557 b53c
00000350: dd0a 99bc 3be7 a0bd fe88 d7bc bdc4 983d
00000360: aae9 c93c 88b0 eebc 62cf 883b 9a5e d0bb
00000370: 4cee e43c 5e82 c2bc d84c 2bbc 1afb 2ebd
00000380: 9bfd 56bd 0845 56bc 65ac a3bd be06 06bc
00000390: 3fac 0d3d a299 883c 3af8 dabc 2f7a 4abd
000003a0: 07dc 1a3d 08f0 b93c 46d9 ad3c d14f bbbb
000003b0: e945 5c3d 6cc6 af3c 3176 383c 16f1 353c
000003c0: 8459 3b3d 4037 a0bd 9b83 d8bc b61c 893c
000003d0: 47d7 86bc 53a6 08bc b980 85bd cb94 b6bc
000003e0: 97da a3bc 76c8 88bc 7ddc 70bd f6f3 c33c
000003f0: 4b64 a5bd 9cfe 52bd c8f2 51bd 24e5 83bc

output.weight f4 [4, 256]
-0.028550021 0.027894732 -0.010085187 0.032361526 0.024734952 0.06961602 -0.07326067 0.021377198
-0.100267604 0.09743838 0.004722195 0.004125454 -0.025568996 -0.049286947 -0.04821043 0.0026456483
-0.085179806 -0.014165842 0.0016812653 0.0039733457 -0.0049610287 0.015942516 -0.00035094193 0.0048950696
0.0060282527 0.013342716 -0.0036941313 0.023251979 0.04001177 -0.023149366 0.026648717 -0.003449435
-0.02700981 0.048693 0.0067178574 -0.0016868099 -0.0022137677 0.008744 -0.01635162 0.03538094
0.0051031807 0.007276328 -0.02354958 0.031049484 -0.010420755 0.043648094 0.035984803 0.055904005
0.0015313523 -0.03534374 0.0054137 -0.040124074 -0.035230067 -0.020598087 0.025443982 -0.014542507
0.07650823 -0.035861336 -0.04920372 0.017062264 0.010226861 -0.024073904 0.032556005 -0.02530285
0.0076099085 -0.0024688316 0.0052620424 -0.09817595 0.08254546 0.0021589303 -0.04657421 -0.021284945
0.0135778915 -0.0018243341 0.007908152 0.010313699 -0.02230272 0.03525805 -0.032621235 -0.008988585
0.0053369245 -0.012909747 -0.031309083 0.032060225 -0.040834423 0.07725749 0.044696875 -0.0025389374
-0.0027829448 -9.459673e-05 0.047418896 -0.052984785 -0.017395942 0.035475 0.036036517 -0.016135424
0.09917272 -0.032650944 0.0200621 -0.04309046 -0.0029887753 -0.043998137 0.009000464 -0.0023907125
-0.0026119165 0.052942514 -0.018990275 -0.0036661727 -0.013943422 0.07907179 -0.044173066 -0.005186678
0.024997583 0.02619023 -0.06159016 0.041717432 8.924408e-05 -0.017582972 -0.0061513856 -0.037726156
-0.027143333 -0.005332279 -0.0018676815 -0.006302931 -0.041723456 0.0007741689 -0.05341224 0.10533221
-0.06915799 0.0256053 0.010408778 0.015723387 0.01789963 -0.06609468 0.04213225 -0.022256931
-0.004536084 -0.024675524 0.022676846 -0.030644191 0.03989409 -0.046651497 0.009911875 0.065646656
-0.006943316 -0.04794356 0.004294981 0.046399888 -0.018703168 -0.015731113 0.044620495 -0.04570835
-0.01784624 -0.05104321 0.021975901 0.009748945 -0.05097267 0.0065965992 0.065647535 -0.040392313
0.0041448954 0.0044842665 -0.023126796 -0.057887707 -0.0148550095 0.03312974 0.029458318 0.025010327
0.05330357 0.042364012 -0.042730518 0.019432425 -0.0058435225 0.020016626 -0.0047924737 -0.018002233
-0.049844887 0.007900061 0.05424348 -0.039066263 0.08807271 0.032121167 0.08416876 0.011346069
-0.03283716 -0.019385472 0.027897049 0.037039127 0.04620311 -0.008477296 -0.049723357 0.0015347522
0.00045376667 -0.009411835 0.0056546195 0.100676835 -0.0058415057 0.07220873 -0.051404443 0.048240054
0.008900935 0.0012818146 -0.0068689296 0.019143652 0.044309832 -0.006638927 -0.01139429 -0.0050818766
-0.04281751 -0.024625296 0.013724371 0.009269826 -0.04013677 -0.015694551 -0.026355945 0.06707904
-0.028625986 0.038901642 0.027212435 -0.0030662676 0.021571307 0.014088826 -0.01580971 0.023173174
-0.014443235 0.010878573 -0.0118609695 0.012460244 -0.007401953 0.034161594 -0.026867703 0.009793101
-0.037335318 0.042259432 0.0044513913 0.0017320754 0.07706427 0.0123534445 0.0064233076 -0.031875264
0.012277478 -0.011348118 -0.0015270862 -0.012806244 0.01653408 0.014831002 0.025659518 0.008574015
0.0021552423 0.018935464 0.07615778 -0.0023839304 0.02585932 -0.007205383 0.0025158 -0.016412055
00000000: bce1 e9bc 7e83 e43c 573c 25bc 858d 043d
00000010: f4a0 ca3c d892 8e3d b109 96bd 3c1f af3c
00000020: 1a59 cdbd c68d c73d a5bc 9a3b d12e 873b
00000030: 1276 d1bc 1ce1 49bd 4d78 45bd 9d62 2d3b
00000040: c072 aebd d917 68bc e75d dc3a d732 823b
00000050: 2090 a2bb e199 823c a1fe b7b9 d266 a03b
00000060: a688 c53b 689b 5a3c 3d19 72bb ef7a be3c
00000070: 62e3 233d bda3 bdbc 694e da3c eb0f 62bb
00000080: ad43 ddbc 5072 473d 7921 dc3b f317 ddba
00000090: dc14 11bb ff42 0f3c d5f3 85bc 9beb 103d
000000a0: 9538 a73b 436e ee3b 0ceb c0bc 7d5b fe3c
000000b0: d0bb 2abc 58c8 323d cd64 133d 99fb 643d
000000c0: a8b7 c83a 99c4 10bd 6865 b13b 2459 24bd
000000d0: 674d 10bd 52bd a8bc e66f d03c b243 6ebc
000000e0: 59b0 9c3d 56e3 12bd d789 49bd 29c6 8b3c
000000f0: 908e 273c a336 c5bc 7259 053d ec47 cfbc
00000100: 8a5c f93b 1fcc 21bb 366d ac3b 7910 c9bd
00000110: 980d a93d d77c 0d3b 99c4 3ebd c45d aebc
00000120: ce75 5e3c 7f1e efba 3291 013c cafa 283c
00000130: 32b4 b6bc bf6a 103d d89d 05bd dc44 13bc
00000140: 5ee1 ae3b 6783 53bc f43d 00bd 9551 033d
00000150: ff41 27bd 2d39 9e3d 1214 373d 4d64 26bb
00000160: 1162 36bb 3c62 c6b8 513a 423d 9306 59bd
00000170: ef81 8ebc 3c4e 113d 079b 133d 702e 84bc
00000180: 111b cb3d ffbc 05bd 4659 a43c 9f7f 30bd
00000190: 54df 43bb 6437 34bd af76 133c 80ad 1cbb
000001a0: b02c 2bbb 40da 583d 7e91 9bbc 2c44 70bb
000001b0: f372 64bc 64f0 a13d d1ee 34bd 02f5 a9bb
000001c0: bbc7 cc3c e58c d63c f745 7cbd e6df 2a3d
000001d0: 8d28 bb38 2a0a 90bc 9091 c9bb be86 1abd
000001e0: b25b debc 66ba aebb fecc f4ba d188 cebb
000001f0: 37e6 2abd 98f1 4a3a cbc6 5abd 6ab8 d73d
00000200: b4a2 8dbd 35c2 d13c 9489 2a3c 55ce 803c
00000210: 3fa2 923c a65c 87bd de92 2c3d 2b54 b6bc
00000220: 6ea3 94bb 5324 cabc cbc4 b93c 8709 fbbc
00000230: fc67 233d a415 3fbd 6b65 223c c171 863d
00000240: c284 e3bb 7760 44bd e9bc 8c3b cf0d 3e3d
00000250: 6337 99bc 89de 80bc fbc3 363d ae38 3bbd
00000260: 4732 92bc af12 51bd ce06 b43c 0aba 1f3c
00000270: b8c8 50bd 4928 d83b 3772 863d 6972 25bd
00000280: e7d1 873b c1f0 923b 6874 bdbc a91b 6dbd
00000290: 6d62 73bc 0db3 073d 9252 f13c 75e2 cc3c
000002a0: d854 5a3d e385 2d3d 3206 2fbd c030 9f3c
000002b0: 057b bfbb e8f9 a33c 2f0a 9dbb 6b79 93bc
000002c0: 272a 4cbd 426f 013c 692e 5e3d f203 20bd
000002d0: 775f b43d 7c91 033d ac60 ac3d dde4 393c
000002e0: 4280 06bd 48ce 9ebc 5a88 e43c 57b6 173d
000002f0: 793f 3d3d 5be4 0abc b8aa 4bbd bd29 c93a
00000300: 88e7 ed39 1934 1abc 634a b93b a82f ce3d
00000310: 1a6a bfbb 2ce2 933d 778d 52bd 5d97 453d
00000320: 3ad5 113c 9002 a83a c214 e1bb 26d3 9c3c
00000330: 3a7e 353d 5b8b d9bb 1eaf 3abc df85 a6bb
00000340: 6a61 2fbd fdba c9bc 2fdc 603c 78e0 173c
00000350: 7466 24bd dc91 80bc 6ce8 d7bc bc60 893d
00000360: 0b81 eabc 5457 1f3d 9dec de3c 6ff3 48bb
00000370: 4fb6 b03c d2d4 663c 5d83 81bc abd5 bd3c
00000380: 51a3 6cbc 0b3c 323c 8354 42bc 0d26 4c3c
00000390: 158c f2bb 07ed 0b3d a819 dcbc 3e73 203c
000003a0: ebec 18bd 3a18 2d3d fadc 913b ce06 e33a
000003b0: dfd3 9d3d 1a66 4a3c 9c7a d23b a38f 02bd
000003c0: 7a27 493c 75ed 39bc 8328 c8ba 48d1 51bc
000003d0: 7b72 873c bbfd 723c e933 d23c 077a 0c3c
000003e0: f73e 0d3b 8c1e 9b3c 9cf8 9b3d b73b 1cbb
000003f0: edd6 d33c 221b ecbb 1fe0 243b 9372 86bc

output.bias f4 [4]
0.077577986 0.03931487 0.058800828 0.054094218
00000000: 35e1 9e3d a108 213d 23d9 703d e691 5d3d
