checkpoints/state_size_37__action_size_4__hidden_layers_[128-128]__drop_p_0.0__seed_0__GAMMA_0.99__LR_0.0005__UPDATE_EVERY_50__BUFFER_SIZE_100000__BATCH_SIZE_64__TAU_0.001.pth (torch, 89687 bytes, 6 tensors)

hidden_layers.0.weight f4 [128, 37]
-0.13838924 -0.11349047 0.028519252 0.048558146 0.2171965 0.16034819 0.15793534 -0.050905585
0.06983739 -0.26443198 -0.1702275 0.044254646 -0.121221334 0.13848479 -0.021620885 0.018477881
0.017467678 0.08082364 -0.01428952 0.12527709 0.046953112 -0.09521049 -0.055145603 0.19546725
0.09362142 0.13082023 -0.18370074 -0.22829708 -0.11819537 -0.49323642 0.11960376 0.10262788
0.09331546 0.14903244 0.007813301 -0.10051564 -0.0013747829 0.15682991 0.0025435805 -0.14078812
-0.0032019364 -0.13343112 -0.1850433 0.009939351 0.09568534 -0.008272711 0.07487285 -0.036153153
0.02203617 -0.21032444 -0.098748185 -0.24532956 -0.023779495 0.08632605 0.09654581 -0.08057071
-0.06897632 0.2263155 -0.057627924 -0.1211077 0.003566629 -0.6114744 -0.03494434 0.044754926
0.01664084 0.17183514 0.17412 0.15849105 0.05049483 0.114161216 -0.03158044 -0.3037204
0.22201079 -0.014648738 -0.11911296 0.038465932 0.08746602 -0.03582443 -0.03744719 -0.07601537
0.09898744 -0.024105828 0.16666576 0.66585135 0.059807185 0.024482861 -0.009618425 0.15707086
0.124533065 0.09151225 0.08253112 -0.16112925 0.0978464 -0.10088354 -0.08910852 -0.050574657
0.0059159123 -0.102045156 0.076864354 -0.18539819 0.068744324 -0.037098017 -0.0001978075 -0.05635396
0.056201123 0.10708777 0.10269729 0.09449778 0.059058387 -0.0142195355 -0.01459984 0.07964446
0.08965441 0.18609531 0.119656436 0.08591505 -0.12647985 0.008274399 0.07742284 -0.048537724
0.019022377 0.076451875 -0.019214122 -0.051447038 -0.10737915 -0.2564347 0.055122044 0.12776174
-0.09259855 0.15315108 0.10737734 -0.023712145 -0.05832775 -0.18945384 -0.06785792 -0.5107039
-0.082863875 -0.11334372 0.026539095 0.19194436 0.23635529 0.18702775 -0.24671923 -0.010616953
-0.103374936 -0.93526036 0.014316664 0.01793733 0.0444777 0.051208634 -0.014585679 0.0018868205
-0.023225853 0.048160333 0.00484552 -0.15676922 -0.14418736 0.026048614 0.011752638 0.032299314
-0.091748 0.12664223 0.041700985 -0.1555505 -0.029022776 0.063778155 -0.11541881 0.1203994
0.005206716 0.088528626 0.053652488 0.12729731 0.078453496 0.008216889 -0.17980993 -0.19917187
-0.108402744 -0.56777775 -0.20122069 -0.03878312 0.21156222 0.002455111 0.17569193 0.038062945
0.0002600209 -0.010697321 -0.15858369 0.1343241 0.06799672 0.10245377 -0.20658432 0.10972854
0.28989124 -0.17092499 -0.16882439 -0.061153162 -0.12552957 -0.1320339 0.020342901 -0.095166855
0.115917556 -0.11687704 0.10724571 -0.076614365 -0.24838658 -0.12334461 -0.09081618 0.029884413
-0.18453753 -0.17013651 -0.025661768 0.06095714 0.042640388 -0.018036287 0.09476271 -0.014114586
0.04390598 0.21416754 -0.063437685 0.019213887 0.004133185 -0.0036140915 0.009808495 0.052054457
-0.14623979 -0.046719104 0.14511901 -0.04524152 -0.20124136 -0.10600677 -0.0956548 -0.028111655
-0.05492671 -0.0051058447 0.10696332 0.016296789 -0.19334403 0.011977511 -0.026368046 -0.17441405
0.05419527 -0.06766395 0.026435595 -0.12201234 -0.062097013 -0.19105613 0.09457682 -0.11243031
0.10155389 0.12003619 -0.12792581 -0.0014151772 0.10269947 -0.18920265 -0.145867 -0.18284173
00000000: e9b5 0dbe b16d e8bd 35a1 e93c e8e4 463d
00000010: c268 5e3e 5132 243e cdb9 213e 6082 50bd
00000020: e806 8f3d a163 87be 1e50 2ebe 5c44 353d
00000030: e442 f8bd f5ce 0d3e 481e b1bc ed5e 973c
00000040: 6018 8f3c dd86 a53d 971e 6abc a348 003e
00000050: e851 403d b8fd c2bd 5be0 61bd 9128 483e
00000060: 96bc bf3d bdf5 053e 0c1c 3cbe b6c6 69be
00000070: 6a10 f2bd 7c89 fcbe d1f2 f43d 912e d23d
00000080: 2d1c bf3d f69b 183e 5c03 003c 25db cdbd
00000090: 0f32 b4ba 0598 203e 33b2 263b c32a 10be
000000a0: 94d7 51bb 2ba2 08be fe7b 3dbe a9d8 223c
000000b0: adf6 c33d 448a 07bc f056 993d 5415 14bd
000000c0: 3385 b43c 4a5f 57be 7d3c cabd ac37 7bbe
000000d0: 37cd c2bc b6cb b03d cfb9 c53d 4202 a5bd
000000e0: 7543 8dbd 40bf 673e 420b 6cbd 5007 f8bd
000000f0: 1bbe 693b 9689 1cbf cc21 0fbd f150 373d
00000100: 5f52 883c 8df5 2f3e 834c 323e 7a4b 223e
00000110: abd3 4e3d 5bcd e93d 7e5a 01bd 3e81 9bbe
00000120: cc56 633e 4301 70bc 7ff1 f3bd 748e 1d3d
00000130: 6221 b33d a3bc 12bd 3a62 19bd f2ad 9bbd
00000140: edb9 ca3d 9679 c5bc 6eaa 2a3e 3c75 2a3f
00000150: 61f8 743d 4890 c83c 9996 1dbc 2fd7 203e
00000160: 310b ff3d c66a bb3d 1306 a93d 11ff 24be
00000170: b263 c83d 089c cebd 877e b6bd 5f27 4fbd
00000180: 45da c13b 0dfd d0bd 0f6b 9d3d 06d9 3dbe
00000190: d3c9 8c3d 17f4 17bd 8c6a 4fb9 69d3 66bd
000001a0: 2633 663d d550 db3d f552 d23d 0d88 c13d
000001b0: 35e7 713d 0ef9 68bc 2b34 6fbc a21c a33d
000001c0: bb9c b73d c58f 3e3e 6f0e f53d 3bf4 af3d
000001d0: ef83 01be 5891 073c de8f 9e3d 7ecf 46bd
000001e0: d1d4 9b3c cd92 9c3d ef66 9dbc 21ba 52bd
000001f0: 9ae9 dbbd 694b 83be a7c7 613d f9d3 023e
00000200: 4fa4 bdbd a3d3 1c3e a7e8 db3d f93f c2bc
00000210: 14e9 6ebd 3000 42be 18f9 8abd 7ebd 02bf
00000220: 89b4 a9bd c120 e8bd 8468 d93c 108d 443e
00000230: 1f07 723e 3484 3f3e f7a3 7cbe baf2 2dbc
00000240: 3db6 d3bd 396d 6fbf 7190 6a3c 4ff1 923c
00000250: 402e 363d 25c0 513d c6f8 6ebc 314f f73a
00000260: 2544 bebc c543 453d 2bc7 9e3b 1c88 20be
00000270: daa5 13be e763 d53c 238e 403c 494c 043d
00000280: 60e6 bbbd 80ae 013e a7ce 2a3d a148 1fbe
00000290: 2cc1 edbc 1f9e 823d b260 ecbd f693 f63d
000002a0: 199d aa3b 7f4e b53d b6c2 5b3d 3a5a 023e
000002b0: 3aac a03d 21a0 063c 1820 38be b6f3 4bbe
000002c0: 4202 debd e259 11bf cc0c 4ebe 0ddb 1ebd
000002d0: c4a3 583e ede5 203b 96e8 333e e4e7 1b3d
000002e0: 6a53 8839 d143 2fbc c363 22be 428c 093e
000002f0: dd41 8b3d 48d3 d13d d78a 53be 5bb9 e03d
00000300: a06c 943e f606 2fbe 4de0 2cbe bd7b 7abd
00000310: d38a 00be e533 07be 28a6 a63c d7e6 c2bd
00000320: 2f66 ed3d 3b5d efbd a4a3 db3d fee7 9cbd
00000330: 0d59 7ebe 199c fcbd d5fd b9bd 28d0 f43c
00000340: 68f7 3cbe 4438 2ebe a138 d2bc 32ae 793d
00000350: b0a7 2e3d d6c0 93bc f412 c23d dd40 67bc
00000360: c2d6 333d bc4e 5b3e 9eeb 81bd 7166 9d3c
00000370: ab6f 873b 65da 6cbb cfb3 203c 0e37 553d
00000380: e2bf 15be 885c 3fbd 149a 143e 2c4f 39bd
00000390: 3712 4ebe 141a d9bd aae6 c3bd 6a4a e6bc
000003a0: d4fa 60bd ee4e a7bb 960f db3d d880 853c
000003b0: fafb 45be 533d 443c cd01 d8bc 9999 32be
000003c0: dcfb 5d3d 6693 8abd 768f d83c 9be1 f9bd
000003d0: 7059 7ebd 38a4 43be 7eb1 c13d dd41 e6bd
000003e0: 7cfb cf3d 89d5 f53d fcfe 02be 787d b9ba
000003f0: 1a54 d23d 57be 41be 295e 15be dd3a 3bbe

hidden_layers.0.bias f4 [128]
0.020133125 0.00028777536 0.014885742 0.031080712 0.008640339 0.005222798 0.039004337 -0.03218754
-0.18688159 -0.17097321 -0.067100465 -0.11553401 -0.034893833 0.08986373 -0.10459846 -0.22379127
-0.08822245 0.060127143 -0.1129791 0.032053366 0.13509366 -0.13482827 0.06754741 -0.07438197
-0.060441718 -0.024284462 -0.12376371 -0.044915482 -0.027224002 0.114407025 -0.08478451 -0.0136386985
-0.071713954 0.059589956 0.11858107 -0.18728419 0.14376533 -0.06041297 -0.03746133 -0.12208089
-0.079786144 0.057089183 -0.1364824 -0.080326945 -0.08726101 0.035956483 -0.052454468 -0.11505278
0.101483636 -0.1821398 0.13286512 -0.067016475 -0.036288224 0.17053531 -0.042205494 0.005084742
-0.222197 0.0054766443 -0.11433051 -0.10452873 -0.12198598 0.12290913 -0.0582108 -0.05538663
-0.19146419 -0.189087 0.10802244 -0.0032741171 0.04724444 0.06508416 -0.1504576 -0.1351586
-0.030727927 0.13413191 0.13268182 -0.114787444 -0.08809803 -0.06680714 0.017823251 -0.15990381
-0.05712033 0.029464781 -0.038514882 -0.16886733 -0.042577017 -0.0028330528 0.16918173 -0.008652047
0.09799319 -0.0626368 -0.1352487 -0.1071735 -0.032730523 -0.085954696 0.052069936 0.055652175
0.010427636 -0.09401352 -0.053389166 -0.0952251 -0.0062176078 0.0020151732 0.14399408 -0.043997426
-0.1939855 -0.07350566 0.023576934 -0.15413447 -0.026993025 -0.040871978 -0.15985668 0.17484683
-0.13422686 0.09220133 0.007904141 0.005920051 -0.0955738 -0.09547909 0.01940478 -0.11732204
-0.06760155 -0.045488864 -0.059494745 0.01662917 0.196509 -0.1055236 -0.19667849 -0.06298896
00000000: 39ee a43c 8ee0 9639 54e3 733c fa9c fe3c
00000010: 3590 0d3c 0124 ab3b 03c3 1f3d 15d7 03bd
00000020: e35d 3fbe 9a13 2fbe f86b 89bd 189d ecbd
00000030: d6ec 0ebd 7a0a b83d b837 d6bd 8a29 65be
00000040: f9ad b4bd e147 763d 9661 e7bd 644a 033d
00000050: fe55 0a3e 6c10 0abe 4c56 8a3d 9355 98bd
00000060: bc91 77bd 35f0 c6bc d477 fdbd 4cf9 37bd
00000070: df04 dfbc 3b4e ea3d 80a3 adbd d974 5fbc
00000080: c4de 92bd 9914 743d a2da f23d 6dc7 3fbe
00000090: 3837 133e 9773 77bd 0d71 19bd 8c05 fabd
000000a0: eb66 a3bd 59d6 693d 0bc2 0bbe 7482 a4bd
000000b0: e7b5 b2bd 1b47 133d 7fda 56bd cba0 ebbd
000000c0: a7d6 cf3d db82 3abe cb0d 083e ef3f 89bd
000000d0: f6a2 14bd cfa0 2e3e abdf 2cbd e89d a63b
000000e0: 9c87 63be 6c75 b33b 1d26 eabd 2913 d6bd
000000f0: c9d3 f9bd c8b7 fb3d 736e 6ebd 17dd 62bd
00000100: 300f 44be 06a0 41be de3a dd3d 9292 56bb
00000110: 6383 413d d84a 853d 8f11 1abe 0467 0abe
00000120: 22b9 fbbc e059 093e bedd 073e ae15 ebbd
00000130: bd6c b4bd 2fd2 88bd 1102 923c d3bd 23be
00000140: 02f7 69bd 2060 f13c c8c1 1dbd 8feb 2cbe
00000150: 3d65 2ebd bdaa 39bb fa3d 2d3e 51c1 0dbc
00000160: a7b0 c83d b947 80bd a37e 0abe c87d dbbd
00000170: 7110 06bd 0409 b0bd 4947 553d 89f3 633d
00000180: add8 2a3c 298a c0bd 99ae 5abd 6105 c3bd
00000190: 13bd cbbb ff10 043b 2f73 133e a536 34bd
000001a0: 23a4 46be 238a 96bd 6a24 c13c 6dd5 1dbe
000001b0: 7a20 ddbc 6069 27bd 78b1 23be 0c0b 333e
000001c0: c472 09be 0dd4 bc3d 5f80 013c fdfc c13b
000001d0: 32bc c3bd 8b8a c3bd c6f6 9e3c 8a46 f0bd
000001e0: ae72 8abd 8852 3abd c3b0 73bd e639 883c
000001f0: a839 493e c21c d8bd 1666 49be 5b00 81bd

hidden_layers.1.weight f4 [128, 128]
0.051222593 -0.107519574 -0.13136348 0.03705997 -0.11213368 -0.032060962 -0.06441976 -0.144166
-0.031663194 -0.08760807 -0.09112662 -0.09271415 0.048978373 -0.13489401 0.05243021 -0.12201354
0.03587169 0.008528627 -0.08906462 -0.13390814 -0.10800124 -0.22465952 -0.12298988 -0.015023261
-0.037753608 -0.127859 -0.010903471 -0.037161812 0.007305849 -0.09419552 -0.06461606 -0.03617226
-0.04836376 -0.18238497 -0.13625395 0.07226958 0.14729212 -0.06906068 -0.03457722 0.00073206204
-0.24818583 -0.04104431 0.04956872 -0.0580528 -0.0865226 0.02618355 0.065963484 -0.11299606
-0.05327918 0.006730879 -0.049971633 -0.012237397 -0.07447467 0.013468614 -0.06590024 -0.04926622
-0.09748237 0.01498061 -0.05590982 0.113281354 0.03685825 0.007757876 -0.046738394 -0.019865446
-0.08162332 -0.086377285 -0.049112804 -0.1134853 0.008089008 0.024008019 0.015311075 -0.050105847
-0.11459976 0.061457224 -0.024799442 0.0031335093 0.008133293 0.008360298 0.13290206 0.038723476
0.045976274 -0.1754348 0.022074305 0.042915385 -0.04231892 -0.16131747 -0.089664154 0.008364318
-0.098195836 -0.05681179 -0.10987211 -0.11384618 -0.00824884 -0.15847202 0.11370382 -0.01731979
-0.05700024 0.00077322114 0.06119148 0.03656688 -0.050109047 0.12967457 0.10151992 0.027293636
-0.05414201 -0.046750065 0.15286371 0.0530568 0.120950945 -0.012878934 -0.17044544 -0.014866841
0.0697878 -0.100855306 0.07980347 -0.076787375 -0.090984195 -0.028900588 0.010871337 0.0471025
0.109334625 0.14305434 -0.15857966 0.02379904 0.08023095 -0.12782626 -0.104809456 -0.07430601
-0.078702986 -0.23876317 -0.08376246 0.07828404 0.05803288 -0.011180619 -0.070731044 -0.122644424
-0.019196657 -0.13965236 0.045387406 0.0066209123 -0.13817354 -0.040690638 0.068318926 -0.0059964256
-0.005952972 0.0012721273 -0.028585538 -0.094671555 -0.21214846 -0.044463307 -0.06621389 -0.19855359
0.04519739 -0.010030512 0.036476154 -0.060312957 0.038573816 -0.09954259 -0.03178181 -0.12687308
-0.1014594 -0.11724612 -0.18908112 0.03949668 -0.14239472 -0.04416618 -0.0031115946 -0.071605034
-0.10843016 -0.07130677 0.049960177 -0.0842605 -0.06140551 -0.048333917 -0.07306088 0.08932605
0.2242844 -0.069470055 0.0819326 0.09459799 -0.011541352 -0.06502038 0.07396485 0.1489779
-0.11199775 0.110351846 -0.06345147 0.13222788 0.018542314 -0.14590886 -0.088154756 -0.09795074
-0.047990628 -0.18528947 -0.09123163 -0.15041605 0.011558102 -0.029006977 -0.08714768 -0.043491803
-0.02525993 0.14451806 -0.061334 -0.040740352 0.13233286 0.06927228 -0.063486405 -0.08039486
-0.036597118 -0.21162239 0.028041862 -0.08357307 -0.14510597 -0.027097756 -0.17362688 0.011605218
-0.15228081 -0.02827638 0.1164188 0.0473317 0.0828232 -0.19816741 -0.08410591 -0.009159608
0.13255344 0.069681674 0.023417281 -0.13444287 0.14083177 -0.07169781 0.07707188 -0.10177495
0.0014842142 -0.09090179 0.037860423 -0.13798642 0.055311494 -0.075580865 -0.022649005 0.01685963
-0.035577636 -0.1472343 -0.054671466 -0.0031447625 0.009874217 -0.0044575464 -0.16133027 -0.12403215
0.044616476 0.1434822 0.028389113 -0.025274359 -0.071919724 -0.007243692 -0.1652479 0.044728033
00000000: c8ce 513d 3933 dcbd 2684 06be 32cc 173d
00000010: 58a6 e5bd 5b52 03bd 82ee 83bd 40a0 13be
00000020: 44b1 01bd dc6b b3bd 98a0 babd ebe0 bdbd
00000030: 8c9d 483d a821 0abe 0fc1 563d 3ce2 f9bd
00000040: 31ee 123d a8bb 0b3c 8367 b6bd 371f 09be
00000050: c12f ddbd 250d 66be 1ee2 fbbd 2024 76bc
00000060: 87a3 1abd 78ed 02be 79a4 32bc fc36 18bd
00000070: e765 ef3b 95e9 c0bd 6d55 84bd 5d29 14bd
00000080: 1419 46bd 20c3 3abe 2886 0bbe 1302 943d
00000090: bfd3 163e b06f 8dbd d8a0 0dbd dae7 3f3a
000000a0: 6d24 7ebe 141e 28bd 9208 4b3d c6c8 6dbd
000000b0: c332 b1bd e27e d63c dd17 873d 7a6a e7bd
000000c0: 453b 5abd b58e dc3b 0eaf 4cbd 5d7f 48bc
000000d0: 2d86 98bd 76ab 5c3c b4f6 86bd 60cb 49bd
000000e0: d6a4 c7bd 3c71 753c b201 65bd 0e00 e83d
000000f0: adf8 163d c835 fe3b c270 3fbd dcbc a2bc
00000100: 212a a7bd 93e6 b0bd 822a 49bd fb6a e8bd
00000110: c287 043c 77ac c43c 4edb 7a3c ca3b 4dbd
00000120: 47b3 eabd 92ba 7b3d 3328 cbbc 905b 4d3b
00000130: 8141 053c a2f9 083c 7a17 083e 829c 1e3d
00000140: 9e51 3c3d 2ea5 33be 2cd5 b43c 0bc8 2f3d
00000150: 9b56 2dbd 6830 25be d7a1 b7bd 7e0a 093c
00000160: e61a c9bd 7bb3 68bd a104 e1bd 3028 e9bd
00000170: 2526 07bc 7d46 22be 8cdd e83d 3be2 8dbc
00000180: 1579 69bd feb1 4a3a eba3 7a3d 27c7 153d
00000190: 253f 4dbd 69c9 043e ade9 cf3d e796 df3c
000001a0: 03c4 5dbd ff7c 3fbd 4e88 1c3e 1652 593d
000001b0: 21b5 f73d 2a02 53bc 4089 2ebe 0d94 73bc
000001c0: e8ec 8e3d 3a8d cebd 0070 a33d b342 9dbd
000001d0: ec55 babd edc0 ecbc b11d 323c 8dee 403d
000001e0: d5ea df3d d67c 123e b562 22be 34f6 c23c
000001f0: 2050 a43d e3e4 02be 57a6 d6bd c02d 98bd
00000200: 082f a1bd 557e 74be a78b abbd 6253 a03d
00000210: e3b3 6d3d ea2e 37bc 70db 90bd 002d fbbd
00000220: 4f42 9dbc 0701 0fbe 25e8 393d 3df4 d83b
00000230: 5d7d 0dbe 3aab 26bd cbea 8b3d aa7d c4bb
00000240: 2611 c3bb 82bd a63a 382c eabc 29e3 c1bd
00000250: 723d 59be 281f 36bd 269b 87bd a251 4bbe
00000260: e620 393d 0457 24bc 0568 153d b80a 77bd
00000270: 94ff 1d3d fcdc cbbd a52d 02bd 04eb 01be
00000280: f2c9 cfbd bc1e f0bd 7b9e 41be 45c7 213d
00000290: eccf 11be 99e7 34bd e5eb 4bbb a9a5 92bd
000002a0: a210 debd 4909 92bd 0ba3 4c3d c590 acbd
000002b0: 5884 7bbd c9f9 45bd f1a0 95bd 93f0 b63d
000002c0: cfaa 653e 5146 8ebd 47cc a73d 97bc c13d
000002d0: f017 3dbc 6829 85bd e27a 973d aa8d 183e
000002e0: 145f e5bd 2600 e23d d8f2 81bd bf66 073e
000002f0: 0de6 973c 2269 15be 7b8a b4bd 669a c8bd
00000300: d291 44bd 86bc 3dbe a6d7 babd aa06 1abe
00000310: 325e 3d3c 0aa0 edbc 7c7a b2bd 7624 32bd
00000320: eaed cebc 8bfc 133e 5c39 7bbd 5bdf 26bd
00000330: 4482 073e a0de 8d3d 2905 82bd 0fa6 a4bd
00000340: dce6 15bd 8ab3 58be 0cb8 e53c 5c28 abbd
00000350: a996 14be 1dfc ddbc 3fcb 31be d023 3e3c
00000360: 80ef 1bbe dea3 e7bc fb6c ee3d e2de 413d
00000370: 369f a93d 66ec 4abe b83f acbd 2e12 16bc
00000380: 17bc 073e 44b5 8e3d 99d5 bf3c 64ab 09be
00000390: 3436 103e 4dd6 92bd ddd7 9d3d 636f d0bd
000003a0: f789 c23a b82a babd 8813 1b3d 504c 0dbe
000003b0: 4e8e 623d 24ca 9abd 688a b9bc 351d 8a3c
000003c0: dbb9 11bd 97c4 16be 30ef 5fbd 5c18 4ebb
000003d0: 78c7 213c 9c10 92bb c333 25be 9104 febd
000003e0: c4bf 363d ffec 123e 4990 e83c 2c0c cfbc
000003f0: a64a 93bd 7e5c edbb bf36 29be be34 373d

hidden_layers.1.bias f4 [128]
-0.020472044 -0.01486205 0.025716653 -0.06156766 -0.0029316342 -0.054767787 -0.08610295 0.013784755
-0.10445332 0.049011856 -0.0019591576 0.085457794 0.0035260597 -0.05215173 -0.04712728 0.09522035
-0.084590934 -0.05163555 -0.088410005 0.012666411 -0.14143734 -0.069324605 -0.08011869 0.09932669
-0.031781495 0.01089727 0.07535254 0.004816977 0.006991146 0.005201625 -0.032830324 -0.022388978
0.12941459 -0.007783865 0.013532133 -0.03280762 -0.039768286 0.0111107845 -0.045773987 -0.006480282
-0.03476188 -0.029176839 0.013417608 -0.06835695 -0.037686888 -0.067402564 0.030754324 0.11346262
-0.068253405 -0.0824288 0.07401107 0.016695956 -0.01473027 0.014552357 -0.07148231 -0.01691431
-0.07308929 -0.100944825 0.05252542 0.048527587 -0.0089948 0.063955344 -0.06702145 -0.010903653
-0.04388905 0.076212004 -0.018690377 -0.04381587 -0.0139784515 0.07264302 0.006088646 -0.023592757
-0.0051493794 -0.030776668 0.07079628 -0.055603746 -0.07962141 0.05080014 -0.09278807 0.088184536
-0.020045632 -0.03392594 -0.09304442 0.07501148 -0.028593162 -0.011987273 -0.07915691 0.042239595
0.009209791 0.06571126 0.03619263 -0.11499885 -0.09318411 -0.031719156 0.010050643 0.020677336
0.03372995 0.009155623 -0.090744466 0.009202516 -0.082379006 0.019515222 -0.1190881 0.014779668
0.0339524 -0.12115897 -0.00088381016 -0.12031983 -0.09144971 -0.001717116 -0.043655436 -0.0009288158
-0.109156735 -0.0025896903 -0.099310204 0.016552152 0.08065728 0.12225784 -0.012206195 0.006405813
-0.0045507974 0.061405312 0.0025243259 -0.044482354 -0.048544817 0.02219622 -0.051076073 0.02921426
00000000: fdb4 a7bc f57f 73bc bbab d23c 5f2e 7cbd
00000010: a920 40bb 3054 60bd be56 b0bd 74d9 613c
00000020: 9feb d5bd a8c0 483d 3665 00bb 7f04 af3d
00000030: 7715 673b 0d9d 55bd 8908 41bd e302 c33d
00000040: 033e adbd cc7f 53bd 4e10 b5bd c786 4f3c
00000050: f3d4 10be 0ffa 8dbd 4515 a4bd cb6b cb3d
00000060: 502d 02bd 778a 323c 6f52 9a3d bbd7 9d3b
00000070: fc15 e53b 6572 aa3b 1779 06bd 1769 b7bc
00000080: 4285 043e cb0f ffbb e1b5 5d3c 4861 06bd
00000090: 12e4 22bd 020a 363c 817d 3bbd 8c58 d4bb
000000a0: 7962 0ebd 4404 efbc 87d5 5b3c bbfe 8bbd
000000b0: 915d 1abd 5b0a 8abd 7ef0 fb3c 175f e83d
000000c0: 71c8 8bbd 6ed0 a8bd 1e93 973d f5c5 883c
000000d0: 3b57 71bc 026d 6e3c 5165 92bd e18f 8abc
000000e0: d6af 95bd 29bc cebd e524 573d ddc4 463d
000000f0: ed5e 13bc 05fb 823d 8b42 89bd 3ca5 32bc
00000100: 01c5 33bd 0a15 9c3d 901c 99bc 4578 33bd
00000110: e005 65bc ddc5 943d 4483 c73b 9945 c1bc
00000120: 20bc a8bb 5a1f fcbc a4fd 903d c1c0 63bd
00000130: 8d10 a3bd cf13 503d ac07 bebd 189a b43d
00000140: bd36 a4bc edf5 0abd 138e bebd 9e9f 993d
00000150: 353c eabc 4466 44bc 051d a2bd 6d03 2d3d
00000160: aae4 163c a093 863d b93e 143d 8484 ebbd
00000170: 50d7 bebd f2eb 01bd 74ab 243c 8463 a93c
00000180: 6b28 0a3d 7701 163c 3cd8 b9bd 26c6 163c
00000190: 53b6 a8bd 63de 9f3c 76e4 f3bd 6c26 723c
000001a0: ac11 0b3d 3222 f8bd 7faf 67ba 3e6a f6bd
000001b0: fc49 bbbd da10 e1ba 0bd0 32bd c67b 73ba
000001c0: 918d dfbd cbb7 29bb 2663 cbbd 6198 873c
000001d0: a52f a53d 5262 fa3d 7efc 47bc dbe7 d13b
000001e0: db1e 95bb 2384 7b3d 296f 253b 2133 36bd
000001f0: eed6 46bd d9d4 b53c 2535 51bd be52 ef3c

output.weight f4 [4, 128]
-0.10547086 -0.04542606 0.111799456 -0.008513057 -0.02549517 -0.015828585 -0.013949958 -0.036532365
-0.026840456 0.09970121 0.044747304 0.07491267 0.025464151 0.11205801 0.00070543867 0.07013763
-0.015184854 0.012387544 -0.10347656 -0.00543015 -0.012456899 0.082430646 0.002326384 0.0373462
-0.06706052 -0.14641522 -0.011776303 0.0728124 -0.014891807 0.008108435 -0.06377326 0.0802028
-0.0073489314 0.037750512 -0.0070173973 0.02756326 -0.1144395 0.025702678 -0.032973148 0.04832178
0.0048720418 0.091231585 0.0045436635 -0.011664108 -0.08422849 0.04005741 -0.033857394 0.030760674
-0.061414745 0.09885792 -0.071586 -0.019023694 0.027257806 0.103354916 -0.17282426 -0.0044711633
0.02026468 0.038917806 -0.15656145 -0.022119012 -0.043122735 -0.005506638 0.082565315 -0.022788402
0.104158595 0.11670199 0.026374618 -0.05070633 0.047781505 0.17296404 0.0118090585 0.049639758
-0.005956756 0.07734428 0.09381792 -0.014695234 -0.08516113 0.10861648 -0.0565726 0.07859255
0.071600124 -0.0124817975 -0.075584285 0.035230517 0.09892538 -0.016281087 -0.005303158 -0.064722344
0.056357857 -0.020373322 -0.07683785 0.04456706 -0.012971511 0.026407981 -0.0039267535 0.08340575
0.14193702 0.007452662 -0.0036137116 0.061087925 -0.041456167 0.1293827 -0.05881957 0.15245387
-0.0010224656 -0.034609366 -0.0377801 -0.0011366515 -0.055621922 0.027219906 -0.0027886764 0.13242006
-0.013233847 0.023397641 0.026678097 0.14592755 0.03604543 0.14327207 0.03610853 0.025054026
0.0036568223 0.064057514 0.08968005 -0.06125055 -0.046172448 0.024117656 -0.005847904 0.059989173
0.10568672 -0.044540983 0.09579733 0.02985612 0.0018734225 -0.05387057 -0.020464808 -0.028167328
0.09243406 0.007688573 -0.013285064 0.04712915 -0.017555904 0.0013120602 -0.017892318 0.043947756
0.03250938 -0.027150286 0.0022266596 0.033980012 0.046904758 0.010448125 0.09370779 0.030147089
-0.054287314 -0.009957943 0.028441718 0.0518265 0.0037792297 0.015935183 0.03195739 -0.03164083
0.020860795 0.07131197 0.07050621 0.007514522 -0.01928056 0.06705933 0.012740895 0.013636774
0.061574113 0.016147275 -0.03576244 0.0051202467 -0.04282392 0.022138556 0.0054015084 0.029086681
0.030285297 0.017600864 -0.00034640342 -0.028087502 0.055738956 0.040846076 -0.042587064 -0.009030235
0.050636124 -0.003962449 -0.01064133 0.0015179386 -0.00704382 0.036212068 -0.04756478 -0.0057736174
-0.003165644 -0.00035701005 0.04550049 0.05400464 0.08442314 0.030003114 -0.051381037 0.08433612
-0.006570566 0.042704325 0.07094779 -0.02607458 0.022806602 0.016078394 -0.099130265 0.07594723
0.049175505 0.032778002 -0.0046628676 0.052766014 0.15829185 -0.049621016 0.0452754 -0.028617686
0.09821064 0.03039665 -0.04834868 0.07187152 -0.06191098 0.034758788 0.062234826 -0.011299661
0.039779324 0.0042936183 0.00082273607 0.081005976 0.033782855 0.12314213 0.020599036 -0.021060714
0.024676578 -0.06863552 -0.070690356 -0.046598796 0.035730686 -0.008382278 -0.04110285 0.053118903
-0.036435086 0.01024171 -0.039549816 0.09770133 0.023055568 0.09835581 -0.07482196 0.02247768
0.0036960193 -0.028740738 0.10254465 0.00030289806 -0.0036297082 0.043428104 0.01996233 0.06385461
00000000: 1b01 d8bd ad10 3abd 1df7 e43d 597a 0bbc
00000010: 3fdb d0bc f3aa 81bc 5d8e 64bc f6a2 15bd
00000020: 84e0 dbbc 2630 cc3d f348 373d d06b 993d
00000030: 329a d03c ac7e e53d 30ed 383a 51a4 8f3d
00000040: e5c9 78bc 20f5 4a3c 85eb d3bd 66ef b1bb
00000050: 0518 4cbc 66d1 a83d 3f76 183b 54f8 183d
00000060: 0757 89bd dfed 15be 65f1 40bc ab1e 953d
00000070: c4fc 73bc 3ed9 043c 8e9b 82bd 5e41 a43d
00000080: 4ecf f0bb 48a0 1a3d 32f2 e5bb 59cc e13c
00000090: 425f eabd 6c8e d23c da0e 07bd 0fed 453d
000000a0: a6a5 9f3b a0d7 ba3d 03e3 943b d11a 3fbc
000000b0: fd7f acbd 3d13 243d 0dae 0abd cffd fb3c
000000c0: 078e 7bbd 0576 ca3d ae9b 92bd 94d7 9bbc
000000d0: c34b df3c beab d33d d8f8 30be d682 92bb
000000e0: 1d02 a63c 4768 1f3d a551 20be ee32 b5bc
000000f0: 77a1 30bd 0771 b4bb 0118 a93d beae babc
00000100: 1a51 d53d 7401 ef3d 950f d83c 71b1 4fbd
00000110: 8ab6 433d 7c1d 313e c87a 413c 0f53 4b3d
00000120: e430 c3bb ae66 9e3d 9c23 c03d 47c4 70bc
00000130: f568 aebd 5172 de3d acb8 67bd 21f5 a03d
00000140: 16a3 923d 7480 4cbc efcb 9abd e04d 103d
00000150: 6499 ca3d ea5f 85bc 1dc6 adbb 268d 84bd
00000160: 7fd7 663d f4e5 a6bc 2a5d 9dbd f38b 363d
00000170: 7686 54bc 8d55 d83c ffab 80bb a2d0 aa3d
00000180: f057 113e 7635 f43b 05d4 6cbb 5537 7a3d
00000190: f1cd 29bd e67c 043e caec 70bd de1c 1c3e
000001a0: 4104 86ba 8dc2 0dbd 4ebf 1abd b2fb 94ba
000001b0: d0d3 63bd 48fc de3c 3ac2 36bb 2099 073e
000001c0: c7d2 58bc 69ac bf3c 068c da3c 086e 153e
000001d0: 5fa4 133d eab5 123e 8ae6 133d 1a3e cd3c
000001e0: 4ca7 6f3b 9630 833d 2daa b73d dbe1 7abd
000001f0: 521f 3dbd 6492 c53c c69f bfbb 35b7 753d
00000200: 4772 d83d 9b70 36bd 6431 c43d d294 f43c
00000210: a18d f53a 63a7 5cbd d0a5 a7bc 2bbf e6bc
00000220: 124e bd3d 6df0 fb3b 99a9 59bc 7f0a 413d
00000230: 66d1 8fbc 6ff9 ab3a e992 92bc 9002 343d
00000240: 8e28 053d 476a debc 26ed 113b a02e 0b3d
00000250: 341f 403d 9d2e 2b3c dfe9 bf3d 07f7 f63c
00000260: 605c 5ebd a426 23bc 9bfe e83c 0648 543d
00000270: f4ac 773b 808a 823c c1e5 023d d199 01bd
00000280: 42e4 aa3c 030c 923d 8f65 903d 613c f63b
00000290: 44f2 9dbc 6756 893d 30bf 503c c76c 5f3c
000002a0: 2335 7c3d 4a47 843c a37b 12bd bec7 a73b
000002b0: 2268 2fbd eb5b b53c 23ff b03b 3147 ee3c
000002c0: df18 f83c b02f 903c 7b9d b5b9 c317 e6bc
000002d0: 884e 643d 374e 273d c66f 2ebd 8df3 13bc
000002e0: d367 4f3d 6ed7 81bb f958 2ebc 91f5 c63a
000002f0: d8cf e6bb 1b53 143d 49d3 42bd 9d30 bdbb
00000300: b176 4fbb 142d bbb9 b95e 3a3d f833 5d3d
00000310: 0ae6 ac3d 17c9 f53c ec74 52bd 6ab8 ac3d
00000320: e74d d7bb bbea 2e3d 134d 913d 5c9a d5bc
00000330: e9d4 ba3c d6b6 833c cf04 cbbd 398a 9b3d
00000340: 416c 493d 3a42 063d f8ca 98bb 2d21 583d
00000350: 4217 223e 683f 4bbd b372 393d a36f eabc
00000360: a922 c93d 6502 f93c 4409 46bd 6031 933d
00000370: 5e96 7dbd 3b5f 0e3d f2e9 7e3d 3722 39bc
00000380: a5ef 223d 7bb1 8c3b e2ac 573a 76e6 a53d
00000390: e45f 0a3d f131 fc3d 4fbf a83c 8587 acbc
000003a0: 8926 ca3c c890 8cbd 1bc6 90bd 61de 3ebd
000003b0: 575a 123d d255 09bc 765b 28bd 3593 593d
000003c0: f53c 15bd d8cc 273c fdfe 21bd a317 c83d
000003d0: 08df bc3c c56e c93d 413c 99bd 1d23 b83c
000003e0: ea38 723b b271 ebbc ee02 d23d 4ace 9e39
000003f0: 66e0 6dbb abe1 313d 0a88 a33c 35c6 823d

output.bias f4 [4]
0.15821426 0.11693463 0.11544723 0.07463394
00000000: eb02 223e 6c7b ef3d 996f ec3d aed9 983d
