checkpoints/state_size_37__action_size_4__hidden_layers_[64-64]__drop_p_0.25__seed_0__GAMMA_0.99__LR_0.0005__UPDATE_EVERY_10__BUFFER_SIZE_10000__BATCH_SIZE_64__TAU_0.001.pth (torch, 29527 bytes, 6 tensors)

hidden_layers.0.weight f4 [64, 37]
0	0xbd57257e	-0.05252599
1	0x3c9775d3	0.0184888
2	0xbc7a7c4d	-0.015288425
3	0x3ca2ace7	0.019857837
4	0xbd8b6945	-0.06807188
5	0xbd4738f4	-0.0486383
6	0xbef733af	-0.4828162
7	0x3ec759d7	0.3893573
8	0x3eed2331	0.4631591
9	0x3f9a9bf5	1.2078844
10	0xbdcaa360	-0.098944426
11	0xbd741b5e	-0.059596412
12	0xbcfea67f	-0.03108525
13	0xbd8a0017	-0.067382984
14	0xbd0b77b3	-0.0340497
15	0xbdced6e6	-0.100995824
16	0xbd3d7138	-0.046250552
17	0xbdee6795	-0.116408505
18	0xbc378a80	-0.011202455
19	0x3d69ae1b	0.057050806
20	0xbda8d88b	-0.08244427
21	0xbdb3459c	-0.08753511
22	0xbe269c44	-0.16270548
23	0xbdfea876	-0.12434475
24	0x3cbe1354	0.023202576
25	0xbddf88fa	-0.10914798
26	0xbe389c26	-0.18028316
27	0xbdad1b5e	-0.084524855
28	0xbdf5060b	-0.11964043
29	0x3dd94d97	0.10610502
30	0xbc9b3806	-0.018947612
31	0xbda93ed9	-0.0826394
32	0xbcf03d88	-0.029326215
33	0xbd2bd029	-0.041946564
34	0xbc9da163	-0.019241994
35	0xbbcafe38	-0.006194856
36	0xb8e20365	-0.00010777152
37	0xbd646cb7	-0.05576774
38	0xbc9a5906	-0.018841278
39	0xbbc736f8	-0.006079551
40	0xbc1109b7	-0.008852414
41	0xbc0e53b8	-0.008686952
42	0xbbd08fd2	-0.006364801
43	0x3c92ca18	0.017918631
44	0x3da01b00	0.0781765
45	0x3df68b80	0.12038326
46	0x3e3f876b	0.18704002
47	0x3c24fa5c	0.010069456
48	0x3cccd664	0.025004573
49	0x3b0dfc2e	0.0021665203
50	0xbc03ccc2	-0.008044424
51	0xbc1c99e1	-0.009558172
52	0x3bcc82e5	0.00624119
53	0x3d6727c2	0.0564344
54	0x3c233626	0.00996164
55	0x3c892699	0.016742038
56	0xbb937f2f	-0.0045012455
57	0xbd60d0e3	-0.05488671
58	0xbbf1ea2a	-0.007382651
59	0xbc8fd72d	-0.017558658
60	0x3c88a9b8	0.01668249
61	0x3dc0147c	0.09378907
62	0xbd3f0cef	-0.046643194
63	0xbd093452	-0.033497162
64	0xbcf7d5fa	-0.0302534
65	0xbbbfecc8	-0.005857084
66	0x3dd75e15	0.105159916
67	0x3e47267f	0.19448279
68	0xbf0e2c2a	-0.5553614
69	0xbe9d5e42	-0.30735976
70	0xbeee21b8	-0.465101
71	0xbfd1d3cb	-1.6392759
72	0xbb85d84e	-0.0040846234
73	0x3a52ab91	0.00080364296
74	0xbd478f59	-0.04872069
75	0xbd1b9e25	-0.037992615
76	0xbd354ef9	-0.044264767
77	0x3c5f523f	0.013630449
78	0x3ca14d91	0.019690307
79	0x3dcd782f	0.10032689
80	0xbea60530	-0.32425833
81	0xbeae1883	-0.34003076
82	0xbed2fc43	-0.41208085
83	0xbfe8efd4	-1.819819
84	0x3d829084	0.063752204
85	0x3c9a8d34	0.018866159
86	0x3c380ce7	0.011233545
87	0x3d7d1f17	0.061797228
88	0xbd6b8da8	-0.05750814
89	0x3d083072	0.033249326
90	0x3d9242e3	0.07141664
91	0x3d89f964	0.067370206
92	0x3d76d0d5	0.06025775
93	0x3d279c57	0.04092058
94	0x3d3d98ae	0.046288185
95	0x3cb44754	0.022006668
96	0x3d07c648	0.03314808
97	0x3d8c3483	0.06845953
98	0x3d6e01c4	0.058107153
99	0x3cf8b01a	0.03035741
100	0x3d90d7df	0.07072424
101	0x3c91a4c4	0.017778762
102	0x3d86f79d	0.06590197
103	0x3d5afe9e	0.053465478
104	0x3ceb86ec	0.02875086
105	0x3cd4c4a4	0.025972672
106	0xbc77c9b1	-0.015123771
107	0xbb5c2e71	-0.0033597017
108	0xbd1e6ee7	-0.038679983
109	0xbcd70cb4	-0.026251175
110	0x3be5d0c1	0.007013411
111	0xbdc04153	-0.093874596
112	0x3c976670	0.018481463
113	0x3dcce85d	0.10005257
114	0x3e341299	0.1758522
115	0x3d38574c	0.045005128
116	0xbf153668	-0.5828614
117	0x3e8b5615	0.27214113
118	0x3e71f9af	0.23630403
119	0x3d145f8c	0.036223933
120	0xbf018c5d	-0.506048
121	0xbdfcba77	-0.12340253
122	0xbda5b587	-0.08091264
123	0xbd790585	-0.06079628
124	0xbd01d41f	-0.031696435
125	0x3d6d2eaa	0.05790583
126	0xbe4fe738	-0.20303047
127	0x3d883f84	0.0665274
128	0x3d0bfbbd	0.034175623
129	0x3a736b56	0.00092857087
130	0xbd977cab	-0.073968254
131	0xbe14bb8c	-0.14524668
132	0x39ba6107	0.00035548976
133	0xbdd64e39	-0.104641385
134	0xbdd3eb46	-0.10347609
135	0x3d99c92c	0.075090736
136	0xbf1003a0	-0.5625553
137	0x3d4bce68	0.04975739
138	0x3dd311ca	0.10306127
139	0x3b826ed3	0.0039804964
140	0xbf3f7e8e	-0.7480248
141	0xbe7611c6	-0.24030218
142	0x3dd41cba	0.10357042
143	0x3d3c5f7f	0.04598951
144	0x3e59b294	0.21259528
145	0x3c877774	0.016536452
146	0xbbd739bd	-0.0065681622
147	0xbb523a55	-0.0032078226
148	0xbddbd006	-0.10733037
149	0xbcd3f49e	-0.025873479
150	0xbd04a3ea	-0.032382883
151	0xbe556304	-0.20838553
152	0xbe0cbd29	-0.13744034
153	0xbf022420	-0.5083637
154	0x3d3ad6e2	0.045615084
155	0x3e838b89	0.25692394
156	0xbe8a704e	-0.27038807
157	0xbfdd9672	-1.7311537
158	0xbe647b42	-0.22312644
159	0xbe13d378	-0.14436138
160	0x3dacffe9	0.084472485
161	0xbe436db1	-0.19084813
162	0xbeb03ddd	-0.34422198
163	0xbe8191bf	-0.25306508
164	0xbdc215bf	-0.09476804
165	0xbddbcfdb	-0.10733005
166	0xbe44b072	-0.19207934
167	0xbe9636c1	-0.2933865
168	0xbe56a964	-0.20963055
169	0xbe9babd6	-0.30404538
170	0xbc6855c8	-0.014180608
171	0xbeaa671b	-0.33281788
172	0xbebb8e92	-0.3663221
173	0xbdf7fc9c	-0.12108728
174	0x3d479110	0.048722327
175	0x3d602bb5	0.054729182
176	0xbeae52ae	-0.34047455
177	0xbecff09f	-0.40613267
178	0xbeb77ab8	-0.35835814
179	0xbe80802c	-0.25097787
180	0x3e8bb79a	0.27288514
181	0xbea05a0f	-0.3131871
182	0xbf9df11a	-1.2339203
183	0x3d7fef30	0.062483966
184	0x3cb8ab6d	0.02254268
185	0xbdd2b2bb	-0.102879964
186	0xbe080208	-0.13282025
187	0xbe1cc270	-0.15308547
188	0xbdd8c9d8	-0.10585374
189	0x3d2c990e	0.04213815
190	0xbd2de199	-0.042451475
191	0xbd804db3	-0.0626482
192	0x3dcb99f5	0.09941474
193	0x3deb87b3	0.11500492
194	0x3e4601b6	0.1933659
195	0xbb1589c1	-0.0022817703
196	0x3c974998	0.01846771
197	0x3cf86454	0.030321278
198	0xbd3452ca	-0.044024266
199	0xbd1a8f35	-0.03773423
200	0xbe2a1cee	-0.16612598
201	0xbd8f9fa1	-0.07012869
202	0xbc0c38b8	-0.008558445
203	0x3dd32bd9	0.10311098
204	0x3e2fb979	0.17160596
205	0xbe1c419f	-0.15259407
206	0xbdfe5e28	-0.12420303
207	0xbde00443	-0.10938313
208	0xbd8d42b2	-0.06897487
209	0x3e0e3203	0.13886265
210	0xbe5f0614	-0.21779662
211	0xbe74caa4	-0.23905426
212	0x3d8a1dcf	0.06743967
213	0x3e6a5a9f	0.22886132
214	0x3f07071e	0.52745235
215	0xbde6eb72	-0.112753764
216	0xbd9092d1	-0.07059253
217	0x3db4bd12	0.08825125
218	0x3e17c612	0.14821652
219	0x3ebb82b6	0.36623162
220	0x3b03fe21	0.0020140486
221	0xbbb39a3b	-0.005481032
222	0xbd97719a	-0.07394715
223	0xbc19b3fb	-0.00938129
224	0x3d016f9c	0.03160058
225	0x3943ecfd	0.00018684934
226	0x3c8af62a	0.016963083
227	0xbe6ca83a	-0.23111048
228	0xbe54687d	-0.20742984
229	0x3e8fb7d6	0.28069943
230	0x3ebee5e4	0.37284768
231	0x3f8a9aa1	1.0828439
232	0xbd4e9598	-0.050435632
233	0xbbcb6cfc	-0.0062080603
234	0xbc8c3808	-0.017116562
235	0x3d762978	0.06009814
236	0x3d3314d3	0.04372103
237	0xbd8f3fa1	-0.06994558
238	0xbd88c9d9	-0.066791244
239	0xbd0074f7	-0.031361546
240	0xbd5e7880	-0.054314137
241	0x3d0fd666	0.035116576
242	0xbc16ed19	-0.009211802
243	0xbb6843b4	-0.0035440745
244	0x3ca0aa9f	0.019612608
245	0x3bdc5707	0.0067242417
246	0x3c6c70a5	0.014431153
247	0xbd393850	-0.04521972
248	0x3c737df0	0.014861569
249	0x3ccfc9f4	0.025364853
250	0x3d9288a8	0.07154971
251	0x3df3ff96	0.119139835
252	0xbcc345d8	-0.023837015
253	0xb9335759	-0.0001710331
254	0x3d1164f5	0.03549667
255	0x3d0c9512	0.034321852

hidden_layers.0.bias f4 [64]
0	0x3dcfead1	0.101522096
1	0x3dc5a3c9	0.0965038
2	0xbd387421	-0.045032624
3	0xbdaef003	-0.08541872
4	0x3d21aee0	0.039473414
5	0xbd3df718	-0.046378225
6	0xbe0f8b72	-0.14018038
7	0x3d30a92e	0.043130092
8	0x3d9d8666	0.0769165
9	0x3d3387ac	0.04383056
10	0xbd7f42dd	-0.062319625
11	0xbe8c3383	-0.2738305
12	0x3e055d44	0.1302386
13	0xbe921480	-0.28531265
14	0xbd545f0d	-0.05184846
15	0x3cf463ba	0.02983271
16	0xbdaf66ff	-0.08564567
17	0xbd8fbdb9	-0.070186086
18	0xbdd05636	-0.101726934
19	0xbdae0d53	-0.08498635
20	0xbdfe0e6c	-0.124050945
21	0xbe117cba	-0.14207736
22	0xbdac784b	-0.084213816
23	0x3c443147	0.011974639
24	0x3de7d59a	0.11320038
25	0x3d35b0b2	0.044357963
26	0xbc76d51b	-0.015065457
27	0x3d1b3495	0.037891943
28	0x3d59e134	0.053193286
29	0x3de452f7	0.11148637
30	0xbcebe383	-0.02879501
31	0xbe6e898b	-0.23294656
32	0xbc9e787b	-0.019344559
33	0xbc716551	-0.014733628
34	0x3d4d5f38	0.050139636
35	0xbd512624	-0.051061764
36	0xbe017d00	-0.1264534
37	0xbdb98a06	-0.09059529
38	0xbe8db7c6	-0.2767927
39	0xbe46ffe4	-0.19433552
40	0x3be42972	0.0069629485
41	0xbe1584fc	-0.14601511
42	0xbe32d4e7	-0.17464028
43	0xbe23b7f5	-0.15988143
44	0xbd5d8f94	-0.054092005
45	0xbd584934	-0.052804187
46	0xbe514d13	-0.20439558
47	0xbc039242	-0.008030476
48	0xbda79425	-0.08182553
49	0xbde874dd	-0.11350415
50	0xbe7bc375	-0.2458628
51	0xbe163cea	-0.14671674
52	0x3e0ce7df	0.13760327
53	0xbd80364a	-0.06260355
54	0x3e01a369	0.12659992
55	0xbe573ba9	-0.21018852
56	0xbe1c2ccd	-0.15251465
57	0xbdb5a482	-0.08869268
58	0xbe2b63e6	-0.16737327
59	0xbe5d3b0e	-0.21604559
60	0x3dab0004	0.08349612
61	0xbc64dedd	-0.01396915
62	0x3d823edf	0.06359648
63	0xbe061a54	-0.13095981

hidden_layers.1.weight f4 [64, 64]
0	0xbe041e3c	-0.12902158
1	0xbdf66b51	-0.12032188
2	0x3d9b3910	0.07579243
3	0xbeb024a5	-0.34402958
4	0xbdef95d7	-0.116985016
5	0x3c600840	0.013673842
6	0xbe832024	-0.2561046
7	0x3d788ab5	0.060679156
8	0x3d511b5b	0.05105148
9	0x3dbedea0	0.09319806
10	0xbf1bd919	-0.6087814
11	0xbdbc65f4	-0.091991335
12	0xbe5e52f6	-0.21711335
13	0xbe0965a1	-0.13417675
14	0xbbb7c6e0	-0.0056084245
15	0x3e07c27e	0.13257787
16	0xbe72aa9d	-0.23697896
17	0xbe47584c	-0.19467276
18	0xbe857fb3	-0.2607399
19	0x3ce9033d	0.028443927
20	0x3d65d0c7	0.05610731
21	0x3c0df4fe	0.008664368
22	0x3dc2948a	0.09500988
23	0xbd0ba64c	-0.03409414
24	0x3e0d0c5e	0.13774249
25	0xbde85c6e	-0.113457546
26	0x3dc01ab3	0.093800925
27	0xbd8f3eaa	-0.06994374
28	0x3de78ee9	0.11306555
29	0xbe033828	-0.1281439
30	0xbcf75a3f	-0.0301944
31	0x3dfaafa3	0.12240531
32	0x3dbd705e	0.09249948
33	0xbe47f2ea	-0.19526258
34	0xbea9ffdc	-0.33203018
35	0xbd895a38	-0.06706661
36	0xb9ee111a	-0.0004540764
37	0xbe318afd	-0.17338176
38	0xbdd939c8	-0.10606724
39	0x3c3a988b	0.011388908
40	0x3e00b00f	0.12567161
41	0xbe0af830	-0.13571239
42	0xbcb7f525	-0.022455761
43	0x3cd58a3f	0.026066897
44	0x3cc0c006	0.023529064
45	0xbd9d1408	-0.07669836
46	0xbf13f83e	-0.5780066
47	0xbc2dbcb8	-0.010604076
48	0x3d0a0e4d	0.033705045
49	0xbc4689f3	-0.012117851
50	0xbe2ce155	-0.16882832
51	0xbf1c49a4	-0.61049867
52	0xbd274583	-0.040837776
53	0x3ca24365	0.019807527
54	0xbaff6d03	-0.0019487444
55	0x3c6c933a	0.014439398
56	0x3de245cb	0.11048468
57	0x3d4408fe	0.047860138
58	0xbda00210	-0.078128934
59	0xbe8de873	-0.27716407
60	0x3deca4f5	0.115549006
61	0xbd155b39	-0.03646395
62	0x3ce4616f	0.027878491
63	0x3e582c24	0.21110588
64	0xbc0b99f8	-0.008520596
65	0x3dfa1b6c	0.122122616
66	0xbcb799ba	-0.02241217
67	0xbe6f4986	-0.2336789
68	0xbded34e1	-0.115823515
69	0xbdb0cf0e	-0.086332425
70	0xbd128daa	-0.035779633
71	0xba92e2fe	-0.0011206565
72	0x3d104ea3	0.035231244
73	0xbc067721	-0.0082071135
74	0xbe6478c0	-0.22311687
75	0xbe4f3f1f	-0.20238923
76	0x3ea7db0f	0.32784316
77	0xbeb1461a	-0.34623796
78	0xbcc1467b	-0.023593178
79	0xbdd05b04	-0.1017361
80	0x3d89be38	0.067257345
81	0xbb45c5b2	-0.003017765
82	0xbe8ccde0	-0.2750082
83	0x3e038af2	0.12845972
84	0xbde8a93a	-0.113604024
85	0x3ccc1103	0.024910456
86	0x3d851fd1	0.06500209
87	0x3e00174e	0.1250889
88	0x3cd9d09e	0.026588734
89	0xbb62169b	-0.0034498337
90	0x3d48605b	0.048920017
91	0xbc2e12f9	-0.010624641
92	0xbc827af1	-0.015927764
93	0x3e336061	0.17517234
94	0x3e19bd48	0.15013611
95	0xbd88f7af	-0.06687867
96	0xbdb9e438	-0.090767324
97	0xbcc50c9d	-0.024053866
98	0x3ccff6c0	0.025386214
99	0x3c975cdb	0.018476894
100	0xbdc017a7	-0.09379511
101	0xbef3f084	-0.47644436
102	0x3c06c94d	0.008226705
103	0xbe2748ba	-0.16336337
104	0x3e5770eb	0.21039169
105	0xbd930d01	-0.07180215
106	0x3c8b18f9	0.016979681
107	0xbc0d1f0a	-0.008613357
108	0x3d8e932d	0.06961665
109	0x3be39d33	0.00694623
110	0xbddf02a9	-0.10889179
111	0xbd298b5e	-0.041392677
112	0x3de2a545	0.11066679
113	0x3d116554	0.035497025
114	0xbef90c80	-0.4864235
115	0xbdbdf23d	-0.09274719
116	0x38fc1838	0.000120208075
117	0x3e21f1bd	0.15814872
118	0x3d5408a9	0.05176607
119	0xbd9c78e5	-0.07640246
120	0x3d4e5540	0.05037427
121	0xbd96f17f	-0.073702805
122	0x3e2141e8	0.15747797
123	0xbe7196b7	-0.2359265
124	0xbb5bb615	-0.0033525277
125	0x3d84ac70	0.06478202
126	0x3d2b1e6d	0.041777063
127	0xbd7c479f	-0.06159174
128	0xbcb23701	-0.021754744
129	0x3e0de2aa	0.13855997
130	0x3df31b9c	0.118705004
131	0xbd438ea4	-0.047743455
132	0xbdb0c2d1	-0.08630908
133	0xbc81cf33	-0.01584587
134	0xbc61ca08	-0.013781078
135	0x3d819753	0.06327691
136	0x3cb7a17a	0.022415865
137	0x3d682d77	0.056683984
138	0xbdfecfd4	-0.12441984
139	0xbe5c9a4b	-0.21543233
140	0x3e17b509	0.14815153
141	0xbeb43752	-0.35198456
142	0xbbcd9c4d	-0.006274736
143	0xbdcbd2e5	-0.09952334
144	0x3db0f216	0.08639924
145	0xbcb8fbec	-0.022581063
146	0xbd842c1c	-0.06453726
147	0x3dd895cc	0.105754465
148	0xbe1e00ea	-0.15430036
149	0x3e05d328	0.13068831
150	0x3d6eeee5	0.058333296
151	0x3e3d5b56	0.18491873
152	0xbe26242c	-0.16224736
153	0xbcbdd1f4	-0.023171403
154	0x3da02fd5	0.07821623
155	0x3c6cd75d	0.0144556435
156	0xbd928f70	-0.07156265
157	0x3e99b7d7	0.3002307
158	0x3d1ed18f	0.03877407
159	0xbd4a37be	-0.049369566
160	0x3c2f2a90	0.0106913
161	0xbc6fce58	-0.0146365985
162	0xbc060d6c	-0.008181911
163	0x3bb6be6d	0.0055768997
164	0xbb06e014	-0.0020580338
165	0x3e969e08	0.29417443
166	0xbc538249	-0.01290948
167	0xbdb30e5c	-0.08742973
168	0x3b99d99b	0.00469513
169	0xbde01180	-0.10940838
170	0x3c25158e	0.01007594
171	0x3d854f73	0.06509294
172	0x3da25dbd	0.079280354
173	0x3d1c6c23	0.038189065
174	0xbc4c79e6	-0.012480235
175	0xbcb5eb32	-0.022206876
176	0x3d274cc7	0.040844705
177	0x3d3ce6e1	0.04611862
178	0xbe0b59ad	-0.13608427
179	0xbdbf73d5	-0.09348265
180	0x3b06d4d3	0.002057363
181	0x3d58e032	0.052948184
182	0x3d9e185a	0.077194884
183	0xbdadb65a	-0.084820464
184	0x3cb57b52	0.02215353
185	0xbcde082d	-0.027103508
186	0x3e621a16	0.22080263
187	0xbd878038	-0.06616253
188	0xbc3d0208	-0.011536129
189	0x3ddc5a6f	0.10759436
190	0x3e90b45d	0.28262606
191	0x3de84311	0.11340917
192	0x3ca832a9	0.02053197
193	0xbe9f5b8b	-0.3112453
194	0xbe952c71	-0.2913547
195	0xbca47585	-0.020075569
196	0x3e92c6e8	0.28667378
197	0x3cb13eaa	0.021636326
198	0x3bea226d	0.007145217
199	0xbdebfae9	-0.11522467
200	0xbda65a4d	-0.08122692
201	0xbe0b2d17	-0.13591419
202	0x3e0c5936	0.13705906
203	0x3d69a74b	0.05704431
204	0xbe82a326	-0.25515097
205	0x3da8db3b	0.0824494
206	0xbe4c3c8f	-0.19944976
207	0x3e3a79c9	0.1821052
208	0xbe51779f	-0.20455788
209	0x3d0606de	0.032721393
210	0x3e133a01	0.14377595
211	0xbd646588	-0.05576089
212	0x3d8a64cb	0.06757506
213	0x3b8fde43	0.0043905093
214	0xbe004ac1	-0.12528516
215	0x3d78eeca	0.060774602
216	0x3dd6c273	0.10486307
217	0xbbeed4d4	-0.0072885547
218	0xbde24323	-0.110479616
219	0x3b383dba	0.0028112964
220	0xbe6fe6d9	-0.23427905
221	0x3d87d324	0.06632069
222	0xbe76e587	-0.24110995
223	0xbdb5bca9	-0.08873875
224	0x3db68b32	0.08913268
225	0xbcffe156	-0.031235378
226	0x3d374a91	0.044748846
227	0xbe803152	-0.25037628
228	0xbd93a1ff	-0.07208633
229	0xbdf80346	-0.12109999
230	0x3d70d1d9	0.058793876
231	0x3e0ed64a	0.13948932
232	0xbddfaa13	-0.10921111
233	0xbb845ed8	-0.0040396266
234	0xbdf8d523	-0.121500276
235	0xbe27289d	-0.16324086
236	0xbe80b1ad	-0.25135556
237	0xbeaf8029	-0.34277466
238	0x3d032fa3	0.03202785
239	0x3c89d2ab	0.016824087
240	0x3da14638	0.07874721
241	0xbd71ad5c	-0.05900322
242	0x3d6a82d4	0.057253674
243	0xbadbf99f	-0.0016782767
244	0x3cc37d56	0.023863476
245	0x3cf09ef1	0.029372664
246	0xbe82b499	-0.2552841
247	0x3d6c8876	0.057747327
248	0xbe1ded42	-0.15422538
249	0x3e286799	0.1644577
250	0xbeaabd59	-0.33347586
251	0x3dc835ef	0.09775912
252	0x3db3dab4	0.08781949
253	0xbed43d1c	-0.41452873
254	0xbe8e96ae	-0.27849334
255	0x3e38bfb3	0.18041877

hidden_layers.1.bias f4 [64]
0	0x3e397536	0.18111119
1	0x3e4438b0	0.1916225
2	0x3deb949a	0.11502953
3	0x3da58bf7	0.08083337
4	0x3d5ca5b8	0.05386898
5	0x3dfb1522	0.1225989
6	0x3e33a8b8	0.1754483
7	0x3e6664e8	0.2249943
8	0x3e6ee5d0	0.23329854
9	0x3e54037c	0.20704454
10	0x3e25fde9	0.1621014
11	0x3e288174	0.16455632
12	0xbe18518f	-0.14874862
13	0x3e02ee8b	0.1278631
14	0x3e806afe	0.2508163
15	0x3e1354b9	0.14387788
16	0xbe031bf5	-0.12803634
17	0x3e8d52a6	0.27602118
18	0x3e4b9df9	0.1988448
19	0x3e7b33d6	0.24531493
20	0x3da6635a	0.081244186
21	0x3dcb803d	0.09936569
22	0x3e0477ea	0.12936369
23	0x3de38abe	0.11110447
24	0x3e0a6d52	0.13518265
25	0x3e270495	0.16310342
26	0x3de8ce93	0.11367526
27	0x3e1076af	0.14107774
28	0x3db7188e	0.0894023
29	0x3dc5272b	0.09626611
30	0x3dc0d403	0.09415438
31	0x3e2eb0c9	0.17059626
32	0x3e8c2ff5	0.27380338
33	0x3dba9be3	0.09111764
34	0xbe34d812	-0.1766055
35	0x3dd7ab62	0.105307356
36	0x3dd5b66e	0.10435186
37	0x3df1720f	0.11789333
38	0x3e67ed3e	0.22649094
39	0x3de7da09	0.11320884
40	0x3d908573	0.070567034
41	0x3df2e34c	0.1185976
42	0xbdc5efab	-0.09664854
43	0x3e212fa1	0.15740825
44	0xbaad4f94	-0.0013222569
45	0xbe5231ec	-0.20526856
46	0x3e743e93	0.23851995
47	0x3e08f5eb	0.1337506
48	0x3e04f141	0.12982656
49	0x3dd7d715	0.105390705
50	0x3dbf6660	0.09345698
51	0xbd82a851	-0.0637976
52	0x3dbc7d35	0.09203569
53	0xbda56183	-0.080752395
54	0x3e3b4e0e	0.18291494
55	0x3e5c94ee	0.21541187
56	0x3e34c6bd	0.17653938
57	0x3e801c4a	0.25021583
58	0x3e7fd6b4	0.24984246
59	0x3cb3921c	0.021920256
60	0x3e63bded	0.2224042
61	0x3e7ff221	0.24994709
62	0x3ce26ca0	0.027639687
63	0x3db44f68	0.08804208

output.weight f4 [4, 64]
0	0x3da0c368	0.07849771
1	0x3d67bb96	0.05657538
2	0x3d54a40f	0.05191427
3	0xbd9e156c	-0.0771893
4	0x3dd5e014	0.1044313
5	0xbd87bde9	-0.06628019
6	0x3d72402f	0.05914324
7	0x3daae513	0.08344474
8	0x3dfbe8e1	0.123002775
9	0x3d878276	0.0661668
10	0xbdab220d	-0.08356104
11	0xbdbc807f	-0.09204196
12	0xbc4d5c9e	-0.012534289
13	0x3d17580f	0.036949214
14	0x3da5cb38	0.080954015
15	0xbd09cd3f	-0.033643004
16	0x3d29fe48	0.041502267
17	0x3db23adf	0.08702635
18	0x3da25d5d	0.07927964
19	0x3da4d832	0.080490485
20	0xbe3651bf	-0.17804621
21	0x3d81f988	0.063464224
22	0x3d61a278	0.055086583
23	0x3d5c7e7a	0.053831555
24	0xbd1a5742	-0.03768087
25	0x3d8d46e7	0.06898289
26	0xbd2def53	-0.042464565
27	0x3d50b8f4	0.050957635
28	0xbe5a53b3	-0.21320991
29	0xbe2fb6f5	-0.17159636
30	0xbe3c8f0d	-0.18413945
31	0xbe820999	-0.25397947
32	0x3e24803b	0.16064541
33	0x3d67ece8	0.056622416
34	0x3d4337f3	0.04766078
35	0x3d500263	0.050783526
36	0xbe53b323	-0.20673804
37	0x3d246f1a	0.040145017
38	0x3dc6c8e1	0.09706283
39	0x3d508fa3	0.050918233
40	0x3d7ed262	0.062212355
41	0xbe16e5fe	-0.14736173
42	0xbdcbf737	-0.09959262
43	0xbd9519d9	-0.07280321
44	0xbd715f66	-0.05892887
45	0xbcba33cf	-0.022729782
46	0x3e097118	0.13422048
47	0xbdc7cad8	-0.09755486
48	0x3d666522	0.05624879
49	0x3d7c3c5f	0.06158101
50	0x3d2484a1	0.040165547
51	0xbb9cbd49	-0.0047833067
52	0x3d537583	0.05162574
53	0xbdcb08ac	-0.099137634
54	0xbd99921b	-0.074985705
55	0x3ddaa04f	0.10675108
56	0xbeb7b64a	-0.35881263
57	0x3dabde9d	0.083920695
58	0x3dbb8b78	0.09157461
59	0xbe02b9ad	-0.12766142
60	0x3da96e89	0.08273036
61	0x3df402ed	0.119146205
62	0x3de6e438	0.11273998
63	0x3dbfeddb	0.09371539
64	0x3daef033	0.08541908
65	0x3d8365f1	0.06415928
66	0x3d96b393	0.0735847
67	0x3cbb97f3	0.022899603
68	0x3d140c2f	0.03614443
69	0xbc07d88e	-0.008291377
70	0x3ce5770e	0.028010871
71	0x3dcd4dc8	0.10024601
72	0x3dfe8503	0.12427714
73	0x3cf0bf85	0.029388199
74	0x3bac88db	0.005265338
75	0x3db086ae	0.08619438
76	0x3d82144e	0.06351529
77	0x3daa8686	0.083264396
78	0x3d7b3d24	0.061337605
79	0x3d0d004d	0.034424115
80	0x3dd17cfe	0.102289185
81	0x3ddc4ffc	0.10757443
82	0x3cdc6358	0.02690284
83	0x3d8bf264	0.06833342
84	0x3a763d4b	0.00093932886
85	0x3dc3b2fb	0.09555622
86	0x3d7e0b38	0.062022418
87	0x3d786b59	0.06064925
88	0x3d237991	0.039910857
89	0x3dbc1de7	0.09185391
90	0x3d8544f6	0.06507294
91	0x3d539585	0.051656265
92	0xbbb397b8	-0.005480733
93	0xbd93fd50	-0.0722605
94	0xbd74bef4	-0.05975242
95	0xbdc06178	-0.09393591
96	0x3e4a76aa	0.19771829
97	0x3d442298	0.047884554
98	0x3d9acf9c	0.075591296
99	0x3da2db2e	0.079519615
100	0xbdb42ec4	-0.08797982
101	0x3da1814c	0.078859895
102	0x3dfdb21c	0.12387487
103	0x3d3b77b0	0.04576844
104	0x3dc6c1fa	0.09704967
105	0xbd8da8d5	-0.06916968
106	0x3e078060	0.13232565
107	0x3d3a1088	0.04542592
108	0xbb8f36dd	-0.004370554
109	0xbb85556b	-0.0040690205
110	0x3e2ed131	0.17071988
111	0xbd548d94	-0.051892832
112	0x3dbf9b1c	0.09355757
113	0x3d421a2c	0.04738824
114	0x3d5741f3	0.05255313
115	0xbdb0da11	-0.08635343
116	0x3d92b22b	0.07162889
117	0x3c010515	0.007874747
118	0x3c39b1cc	0.011333894
119	0x3e0faf14	0.14031631
120	0xbcb367e4	-0.021900125
121	0x3decc50d	0.11561022
122	0x3da5476d	0.08070264
123	0x3cc304ce	0.023806002
124	0x3df01232	0.117222205
125	0x3e0212f4	0.12702543
126	0x3de92ae2	0.11385132
127	0x3d89c8da	0.067277625
128	0x3ce3c0db	0.027801922
129	0x3dba582c	0.09098849
130	0x3dad170f	0.08451664
131	0xbccea44e	-0.025224831
132	0xbd663eea	-0.056212343
133	0x3d05f7a4	0.03270687
134	0x3d6f4965	0.058419604
135	0x3d8643d0	0.06555903
136	0x3d6c33c9	0.057666574
137	0x3d9a98eb	0.07548698
138	0xbdd8111e	-0.1055014
139	0x3da0fb63	0.07860448
140	0x3db1c99d	0.08681033
141	0x3ddde7d7	0.108352356
142	0x3d557ebf	0.052122828
143	0x3daac350	0.08338034
144	0xbd759035	-0.05995198
145	0x3d4d5f38	0.050139636
146	0x3dedcbb8	0.11611122
147	0x3cd81ad0	0.026379973
148	0x3df18791	0.11793435
149	0x3dac596f	0.084154956
150	0x3d849bcb	0.06475028
151	0x3df2783b	0.118393384
152	0xbee53886	-0.44769686
153	0x3d9b5dd3	0.07586255
154	0x3db3f070	0.08786094
155	0x3dbb38a5	0.091416635
156	0xbdc69e84	-0.09698203
157	0xbd78adc0	-0.060712576
158	0xbd9764ba	-0.07392259
159	0xbe2de698	-0.16982496
160	0x3e976e2b	0.2957624
161	0x3da40c42	0.080101505
162	0xbbc39512	-0.0059686983
163	0x3d10221d	0.035188783
164	0xbdda95f1	-0.1067313
165	0x3d87768b	0.06614407
166	0x3d059e52	0.03262169
167	0x3dc16f86	0.094450995
168	0x3dcd6b1c	0.10030195
169	0xbd890774	-0.06690875
170	0xbe5162c0	-0.20447826
171	0xbdab7255	-0.083714165
172	0xbe9edbb1	-0.31026986
173	0xbc6489e6	-0.013948893
174	0x3dea22aa	0.11432393
175	0xbdeef705	-0.11668209
176	0x3d82d475	0.06388179
177	0xbd3c2121	-0.04593003
178	0x3dc74ad6	0.09731071
179	0xbc3bb82f	-0.011457487
180	0x3d99d053	0.07510438
181	0xbeafc825	-0.34332386
182	0x3c969cdd	0.018385345
183	0x3ccaeea6	0.024772
184	0xbde17e99	-0.11010475
185	0x3d3bc49c	0.0458418
186	0x3d704598	0.05866012
187	0xbe4d6629	-0.20058502
188	0x3d0928d3	0.0334862
189	0x3d311805	0.043235797
190	0x3e5554c0	0.20833111
191	0x3e0f8230	0.14014506
192	0x3da1804f	0.07885801
193	0x3d96b1ce	0.07358132
194	0x3dacc06a	0.084351376
195	0x3cf10ddc	0.029425554
196	0x397ebc99	0.00024293586
197	0x3d16942f	0.036762413
198	0x3db5a73b	0.08869787
199	0x3dd9f468	0.1064232
200	0x3d5ab279	0.05339286
201	0x3d890a31	0.06691397
202	0x3db86d18	0.09005183
203	0xbdd51a8e	-0.104054555
204	0x3d2317a2	0.03981746
205	0x3d8cdd54	0.068781525
206	0x3dd5f014	0.10446182
207	0x3e002995	0.12515862
208	0xbc666cfa	-0.014064068
209	0x3d9a1600	0.075237274
210	0x3d957f59	0.0729968
211	0x3d4b8690	0.049688876
212	0xbdf684c7	-0.12037044
213	0x3db001a7	0.08594065
214	0x3dabad47	0.083826594
215	0xbd12ed40	-0.03587079
216	0xbed5e782	-0.4177819
217	0x3de56cfb	0.11202427
218	0x3de22c9a	0.11043663
219	0x3d8691a4	0.065707475
220	0xbd9a7f38	-0.07543796
221	0xbd8abf48	-0.06774765
222	0xbd920fc1	-0.07131911
223	0xbe25e2b8	-0.16199768
224	0x3ec0c117	0.37647316
225	0x3d92f75e	0.07176088
226	0xbd418976	-0.047250234
227	0x3df1914d	0.11795292
228	0xbddf52c2	-0.10904457
229	0x3d938b8d	0.072043516
230	0x3daca099	0.08429069
231	0x3d89b122	0.067232385
232	0x3dd4422b	0.10364183
233	0xbda5ed4c	-0.081019014
234	0xbe5f3755	-0.21798451
235	0x3d999416	0.07498948
236	0xbd0b7010	-0.034042418
237	0xbe35ad98	-0.17742002
238	0x3e325f94	0.17419273
239	0x3dbfafaa	0.09359677
240	0x3da25ac3	0.07927468
241	0x3dbc3cd5	0.0919129
242	0x3da5c928	0.08095008
243	0xbc76c763	-0.015062186
244	0x3db5caa7	0.088765435
245	0xbd97a047	-0.07403617
246	0x3d33e7cb	0.043922227
247	0x3d5c3c6a	0.053768553
248	0xbeb148db	-0.34625897
249	0x3d314f35	0.04328843
250	0x3d9069d3	0.07051434
251	0xbe5de192	-0.2166808
252	0x3cfa1685	0.030528316
253	0x3da653d3	0.08121457
254	0x3e212bc7	0.15739356
255	0x3e50ffc8	0.20410073

output.bias f4 [4]
0	0x4005a947	2.0884569
1	0x3fe682c8	1.8008661
2	0x3ff12be2	1.8841517
3	0x3febe92f	1.8430537
