checkpoints/state_size_37__action_size_4__hidden_layers_[128-128]__drop_p_0.5__seed_0__GAMMA_0.99__LR_0.0005__UPDATE_EVERY_100__BUFFER_SIZE_100000__BATCH_SIZE_64__TAU_0.001.pth (torch, 89687 bytes, 6 tensors)

hidden_layers.0.weight f4 [128, 37]
000000 72 44 02 bb 8b 4e 1c 3d 4e e7 1b 3e 4b f4 33 3d
       -0.0019877222 0.038160842 0.15224954 0.043934148
000010 fe 45 f7 bc 83 79 27 be d0 a5 2f bd fd 35 35 3e
       -0.030184742 -0.16354947 -0.04288274 0.17696376
000020 41 eb 02 3e 7e 07 88 bd 7a 50 f4 bc 6e 27 53 bc
       0.12785055 -0.06642054 -0.02982353 -0.012887819
000030 1f 1b 70 3c fa 91 8a 3d a9 72 26 bd 40 bb 3b 3d
       0.014654904 0.06766124 -0.040636692 0.045832872
000040 0b 82 f7 bc 3a ce b2 3c ff bd 4c bc 07 b2 0c 3e
       -0.030213377 0.021826852 -0.0124964705 0.13739787
000050 b3 69 0d be 1c ca 4e 3d 7c 38 a2 bc 94 8b 16 3d
       -0.13809852 0.050485715 -0.019802324 0.036754206
000060 c4 82 29 3d 13 7b 2a be 18 d8 ce 3d b7 bc 41 bb
       0.041384473 -0.16648512 0.1009981 -0.0029561946
000070 d8 44 a9 3d 01 fe 29 bc a8 39 7a bd 18 b1 e7 3c
       0.08265084 -0.010375501 -0.06109014 0.028282687
000080 bb d4 38 3e fb 45 11 be 6b 5c 07 3e 0e 75 9c 3d
       0.180499 -0.14186852 0.13218848 0.07639514
000090 eb 06 4b 3d 21 8b c7 3c 19 52 14 3a 5b 1f 38 bd
       0.049567144 0.024358334 0.00056579855 -0.044951778
0000a0 2c 8d b1 bd 21 98 78 3d 15 07 ab 3c 81 f3 e4 3d
       -0.086695045 0.060691956 0.0208774 0.11179257
0000b0 be 56 de 3d 83 2a c9 bd 63 f3 9b bd d2 c5 0e 3d
       0.108563885 -0.098225616 -0.07614782 0.034856625
0000c0 00 a7 99 3d 1a ee 8e 3d 22 0c ae bc 85 0e 06 bd
       0.07502556 0.06979008 -0.02124602 -0.03272869
0000d0 0c a3 58 3d 0d 10 89 3d 61 13 3f 3e ca 20 50 3d
       0.05288987 0.066925146 0.18659736 0.05081252
0000e0 f0 5f 0f be 8f 48 1d be 96 18 f2 bd 1c cd 74 bb
       -0.14001441 -0.1535971 -0.11821096 -0.00373537
0000f0 54 f9 f0 3d 4f e9 72 bc b1 e6 58 be 60 b4 89 3d
       0.117663056 -0.014826133 -0.21181752 0.06723857
000100 e3 ac 55 3e e5 cc d2 bb 66 ad 29 be 6c c7 26 be
       0.20866732 -0.0064331167 -0.16570053 -0.16287011
000110 8b 39 36 3d 29 64 e8 3c 0a 00 f1 3d 31 e0 cc bd
       0.04448847 0.028368073 0.117675856 -0.100036986
000120 fa a5 be 3d 07 53 47 3c f3 d5 83 3d 5a 5a 09 3d
       0.09309001 0.012165791 0.06437292 0.03353343
000130 5c 18 10 3d bf 70 1b 3e 87 7d ed 3c 23 81 f2 bb
       0.03517948 0.15179728 0.02899052 -0.007400648
000140 f4 ed 9a 3d 01 c9 84 bd 5f 72 43 3e ae 89 7b 3b
       0.07564917 -0.06483651 0.19086598 0.0038381624
000150 0a 3e f4 bc 11 47 19 bd 61 0e 38 3c 42 8b 04 be
       -0.029814739 -0.03742129 0.011233897 -0.12943748
000160 d7 97 18 3d 17 eb 05 3e d3 bb 96 ba 26 74 6d bd
       0.03725418 0.13077961 -0.0011500068 -0.057972096
000170 22 f5 8e 3c 4a 61 0c be 6e 09 ab 3d 9d 00 19 bd
       0.017450873 -0.13708988 0.08351408 -0.0373541
000180 c3 f7 99 bb d6 b7 ee 3b bb 1a a7 bd 40 be 0d bd
       -0.004698725 0.0072850985 -0.08159395 -0.034605265
000190 a4 de a4 3d 22 91 07 3e ae 74 da bd 33 50 20 bd
       0.08050278 0.13238958 -0.10666786 -0.039138984
0001a0 22 8c 00 3e 0b 90 27 3e c9 b9 26 3d 84 12 f1 3d
       0.12553456 0.16363542 0.040704522 0.1177111
0001b0 75 be 7b 3d 53 43 8d bd 63 41 84 bd 8e 41 80 3d
       0.06146093 -0.06897607 -0.06457784 0.062625036
0001c0 52 b1 6e bd 65 a9 54 3d 7f bf 05 3e fe 76 0f 3e
       -0.058274575 0.05191936 0.13061331 0.14010236
0001d0 d5 77 17 3d 96 9c 1f bd 73 e7 c3 bd 17 86 1f 3e
       0.036979515 -0.03896769 -0.0956563 0.15578495
0001e0 db 03 d3 3c d7 50 69 3d 7f 54 e1 bd 01 ae 21 3c
       0.025758674 0.05696186 -0.110024445 0.009868146
0001f0 52 b0 2a 3e 0b a0 17 3e 38 ee 2a 3d ad c3 e9 3d
       0.16668823 0.14807145 0.04173109 0.11414275
000200 8a 78 43 bd 61 d3 a3 bd bb b7 99 bd 04 92 5f 3d
       -0.047722377 -0.07999302 -0.07505747 0.05458261
000210 e0 b0 47 bd 7c aa 6e 3d 7f 78 ea bd 93 22 c2 3d
       -0.048752666 0.058268055 -0.11448764 0.09479251
000220 15 e9 1d be 16 39 05 3e c4 04 e4 bd 35 e8 9a bb
       -0.15420945 0.13010058 -0.111337215 -0.0047273883
000230 7c 2c 11 bd d5 42 7c bd f6 38 47 bd b4 e7 d2 bd
       -0.035442814 -0.061587173 -0.048638307 -0.102981
000240 38 4a f3 bd b0 dc a0 bd 5f c0 67 3d 6b 8b 0c bd
       -0.118793905 -0.07854593 0.056579944 -0.034312647
000250 37 d2 e7 3d 1e c7 14 3e f5 55 18 3e 15 6f 14 3e
       0.11319392 0.14529082 0.1487654 0.144955
000260 f7 07 b0 bc 64 c1 1c 3e 74 64 f3 bd 32 79 10 3e
       -0.021488173 0.15308148 -0.11884394 0.14108732
000270 ff a8 f4 3b 44 fc ce bb bd 5b 36 3e b3 53 71 3d
       0.007466435 -0.0063166935 0.17808433 0.058917712
000280 9f 56 35 3d 98 68 68 bd 47 5c 94 3d a9 62 ab bd
       0.04427206 -0.056740373 0.07244163 -0.08368427
000290 28 2b 8e bd 21 4f 67 bd 05 3f c2 3d f1 31 d4 3c
       -0.06941825 -0.056471948 0.09484676 0.02590272
0002a0 f3 c9 13 bc 4e d6 22 3e a5 96 83 3d a3 b8 f4 bc
       -0.009020316 0.15902063 0.064252175 -0.029873198
0002b0 8e 9a 2a 3e 20 7e 6c bd b3 9d d3 bc 33 10 36 bd
       0.1666052 -0.05773747 -0.025832033 -0.044449043
0002c0 52 45 38 3e 9a cd 20 3e 25 49 3c 3e 8e 21 a0 bd
       0.17995194 0.15703431 0.18387277 -0.078189
0002d0 3b 6b 05 3e f7 5a af bd e4 21 3b 3d 17 86 e4 3c
       0.13029186 -0.08562272 0.045686617 0.02789597
0002e0 50 d4 ab bb 3f 2e 19 be 1c 3c 87 3d ed 34 36 3c
       -0.0052438155 -0.14959048 0.06603262 0.011121017
0002f0 93 65 58 3d a6 11 93 bc 55 8e 1a be b9 d2 80 3e
       0.052831244 -0.017952751 -0.15093358 0.2516077
000300 30 ee cf bd b6 bb 99 3c 0b a8 c4 3e b4 e2 14 bd
       -0.101528525 0.018766265 0.38409457 -0.036349013
000310 b5 19 41 bc eb 1d 31 3d a5 06 a3 3d 92 bb ad bd
       -0.011785914 0.043241423 0.07960252 -0.08483042
000320 f3 4b fe bd 6b 65 0f be 1e 35 61 bd 39 88 0f 3d
       -0.1241683 -0.14003532 -0.054982297 0.03504202
000330 b9 29 9c bc a8 33 18 be 5d 67 26 3d b3 ed 68 3d
       -0.019062864 -0.14863455 0.04062592 0.056867313
000340 e2 43 f1 bd 5d 8d fd 3d 07 18 d1 bb 67 84 75 3d
       -0.11780526 0.123804785 -0.006381038 0.05994072
000350 79 c6 aa 3d 1b bc 26 3e fd 41 89 3d 22 48 fd bd
       0.08338637 0.16282694 0.067020394 -0.12367274
000360 37 92 f8 bd 9b 9b 84 3d 7f 92 30 3e 3f 0b df 3d
       -0.12137263 0.06474992 0.17243384 0.10890817
000370 33 ed 0b 3b 5d 2c 50 3d 82 35 09 3e 05 7e 98 bd
       0.0021351099 0.050823558 0.13399318 -0.07445911
000380 a0 5f e5 3d 9a 82 13 3e 6a 3f 05 be 85 6d 82 3d
       0.1119988 0.1440529 -0.13012472 0.063685454
000390 4e 1a c2 bd 34 a2 37 be 5b 12 26 be 18 a2 e2 be
       -0.094776735 -0.1793297 -0.1621794 -0.44264293
0003a0 d6 7c ea 3d aa cb 8a bd f1 6a a7 bd c1 26 2a 3e
       0.11449592 -0.06777127 -0.08174694 0.16616346
0003b0 0b ef 68 3d 4b 27 02 3e 54 ca 95 3d da b8 19 be
       0.056868594 0.12710302 0.07313982 -0.15011922
0003c0 dd 7a ea bd 83 aa 00 3c d6 3b 3c 3c af 35 f3 bd
       -0.114492156 0.007853153 0.011488875 -0.11875474
0003d0 34 8c e8 3d 64 c9 cf bd 36 b5 9a b9 35 0a 63 bd
       0.113548666 -0.10145834 -0.00029508182 -0.055429656
0003e0 c5 62 0c 3d 9a f3 ee bd fc b0 12 be 0c 17 9b be
       0.03427388 -0.11667557 -0.14325327 -0.3029102
0003f0 2c 2e 36 3d e5 46 cf bc 66 06 99 3c 4f cd 14 be
       0.044477627 -0.02530236 0.018679809 -0.14531444

hidden_layers.0.bias f4 [128]
000000 75 60 8c 3b 64 29 ad bd a0 1e 8e bd 5e 9c 7a bc
       0.0042839595 -0.0845516 -0.06939435 -0.01529607
000010 a2 2e d3 bd aa 86 72 bd 76 43 c7 bd d8 ca e7 bc
       -0.10311629 -0.059210457 -0.09729664 -0.028294966
000020 ec b7 7b 3b f9 a1 11 be dc bb b9 bc 31 fe b9 3a
       0.0038409187 -0.14221944 -0.022672586 0.0014190135
000030 dd 48 35 bd db 9a 46 3d 13 14 29 bd d6 78 3d 3c
       -0.04425894 0.048487525 -0.04127891 0.011564454
000040 a7 b5 39 be 81 a1 33 be a5 34 74 3d 63 c0 f7 3c
       -0.18135701 -0.17542078 0.05962052 0.030243104
000050 05 c9 71 3c 8b e4 0e bd a4 7e da bd b1 93 dd bd
       0.014757399 -0.034885924 -0.10668686 -0.108191855
000060 35 6d b1 3d 5b a7 d8 bd 61 da 45 be b3 df d5 bc
       0.08663408 -0.105787955 -0.19321586 -0.026107645
000070 84 ff 76 bd c9 1d 29 be d3 20 2f 3e c2 ea 3a 3d
       -0.060302272 -0.16515268 0.17102365 0.04563404
000080 94 f1 f1 bd 46 4c c0 3d 82 5a 2a 3d 58 a8 f4 3d
       -0.118136555 0.09389548 0.04159022 0.119461715
000090 9c ab 08 be cd 19 7a 3d 06 5e 93 3d 46 e3 45 be
       -0.13346714 0.06105976 0.07195668 -0.19324979
0000a0 2a 5b a2 bd 96 61 c6 3d 4b c7 e7 bd a6 da b0 3d
       -0.079275444 0.09686582 -0.11317309 0.08635454
0000b0 b0 55 b0 bd f8 ba db bd fa 87 00 be dd 30 b5 3a
       -0.086100936 -0.10729021 -0.12551871 0.0013823766
0000c0 40 24 87 3c c8 ac 96 3d 0b c5 e7 bd f6 cf dd 3d
       0.016496778 0.07357174 -0.1131688 0.10830681
0000d0 63 30 88 bd a6 41 8d bd dd ce f6 bb 85 6f 3a bd
       -0.06649854 -0.06897287 -0.0075319842 -0.04551651
0000e0 60 c1 a0 3c 37 11 ab 3d 7e 01 b0 bc ba ed 89 3d
       0.019623458 0.08352893 -0.021485087 0.06734796
0000f0 83 b1 d6 3c 17 f9 e9 3d ac 14 ed 3b ab 6a 18 3d
       0.026207691 0.11424463 0.0072351303 0.0372111
000100 a5 b4 a2 3d 50 fd f6 bd 40 96 98 bd f2 e2 29 bc
       0.079446115 -0.12060034 -0.07450533 -0.010369049
000110 39 0b c6 bd d9 87 4d be 78 98 87 bd ad 04 da bd
       -0.09670109 -0.20071353 -0.06620878 -0.10645423
000120 63 5a 16 be c3 40 8f 3d d7 59 c5 3b 93 11 11 3d
       -0.14682917 0.06994774 0.0060226726 0.03541715
000130 9d 18 33 be f3 ac 78 bb a5 94 e1 bd a8 82 63 bd
       -0.17489858 -0.0037944883 -0.1101468 -0.055544525
000140 3b 27 16 3e af 45 d6 bd 4c 1e 32 3d 51 3c 1b 3d
       0.14663403 -0.1046251 0.043485925 0.03789932
000150 f6 25 43 3d ed 07 fa 3d 54 2c 50 bd 1f 5f b6 bd
       0.047643624 0.12208543 -0.050823525 -0.08904862
000160 40 0d 3b 3d 1a 9e 6f 3b ca a2 bd bc 7d 61 fe bc
       0.045666933 0.0036562742 -0.023148913 -0.031052345
000170 45 c9 cb 3d 4c 64 c1 bc c5 ce 54 bd 53 d4 19 3d
       0.099504985 -0.023607396 -0.051955003 0.037556004
000180 fa e0 fc bd 7e 4a 6d 3b 31 f9 03 be f4 51 be bd
       -0.123475984 0.003620773 -0.12888028 -0.09292975
000190 aa 5c 4d 3c ee 71 81 3d ca 94 15 be 50 46 4e 3d
       0.0125343 0.063205585 -0.1460754 0.050360024
0001a0 c9 35 85 3d c6 c3 59 3d 1d cd 70 bd 2f 12 7a bb
       0.06504399 0.05316522 -0.05878936 -0.003815781
0001b0 4d 17 a4 3d cc ae 1c be 73 c2 14 be db 4e bf bd
       0.08012257 -0.15301055 -0.14527301 -0.09341212
0001c0 6f 24 e6 3c 8e 69 76 bb 52 10 62 bd 3c c4 0c 3c
       0.028093545 -0.0037599537 -0.055191346 0.008591708
0001d0 90 50 09 be 73 48 d4 3d 72 28 f0 bd c4 6e 45 bd
       -0.13409638 0.10365381 -0.11726464 -0.048201337
0001e0 39 7a 9e bd 0f dd d1 bd ee e9 84 3d a1 2d dd 3c
       -0.07738156 -0.10247242 0.06489931 0.026999297
0001f0 3f ed 9b 3d 70 fb 25 3d 39 f7 d9 bc ee 51 15 bd
       0.076136105 0.040522993 -0.026607143 -0.036455087

hidden_layers.1.weight f4 [128, 128]
000000 57 01 1c 3c bb b9 83 bc 62 76 92 bd 1a a8 84 3d
       0.009521804 -0.016079774 -0.07151486 0.06477375
000010 27 e6 86 3c a8 69 0a bd d0 bc 20 bd 62 90 17 bb
       0.016467167 -0.033792168 -0.039242566 -0.002312683
000020 7c 23 6d bd 26 08 0c bc 4b 53 61 3d 29 c2 3a 3d
       -0.05789517 -0.008546865 0.055011075 0.04559532
000030 20 c1 83 3d af 43 bb bc 8b c8 5c 3d 27 94 7e 3d
       0.0643332 -0.022859422 0.05390219 0.062153008
000040 3b 3e c8 bc a6 60 9f bc 85 ff 28 bd e2 0c 44 3d
       -0.024443736 -0.019455265 -0.041259307 0.04786385
000050 03 3a af 3c 2d 43 b4 bd ab 90 9e bd b6 fc b8 bd
       0.021389967 -0.08801875 -0.07742437 -0.09032576
000060 de f8 2d 3d d8 35 b7 bd e3 4e df bd 13 c1 a4 bd
       0.042473666 -0.08945817 -0.10903718 -0.080446385
000070 c3 76 49 bd 6e 5e 46 bc 17 be cb bc 03 d9 88 3d
       -0.049185526 -0.012107475 -0.024870915 0.06682017
000080 74 9e a9 3c 66 6c 2e bd a8 c2 61 3d 9f 2f 93 bd
       0.02070544 -0.042583846 0.05511728 -0.071868174
000090 39 b8 57 3d 5c 2f d9 bd 6d 25 83 bd 23 1a 4a bd
       0.052665923 -0.10604736 -0.06403623 -0.049341332
0000a0 bd 38 99 3c 0e d2 29 3d ca 42 db bc 9a 6e 17 bd
       0.018703813 0.04146009 -0.026765246 -0.036970712
0000b0 2f 48 23 bd 18 77 44 3c 9b 21 ec bd 51 8a 9c bd
       -0.03986376 0.011991285 -0.11529847 -0.07643569
0000c0 95 62 c5 bd 91 ab 9d bc 3b a5 a3 bc cd 8d 6d bd
       -0.09637944 -0.019246848 -0.019976249 -0.05799656
0000d0 d5 87 20 3d d5 41 38 bd 81 2c bd 3c 0f c6 92 3c
       0.03919204 -0.044984657 0.02309251 0.017916707
0000e0 05 a7 50 bd 59 8a a4 bd c5 58 17 3c 95 ab 28 3c
       -0.050940532 -0.080342 0.009237473 0.010294815
0000f0 cc 25 53 bd 3d 94 d8 bd 2f ed 9e bd 91 ef 96 bc
       -0.051549718 -0.10575149 -0.07760083 -0.018424781
000100 b6 ba 85 bd e1 21 3c bd ce 35 15 bd 55 ef cd bd
       -0.06529753 -0.045930747 -0.036428265 -0.100554146
000110 f6 28 94 bd 89 1d f4 bb 1b 7a 4a bd fa dc d3 3c
       -0.07234375 -0.00744981 -0.049432855 0.025862206
000120 1e db 3d 3c 99 39 60 3d cc 11 2d 3c ed cb 72 bd
       0.011587886 0.05474243 0.010563325 -0.05927651
000130 e3 9f a9 bc e1 f5 ab bc 25 0d a6 3d 3c 8c 51 3d
       -0.020706123 -0.020991268 0.08107976 0.05115913
000140 66 d5 5c bd 40 ee 98 bd 85 c5 26 bd fa 9b 21 3d
       -0.05391445 -0.074673176 -0.040715713 0.03945539
000150 47 07 0f 3d 02 70 4c 3d 0a 23 4e bd 32 f6 95 bd
       0.03491905 0.049911506 -0.050326385 -0.07322349
000160 18 3a 37 3d bf 97 aa bd b6 fc c8 bd 32 48 82 3d
       0.044733137 -0.083297245 -0.09813826 0.063614264
000170 13 c3 31 3c d9 74 e9 3c bd 8e 8e bc fe a0 ce 3c
       0.010849732 0.0284981 -0.017402047 0.025223251
000180 50 81 ad 3c f6 24 b3 3b 68 da 72 3d ea 6e 29 bc
       0.021179825 0.0054670526 0.05929032 -0.010341385
000190 a0 91 1b bd 6e a0 64 bd 68 4a 0f bc fe 95 ca bb
       -0.037980676 -0.05581706 -0.008745767 -0.0061824312
0001a0 a8 7f b4 3d 4f 3a 0f 3d 71 09 f4 3b 9f 50 7b ba
       0.08813411 0.034967717 0.0074474146 -0.00095869036
0001b0 94 28 9a bd 1d 00 5b bd 5b 98 3a 3d 77 ca 1f 3d
       -0.07527271 -0.053466905 0.045555454 0.039011445
0001c0 c5 ae 5e bd f8 dd 7d 3d 27 22 7d bd 37 5f 1e bc
       -0.054365892 0.061979264 -0.06180015 -0.009666256
0001d0 b9 5e 1c bd 8c 43 96 bd 31 42 24 3d ba 12 2a 3d
       -0.038176272 -0.07337102 0.040102188 0.041521765
0001e0 20 e9 71 bd e0 a3 f6 bc 3b 32 c3 bd ae d9 1d 3d
       -0.059060216 -0.030107439 -0.09531065 0.038537674
0001f0 0e cf 94 3c dd 71 c9 3c 4a 50 b6 bd 14 18 00 bd
       0.018165138 0.024590427 -0.08902033 -0.031272963
000200 3e 1b d3 3c d9 f4 b7 bd 29 22 62 bd 05 2f 8f bd
       0.025769826 -0.08982248 -0.05520836 -0.0699139
000210 05 5f 2a 3d 41 80 24 bc 86 b1 91 bd d1 c9 f2 ba
       0.041594524 -0.010040344 -0.07113938 -0.0018523281
000220 46 7a 88 bd bb 3c ce bc 89 d9 8a bd c7 d1 05 bd
       -0.06663947 -0.025175443 -0.06779773 -0.032670762
000230 b3 59 0a bd 0d 9b 8b bb 29 d5 21 bd 1f 90 98 3b
       -0.03377695 -0.004260427 -0.039509926 0.0046558524
000240 e1 f6 01 3d c0 03 13 bd 56 fd b3 bd 65 5b 88 bd
       0.031729583 -0.03589225 -0.08788554 -0.06658057
000250 d9 50 80 3d 8c 31 80 3d a8 5c 1c 3d e2 ad 0d bd
       0.062654205 0.0625945 0.0381743 -0.034589656
000260 e2 35 54 bd 0d e6 ca bd d2 e0 c8 3a e7 62 99 bd
       -0.0518092 -0.0990716 0.0015325791 -0.07489567
000270 1b ef 96 bc 1e 37 0e bd 97 a6 86 bd 83 da 9e bd
       -0.018424561 -0.034720533 -0.06574743 -0.077565216
000280 ef c8 c6 bb f4 b2 d4 bd dd 5b ae bc fb 7c ec 3c
       -0.0060664336 -0.10385695 -0.021284038 0.02886819
000290 9b 6e b8 bd 93 16 87 bc 0e e0 54 3d 34 22 99 3b
       -0.09005471 -0.016490256 0.051971488 0.004673267
0002a0 76 de 97 3c ea a9 05 bd 94 dc 14 be cc b7 95 bd
       0.018538695 -0.032632746 -0.14537269 -0.07310447
0002b0 0a 17 0d 3d 3c 00 a2 3c eb 1c a1 bd b1 a9 a9 3c
       0.0344458 0.019775502 -0.07866844 0.020710798
0002c0 9d 7c a7 bd 89 67 bb ba 69 5c 5a bc 5f 87 3e 3d
       -0.08178065 -0.0014297824 -0.013327696 0.04651582
0002d0 ef a7 97 bd 56 4b 6c 3d 08 17 31 bc e7 a6 8f bd
       -0.07405078 0.057689033 -0.010808714 -0.07014256
0002e0 2c f7 4c bd 75 61 9f bb 24 a5 85 bd 33 78 c9 bd
       -0.05004041 -0.0048639127 -0.06525639 -0.09837379
0002f0 a1 50 04 bd 8a 3d b2 3c 97 e7 3b bc 16 a7 de 3c
       -0.032303456 0.02175786 -0.01146879 0.027179282
000300 cd a3 73 bd 64 35 b6 3c 6d 49 dd bb 5a 3e 83 bd
       -0.059482384 0.022242256 -0.006753138 -0.06408377
000310 f5 e5 ee 3c b6 8b 81 bc d0 53 61 bd d0 f3 d9 bb
       0.029162386 -0.01581369 -0.05501157 -0.006651379
000320 cf cd c6 3c 6f 09 91 bd f6 11 5a bd 51 7d db 39
       0.024268059 -0.070818774 -0.053239785 0.00041864303
000330 27 5d 9c bd 5b a4 a6 bc 53 c8 8e bd 86 48 aa bd
       -0.07634955 -0.020342043 -0.069718026 -0.08314614
000340 46 4e d7 bc c9 ad a3 3d 0e 5f c3 bd d0 4f ba bd
       -0.02628244 0.07992131 -0.095396146 -0.09097254
000350 5e 32 15 bd 3f 9e 5b bc 96 fc 84 3c 6f 05 dc bb
       -0.036424987 -0.013404428 0.016233724 -0.006714515
000360 20 31 03 3d d1 48 b9 3c 0e a7 79 bd 25 fe c3 bd
       0.03202927 0.02261773 -0.06095033 -0.095699586
000370 a6 17 de bc 2b 83 d5 bc cb 53 16 bc de a5 ba 3d
       -0.027110886 -0.026063522 -0.009175251 0.09113668
000380 c9 a1 93 3d 03 4d 7a bb 80 c9 52 3d 97 d8 83 bd
       0.072085924 -0.0038192875 0.051461697 -0.064377956
000390 d4 8a e1 bd ea 87 ca bc ba a0 e0 3b 8d 31 81 bd
       -0.110128075 -0.024723012 0.0068550976 -0.06308279
0003a0 4f 4c 20 3d 7f 90 9d bd b8 f9 01 3d a0 b5 56 bb
       0.039135274 -0.07693576 0.03173229 -0.0032762066
0003b0 d5 49 0b bd 90 01 80 bd 1f ec ac bb 2e 5f 67 3c
       -0.03400596 -0.06250298 -0.0052771713 0.014121814
0003c0 6e a1 d0 bb 76 90 ff bb b3 fd 8f bb 6a 09 85 bd
       -0.0063669 -0.0077992035 -0.004394257 -0.06495936
0003d0 8d ac 19 bc da bb 2f 3d 0e 7b 9c bd 40 39 9b 3d
       -0.009379518 0.04290376 -0.07640658 0.07579279
0003e0 98 6b 17 bc 44 8b 7f bd cc 0e ea 3c c9 c3 5f bd
       -0.009241961 -0.062388673 0.028571509 -0.054630075
0003f0 58 71 82 bd 04 ad a6 3d cf 04 51 bd 82 6b c0 3c
       -0.06369275 0.08138469 -0.051029976 0.023488764

hidden_layers.1.bias f4 [128]
000000 6a 22 ab bd a8 74 ac bd 32 38 66 bd 88 f8 2b bd
       -0.08356173 -0.08420688 -0.056205936 -0.041985065
000010 cf 2e d5 bc 1c 18 67 bd be 1c bf bd 8b 87 37 bd
       -0.026023297 -0.056419477 -0.09331654 -0.044807
000020 81 b4 e4 3d 23 f3 7b bd c9 2c 8f 3d 40 a7 af bd
       0.11167241 -0.06151117 0.06990964 -0.08576822
000030 07 32 09 bd a4 57 62 3c 2b 04 9a bc 58 5c 69 bc
       -0.033494975 0.0138148405 -0.018800816 -0.014243208
000040 e3 6b 62 bd bb dd 03 be 86 79 25 bd b0 e4 1d 3d
       -0.05527867 -0.12877552 -0.040399097 0.03854817
000050 99 a2 05 bd 16 86 89 3d 07 cb c2 bd b8 56 b7 bd
       -0.03262577 0.06715028 -0.09511381 -0.08952087
000060 2c 7e f5 bc 83 0d 12 3c d7 10 cf 3d 36 f2 5e 3d
       -0.02996739 0.008914354 0.10110634 0.05443021
000070 90 9e 04 bd 7b 01 bd b9 60 c7 3d 3d d0 50 03 3c
       -0.03237778 -0.00036049992 0.046332717 0.008014873
000080 b1 9f 1e 3c 02 30 c8 3a e1 04 fc bc 7b a9 64 3d
       0.009681628 0.0015273097 -0.030764045 0.05582569
000090 b6 85 af bc b9 2f e9 bc ad 95 c6 bd d8 1c 36 bd
       -0.021426063 -0.028465139 -0.09696517 -0.0444611
0000a0 0a 24 07 3b 59 38 5c 3d 84 4d 63 3d 5c d2 fb 3a
       0.0020620846 0.053764675 0.055493847 0.0019212472
0000b0 fb fa ff bd c3 a5 87 3c 1e cb 99 bd 0e bc aa bd
       -0.124990426 0.016558534 -0.07509445 -0.0833665
0000c0 5e de a8 bd 6a ba e5 3c 23 d2 84 bd 55 a2 b5 bd
       -0.08245538 0.02804299 -0.06485393 -0.08868853
0000d0 19 34 c2 bd 3b 65 81 bc 07 5b 91 3d db ae 63 bd
       -0.09482593 -0.01579534 0.0709744 -0.055586677
0000e0 06 db c8 3d 80 e4 2e bc 83 d1 29 3d e5 7c 84 bd
       0.098074004 -0.010674596 0.04145957 -0.06469134
0000f0 c9 6b 1b bd 3d 51 ad 3c c6 f2 af 3d e9 da 9d 3a
       -0.03794459 0.021156901 0.08591227 0.001204339
000100 1d 8f 60 bd 0e cf 8c bd 15 43 c6 3d e8 43 d6 bd
       -0.054823983 -0.0687543 0.09680764 -0.10462171
000110 74 e2 e1 bc 76 58 af bd 2a 88 b5 bc 78 e0 e2 bd
       -0.027573802 -0.085617945 -0.022159655 -0.1107797
000120 7a ad 6b bc 85 93 39 bd b4 ba 06 3e 6f dc 28 bd
       -0.014384622 -0.0453067 0.13157159 -0.041225847
000130 4f 14 dd bd 5b cd 42 bc 05 45 23 bd 36 91 15 3c
       -0.10794889 -0.011889781 -0.039860744 0.009128859
000140 97 ae 1c bd e6 80 f1 bd 13 7b e6 bd df 7a 91 3c
       -0.03825244 -0.117921636 -0.11253943 0.017758785
000150 4b ca 00 3d 88 84 8f bd d1 5d 7a bd ac 56 9e bc
       0.03144292 -0.070077 -0.061124627 -0.019328438
000160 c0 50 ad bd 3b e3 27 3d a0 44 95 bd 77 e7 de 3c
       -0.084626675 0.04098819 -0.0728848 0.02720998
000170 2b 34 74 3d 68 e3 20 bd 0d b1 ad 3d 8b 90 fe bc
       0.059620064 -0.03927937 0.084810354 -0.031074783
000180 20 8b 74 3d e8 11 08 be 08 e5 83 3d c9 0a 82 bc
       0.059702992 -0.1328808 0.064401686 -0.015874283
000190 a8 19 26 3d de 39 59 bb 3c 53 f3 ba 10 e8 00 3d
       0.04055181 -0.0033146064 -0.0018564234 0.031471312
0001a0 f2 51 74 bd 97 35 43 3c 4b 43 90 3c c2 4b 9d bd
       -0.05964846 0.011914632 0.017610213 -0.07680465
0001b0 e9 7d a4 bd e7 65 8c bd a5 ff c2 bd e5 fe 92 3c
       -0.08031828 -0.06855374 -0.095214166 0.017943809
0001c0 32 67 51 3c 89 51 86 bc 9a 95 b3 ba 01 1f 84 bd
       0.012780951 -0.0163963 -0.0013701201 -0.06451226
0001d0 67 67 3c bc 96 c4 9c 3d c4 27 0b bd 3b b4 fc bd
       -0.011499262 0.07654683 -0.03397347 -0.12339064
0001e0 40 c2 13 bd 30 9b fc bc 05 93 53 3c 24 0a 8b bd
       -0.036073923 -0.030835718 0.01291347 -0.067890435
0001f0 6b f0 00 be 37 39 c0 3d 8d 26 a6 3b 2a 02 17 bd
       -0.12591712 0.09385913 0.0050705136 -0.0368673

output.weight f4 [4, 128]
000000 53 45 95 ba 05 50 94 3a fb e3 51 bb 89 4c 03 3c
       -0.0011388458 0.0011315352 -0.0032026756 0.008013853
000010 12 7e 18 3c bb 71 7c 3d bc ea 33 bd 11 9e 2a 3d
       0.009307401 0.0616319 -0.043925032 0.04165465
000020 ad 2b 65 3d 2b be 3e bd 50 2e 14 3d 3d 3f a5 3b
       0.055949856 -0.046568077 0.03617698 0.005042939
000030 c4 74 5d 3a 78 4d 7a 3d 31 18 0e 3a 89 73 e7 bc
       0.00084478804 0.061109036 0.0005420475 -0.028253334
000040 1f 5f 01 3a 70 bf 1f bc b1 9b 3e 3d 8d 33 51 bb
       0.00049351336 -0.009750232 0.046535198 -0.0031921596
000050 11 f1 28 bd bd 98 bf 3c f7 46 25 bb 1c dd 54 bc
       -0.041245524 0.023388261 -0.00252193 -0.01299217
000060 f9 ec ca bc 43 2f 51 3d 31 40 9e 3d ac 70 41 3d
       -0.0247712 0.051070463 0.07727087 0.047226593
000070 f4 cc 7a 3d 95 fb e9 bb b2 ad 30 3d f9 84 4d bc
       0.061230615 -0.0071405866 0.0431344 -0.01254391
000080 da 50 46 3d 93 38 66 3d e4 0c 63 bb cc a7 1c 3d
       0.04841695 0.056206297 -0.0034645135 0.03824596
000090 d1 88 23 3c 44 9c 0c bc 08 b9 19 3d 72 c2 42 3d
       0.00998135 -0.0085821785 0.037529975 0.04754872
0000a0 aa 09 3d bd 6a 04 8c 3d 3e e6 81 3d 78 e8 22 bc
       -0.046151794 0.068367794 0.06342743 -0.00994312
0000b0 5d 6e 53 bd 25 ca fd 3c 30 5d a5 bc 78 5c 78 bc
       -0.051618923 0.03098018 -0.020186037 -0.015158765
0000c0 14 fb 69 3c 68 2d 3c 3b 4e 25 97 3d 3e 16 4e 3c
       0.014281053 0.0028713588 0.07380162 0.012578545
0000d0 88 95 b8 3b f5 33 a3 3c 5d 92 38 3d d8 07 19 3d
       0.00563306 0.019922236 0.045061458 0.037360996
0000e0 b2 69 89 3d 1f 5f 28 3d 10 d6 62 3d fe 76 fa 3c
       0.06709613 0.04110634 0.055379927 0.030574318
0000f0 f6 96 16 3d 0b b3 94 bc de 68 68 3d 05 0c d4 3c
       0.03676506 -0.01815178 0.056740634 0.025884638
000100 7e 1d 24 3d 08 bb e1 3b dc ef 19 3d 9a 7c c0 3b
       0.04006719 0.006888751 0.037582263 0.0058742287
000110 42 1e b4 bc 06 11 a5 3c 12 d7 22 bd a2 43 8d 3c
       -0.021987084 0.020149719 -0.03975589 0.017244164
000120 f2 89 7f 3d 63 db 9d 3c 7d 0d 9f 3d 11 d3 03 bd
       0.062387414 0.01926965 0.077662446 -0.03218371
000130 4a 32 2f bd d2 3d 28 bc 5a 35 79 bc 2f 55 85 3d
       -0.04277257 -0.010268645 -0.015210474 0.06510388
000140 d4 10 8a 3d 3b 90 98 3b 8d f3 69 bc 39 e6 c3 bc
       0.06741491 0.0046558655 -0.014279258 -0.02391349
000150 13 ed 62 3b 55 83 c6 3c dd 1b 5f bb f4 21 57 bc
       0.003462617 0.024232546 -0.0034043707 -0.013130654
000160 03 4c 8e bc 84 63 83 bc de 9b 89 3b b5 8c a8 bb
       -0.01737023 -0.016038664 0.004199489 -0.0051437267
000170 d6 27 20 3d e6 7e 4d 3b e7 ca 9b 3d 33 12 44 3d
       0.03910049 0.0031356155 0.0760706 0.04786892
000180 ad e2 10 3d 76 84 a7 bb 5b 7d 81 3d cb a6 0b 3d
       0.035372425 -0.005112226 0.06322738 0.034094613
000190 01 ae 3a bc 62 92 55 bc 6a b3 d2 bc 64 7a b3 bb
       -0.011394025 -0.013035389 -0.025720317 -0.0054772366
0001a0 db 69 d4 3c 08 0e f5 bb b3 65 a9 3d d3 23 ea 3a
       0.025929382 -0.0074784793 0.08271351 0.001786346
0001b0 53 cf f9 bc 0e 22 f0 bc a7 9b 9d 3d 97 21 58 3c
       -0.030494368 -0.029313114 0.07695704 0.013191602
0001c0 36 2a 5b 3d c1 3b 43 3b 57 ab 00 bd 53 9c 0b 3c
       0.053507052 0.0029790255 -0.031413402 0.008521157
0001d0 af 1e e9 ba 97 38 10 3d ac fd d3 3b fb c9 3b bc
       -0.0017785634 0.03521022 0.006469449 -0.01146173
0001e0 8b b8 a1 bc 4e af 46 3d 5d 6c 69 3d 2c 23 a3 3c
       -0.019741317 0.048507027 0.05698811 0.019914232
0001f0 9a 6b 65 3c 58 4a 58 3d 37 e2 04 3c 93 96 34 3d
       0.014002705 0.052805275 0.008110574 0.04408891
000200 df 0a ac 3c 66 4b b1 bb de 41 b6 bc 76 12 22 bc
       0.021001277 -0.0054105995 -0.022248205 -0.009892097
000210 72 7b ca bb 56 88 bd bc 0e d6 de 3b fd 59 ec bc
       -0.0061792666 -0.0231363 0.0068004197 -0.028851504
000220 2d 72 2b 3c f2 5b 53 3d a1 66 4e 3b b6 de 65 3b
       0.010464233 0.051601358 0.0031494277 0.0035075373
000230 3d 84 de 3b 5a 9d 82 3c 9f b4 24 3c 44 e5 08 bb
       0.0067906664 0.015944172 0.010052829 -0.0020888606
000240 6a 06 28 bc 3d 8b 85 bc a2 2d 84 3c d5 82 69 3a
       -0.0102554355 -0.016301746 0.01613504 0.000890774
000250 46 05 23 3c ee 51 2d 3b 61 0f 72 3a f3 df 5c 3b
       0.009949988 0.002644654 0.0009233859 0.003370282
000260 61 37 4e ba e3 aa a6 3d 17 b5 a6 bb ee 8e 56 3c
       -0.00078665285 0.08138063 -0.0050875056 0.0130956005
000270 1a 12 09 bc 42 35 c8 3c b3 89 03 3b ff 86 7d bd
       -0.008366132 0.024439458 0.0020071089 -0.06189632
000280 1f a8 82 3d be 20 68 3b 4b ad 51 3c d2 6f 89 3c
       0.06379723 0.0035419906 0.012797664 0.016776953
000290 9a d7 2b bd 50 ef 4f bd 8d ba e0 3c d4 49 67 bc
       -0.04195366 -0.050765336 0.027432704 -0.014116723
0002a0 7d f8 e9 3b ec c0 73 3c 81 4c 7f 3a 4a 8a 60 3c
       0.007140218 0.014877539 0.0009738878 0.013704846
0002b0 01 3b 74 bd e1 f2 91 37 57 60 c6 3c 61 08 bf bc
       -0.059626583 1.7398446e-05 0.02421586 -0.023319425
0002c0 d6 e1 20 bd fe 15 2c 3b 25 fa b8 3c d4 2c 9f bc
       -0.039277874 0.0026258226 0.022580216 -0.019430555
0002d0 b3 91 d1 3b e9 1b 71 bc 28 0d 16 3d ff 5f 45 bb
       0.0063955425 -0.014716127 0.03663364 -0.0030117033
0002e0 ed 84 ca 3b 2f 93 ed bc b2 49 13 3d 58 d2 e3 3c
       0.006180397 -0.029000847 0.035958953 0.02781026
0002f0 19 0c 64 3d 37 7b a9 bb 0a 3a 65 3b aa 60 3e 3b
       0.0556756 -0.005172159 0.003497722 0.0029049315
000300 68 1b e2 3c b5 40 5c 3b 38 87 b4 3c 6e 02 05 3c
       0.027600959 0.0033607904 0.022037134 0.008118255
000310 18 62 25 3d 18 6e bb 3c 18 f2 e3 bc ec ac 22 3d
       0.040376753 0.022879645 -0.0278254 0.039715692
000320 2a 86 f7 3c dd 58 c7 bc 2d 6f b6 ba 3a 02 08 3c
       0.030215342 -0.024334366 -0.0013918631 0.008301312
000330 15 41 04 3c b3 f0 17 3c ea f4 19 bc aa a5 59 3d
       0.008072157 0.009273696 -0.009396771 0.053136505
000340 9c 6b 52 3b 1d 80 3b bc 8c 31 da 3b 9c be b4 bb
       0.0032107597 -0.011444119 0.0066587385 -0.0055158865
000350 55 98 c4 bc d4 77 a7 bc 78 d1 06 bc 3b 52 59 bc
       -0.023998419 -0.02044288 -0.008228652 -0.013264234
000360 02 bc 4a 3d fb e7 c8 3c 78 f9 30 bd df 21 4b 3b
       0.049495704 0.02452468 -0.043206662 0.003099553
000370 6a bb f8 3c ab d0 9a 3c d2 6c 8d 3c 68 b1 97 bc
       0.030362803 0.018898329 0.017263804 -0.018517211
000380 3f 41 7c 3d 5b c6 45 3d 4e 3a c9 3c 69 41 07 b9
       0.06158566 0.04828487 0.024563935 -0.0001289897
000390 7b f9 78 3c 75 5c c8 ba 44 96 88 bc 7d cd 00 3c
       0.0151961995 -0.0015286343 -0.016673215 0.007861492
0003a0 06 f5 29 3d 32 54 46 3d 31 a8 59 3c 8f a5 da bb
       0.04149344 0.04842014 0.013284729 -0.006672568
0003b0 ff aa 34 3c a8 a0 ee ba ce 7c ad bc 89 50 8a 3c
       0.011027097 -0.0018205838 -0.021177676 0.016884105
0003c0 81 9e 14 bb 28 7b 4e bd 9b d3 1c bd 1d 11 80 3b
       -0.0022677484 -0.05041042 -0.03828774 0.00390829
0003d0 a3 ac a4 bc 30 b1 3c bd 76 d3 03 3c df 8e 8c 3c
       -0.02010185 -0.046067417 0.008046022 0.01715797
0003e0 59 0e e3 bc 1e 4b a1 3c 24 d5 e1 3c 57 cb 06 3d
       -0.027716802 0.019689139 0.027567454 0.032908764
0003f0 c6 8b 26 bd 4f 28 ad bc 9b ed d8 3b 15 c8 a6 bc
       -0.040660642 -0.021137385 0.0066201217 -0.020359078

output.bias f4 [4]
000000 47 eb 8e 3d 86 d0 95 3d d4 1f 8c 3d fa 9b 86 3d
       0.06978469 0.07315163 0.06842008 0.06572719
