checkpoints/state_size_37__action_size_4__hidden_layers_[128-128]__drop_p_0.25__seed_0__GAMMA_0.99__LR_0.0005__UPDATE_EVERY_10__BUFFER_SIZE_100000__BATCH_SIZE_64__TAU_0.001.pth (torch, 89687 bytes, 6 tensors)

hidden_layers.0.weight f4 [128, 37]
00000000: c07d 41bd c275 28bd 0919 b9bd dabb d93c
00000010: 45d5 e0bd c385 b3be f44c afbd e229 193e
00000020: 1672 b6bd 2701 6f3e d2e3 543d a6ed 03bd
00000030: 2291 34bd 686c fcbd 12c6 a5be c9d2 8abc
00000040: 00f1 a33d 81e6 633d d39e 07be 485e d9bd
00000050: 38e3 203e b4d5 67be f3cf 3ebe fa0a dcbd
00000060: 0184 1abf c7e2 2dbd 6263 7cbc 153b 153d
00000070: e7e8 6b3c da49 04be 562a be3d 05e4 383d
00000080: 1a8a 34be 73c7 8ebe a5cf e5be 17e0 333e
00000090: 5f16 9c3a 00ce 54be c056 82be 709a 8a3e
000000a0: 2e8d 47be 3ba4 8ebe 6873 8fbd 474b 583e
000000b0: 2de4 10bd e2a9 22bd 52f8 99bd 14a7 b93d
000000c0: 9995 5c3c 90de 54bd d239 033d 2d3d 05be
000000d0: b2fc c9be c1ce d9bc 9827 493d 3668 02be
000000e0: 41b0 713c 73fe 47be 5380 c13d 7717 883e
000000f0: 6a0d 513e cc48 9bbc 88a1 753d 0e5c 8dbe
00000100: a8f2 2ebe 9bc7 29bd 18c2 04bf 66b3 183d
00000110: 749f 073e b55a 94bd 3e88 033d 2b61 9abe
00000120: 84ff 613d cdf7 78bd 286f 00be 3d2c c8bc
00000130: 9c8c ab3c dc13 98bd 20cf c83c f8a9 01bc
00000140: 4a7e b1bd 7fab d63d f271 a33d 6ba2 043e
00000150: d983 cebd bf2c b0bd 5714 dcbd 53a1 b9bc
00000160: 11a3 a33d 730c aebc 1a3b 12be 1f2c f9bc
00000170: 0241 143e ca4a 3b3e 96e5 10be 2ad3 a3bd
00000180: 8cd4 fdbc d5f9 eabc fa3a 183e 12cb 54be
00000190: 25f7 58be bce0 683d 5164 e53d 2d10 b73e
000001a0: 40fe 1c3d 8fca 8dbe bc47 833d 0835 453e
000001b0: 04ee 263f acad d73c 62ab 4bbc 7fd0 74be
000001c0: 5e9a 343d 67a3 103e 0b0f 6ebd a0ac 36be
000001d0: 129d f0be 860b 5d3e f139 163e a5e2 ae3d
000001e0: 507a 34bf e619 72bd 4e6b 40bd 0da1 ab3b
000001f0: 064f d33c 47a0 7d3d 3ebd f9be 691c d1bc
00000200: 281d a93d f0d0 42be c6e1 75be ec04 24bd
00000210: b4c4 db3d b749 c23d 49a7 193e 2842 3a3d
00000220: b960 afbe 21c6 3d3c cdfe 573d ab38 10bc
00000230: d790 96be f0ed c2be 99bb 013e 5486 9f3d
00000240: 49a2 f0bd c0d6 ecbe 6c3a 983c fe54 74bc
00000250: 20fd 803d c6d2 1c3d 3792 fbbc 36c5 30bc
00000260: 7648 863c 0a81 21bf f791 b63d 07d1 4d3e
00000270: 3d45 56be 426a 7dbf 85b9 3cbc 77c5 0ebd
00000280: 3284 b8bc 3755 2cbd f3e3 a53c 46bf d9bc
00000290: 5483 80bd fc55 073e 45e0 063e 54ac df3d
000002a0: f46b 2cbe c7fa dbbd f612 0abe 6573 c03b
000002b0: 2bb2 bf3d 87ac dabd 483a cabd a5da 62bd
000002c0: bc30 283c 52ad b13d 1a40 78bd deb2 bf3d
000002d0: f8f8 8e3c 27ab 47bc 4486 f83d a196 e33b
000002e0: 3092 133c 98b0 953c 671d 843d c52a c13c
000002f0: 8768 fd3b 2877 f4bb 9109 d83d 813c f4be
00000300: bee8 82bd 1dc2 96be 935e 09c0 91ba 4fbb
00000310: 726e 00bd 8857 e9bb 862d d3bc 0455 75bd
00000320: 5ae3 463d 049d 433d d471 a23c f519 853d
00000330: 63e3 57bd f5ed 6b3d 195a ae3d 0cd2 e63d
00000340: fa6b 9a3d 66c0 603c 2d07 7bbd 40fa 7dbd
00000350: e926 80bd 2379 8dbd 2f58 debc 7d0c 2abd
00000360: ae9a 7fbd 3068 91bc 5339 34bd 2bf3 84bd
00000370: 9db6 9a3c 0356 ca3b b2d4 12be 3174 2bbe
00000380: 0186 93be b001 6dbe 68c8 4cbe ae6f 8ebe
00000390: 5c35 99be 3ba7 203e a282 99bd 4bf2 1bbf
000003a0: 65dd 2ebe 3e76 6dbe 9550 0c3e 26d0 46bd
000003b0: 1dc3 ddbe 7d07 c73c 139e eb3d a9d0 a8bd
000003c0: 4bbd 88be 2bbd 42bd bff1 4f3d 4e8f f5bd
000003d0: c7f5 ef3d d052 80bd 9171 f4be a4fb 5fbd
000003e0: cfe4 f5bd 3b75 9ebd 70df cdbd 244d a3bd
000003f0: 150c ebbe 2240 10be 99df c83d 9be0 b2be
-0.047239065 -0.041127928 -0.09037978 0.026578832 -0.10978178 -0.3506299 -0.085595995 0.14957383
-0.08908479 0.23340283 0.05197508 -0.03220906 -0.044083722 -0.12325364 -0.32377678 -0.016946213
0.080049515 0.055639748 -0.1324418 -0.10613686 0.15711677 -0.22640115 -0.18634014 -0.10744281
-0.6035767 -0.0424526 -0.015404554 0.0364333 0.01439879 -0.12918797 0.09285419 0.04513933
-0.17630807 -0.27886543 -0.44884983 0.17565952 0.0011908523 -0.20781708 -0.2545681 0.2707095
-0.1948745 -0.27859673 -0.07004434 0.21122466 -0.035373855 -0.039712794 -0.075180665 0.09065071
0.013463401 -0.051970065 0.032037564 -0.13011618 -0.39450604 -0.026587846 0.049110025 -0.12735066
0.014751495 -0.19530658 0.09448304 0.26580402 0.20415273 -0.01895561 0.0599685 -0.27609295
-0.17084754 -0.041450124 -0.51858664 0.037280463 0.1324442 -0.072438635 0.032112353 -0.30152258
0.05517532 -0.060783196 -0.12542403 -0.024435157 0.020941071 -0.07425663 0.024512827 -0.007914059
-0.08666666 0.10481929 0.07980718 0.12952583 -0.10083742 -0.08602285 -0.10746067 -0.022659933
0.07990087 -0.02124617 -0.14280358 -0.030416546 0.14477924 0.18290249 -0.1415008 -0.07999261
-0.03098514 -0.028683582 0.14866248 -0.2078059 -0.21188028 0.05685495 0.112007745 0.3575453
0.03832841 -0.27693602 0.064101666 0.19258511 0.65206933 0.02632793 -0.012430998 -0.2390766
0.04409253 0.14124833 -0.058119815 -0.17839289 -0.46994835 0.21586427 0.1467054 0.08539323
-0.70499134 -0.05910673 -0.046977334 0.0052377046 0.025794517 0.06192043 -0.48777193 -0.025526242
0.08257514 -0.19025016 -0.24011907 -0.040043756 0.107308775 0.09486716 0.1500522 0.045473248
-0.3425348 0.011582882 0.05273323 -0.008802573 -0.2940738 -0.38072157 0.12669219 0.07789293
-0.117497034 -0.4625759 0.018582545 -0.014912842 0.0629828 0.038286947 -0.03070937 -0.010789206
0.016391974 -0.63087523 0.08914559 0.20099269 -0.2092485 -0.9899026 -0.011518841 -0.034856286
-0.022523973 -0.042073455 0.020250296 -0.026580464 -0.06275049 0.13216394 0.1317149 0.10921541
-0.16838056 -0.10741191 -0.13483796 0.005873131 0.09360155 -0.10677438 -0.098743975 -0.055384297
0.010265525 0.08675636 -0.060608007 0.09360288 0.017452702 -0.012186802 0.12134984 0.0069454466
0.009007022 0.018272683 0.064509206 0.023579964 0.007733408 -0.0074604936 0.105487 -0.4770241
-0.06392048 -0.29444972 -2.1463974 -0.0031696896 -0.03135533 -0.0071210302 -0.025778543 -0.05989553
0.048556663 0.047757164 0.019829668 0.064990915 -0.052707087 0.05759998 0.085132785 0.11270532
0.07540126 0.013717746 -0.06128614 -0.062006235 -0.062574215 -0.069078706 -0.027141659 -0.041515816
-0.062403373 -0.017749876 -0.04399998 -0.06491693 0.018885905 0.006174804 -0.1433895 -0.16743542
-0.28813174 -0.23145175 -0.19998324 -0.2781958 -0.29923522 0.15688793 -0.07495619 -0.60916585
-0.17076643 -0.23189637 0.13702615 -0.04853835 -0.43312922 0.024295563 0.1150476 -0.08242924
-0.2670692 -0.047543686 0.050767656 -0.11990224 0.117168 -0.06265795 -0.47742894 -0.054683343
-0.120065324 -0.07737204 -0.10052383 -0.07973698 -0.45907655 -0.14086965 0.09808273 -0.34936985

hidden_layers.0.bias f4 [128]
00000000: 5379 04bd 0a45 31be 7539 33be 7645 603d
00000010: e46c 983d cf9c 903d cb8b d63d 7986 04bd
00000020: 57da 8abe af10 79be 39ca 213d 1e71 85bd
00000030: 2ab7 26be d200 32be e28b 5cbe eaa2 ab3c
00000040: f0c0 57be f242 d33c fd74 a6bd 512d b1bc
00000050: 9c89 35be d007 61be 942e 563d fdf8 01be
00000060: fd03 c4bd 93a3 3b3d ba1b 6dbe f663 aabd
00000070: 83e1 c23c 91eb 21bd e0e6 51bd 341a aebd
00000080: 2979 82be 4f05 4bbd ce16 b2bd 441f 27be
00000090: c315 b2bd 4d65 cdbd 7a3e aebd 5ec3 f0bd
000000a0: 824a 3fbe a111 47bd 1a76 8cbd 845d dfbb
000000b0: 1276 e3bb b1c1 61bb a7f2 dfbd d7ec 65bb
000000c0: a7b9 5c3d 1752 85bc 6aa0 4e3d ecf6 d83c
000000d0: fae9 453d 5bd1 103d 631b bdbe 2738 c5be
000000e0: 1343 cdbd 87b2 eabd 5fea 5abe 3886 30bd
000000f0: ebe3 b2be 9430 c8bd 991d 6ebd 3b56 c0ba
00000100: 39b2 8fbe 1048 70be 6b77 503d bad0 5bbe
00000110: 43ca 8ebd ccca ad3c e7c2 6fbe 6ed8 bcbd
00000120: d2ed 0cbe 7d6a 11be 062a 57be d2d8 11be
00000130: 6c54 19be 34fe 003c d4db 22be 7c0b ecbd
00000140: c6e1 673c 6c16 33be f2bc 28bd c1c3 233d
00000150: d3dc c63b 68ed bdbd 3642 cd3c 2920 75be
00000160: 547d d3bd 8b4c 3bbe 33c5 69bd 4e59 9a3d
00000170: 42bd 38be aad6 28be 6869 9e3d 68d6 d4bd
00000180: 70b8 38be ce45 93bd eb46 e2bc 8bc8 07be
00000190: 4741 b03d 56b2 e5bd 4b0f 58be 12b1 b0bd
000001a0: 1cab c73c 7014 ce3c 3732 51be 9f5d 86bd
000001b0: eecf 0dbe f56d c6bd 9170 97be 67cc 41bc
000001c0: af03 69bd e5ba 9a3c 8414 6d3c 2f68 b3bd
000001d0: 0859 58bd b0d5 293d 3c81 b8bd 52e9 5ebe
000001e0: c317 d53d 1fb8 88bb 4e54 4fbd 2ec6 153d
000001f0: 6362 23be 8fb0 97be 1f84 a33c e630 4f3d
-0.032342266 -0.17311493 -0.17502387 0.054753743 0.07442644 0.07061159 0.10475882 -0.032354806
-0.27119705 -0.2432277 0.039499495 -0.06515716 -0.16280809 -0.17383125 -0.21537736 0.020951707
-0.21069694 0.025788758 -0.081277825 -0.021628054 -0.17728275 -0.21975636 0.052290514 -0.12692638
-0.09571073 0.045810293 -0.23155108 -0.08319847 0.023789173 -0.039531294 -0.05124557 -0.085010916
-0.25483063 -0.04956561 -0.08695756 -0.1632052 -0.08695557 -0.10029087 -0.0850801 -0.11756013
-0.18680766 -0.048600797 -0.068584636 -0.006816568 -0.0069415653 -0.0034447724 -0.10934954 -0.0035083795
0.05388799 -0.016274495 0.05044595 0.026484929 0.04831884 0.035355907 -0.36934957 -0.38519403
-0.10022559 -0.11459833 -0.21378468 -0.04309675 -0.34939513 -0.097748905 -0.058133695 -0.0014674136
-0.2806566 -0.2346499 0.050895136 -0.21466342 -0.06972172 0.021214865 -0.23414193 -0.09220968
-0.13762596 -0.14200778 -0.21012124 -0.14242867 -0.1497361 0.007873107 -0.1590417 -0.11525628
0.01415295 -0.17489022 -0.041195817 0.039981607 0.0060688048 -0.09273797 0.025055986 -0.2393805
-0.10326639 -0.18290918 -0.05707283 0.07536565 -0.18040946 -0.16488138 0.077349484 -0.10392457
-0.18039107 -0.071910486 -0.027621707 -0.13260095 0.08606201 -0.112156555 -0.21099584 -0.086275235
0.024373583 0.02515623 -0.20429312 -0.065608256 -0.1384885 -0.096889414 -0.2957807 -0.0118285185
-0.05688828 0.018887946 0.014470223 -0.08760106 -0.05281928 0.041463554 -0.090090245 -0.21768692
0.10404923 -0.0041723396 -0.05061751 0.036565952 -0.159555 -0.2962689 0.019960461 0.050583743

hidden_layers.1.weight f4 [128, 128]
00000000: 3dc2 17bb 1ab3 1fbd e2a7 09bc ceaa 44bd
00000010: f4c1 7cbd fe36 c0bc aa81 843d 1cc5 12bd
00000020: caff e83c 4e82 05bd 60ba 23bd 851d 4a3d
00000030: 14c5 3f3b f87f 28bd 675e d7bd 45d2 c6b9
00000040: a2b7 c6bd 2ada a6bd f13b acbd 2c29 86bc
00000050: 6bc9 34bd 5366 81bd 05f5 9c3c 5b17 f93c
00000060: 7c11 78bd 0cc3 753d cd26 563d 4642 77bd
00000070: db77 103d a3ed b5bd f414 fd3b c550 7ebd
00000080: 0666 75bd 9538 c4bd f038 09bd 173e 00bd
00000090: 2e38 963d c896 da3a 4758 9bbc 7cce 93bd
000000a0: 887a 98bd 5eaf d3bb ca61 533c 9a5e 41bd
000000b0: 2220 303d e9ec b3bb 6179 953b 72b7 073d
000000c0: f373 1a3d 84b9 0c3d f82f 603d 8079 76bd
000000d0: d80d 343c e1f6 7a3d 4e74 b9bc 87b2 933d
000000e0: e2cb d63c a351 d7bb 0438 243b 1e25 dcbb
000000f0: 7174 2cbd 7211 60bc ce27 623d 9fe0 fd3c
00000100: 0574 9c3c 7d5e cb3c b5cc 83bd a4ac 5e3c
00000110: 65a2 e2bb ab17 c2bd 7c17 49bc b184 bbbb
00000120: abfe 0ebd 1331 30bc 40e8 b5bd 85c5 29bd
00000130: 0fd7 89bd 2971 ddbb 0951 9dbd c54a 103d
00000140: b9be 353d 85bb 853b a726 23bd 2f4e d5bd
00000150: 889c debc 14e1 ca3c 771e 7ebd 70c1 78bd
00000160: 01d3 3bbc d98a 31bd 55e4 1c3d f7e8 39bd
00000170: b1fb 313d d756 bbbd d2cc a93c 9036 7f3d
00000180: b05e a9bc 67ee 23bd f060 543b 5af8 8f3a
00000190: a604 4cbd c03a c63c 8ea7 b0bd 5f10 cebc
000001a0: e091 13bd bca3 58bd a59b 22bd 0052 403d
000001b0: 91bb 7ebc 9b48 353c 1bd2 09bd a190 adbd
000001c0: 3335 c93b 50be cbbd c117 983b 8ddc 95bd
000001d0: 6573 abb9 b995 433c 33f6 013d c125 103d
000001e0: 5d72 bcbb 0d93 423d 5303 62bc c5a2 db3b
000001f0: 6f78 8abd 027e 7dbd 33b4 8ebd 26ae b63c
00000200: f19f bfbd eacc 50bd e0e5 62bc 5042 8fbb
00000210: bc79 d7bc e16b 49be d819 8a3d 02a8 35bf
00000220: 6157 f6bb 1e70 273d 546a 44bd 7691 d8bd
00000230: 40f1 97bb 0067 92bd e9eb 22be 66ac cd3c
00000240: a54e a7bc 450d b9bd 1241 55bd 63b4 2dbc
00000250: b9c0 35bd a3f1 0ebc fea2 dbbd 164a 71bd
00000260: f8d1 24bd fa26 73bd c361 b0bd a8fd f5bd
00000270: ab72 eebe 1b32 ae3d c593 0b3d a370 86bd
00000280: 9de2 06be 024b e8bd be09 383c 5a58 f6be
00000290: 4499 0cbe 28c1 2cbd 0f3d 1fbe 491a edbd
000002a0: 5421 513e 4ece 6cbd d63e 13bd ff60 edbd
000002b0: 4a53 c33d 3ca3 76bc d285 57bd 1b43 a63c
000002c0: 2a02 e0bd e383 dc3c fc07 f4be e8d1 353d
000002d0: 804e c63b 1ff7 bc3c 2c8a 0f3d 45d6 f5bd
000002e0: 3c97 903d 55a7 523d 75d9 823d 2f11 61bb
000002f0: cd35 4f3d 5aee 61bd b964 c9bc 0672 5bbd
00000300: 66b0 5b3c 657f b3bc 834e 79bd a352 a83b
00000310: 7edd 9abe ef4f 85bb 86bb 14bd ec37 1bbe
00000320: 341e 68bb 3961 8dbc ae6a 34bd d616 1ebf
00000330: 3fe9 71be 76ab 42bc 84fe c2bc 5c40 2ebc
00000340: 29bf acbd c6c7 34bd 82e7 8a3d b7c3 23bf
00000350: 1580 2cbe 442f b2bd 420b a8be 3b34 6b3c
00000360: a836 9bbd 6804 a13d 51d8 173d d3d3 99ba
00000370: d5c5 71bd 2aa0 ecbd 6780 09be 7ee1 febb
00000380: d66e afbd f140 41be ad21 bbbd e67d 3d3e
00000390: 7238 09bd e5e8 3ebd f3ce 353d c6b5 7ebd
000003a0: f293 8d3d 8ccd 073e 18a1 ac3c 4e32 2e3d
000003b0: 1cba 5dbe 2884 a63d 39df 3b3d 2fee 64bd
000003c0: f5b0 0abd 235e 32bd 7af3 41bc cec5 9cbd
000003d0: d21a 823b 7515 20bf e9ea bcbd 03d3 81bd
000003e0: 5fad 0ebd 6a79 003e 2857 013e ffb2 b7bd
000003f0: 8b00 03be 3f9f cfbd 2fed a03d 52ec 15bd
-0.0023156547 -0.038989164 -0.008401843 -0.048014455 -0.061708406 -0.023463722 0.06470044 -0.03583251
0.028442282 -0.03259497 -0.039972663 0.04934456 0.0029261755 -0.041137666 -0.10516053 -0.00037922166
-0.09702994 -0.0814708 -0.084098704 -0.016377054 -0.0441374 -0.06318345 0.019159803 0.030406645
-0.06056355 0.060000464 0.052283097 -0.060365938 0.035270553 -0.08883216 0.007723445 -0.062088747
-0.05991175 -0.09581105 -0.033501565 -0.031309213 0.07334934 0.0016677016 -0.018962992 -0.07217118
-0.07445246 -0.0064601144 0.012901733 -0.04720936 0.042999394 -0.0054908884 0.0045615886 0.03313393
0.037708234 0.03435661 0.054733247 -0.060174465 0.010989629 0.0612706 -0.022638466 0.07211786
0.026220266 -0.006571011 0.0025057802 -0.006718292 -0.042103235 -0.013676034 0.055213742 0.030990897
0.019098291 0.024825329 -0.06435529 0.013590965 -0.0069163316 -0.094771706 -0.0122736655 -0.005722605
-0.03491084 -0.010753888 -0.08882189 -0.041448135 -0.06730472 -0.0067578745 -0.07681472 0.035227556
0.04437134 0.004081192 -0.039831784 -0.10415303 -0.02717425 0.024765529 -0.062040772 -0.06073135
-0.0114638815 -0.043345306 0.038303692 -0.04538819 0.043452922 -0.09147423 0.020727549 0.062307894
-0.020675033 -0.04002228 0.0032406412 0.0010984049 -0.04980912 0.024197936 -0.086257085 -0.02515429
-0.03602779 -0.052890524 -0.039699215 0.0469532 -0.015547649 0.011064674 -0.033647638 -0.084748514
0.006140375 -0.099484086 0.0046415036 -0.07317457 -0.00032701637 0.011937552 0.031728934 0.035192255
-0.005750938 0.04750352 -0.013794738 0.0067027532 -0.06761252 -0.06188775 -0.06967964 0.022299837
-0.09356678 -0.05097667 -0.013848752 -0.0043719187 -0.026303165 -0.19670059 0.067432106 -0.70959485
-0.0075177406 0.040878408 -0.047952965 -0.105746195 -0.0046369135 -0.07148552 -0.15910305 0.02510662
-0.020423243 -0.09035734 -0.05206401 -0.01060209 -0.044373248 -0.008724603 -0.10724448 -0.058908544
-0.040239304 -0.059363343 -0.086123966 -0.12011272 -0.4657186 0.085056506 0.03407647 -0.065644525
-0.13172384 -0.113424316 0.0112327915 -0.48114282 -0.13730341 -0.042176396 -0.15550636 -0.11577279
0.2042287 -0.057813935 -0.035948597 -0.11590766 0.095373705 -0.015053567 -0.052617855 0.02029567
-0.10937913 0.026918357 -0.47662342 0.044389635 0.0060518384 0.023067055 0.03504388 -0.12003759
0.07060096 0.05142911 0.06389133 -0.0034342518 0.050588418 -0.05515895 -0.024584161 -0.053575538
0.013408756 -0.021911332 -0.06086589 0.005136804 -0.3024711 -0.0040683667 -0.03631165 -0.15158051
-0.0035418393 -0.017258273 -0.04404705 -0.61753595 -0.23624133 -0.0118817 -0.023803003 -0.010635462
-0.084348984 -0.04413583 0.06782438 -0.6397051 -0.16845734 -0.087004215 -0.3282109 0.014355714
-0.07578784 0.078621686 0.03707153 -0.0011736102 -0.059026558 -0.11553986 -0.13427888 -0.0077783456
-0.08566062 -0.1887243 -0.091372825 0.18505058 -0.033501096 -0.046608824 0.044386815 -0.06218507
0.06912984 0.13262004 0.02107291 0.042528443 -0.21653026 0.081306756 0.04586718 -0.055891212
-0.033860166 -0.043546807 -0.0118378345 -0.07654916 0.0039704824 -0.6253274 -0.09224493 -0.063390754
-0.03483331 0.12546316 0.12630904 -0.08969688 -0.12793176 -0.10137796 0.07857739 -0.036602326

hidden_layers.1.bias f4 [128]
00000000: 7529 0ebe 56b7 1c3e 6b54 3c3e e8bd ecbd
00000010: 80f5 2c3e 3858 443e b191 563e 5f17 4e3e
00000020: 24dc 693e 150a 0e3e a2d1 363e 64d2 523e
00000030: 7599 3e3e dedb 2f3c a443 d73d 5e07 a2bd
00000040: 4e83 a4bd 90b8 353e 7b26 68bd df13 f5bd
00000050: 06d2 d5be 0f0e d53d a690 27bd 39ee 553d
00000060: fb5e 3f3e 91f0 2d3e 0252 583e 523a 0b3e
00000070: e751 e43d 11ba 10be a8e6 1a3e d93b 223e
00000080: 069d 8dbd a8a6 0c3d 20d4 393e aedb 0d3e
00000090: 7586 4a3e 2a7d 3c3e 1ce4 183e 8fc8 3a3e
000000a0: a061 b93d 55e0 573e 9a88 463e 4a82 10be
000000b0: 1782 173e 98ed 203e 4620 e7bd 8713 433e
000000c0: 0c9d 0c3e cd8a eab9 ad56 523e 706c c33d
000000d0: afbc d3be 2712 533e 5f22 133e afb1 fcbd
000000e0: 1924 203e fd98 2f3e 55f7 273e 8412 003e
000000f0: 6579 3b3e a93b 1e3e af29 283e 9ad5 3a3d
00000100: 0a95 143e c35e 3a3e 76ae 583e 594f 7fbd
00000110: cbf2 693e 7578 013e 2bee 553c 616f 253e
00000120: a9b1 4d3e 892e 3f3e f785 643e 49f0 9a3d
00000130: 186a 343e 4108 5f3e cf9c 2a3e ea52 a7be
00000140: c50f 2d3e 5209 5a3e d550 e9bd 245b 1f3e
00000150: 5077 af3d 9c78 623e a51f 223e 35aa 073e
00000160: 4e10 88bd 3f87 573e 6b7f 2f3e 92fd 1d3e
00000170: 44a0 e53d 03b7 3c3e bc53 233e 088d f6ba
00000180: 7396 373e ba52 c8bd e859 cabd d5f8 663e
00000190: 1366 093e ce8e 19bd 9988 0c3e 87b6 163e
000001a0: 9bca 4a3e 91ed 793e 8b18 11be fc2f 3d3e
000001b0: 5eb1 013e 8a83 243e 37c8 6abd 1762 203e
000001c0: 8b99 d93d 0b6e 523e 00af fb3d f67b 623e
000001d0: 958f fabd c07b 353e 347c b93d 1324 24be
000001e0: 26c8 173e 8e53 553e 705f 203e 1379 a03d
000001f0: d241 173e d4ea 9f3d e4b3 7d3e 266e bd3d
-0.13883002 0.15304312 0.18391578 -0.11559659 0.16890526 0.19174278 0.20954014 0.20126103
0.22837883 0.13871033 0.17853406 0.2058807 0.18613227 0.010733573 0.10510948 -0.079115614
-0.08032857 0.17746186 -0.056677323 -0.11966681 -0.41761798 0.10403072 -0.040909432 0.05222914
0.18688576 0.169863 0.21125033 0.13596466 0.11148434 -0.14133479 0.15127051 0.15843143
-0.069147155 0.034338623 0.18147326 0.13853332 0.19777854 0.18407121 0.14930767 0.1824057
0.090518236 0.2108167 0.19388047 -0.14112201 0.14795719 0.15715635 -0.112854525 0.19050418
0.13731784 -0.00044735373 0.20540877 0.09542167 -0.41354892 0.20612393 0.1436858 -0.12338578
0.1563877 0.17148204 0.16402943 0.12507063 0.18308027 0.15452446 0.16422151 0.045613863
0.14509979 0.18200211 0.21160302 -0.06233153 0.22846524 0.12643607 0.013057272 0.16155769
0.20087303 0.18670096 0.22316729 0.07565362 0.17618597 0.21780492 0.1666138 -0.32680446
0.16900547 0.21292618 -0.113923706 0.15562111 0.08567679 0.22116321 0.15832384 0.13248523
-0.06643735 0.21047686 0.1713845 0.1542876 0.11212209 0.18429188 0.15949911 -0.0018810341
0.17928486 -0.09781404 -0.098804295 0.2255586 0.13417844 -0.037489705 0.13723983 0.14718066
0.1980385 0.2440703 -0.14169519 0.18475336 0.12665316 0.16065803 -0.057319846 0.15662418
0.10624989 0.2054979 0.12289238 0.221176 -0.12234417 0.17722988 0.09056893 -0.16029386
0.14822444 0.20832655 0.15661407 0.07835593 0.14771202 0.07808462 0.24775654 0.09249525

output.weight f4 [4, 128]
00000000: 93e6 123c 5cf3 8abe 61bf 6ebe 10b0 dc3c
00000010: 7dad 2e3d a3fa 363d ab49 a13d 9c9b a63d
00000020: 5255 2a3d 1256 2a3d d906 9f3d ea7e 903d
00000030: f08b 993d 8484 b1bd 053b 0c3d af96 c1bd
00000040: 3076 41be fd57 d23d 5627 abbe 7265 933b
00000050: 5863 98be d1ff e2bc 6981 2cbe 87c3 aebd
00000060: 3670 0f3d 7efb 463d 0d04 b43d 749c 71bd
00000070: 4de3 9cbd fdb5 ecba 2197 babd 5f6e 173d
00000080: 36eb 63be 0388 603d bfd7 003d 3a60 1d3d
00000090: a8b2 433d 6b0b 5f3d 8ab7 55bd c59e 8c3d
000000a0: 3b89 08bc 8eb8 813d 97ea 103d 510d 073d
000000b0: b7a1 193d 4ac9 223d 258f 013d 9fbb ce3c
000000c0: 8492 273d 1cdf 1fbe d66f 9e3d 74d0 febd
000000d0: abd9 8dbe 613f 743d 1210 123d 05b2 34bd
000000e0: 3b36 07be 48aa f23c edd3 ec3c 46c4 ef3c
000000f0: 84d1 1d3d de81 153d 919c 3a3d 028a a03d
00000100: 8be1 fa3c 9265 013d 3e6c a33d 1802 0fbe
00000110: 0ef0 5b3d e75c 183d c762 11bd 1534 56bd
00000120: ff2a 863d 5783 9e3d 3e55 963d 6707 89bd
00000130: 5627 c4bd 36c5 5e3d d03f 133d 5a03 81bd
00000140: 12ba 493d f0d8 6f3d a147 7dbd 90e7 393d
00000150: 8178 4c3d 938a 503d 2abe e33c 7fa5 04bd
00000160: e862 ccbe 4e6c 833d 13ec 1ebd 8014 2e3d
00000170: 57ca 6bbe 2cb6 543d 3c71 cb3c 23f9 02be
00000180: ab2e 6b3d c5cf 27be e549 943d 4cd3 9a3d
00000190: 48b9 3c3d 784e 68bc d48e 763d ac88 1e3d
000001a0: 4b44 4a3d d370 653d b59e 06ba b4dc 533d
000001b0: 359c 3cbe 5ec5 183d 042c 5fbe f72d 333d
000001c0: fdd0 71be 3657 d63d 89d0 203d ef9f 2b3d
000001d0: 5313 d23b 3a57 4a3d ca6e 00be 4f71 c6bc
000001e0: b553 3f3d efd9 833d e116 093d 0ac3 28bd
000001f0: 3d3f 803d 2b36 ddbc d27f 1ebb ca5d 993d
00000200: d9a9 363b dd05 05bd 5bac 88be 3cb0 293d
00000210: 7a29 3b3d d3a0 f43c e270 853d c1df 903d
00000220: 85b9 333d 0b2e 9f3d d492 ac3d 37fd 373d
00000230: 2d65 723d 41d9 b73d 41f5 0e3d bf84 9bbd
00000240: b73f eebd bba3 bd3d 4703 143c aa7d abbc
00000250: 2f89 9fbe 7953 4e3d 1cad 1d3d 83dd b33d
00000260: ba5d 6a3d 1859 893d 4c85 dc3d 1542 953d
00000270: 8277 573d c73b 103e 2188 a63d 9c25 043d
00000280: 7bb3 99bd 1398 b03d 50c2 803d a428 6a3d
00000290: 3c86 0c3d ecfb 863d 0125 0e3d 43b6 a13d
000002a0: d432 983d 470c b73d 58e5 303d f06f 503d
000002b0: 0dfc 823d 2537 b53d b833 f7bc 61c7 903c
000002c0: 889a 0b3d 8bce 8fbc 2bae 9c3d 21ed 193c
000002d0: 87b7 4abe 88da 8b3d a358 4c3d 8283 a73c
000002e0: 782a 65be 9723 343d 9ad9 523d 7534 593d
000002f0: 4b36 8b3d 8fb2 4a3d fc48 a53c 4b5d 8a3d
00000300: c5c2 523d 8fbe 7c3d f306 dc3d c7a1 48bd
00000310: 5764 483d 3218 cd3a 055b ba3d 6ae4 013d
00000320: f9bf c93d 7864 913d b074 473d f190 3e3c
00000330: 02c3 11be 9fde 783d a325 373d 29c3 f4bd
00000340: ba63 2f3e 7984 2b3d 15ed 0c3d 52ec 193d
00000350: 2a84 723d d658 993d 071e c83c f205 21bd
00000360: b8b2 923d a24d b33d a311 8dbc 7f02 333d
00000370: 8ca0 b1bd 65b3 483d a2df 0f3d 317e af3c
00000380: bae2 a13d a691 46bd 7cec 3abd 08da 6d3d
00000390: 9a3f 833d c1a5 23bd 304f 963d 4c54 8b3d
000003a0: d649 9b3d 19d4 7d3d 4bdf 41bc a68e a73d
000003b0: b77c 73be 5dd6 0c3d 9510 bebd 84de 4b3d
000003c0: f959 23be c57d ce3d 02b1 293d 1a44 863d
000003d0: 71ee 11bd 0120 a43d c835 a03d 4028 58bb
000003e0: 8310 e43c e685 933d 1efc 213d b2ef f03d
000003f0: 31af 893c 7e49 9a3d 5866 853d 256e 9e3d
0.008966106 -0.27138793 -0.23315193 0.026939422 0.04264592 0.04467262 0.07875379 0.08135149
0.041585274 0.04158599 0.07764978 0.07055457 0.07497394 -0.086678535 0.034235973 -0.09452569
-0.18892741 0.10270689 -0.33428448 0.004498177 -0.29763293 -0.027709873 -0.16846241 -0.08533388
0.035019122 0.048579685 0.08789835 -0.058987096 -0.07660542 -0.0018059608 -0.09110857 0.036970492
-0.22257695 0.05481721 0.03145575 0.038421847 0.0477778 0.05445425 -0.05217699 0.068662204
-0.0083335 0.06334029 0.035379972 0.032971684 0.03750774 0.039742745 0.031630654 0.02523595
0.040911213 -0.15612453 0.07736175 -0.12442103 -0.2770513 0.059630755 0.035659857 -0.044115085
-0.13204281 0.029622212 0.028909648 0.029268395 0.038529888 0.036500804 0.04555947 0.07838823
0.030625125 0.031591006 0.0797963 -0.13965642 0.05369573 0.037197974 -0.035494592 -0.052295763
0.065511696 0.07739895 0.073404774 -0.06690865 -0.09577815 0.054387294 0.03594953 -0.062994674
0.049249716 0.058556497 -0.06183589 0.04538685 0.04991961 0.050913405 0.027800638 -0.032384392
-0.3991921 0.06417142 -0.038799357 0.04250002 -0.23026405 0.051931545 0.024834268 -0.1279035
0.057417553 -0.16387852 0.07240657 0.07559833 0.046075135 -0.014178865 0.060194805 0.03870456
0.049381536 0.0560158 -0.00051353435 0.05172415 -0.18418963 0.0372976 -0.21794134 0.043745007
-0.23614879 0.10465853 0.039261375 0.04190057 0.006410995 0.049399592 -0.12542263 -0.024223952
0.04671069 0.06438052 0.033469085 -0.04120163 0.06262062 -0.027003368 -0.0024185074 0.07488592
0.0027872233 -0.032476295 -0.26693997 0.041427836 0.045693852 0.029861843 0.06515671 0.07073928
0.043878097 0.07772454 0.08426443 0.04491922 0.05917852 0.08976985 0.03490186 -0.07593679
-0.116332464 0.09259745 0.0090339845 -0.020933945 -0.3115935 0.050372574 0.038495168 0.087824844
0.05721829 0.067064464 0.10767612 0.07287995 0.052604206 0.14085303 0.08131433 0.03226243
-0.07504936 0.08622756 0.06287062 0.057167664 0.034307703 0.06591019 0.03470326 0.07896092
0.0743157 0.089378886 0.04318747 0.050888002 0.06395731 0.088484086 -0.030176029 0.017673196
0.03408292 -0.017554542 0.076504074 0.009394915 -0.19796573 0.06828791 0.049889218 0.02044845
-0.22379482 0.043979254 0.051477052 0.053028543 0.06797465 0.049486693 0.020176403 0.067560755
0.051455278 0.06170517 0.10743513 -0.048982408 0.048923817 0.001564747 0.09099392 0.031711973
0.09851069 0.07099241 0.048695266 0.011631236 -0.14234546 0.060759183 0.044713628 -0.11951286
0.17127886 0.041874383 0.034405787 0.03757889 0.059208073 0.07487647 0.02442838 -0.03931231
0.07162994 0.08755042 -0.017220324 0.043703552 -0.086732 0.04899921 0.035125382 0.021422477
0.07904573 -0.048478745 -0.045635685 0.05806926 0.064086154 -0.039952997 0.073393226 0.06803188
0.075824425 0.06196985 -0.011833022 0.08181505 -0.23778044 0.03438412 -0.092805065 0.049772754
-0.1595229 0.100825824 0.041428573 0.06555958 -0.035627786 0.08013917 0.07822758 -0.0032982975
0.027839905 0.072032735 0.03954708 0.11764468 0.01680717 0.07533549 0.06513661 0.07735852

output.bias f4 [4]
00000000: 5bdc e63f 3e63 c13f b38f d13f 2b37 cf3f
1.8035997 1.5108411 1.6371979 1.6188711
