checkpoints/state_size_37__action_size_4__hidden_layers_[256-256]__drop_p_0.5__seed_0__GAMMA_0.99__LR_0.0005__UPDATE_EVERY_50__BUFFER_SIZE_100000__BATCH_SIZE_64__TAU_0.001.pth (torch, 308311 bytes, 6 tensors)

hidden_layers.0.weight f4 [256, 37]
0	0xbe12c053	-0.14331178
1	0x3e02668c	0.12734431
2	0xbdc4e1b7	-0.09613364
3	0x3bc08d42	0.0058762142
4	0xbd845d48	-0.064631045
5	0xbdb8162a	-0.089886025
6	0xbe09bb24	-0.13450295
7	0xbc4cd0fa	-0.012500996
8	0x3daf4835	0.08558694
9	0xbe12b41c	-0.14326519
10	0x3d6eb960	0.058282256
11	0xbe0e1dc4	-0.13878542
12	0xbe13bb98	-0.1442703
13	0x3dd32020	0.10308862
14	0x3c8057f5	0.015666941
15	0xbe0db488	-0.13838398
16	0x3dcc0560	0.09961963
17	0xbd8a6366	-0.0675724
18	0x3e262a2c	0.16227025
19	0x3cbf1153	0.02332369
20	0xbdf2067a	-0.118176416
21	0xbd14b3c3	-0.036304247
22	0x3daac8ae	0.08339058
23	0x3c696d7c	0.0142472945
24	0xbe081178	-0.13287914
25	0xbd1b1604	-0.037862793
26	0xbe031643	-0.12801461
27	0x3ddc6db5	0.107631125
28	0x3e027a66	0.12742004
29	0x3dd96d7f	0.10616588
30	0xbe1a78db	-0.15085165
31	0x3d221277	0.03956839
32	0xbc5ea00e	-0.013587965
33	0xbdf75edb	-0.12078639
34	0xbd16f699	-0.036856268
35	0x3dc6c728	0.09705955
36	0xbe086211	-0.1331866
37	0xbe245a97	-0.16050182
38	0xbdf6392d	-0.12022624
39	0x3be5c1fa	0.007011649
40	0xbe2ee3a4	-0.17079026
41	0x3df3c98c	0.119036764
42	0x3e0ff414	0.14057952
43	0xbdd601ab	-0.10449537
44	0xbe963ca6	-0.29343146
45	0xbe8fa9b2	-0.28059155
46	0xbf4c11cd	-0.7971466
47	0x3d889e47	0.06670814
48	0xbd8eed90	-0.06978905
49	0xbde4ea69	-0.11177523
50	0xbd2eedfd	-0.042707432
51	0xbe6191d6	-0.22028288
52	0xbd27ece9	-0.04099742
53	0x3d86384e	0.06553708
54	0xbccf3004	-0.02529145
55	0xbd112fdb	-0.03544603
56	0x3b709264	0.003670835
57	0x3e365d89	0.17809118
58	0x3da04f66	0.07827644
59	0xbdff8dd6	-0.12478225
60	0x3dc7d73d	0.0975785
61	0xbe8ba1e0	-0.27271938
62	0x3d247428	0.040149838
63	0xbd3d4b71	-0.046214525
64	0xbdc9d3ef	-0.09854876
65	0xbe4cfbc9	-0.20017923
66	0xbe92312c	-0.2855314
67	0xbc9f7b19	-0.019467877
68	0x3ca6bbd8	0.020353243
69	0x3da6791f	0.08128571
70	0xbdb6b7b7	-0.089217596
71	0xbedd7926	-0.4325649
72	0xbd9a8e77	-0.07546704
73	0x3cc79f00	0.02436781
74	0xbe384cdf	-0.17998074
75	0xbdae4751	-0.08509696
76	0x3c1dfed7	0.009643278
77	0x3ddab6ad	0.10679374
78	0xbdaf9350	-0.085730195
79	0x3dbea8eb	0.09309562
80	0x3e541ed9	0.20714892
81	0xbb0acb16	-0.0021178178
82	0x3e596610	0.2123034
83	0x3ecde339	0.4021242
84	0x3d5d1556	0.053975426
85	0xbdd67932	-0.10472335
86	0xbd6452b5	-0.055742938
87	0xbc69f971	-0.014280663
88	0xbcfe7916	-0.031063598
89	0xbda3d94c	-0.080004305
90	0x3e5abe67	0.21361695
91	0x3c36fac9	0.01116819
92	0x3d258996	0.040414415
93	0x3ded2aea	0.11580451
94	0xbd61f2c9	-0.05516318
95	0x3ca384b3	0.019960737
96	0xbe0ebe34	-0.13939744
97	0xbd5207c7	-0.05127695
98	0x3e4d43a3	0.20045333
99	0x3db1aed3	0.08675923
100	0xbc7a10e5	-0.015262817
101	0x3d93d3e5	0.0721815
102	0xbcb2134e	-0.02173772
103	0x3d1b5688	0.03792432
104	0xbe22c4fa	-0.15895453
105	0x3d928425	0.07154111
106	0xbdc37ebf	-0.09545659
107	0xbc6af08c	-0.014339577
108	0x3e171d9d	0.1475739
109	0x3df9cc85	0.12197212
110	0xbc627768	-0.013822414
111	0xbd9dcb7e	-0.07704829
112	0xbdb3aca2	-0.087731615
113	0xbe18defc	-0.14928812
114	0x3df7f383	0.12106993
115	0x3d038134	0.03210564
116	0x3d8e9999	0.0696289
117	0x3c19da6c	0.009390455
118	0x3cac862b	0.02106007
119	0xbdf7b2a0	-0.12094617
120	0x3e5a1c08	0.21299756
121	0xbdd1a9a0	-0.102374315
122	0x3e011b86	0.12608156
123	0xbd396d31	-0.04527015
124	0x3e055cca	0.13023677
125	0x3dd38548	0.10328156
126	0x3c2a649e	0.010399966
127	0x3dc3157a	0.09525581
128	0x3e0ef6f1	0.13961388
129	0x3dcabe72	0.09899606
130	0x3dbf122b	0.09329637
131	0x3d5d6471	0.054050867
132	0x3d87722d	0.06613574
133	0x3d73e9df	0.05954921
134	0x3b5fc608	0.0034145135
135	0x3e339c5b	0.17540114
136	0xbda20b24	-0.07912281
137	0x3ca1deb2	0.01975951
138	0xbd0feb80	-0.0351367
139	0x3e3bd3c0	0.18342495
140	0x3e39688c	0.18106288
141	0x3cc4075a	0.023929287
142	0x3e489306	0.19587335
143	0xbcc1a780	-0.02363944
144	0xbe390efe	-0.18072125
145	0x3e6b0266	0.22950134
146	0xbcbd6303	-0.023118502
147	0xbd94ff60	-0.072752714
148	0xbe1a8089	-0.15088095
149	0x3d4fe459	0.05075488
150	0xbe1bd387	-0.1521741
151	0x3b80fef5	0.0039366432
152	0xbde96dab	-0.11397871
153	0xbdc68fae	-0.096953735
154	0x3b23da6a	0.002500201
155	0x3d287e15	0.041135866
156	0xbdcd8cfd	-0.10036657
157	0xbe4c76bb	-0.19967167
158	0x3e1d168b	0.1534063
159	0x3e16e9d4	0.14737636
160	0x3e16cfd8	0.14727724
161	0x3d207873	0.03917737
162	0x3cc0e47e	0.023546454
163	0x3e007ea7	0.12548314
164	0xbde4f32c	-0.11179194
165	0x3e0d18b5	0.13778956
166	0x3c8c3022	0.017112795
167	0xbe4dec2a	-0.2010962
168	0xbdbb6b64	-0.091513425
169	0x3ddd4296	0.10803716
170	0x3e0c1a11	0.13681819
171	0x3e17111e	0.14752623
172	0x3d868175	0.06567661
173	0x3e2ea515	0.17055161
174	0xbd24ebaf	-0.040263828
175	0xbd490fc5	-0.049087305
176	0x3dc45494	0.095864445
177	0xbe39dd5f	-0.18150853
178	0xbcd5fcef	-0.026121585
179	0xbd48c89f	-0.049019452
180	0xbd36d502	-0.044636734
181	0xbe25d115	-0.1619304
182	0xbd275b04	-0.040858284
183	0x3d96353c	0.073343724
184	0xbdac1b7d	-0.084036805
185	0xbe20b634	-0.15694505
186	0xbe296a7a	-0.16544524
187	0xbd2492e4	-0.04017915
188	0xbd3f629e	-0.046724908
189	0xbd793b14	-0.060847357
190	0xbd4a6574	-0.04941316
191	0x3e7a2d48	0.24431336
192	0x3da76866	0.08174209
193	0x3e395b2e	0.18101189
194	0x3d30a586	0.043126605
195	0x3caa9905	0.020824919
196	0xbd3d0f94	-0.046157435
197	0x3db0e937	0.08638232
198	0x3cee6bbc	0.029104106
199	0x3d7d8916	0.061898313
200	0xbb2115ff	-0.002457976
201	0xbde779d7	-0.11302536
202	0x3ab72df3	0.0013975486
203	0x3c8f93f6	0.017526608
204	0x3da372d2	0.079808846
205	0xbd79af40	-0.060958147
206	0x3c0104e6	0.007874703
207	0xbe02bc55	-0.12767155
208	0xbe0cc2d2	-0.13746193
209	0xbde79f0d	-0.113096334
210	0xbdfa797e	-0.12230204
211	0x3da0b37b	0.07846733
212	0x3ddb84d9	0.10718698
213	0xbe0aaa29	-0.13541473
214	0x3d9e5588	0.077311575
215	0xbe0c1f09	-0.13683714
216	0x3d9345d9	0.07191057
217	0x3c55cc8d	0.013049257
218	0xbdf1ca97	-0.11806219
219	0xbdd25247	-0.102695994
220	0x3e02369a	0.12716141
221	0xbd8234d0	-0.063577294
222	0x3d8a790f	0.06761371
223	0xbc0f1cd7	-0.008734903
224	0x3dc244b6	0.09485762
225	0x3da12d13	0.07869925
226	0xbc8b687e	-0.0170176
227	0xbc05de23	-0.008170637
228	0x3e2a0c77	0.16606317
229	0x3d497b8d	0.049190093
230	0x3ea41977	0.32050678
231	0x3f2e021f	0.67971987
232	0xbe21812e	-0.15771934
233	0xbd377e32	-0.044798084
234	0x3d4219b6	0.0473878
235	0xbbae625c	-0.005321784
236	0xbc78552b	-0.015157024
237	0x3cd8f873	0.026485657
238	0x3d47c008	0.04876712
239	0x3d1c0d4e	0.038098626
240	0x3da55046	0.080719516
241	0x3e151b48	0.14561188
242	0xbdf5248c	-0.119698614
243	0xbbee0352	-0.0072635794
244	0xbcdf2abe	-0.02724206
245	0xbcae60a4	-0.021286316
246	0x3d81adf4	0.06332007
247	0xbc047bfa	-0.008086199
248	0xbd604b6c	-0.054759428
249	0x3d3c2ca2	0.045941003
250	0x3e60604d	0.21911736
251	0x3e347f07	0.17626582
252	0x3e0a35cb	0.13497083
253	0x3d40427d	0.04693841
254	0x3e05138e	0.12995741
255	0x3db39f13	0.087705754

hidden_layers.0.bias f4 [256]
0	0xbd422ead	-0.047407795
1	0xbd5bd384	-0.053668514
2	0xbdc34d7d	-0.09536264
3	0xbe12608c	-0.14294642
4	0x3d2bcfd4	0.041946247
5	0x3d8593be	0.0652232
6	0x3cbebecc	0.023284338
7	0xbcd83a21	-0.026394906
8	0xbdf50f5c	-0.1196582
9	0x3d5d21ce	0.053987317
10	0x3d0703ae	0.032962494
11	0xbd5a967b	-0.053366166
12	0x3d4b7681	0.04967356
13	0x3daa9e18	0.08330935
14	0xbe471420	-0.19441271
15	0xbe25e256	-0.16199622
16	0xbe2c3f37	-0.1682099
17	0x3cde3726	0.027125906
18	0x3c8957c1	0.016765477
19	0xbdadd51f	-0.08487915
20	0x3d3e399e	0.046441667
21	0xbc965a2c	-0.018353544
22	0xbc8d9283	-0.017281776
23	0xbe277e69	-0.16356815
24	0xbdbd0f39	-0.09231419
25	0xbddc8b44	-0.1076875
26	0x3dcf88cc	0.10133514
27	0x3d925975	0.07145969
28	0xbdd658e1	-0.10466171
29	0x3c644478	0.01393234
30	0x3c673083	0.014110687
31	0x3ce0cd2a	0.02744158
32	0xbdbc1b9a	-0.09184952
33	0xbd1f3c96	-0.03887614
34	0x3ded5c07	0.115898184
35	0x3d919f80	0.071105
36	0x3e0d8f62	0.13824227
37	0x3dc054d0	0.09391177
38	0x3ce5aa01	0.028035166
39	0x3dce6249	0.1007734
40	0xbd81bc6f	-0.06334769
41	0x3e0f7e75	0.14013083
42	0xbe14039b	-0.144545
43	0x3d9aaf26	0.07552938
44	0xbcdeaebb	-0.027182927
45	0xbde1c1b5	-0.11023275
46	0x3dc451d9	0.09585924
47	0xbe68a6a3	-0.22719817
48	0xbe044ff6	-0.12921128
49	0x3d20369f	0.03911459
50	0xbe2d98b2	-0.1695278
51	0x3e00f9a3	0.12595229
52	0xbe527775	-0.20553382
53	0xbe58f6a0	-0.2118783
54	0x3dffbc11	0.12487043
55	0x3dd55213	0.10416045
56	0x3d54623a	0.05185149
57	0xbd09d458	-0.033649772
58	0xbd13108f	-0.035904463
59	0xbbc00cf0	-0.0058609173
60	0xbdb11a3d	-0.08647583
61	0xbd2abf4f	-0.041686352
62	0xbe463c9c	-0.19359058
63	0xbe2af2bf	-0.16694163
64	0xbe4d2576	-0.20033821
65	0x3d1d50e3	0.038407218
66	0xbbdc4ce3	-0.006723033
67	0xbe1e75c7	-0.15474616
68	0x3d0b86c8	0.034064084
69	0x3d2f2db6	0.042768203
70	0xbc5cfc0f	-0.01348783
71	0xbdf2755f	-0.11838793
72	0xbdaf2874	-0.08552638
73	0x3e098fdf	0.13433789
74	0xbe15b56e	-0.14619991
75	0xbdaca667	-0.08430176
76	0xbc8c0310	-0.017091304
77	0xbe1f8141	-0.1557665
78	0xbd7580ee	-0.05993741
79	0xbdca8532	-0.09888686
80	0xbe0d3dab	-0.13793056
81	0x3d0b1f47	0.033965375
82	0xbe0d57f2	-0.1380308
83	0xbc8f218e	-0.017472055
84	0xbdec2ed8	-0.11532372
85	0x3d25e759	0.040503833
86	0xbe228f93	-0.15875082
87	0x3ba2edf5	0.0049722143
88	0xbdf19096	-0.11795156
89	0xbd66280c	-0.056190535
90	0xbdb2878e	-0.08717261
91	0xbddc0e55	-0.10744921
92	0xbdb62d22	-0.08895327
93	0x3de590be	0.11209248
94	0x3d523c37	0.051326957
95	0xbd26720a	-0.0406361
96	0xbe12df3e	-0.14342973
97	0x3e01169f	0.12606286
98	0xbc6037e8	-0.013685204
99	0x3d363f23	0.044493806
100	0xbdcd76d8	-0.10032433
101	0xbd49491a	-0.04914198
102	0xbc3de24a	-0.011589596
103	0xbe074ea8	-0.13213599
104	0xbe164c5d	-0.14677568
105	0x3c2032f2	0.009777771
106	0x3d5890f2	0.052872606
107	0x3e2b5d0c	0.16734713
108	0xbcaa3099	-0.020775126
109	0x3d320199	0.043458555
110	0xbe126e4f	-0.14299892
111	0xbd8ea284	-0.06964591
112	0xbdf2e767	-0.11860543
113	0xbb663dc2	-0.0035132025
114	0xbd223937	-0.039605346
115	0xbe00d6e3	-0.12581973
116	0xbdf9e490	-0.12201798
117	0x3acf0366	0.001579386
118	0xbe4bf1eb	-0.19916503
119	0xbd59fae4	-0.053217784
120	0xbc901e69	-0.017592626
121	0xbe448106	-0.19189844
122	0x3dc03838	0.09385723
123	0xbd8ac908	-0.06776625
124	0x3d259272	0.040422864
125	0xbe27759d	-0.1635346
126	0xbe20684d	-0.15664788
127	0x3e0d0d6a	0.13774648
128	0x3c479fe7	0.01218412
129	0xbc993836	-0.018703561
130	0xbe209a00	-0.15683746
131	0x3e0c9e9a	0.13732377
132	0x3dbfe5c7	0.093699984
133	0x3d1567cf	0.036475953
134	0xbdb7218f	-0.08941948
135	0xbd67fe92	-0.05663926
136	0xbdfda44d	-0.123848535
137	0xbe7acc89	-0.24492086
138	0xbbe7982d	-0.0070677013
139	0x3d522282	0.05130244
140	0xbdef3ba3	-0.11681297
141	0x3d3e5256	0.04646524
142	0xbd07b246	-0.033129
143	0x3df96939	0.12178273
144	0xbe019731	-0.12655331
145	0xbd2948c7	-0.04132917
146	0x3d973cd7	0.07384651
147	0xbcb5d524	-0.02219636
148	0xbe140162	-0.14453653
149	0x3d81f5a5	0.06345681
150	0xbcc08aef	-0.023503749
151	0x3df3a982	0.118975654
152	0x3dfd8798	0.12379378
153	0x3d54da6c	0.051966116
154	0x3d778856	0.060432754
155	0xbe5d0c6b	-0.21586768
156	0xbde17d9c	-0.11010286
157	0xbd83cab4	-0.06435147
158	0xbe3eddfe	-0.18639371
159	0x3da5393e	0.08067559
160	0xbe55338e	-0.20820448
161	0xbda716b6	-0.08158629
162	0x3d1fc8ea	0.039009966
163	0x3db6867d	0.0891237
164	0xbc90dfdc	-0.01768487
165	0xbcf5cbf6	-0.030004483
166	0xbdee3a0d	-0.11632166
167	0x3d0b1afd	0.033961285
168	0xbdf7ba54	-0.12096086
169	0x3de069a8	0.10957652
170	0x3d0a2e99	0.033735845
171	0xbe56e98a	-0.20987526
172	0x3d37e039	0.04489157
173	0xbd51716e	-0.051133566
174	0x3d46266f	0.048376497
175	0xbb6effe1	-0.0036468434
176	0xbdf97e1b	-0.12182256
177	0x3da46aea	0.08028205
178	0xbdfe3acc	-0.12413558
179	0x3dbd9107	0.092561774
180	0x3da07dfa	0.07836528
181	0xbd1bc510	-0.03802973
182	0x3dd6b3ea	0.10483535
183	0xbd5fd574	-0.054646924
184	0x3da25bfb	0.079277
185	0x3d75e0b3	0.060028743
186	0x3d53a1b8	0.0516679
187	0xbe150d6a	-0.14555898
188	0x3cc3bd5c	0.023894005
189	0xbde71c49	-0.11284692
190	0x3ce538c3	0.027981168
191	0x3d9afd7b	0.07567879
192	0xbc9e3179	-0.0193107
193	0xbe1ffe00	-0.15624237
194	0x3d05ba8f	0.03264862
195	0xbd7fd630	-0.062460124
196	0x3b949587	0.0045344266
197	0xbe481a04	-0.19541174
198	0xbd390ad6	-0.04517635
199	0x3da3ef71	0.08004654
200	0xbcfd90f6	-0.030952912
201	0xbd7c510a	-0.061600722
202	0xbd2b42e2	-0.04181183
203	0xbcc4affd	-0.024009699
204	0x3e01f4d3	0.1269105
205	0xbe416aac	-0.18888348
206	0x3cc59f7c	0.0241239
207	0xbe6428bc	-0.22281164
208	0xbda6e1ff	-0.08148574
209	0xbc0c603d	-0.008567867
210	0xbb9188df	-0.004441365
211	0x3e1d5440	0.1536417
212	0xbc8dc5d3	-0.017306244
213	0x3de5862f	0.11207234
214	0xbdebffb3	-0.1152338
215	0xbe1f37cb	-0.15548627
216	0xbe08731e	-0.13325164
217	0xbc54d136	-0.012989333
218	0xbc8de207	-0.017319692
219	0xbc7851ad	-0.015156192
220	0x3ccb9b83	0.024854427
221	0x3ce1810f	0.02752736
222	0x3c2468b0	0.010034725
223	0xbdec681c	-0.11543295
224	0xbd18657e	-0.037206165
225	0xbdb79eed	-0.089658596
226	0xbd5605a6	-0.05225148
227	0x3c626e14	0.01382019
228	0xbdf303e9	-0.1186598
229	0xbc0ea6c0	-0.0087067485
230	0xbe522d31	-0.20525052
231	0xbd151e70	-0.03640598
232	0xbd69a130	-0.057038486
233	0xbd3cffc5	-0.04614236
234	0xbd9f8979	-0.07789893
235	0x3ca69850	0.0203363
236	0xbd10a256	-0.035311066
237	0xbd8e8c9b	-0.06960412
238	0x3d788511	0.060673777
239	0xbe170d75	-0.14751227
240	0x3d8c924f	0.06863844
241	0xbd619ebd	-0.055083025
242	0x3dbd31a2	0.09237982
243	0xbddb5796	-0.10710065
244	0xbe1688b6	-0.14700589
245	0x3bf06f5c	0.007337494
246	0xbe0647db	-0.13113348
247	0x3c6b927b	0.014378185
248	0xbe0f6501	-0.14003374
249	0xbe478306	-0.19483575
250	0x3ce97ec0	0.028502822
251	0x3dbf59d8	0.09343308
252	0x3e26910a	0.16266266
253	0xbe15e453	-0.1463788
254	0xbe4ae088	-0.19812214
255	0xbe1fc039	-0.15600671

hidden_layers.1.weight f4 [256, 256]
0	0xbc3437f6	-0.01099967
1	0x3cb7ce14	0.022437133
2	0xbd3f19c1	-0.04665542
3	0xbcf5a716	-0.0299869
4	0xbc920287	-0.01782347
5	0xbc8febf6	-0.01756857
6	0xbd870801	-0.065933235
7	0xbc77ce9b	-0.015124942
8	0x3bf1762f	0.007368825
9	0xbc3fc906	-0.011705643
10	0xbd8e08ba	-0.06935258
11	0x3cd419cb	0.025891205
12	0x3b1caf60	0.0023908243
13	0xbcb135c5	-0.021632085
14	0xbd28d391	-0.04121739
15	0xbd9a166c	-0.07523808
16	0xbb4c79a6	-0.0031200438
17	0x3d1ffbf9	0.03905866
18	0x3c911c20	0.017713606
19	0x3cccb173	0.024986958
20	0xbd4e5324	-0.050372258
21	0x3cbcce35	0.023047546
22	0xbcad80fa	-0.021179665
23	0xbd11ae9e	-0.03556692
24	0x3c93d9ba	0.018048156
25	0x3c7841d2	0.015152412
26	0xbd28cee4	-0.04121293
27	0xbce4577c	-0.027873747
28	0xbd5eb8cb	-0.05437545
29	0x3a12e062	0.00056028937
30	0xbd0624fa	-0.032750107
31	0xbd1a993b	-0.03774379
32	0xbd42e450	-0.047581017
33	0xbda15708	-0.07877928
34	0xba485e67	-0.00076434616
35	0x3c9b0aa1	0.018925967
36	0x3b90578c	0.0044049677
37	0xbcf8cd6b	-0.030371388
38	0xbd806ef9	-0.06271166
39	0xbd427948	-0.047478944
40	0x3c8853c9	0.016641514
41	0x3c93f4a8	0.018060997
42	0xbd6631e9	-0.05619994
43	0xbbf461f2	-0.007457965
44	0xbdc19f22	-0.0945418
45	0xbcebde73	-0.028792595
46	0xbda29c6a	-0.0793999
47	0x3d14e560	0.03635156
48	0x3d21f1ee	0.039537363
49	0x3ac5d659	0.0015093788
50	0xbd6f65c5	-0.058446664
51	0x3b3ecf0a	0.0029115104
52	0x3c756b90	0.014979258
53	0xbc3186e6	-0.010835385
54	0xbd264bd5	-0.040599663
55	0xbd85645a	-0.06513281
56	0xbcfcaeda	-0.030845094
57	0x3c8655e8	0.016398385
58	0xbc9ed2f7	-0.019387705
59	0x3be210fc	0.0068989974
60	0x3ce142d1	0.02749768
61	0xbdbce508	-0.09223372
62	0xbc4f8fcc	-0.012668561
63	0xbc4f086b	-0.012636284
64	0x3bdbd5a0	0.0067088157
65	0xbd31cc3b	-0.04340766
66	0xbd7a56e0	-0.061118007
67	0xbd5bb464	-0.05363883
68	0xbc550bdb	-0.013003315
69	0x3bad8d22	0.0052963654
70	0x3cc488cd	0.023991013
71	0x3cbc10ca	0.022957224
72	0xbdde5d66	-0.10857658
73	0x3d76579e	0.060142152
74	0xbd5a1a40	-0.05324769
75	0xbdb7d5a8	-0.089762986
76	0x3cb9d7b8	0.02268587
77	0x3b2628f8	0.002535401
78	0x3c294325	0.01033095
79	0xbc23a36a	-0.009987691
80	0x3c1145a1	0.0088666985
81	0x3c330550	0.01092656
82	0xbc541938	-0.012945466
83	0xbbfee6ef	-0.0077789943
84	0xbd26afaf	-0.04069489
85	0xbd3d3e37	-0.04620191
86	0x3cf4cd99	0.029883193
87	0xbc170d1f	-0.009219437
88	0x3c97b880	0.018520594
89	0xbd3c5df6	-0.045988046
90	0x3ce76e66	0.028250884
91	0x3cbb29ab	0.022847017
92	0x3b842797	0.00403304
93	0x3c72afb5	0.0148124
94	0xbd6c9866	-0.057762526
95	0xbd912d63	-0.07088735
96	0x3d2da631	0.04239482
97	0x3c5234f0	0.012830004
98	0xbc93a6e2	-0.018023912
99	0xbc87ab51	-0.016561182
100	0xbc477c6a	-0.012175659
101	0xbd12f975	-0.035882432
102	0xbb89eaab	-0.004208883
103	0xbd8e385e	-0.06944345
104	0xbceb886a	-0.02875157
105	0xbd017aba	-0.03161118
106	0x3d6618ce	0.056176
107	0xbd9f7b56	-0.07787196
108	0xbd9e33b7	-0.077247076
109	0xbd8ecc31	-0.0697254
110	0x3c8bf937	0.017086608
111	0x3c9c3eb9	0.019072877
112	0x3bbcd3b1	0.0057625403
113	0xbb96a14f	-0.004596866
114	0x3b4311cc	0.0029765246
115	0xbca973b0	-0.020685047
116	0x3cdbdec1	0.026839616
117	0xbd6399d9	-0.055566642
118	0xbc818598	-0.015810773
119	0x3d165722	0.03670419
120	0xbc3f87d0	-0.011690095
121	0x3cde0444	0.027101643
122	0x3c5ba81b	0.013406779
123	0x3bccdc06	0.006251815
124	0xbc67361c	-0.014112022
125	0xbd6a75cf	-0.057241257
126	0xbce4dc11	-0.027936967
127	0xbc405016	-0.011737844
128	0xbd3c3d33	-0.0459568
129	0xbdb1018c	-0.08642873
130	0x3c8f34a4	0.017481156
131	0xbc00274c	-0.007821869
132	0x3c41969b	0.011815692
133	0xbd815250	-0.06314528
134	0xbc411a67	-0.01178608
135	0xbc5e0967	-0.013552046
136	0xbd9502f0	-0.07275951
137	0xbdbd67c0	-0.09248304
138	0xbd13dd5e	-0.036099784
139	0xbd2f3c4a	-0.042782106
140	0x3d05ba43	0.032648336
141	0xbc0c23f3	-0.008553493
142	0xbda791fc	-0.08182141
143	0xbd9baa0a	-0.07600792
144	0xbd2f37d7	-0.042777862
145	0x3cd62d42	0.026144627
146	0x3c467d8f	0.012114896
147	0xbcfbc64c	-0.030734204
148	0x3d3b275f	0.045691844
149	0xbc351a2a	-0.011053601
150	0x3d50e6d2	0.051001377
151	0xbbebc961	-0.007195637
152	0x3a1e1073	0.0006029673
153	0xbd576ad0	-0.0525921
154	0xbcf36f13	-0.02971605
155	0x3d4946e3	0.04913987
156	0xbd22ac47	-0.039715078
157	0xbd952dbd	-0.072841145
158	0x3ca1286b	0.019672593
159	0xbc38bbb7	-0.011275223
160	0xbcf3384c	-0.02968993
161	0xbda1fb5a	-0.0790927
162	0xbcad0212	-0.021119151
163	0xbd1a2bbf	-0.037639376
164	0x3d2b453b	0.04181407
165	0xbd308023	-0.04309095
166	0xba1946fd	-0.0005847065
167	0xbd70026f	-0.05859607
168	0xbce22367	-0.027604772
169	0x3caac146	0.020844113
170	0xbd5015e3	-0.050802123
171	0x3bbc016f	0.0057374756
172	0xbcf84bcd	-0.030309582
173	0xbd39bb25	-0.04534449
174	0xbd4dd806	-0.050254844
175	0x3cc3b20f	0.023888616
176	0xbbb8bb1a	-0.0056375386
177	0x3cb7248e	0.022356298
178	0xbd3e537d	-0.04646634
179	0x3c2aa9d1	0.010416464
180	0x3bddc35e	0.0067676743
181	0x3befcdc0	0.0073182285
182	0xbcb79d35	-0.02241383
183	0xbd548584	-0.051885143
184	0xbd49732f	-0.049182113
185	0xbbd937f7	-0.006628986
186	0xbd5672d3	-0.0523556
187	0x3d2ca7ba	0.042152144
188	0xbd1d7211	-0.03843886
189	0x3cde4de1	0.027136745
190	0xbd29dafc	-0.041468605
191	0x3c7c673c	0.015405472
192	0xbcd1d0c3	-0.02561224
193	0xbd882b63	-0.066489
194	0x3cd410c9	0.02588691
195	0x3be49967	0.006976295
196	0x3c930ea6	0.01795132
197	0xbd09e403	-0.033664715
198	0xbd804a5f	-0.06264185
199	0x3cbfe666	0.023425292
200	0xbd60bae8	-0.054865748
201	0x3c9d3fea	0.019195516
202	0x3b7f1328	0.003892133
203	0xbd2992a0	-0.041399598
204	0x3c8769af	0.016529886
205	0xbd78690f	-0.060647067
206	0xbd2094ec	-0.039204523
207	0x3d30641f	0.043064233
208	0xbd0e91e5	-0.034807105
209	0xbda991c0	-0.08279753
210	0xbce6175c	-0.02808731
211	0xbc8c0831	-0.01709375
212	0x3c216a9f	0.009852081
213	0xbd869d32	-0.065729514
214	0xbd0bee52	-0.034162827
215	0x3c7123a3	0.014717969
216	0xbc72e7e4	-0.014825795
217	0xbd92f523	-0.07175662
218	0xbd7f5976	-0.062341176
219	0xbd6a9f22	-0.057280667
220	0xbdaaeb28	-0.08345634
221	0xbd867ad7	-0.065663986
222	0xbc3a282e	-0.011362119
223	0xbc9c58f9	-0.019085394
224	0xbd870c0a	-0.06594093
225	0xbb93e1df	-0.00451301
226	0xbce78b19	-0.02826457
227	0x3ca73102	0.020409111
228	0x3b731957	0.003709396
229	0xbd97cb9f	-0.074118845
230	0x3ba2a470	0.00496345
231	0x3d165210	0.036699355
232	0xbd732028	-0.05935684
233	0xbd2f55cc	-0.04280643
234	0xbc70f248	-0.014706202
235	0xbc14d000	-0.009082794
236	0xbcc9789b	-0.024593642
237	0xbcddb805	-0.027065286
238	0xbd162ef2	-0.036665864
239	0x3d277aa4	0.040888444
240	0xbd8cadf6	-0.06869118
241	0x3d18d04e	0.03730803
242	0x3c79ba67	0.015242196
243	0xbaa24a09	-0.0012381683
244	0xbd569f9e	-0.052398317
245	0xbd7b1c89	-0.06130651
246	0x3d245196	0.04011687
247	0x3c9a7412	0.018854175
248	0xbd0abc97	-0.03387126
249	0x3cad02e8	0.02111955
250	0xbd9a58d1	-0.07536472
251	0xbd7ab899	-0.061211202
252	0xbcf4c1bf	-0.029877542
253	0xbd3c8be7	-0.04603186
254	0x3cc43db3	0.023955202
255	0xbd5d0e82	-0.053968914

hidden_layers.1.bias f4 [256]
0	0xbc51451d	-0.012772826
1	0xbd9fb332	-0.07797851
2	0x3d1e615b	0.038667064
3	0xbdc437ab	-0.0958093
4	0xbcaa9015	-0.020820657
5	0xbdae7d29	-0.08519966
6	0xbd437a9c	-0.04772435
7	0xbdc0999a	-0.09404297
8	0x3c9327ad	0.017963255
9	0x3e181333	0.14851074
10	0xbdc14ce1	-0.094384916
11	0xbcfefcb0	-0.03112635
12	0xbd86d294	-0.06583133
13	0x3b25e8dc	0.0025315797
14	0xbd111db4	-0.035428718
15	0xbca88011	-0.02056888
16	0x3d1da30a	0.038485564
17	0x3c9c5982	0.01908565
18	0x3d9726c3	0.0738044
19	0xbd04c13d	-0.03241085
20	0x3c113f47	0.008865184
21	0xbda435f5	-0.08018104
22	0x3e007c4e	0.12547418
23	0x3e0f817d	0.1401424
24	0xbcd574c4	-0.026056655
25	0xbbd0b42b	-0.006369134
26	0xbb90da09	-0.004420523
27	0x3d896603	0.0670891
28	0x3c12008f	0.008911266
29	0xbdbe3c42	-0.09288837
30	0xbd3d5a62	-0.046228774
31	0xbcf07fe2	-0.029357854
32	0xbc737570	-0.014859542
33	0xbd981adf	-0.07427
34	0xbdc069c9	-0.09395177
35	0x3cdfd2b8	0.027322158
36	0x3d220351	0.039553944
37	0xbd5d8e5a	-0.054090835
38	0xbd0650e2	-0.03279198
39	0x3da13be9	0.07872755
40	0xbc97d824	-0.018535681
41	0x3e0d8c9c	0.1382317
42	0xbadbac41	-0.001675971
43	0xbd91d805	-0.071212806
44	0x3cd04768	0.025424674
45	0xbd2c1e71	-0.04202122
46	0x3c0c6d12	0.008570926
47	0xbcd58f33	-0.02606926
48	0x3de099c3	0.10966828
49	0x3e133085	0.14373977
50	0xbb03459b	-0.0020030502
51	0xbd3ae9cf	-0.045633134
52	0xbd81503e	-0.06314133
53	0xbd6016e6	-0.054709338
54	0x3d18e184	0.037324443
55	0xbbfcc4ca	-0.007713889
56	0x3de56cec	0.11202416
57	0x3df4b10a	0.1194783
58	0xbd0c6c59	-0.034283016
59	0xbdc88317	-0.097906284
60	0xbcd125e5	-0.025530765
61	0x3daf4a8c	0.085591406
62	0xbc0c6bf8	-0.008570664
63	0xbb7dabb4	-0.003870708
64	0xbd750859	-0.059822414
65	0xbd5acc20	-0.053417325
66	0x3d0f949a	0.035053827
67	0xbd9b386f	-0.07579123
68	0xbc910103	-0.017700678
69	0xbc954941	-0.018223407
70	0x3d8bc73e	0.06825112
71	0x3d151c8c	0.036404178
72	0xbd139116	-0.036027037
73	0xbd23765c	-0.0399078
74	0x3d5b3b81	0.053523544
75	0x3dc88abd	0.09792087
76	0xbd5a2447	-0.053257253
77	0xbd88d7f1	-0.066818126
78	0xbda75e4e	-0.08172284
79	0xbdcb6764	-0.099318296
80	0xbc96a876	-0.018390875
81	0x3e03fb2b	0.12888782
82	0x3d31dd08	0.043423682
83	0xbdb5fbd3	-0.08885922
84	0xbd8f6d80	-0.07003307
85	0xbd392f69	-0.04521123
86	0xbb1a99b1	-0.0023590142
87	0x3d2153bd	0.0393865
88	0x3d71abca	0.05900172
89	0xbd143eec	-0.03619282
90	0x3b22ad1e	0.0024822424
91	0xbdb9c3c8	-0.090705454
92	0x3dde6e35	0.10860864
93	0xbddadb62	-0.10686375
94	0xbd944606	-0.072399184
95	0xbc983e54	-0.018584408
96	0xbdc28143	-0.09497311
97	0x3dc3f36f	0.09567916
98	0x3d98df4d	0.07464466
99	0xbda0b39a	-0.07846756
100	0x3c511e72	0.012763606
101	0xbd87236b	-0.06598552
102	0xbb295ebb	-0.0025843817
103	0x3db92f11	0.0904218
104	0xbd89de5f	-0.06731867
105	0xbc3a4944	-0.011370007
106	0x3dcded73	0.100550555
107	0xbddf6b9d	-0.109091975
108	0xbd36cfed	-0.044631887
109	0xbdc8f61e	-0.09812568
110	0x3d44f167	0.04808178
111	0xbdc2959a	-0.095011905
112	0x3e183e97	0.14867626
113	0x3cb84479	0.022493588
114	0xbdd1cc46	-0.1024404
115	0xbdaebaf7	-0.085317545
116	0xbb46c3d0	-0.0030329116
117	0xbd9333ed	-0.071876384
118	0xbca235d4	-0.019801058
119	0xbd80b6ba	-0.06284852
120	0xbc4b6610	-0.01241447
121	0x3c4b65dc	0.012414422
122	0x3de2410a	0.110475615
123	0x3c6345c3	0.013871613
124	0xbd08387b	-0.03325699
125	0xbd69d56e	-0.057088308
126	0x3e0b96ab	0.13631694
127	0xbd02e078	-0.03195235
128	0xbd91738b	-0.07102116
129	0x3dbc7cc8	0.09203488
130	0xbc74e736	-0.014947703
131	0xbc79f140	-0.015255272
132	0xbd7f227f	-0.062288757
133	0x3db64ce9	0.08901388
134	0xbd395e32	-0.045255847
135	0xbd590796	-0.05298575
136	0xbd1a9e02	-0.037748344
137	0x3d3fc997	0.04682311
138	0xbdd90350	-0.10596335
139	0xbcbd965d	-0.023142988
140	0x3beb2099	0.007175517
141	0xbccc4ed2	-0.024939928
142	0xbdb3fd21	-0.08788515
143	0xbd365861	-0.04451788
144	0xbdd07839	-0.10179181
145	0x3d59c25b	0.053163867
146	0xbd1f6247	-0.038912084
147	0xbd856b0d	-0.06514559
148	0xbc9d4397	-0.019197268
149	0xbc92fe51	-0.017943533
150	0x3c4574aa	0.012051741
151	0x3c4deb80	0.012568355
152	0x3cd84505	0.026400099
153	0xbc1d4be1	-0.0096006105
154	0xbd6c126c	-0.057634756
155	0xbd627b9f	-0.055293676
156	0xbd65200f	-0.055938777
157	0x3c9ee36c	0.019395553
158	0xbd8053b4	-0.06265965
159	0xbc044c3c	-0.008074816
160	0xbd109b63	-0.03530444
161	0x3df5508d	0.119782545
162	0xbdd6a1e1	-0.10480095
163	0xbc40cc95	-0.011767526
164	0x3ddd5a78	0.10808271
165	0xbda6838e	-0.08130561
166	0xbd857c2f	-0.06517827
167	0xbb9ed746	-0.00484744
168	0x395a45b8	0.00020816072
169	0xbd8b1919	-0.067918964
170	0x3d3bc901	0.04584599
171	0x3d0388e9	0.03211299
172	0xbd9808b5	-0.07423536
173	0xbc984962	-0.01858968
174	0xbcb5fdd3	-0.02221576
175	0xbd5e9088	-0.054337054
176	0x3c749eaf	0.014930411
177	0x3d970acb	0.073751055
178	0xbdc13f87	-0.09435945
179	0xbdc1125c	-0.0942733
180	0xbd64a2ee	-0.055819444
181	0xbd2d907f	-0.04237413
182	0x3dfb6d62	0.122767225
183	0xbd9d53f1	-0.07682026
184	0xbddf18fa	-0.10893436
185	0xbd8d789f	-0.06907772
186	0x3d3fced2	0.0468281
187	0xbda3d952	-0.08000435
188	0xbcf4683d	-0.029834861
189	0xbd18a04a	-0.03726224
190	0xbdbee811	-0.09321607
191	0x3e11bc49	0.14231981
192	0xbd253cd4	-0.040341213
193	0xbc0febb7	-0.008784226
194	0x3dba97f9	0.09111018
195	0xbd6349a7	-0.055490162
196	0xbc3ec2d0	-0.011643127
197	0x3d34f116	0.04417523
198	0x3dc89681	0.09794331
199	0x3e0309f3	0.12796764
200	0x3de5482d	0.11195407
201	0xbc93ae6c	-0.018027507
202	0xbda2c19f	-0.079470865
203	0xbc5f9047	-0.013645238
204	0xbcca4236	-0.024689775
205	0xbcd40505	-0.0258813
206	0x3de534de	0.11191724
207	0xbd56b4d9	-0.052418564
208	0xbc46eea1	-0.0121418545
209	0xbcc3c830	-0.023899168
210	0x3ccbfe0a	0.024901409
211	0x3e02048c	0.12697047
212	0xbdad28e4	-0.08455065
213	0xbd329f45	-0.043608923
214	0xbd14ccda	-0.036328174
215	0xbda7453b	-0.081675015
216	0x3c179249	0.009251186
217	0x3d6b3b44	0.057429567
218	0xbd68a142	-0.056794412
219	0x3dd2d263	0.10294034
220	0xbbb59b0b	-0.005542164
221	0x3d818795	0.06324688
222	0xbda5f776	-0.0810384
223	0xbd5d8107	-0.05407813
224	0x3d09789e	0.033562295
225	0xbda1048d	-0.07862196
226	0xbd21c198	-0.039491266
227	0xbcf7d2da	-0.030251909
228	0xbd9e76fa	-0.07737537
229	0x3d3f2615	0.046667177
230	0x3e02938b	0.12751596
231	0xbddf0c5a	-0.10891028
232	0xbcaf4cc1	-0.021398904
233	0x3d5159a5	0.051110882
234	0xbcc1a8cc	-0.023640059
235	0xbd2d71a7	-0.042344715
236	0xbc6a553a	-0.014302546
237	0xbd8a50a9	-0.06753666
238	0xbd482620	-0.048864484
239	0x3ce4d7c3	0.027934914
240	0xbca51e33	-0.020156002
241	0xbdaf3b37	-0.08556216
242	0xbd86bf98	-0.06579512
243	0xbd9df4ff	-0.07712745
244	0xbdcdefc0	-0.10055494
245	0xbcb19bf0	-0.021680802
246	0xbd46f75a	-0.048575737
247	0x3ddb0bdb	0.106956206
248	0xb996cd43	-0.0002876316
249	0xbcfdb568	-0.03097029
250	0x3c99638c	0.018724225
251	0xbd802fe0	-0.062591314
252	0xbdc94f7a	-0.09829612
253	0xbc5e71bd	-0.013576922
254	0x3c4155a4	0.0118002035
255	0xbd60b529	-0.054860268

output.weight f4 [4, 256]
0	0xbc646b00	-0.013941526
1	0xbcbd7529	-0.023127155
2	0x3c9e6aa3	0.019337958
3	0x3d364613	0.04450042
4	0xbd61826f	-0.05505603
5	0x3b3eab91	0.002909396
6	0x3d506730	0.050879657
7	0x3ad6517b	0.0016351187
8	0xbc959175	-0.018257836
9	0x3d08afdd	0.03337084
10	0x3d4ab6e5	0.049490828
11	0xbd065dca	-0.032804288
12	0x3cba0d13	0.022711312
13	0x3c8716f9	0.016490446
14	0xbb58b27c	-0.003306537
15	0xbcaca3ae	-0.021074142
16	0x3d250818	0.040290922
17	0x3d80d6fb	0.06291004
18	0x3d79c93c	0.060982928
19	0xbd4e2152	-0.050324745
20	0x3d4549d3	0.048166107
21	0xbc225ce4	-0.009909842
22	0x3d25b349	0.040454183
23	0x3d1c2297	0.038118925
24	0xbc1108a4	-0.008852158
25	0x3d4a0d7b	0.049329262
26	0xbc241b6f	-0.010016306
27	0x3cb2f0b1	0.021843286
28	0xbc1a7c3a	-0.009429032
29	0xbcf36629	-0.0297118
30	0x3bde96a6	0.006792861
31	0xbc8e0cc3	-0.01734007
32	0xbc9bf475	-0.019037465
33	0xbdb71f4b	-0.089415155
34	0x3c9d508b	0.019203445
35	0x3c2a65ec	0.010400277
36	0xbd9f06d8	-0.07764977
37	0x3c3ba1da	0.011452163
38	0xbb987dbf	-0.004653662
39	0x3d444512	0.047917433
40	0x3b23e457	0.0025007927
41	0x3cb5160d	0.022105241
42	0xbc16c466	-0.0092020985
43	0xbae6940c	-0.0017591729
44	0x3d0a96f4	0.033835366
45	0x3ca9846f	0.020693032
46	0x3c20dc67	0.009818173
47	0xbc7521c1	-0.014961661
48	0x3d03a24a	0.032137193
49	0x3d1f4545	0.03888442
50	0xbb029cc4	-0.0019929865
51	0x3a3a7a33	0.0007113546
52	0xbc1bd989	-0.009512314
53	0xbcd4b5b3	-0.025965547
54	0x3dbcd907	0.09221082
55	0x3a06f70a	0.0005148506
56	0x3ca825dc	0.020525865
57	0x3d1cce5d	0.03828274
58	0x3d1fee1f	0.03904545
59	0xbbd40bbf	-0.006471127
60	0x3b67ff51	0.0035399983
61	0x3ceaef85	0.028678665
62	0x3d03eb40	0.032206774
63	0x3c2a115b	0.010380114
64	0x3d18089e	0.037117593
65	0xb9a55272	-0.0003153268
66	0xba8539d3	-0.0010164328
67	0xbb319228	-0.0027095173
68	0x3c97eb95	0.018544951
69	0x3d8d4614	0.06898132
70	0x3d1775ed	0.036977697
71	0x3d3df33b	0.04637454
72	0x3d49bb28	0.04925075
73	0xbbd88b7b	-0.0066084242
74	0x3ca7dbbd	0.020490522
75	0x3cb01929	0.021496372
76	0xbc9c7da0	-0.019102871
77	0x3c75e36c	0.015007835
78	0x3bf15a51	0.007365503
79	0x3bad7da7	0.00529452
80	0x3cbc10a4	0.022957154
81	0x3d44cb60	0.048045516
82	0x3d5c4090	0.05377251
83	0xbc2e5dba	-0.010642463
84	0xbcb3d06a	-0.021949966
85	0xbc056180	-0.008140922
86	0xb9876b1b	-0.00025829006
87	0x3d80d03e	0.06289719
88	0x3b89a0d8	0.0042000823
89	0x3d70e0ee	0.05880826
90	0x3bd29984	0.006426992
91	0x3b488d49	0.003060179
92	0x3d0322aa	0.03201548
93	0x3bf6b9ad	0.0075294585
94	0xbce5d73d	-0.028056735
95	0x3c339b1d	0.010962275
96	0x3c881398	0.016610906
97	0x3d1b652d	0.037938286
98	0x3c38fd67	0.011290885
99	0xbc957f32	-0.018249128
100	0xbcc4a552	-0.024004612
101	0x3909343d	0.00013084798
102	0xbd77f920	-0.06054032
103	0x3ccc0209	0.024903314
104	0xbcde2481	-0.027117016
105	0x3ccc7465	0.024957845
106	0x3ccd255f	0.025042234
107	0x3ce3efe5	0.027824352
108	0x3c01fd5b	0.00793394
109	0x3b088f28	0.002083728
110	0x3ce809ad	0.028324926
111	0xbd0bddf3	-0.034147214
112	0x3cd7291f	0.026264725
113	0x3d073a19	0.03301439
114	0x3d33ceec	0.043898508
115	0xbc537a91	-0.01290764
116	0x3d06a808	0.03287509
117	0xbc945415	-0.0181065
118	0x3bec2a9e	0.007207229
119	0x3cceed45	0.025259623
120	0xbbaa3818	-0.005194675
121	0x3c88e407	0.016710294
122	0x3d06e5dd	0.03293406
123	0xbd8fd528	-0.07023078
124	0xbd978e67	-0.07400208
125	0x3c016e88	0.007899888
126	0x3d1e4b91	0.038646284
127	0x3c0e6319	0.008690619
128	0x3cd89b14	0.026441135
129	0x3ce0ed58	0.027456924
130	0x3c3c06c2	0.011476221
131	0x3ce17d8c	0.027525686
132	0x3d43828e	0.04773193
133	0x3d62b4a2	0.055348046
134	0x3ce2383c	0.027614705
135	0xbc99167a	-0.018687475
136	0xbc1d7477	-0.009610287
137	0x3d41e391	0.047336165
138	0x3a827670	0.000995351
139	0x3d838e5c	0.06423637
140	0xbd11894e	-0.035531335
141	0x3cbc927f	0.023019074
142	0xbc7d89bd	-0.015474734
143	0x3a4e3789	0.0007866552
144	0xbc666e63	-0.014064404
145	0x3d62c4dd	0.055363525
146	0xbd5e16b5	-0.054220874
147	0x3af6f08a	0.0018839997
148	0x3bd117db	0.0063810176
149	0x3c83232a	0.016007978
150	0x3b0b8741	0.0021290334
151	0xbc9e7958	-0.01934497
152	0x3cc702e8	0.024293378
153	0xba4da9fe	-0.000784546
154	0xbb16b34f	-0.002299506
155	0x3be2916f	0.0069143097
156	0x3cc8aa67	0.024495317
157	0x3d06fb2b	0.032954376
158	0xbc481863	-0.0122128455
159	0xb9f1d39b	-0.0004612476
160	0x3b00823a	0.001960887
161	0x3d2e11fa	0.042497613
162	0xbc19d3d2	-0.009388881
163	0x3c9b061b	0.01892381
164	0x3d05e588	0.0326896
165	0xbc16c8e6	-0.009203171
166	0xba3bb75f	-0.00071608083
167	0x3d5c029d	0.05371343
168	0x3cfd6686	0.030932676
169	0xbd6322aa	-0.05545298
170	0x3d54d00f	0.051956233
171	0x3d01cfdc	0.03169237
172	0x3d11f36f	0.035632547
173	0xbc188d18	-0.009310983
174	0x3c71a79f	0.014749437
175	0x3c8f1187	0.017464412
176	0xb98195d2	-0.00024716422
177	0x3d0307b0	0.031989753
178	0x3ac7a0bf	0.0015230401
179	0xbd1d3e24	-0.03838934
180	0x3ae53447	0.0017486893
181	0xbbe2ba07	-0.006919149
182	0x3d0992da	0.033587314
183	0xbca9d675	-0.020732144
184	0xbc377988	-0.011198409
185	0xbca13cd0	-0.019682318
186	0x3d81d3f3	0.06339254
187	0xbba0f32f	-0.0049118022
188	0x3be4f79e	0.006987526
189	0xbc9988fe	-0.01874208
190	0x3d421dd4	0.047391728
191	0x3d2708e3	0.04077996
192	0xbb8a2041	-0.0042152707
193	0x3cf6861e	0.030093249
194	0x3d396190	0.04525906
195	0xbaea2503	-0.0017863814
196	0x3c19b762	0.009382101
197	0x3cc98b2c	0.024602495
198	0x3d3263d6	0.043552242
199	0x3d5d77ca	0.054069318
200	0x3d04ae1d	0.03239261
201	0x3d0cb500	0.034352303
202	0xbcdc084a	-0.026859421
203	0xbc0bc1d8	-0.008530103
204	0xbd171b39	-0.036891196
205	0xbb158709	-0.0022816083
206	0x3d24f9ce	0.040277295
207	0xbd0301a5	-0.03198399
208	0x3c2ff1c3	0.010738793
209	0xbbc68d89	-0.006059353
210	0x3d04532a	0.032305874
211	0x3d03f061	0.032211665
212	0xbcf18b9d	-0.029485518
213	0x3d237aa4	0.03991188
214	0x3cf2ccc4	0.029638655
215	0x3c56c1ff	0.013107776
216	0x3d0e72dd	0.03477751
217	0x3cbf9d92	0.023390565
218	0x3ce18587	0.027529491
219	0x3d491285	0.049089927
220	0x3ce06b55	0.02739493
221	0x3d392841	0.045204405
222	0x3ca8f059	0.02062242
223	0xba8aa7d9	-0.0010578587
224	0x3d27fbd5	0.04101165
225	0xbb40fc26	-0.0029447167
226	0x3b082bda	0.002077809
227	0xbbf6dc85	-0.007533612
228	0xbb388fb0	-0.0028161816
229	0x3d490e6d	0.049086023
230	0x3cc83c22	0.024442736
231	0xbc002c6a	-0.007823089
232	0x3cd1b46f	0.025598733
233	0x3d540819	0.051765535
234	0xbd6e07da	-0.058112957
235	0x3cb514ff	0.022104738
236	0x3c009052	0.007846909
237	0xbc38d423	-0.011281046
238	0x3d80b8bf	0.062852375
239	0x3d1cb973	0.038262796
240	0x3c8b2f8f	0.016990451
241	0x3bec2c4f	0.0072074304
242	0xbd10ea8c	-0.03537993
243	0xbc5d2261	-0.013496966
244	0x3c879a87	0.016553177
245	0xbc59d95a	-0.01329645
246	0x3c2d2ac5	0.010569279
247	0x3da958a5	0.08268861
248	0xbba1a9d4	-0.004933575
249	0x3b2c5adf	0.002629928
250	0x3cc4d84b	0.024028918
251	0xbbd9ccfe	-0.0066467514
252	0x3c500de7	0.012698627
253	0x3bed0b07	0.0072339806
254	0xbc3f86b7	-0.011689833
255	0xbd184f61	-0.037185077

output.bias f4 [4]
0	0x3d373f80	0.044738293
1	0x3d110fc5	0.03541543
2	0x3d2ae0a6	0.041718148
3	0x3d371dc1	0.04470611
