checkpoints/state_size_37__action_size_4__hidden_layers_[256-256]__drop_p_0.25__seed_0__GAMMA_0.99__LR_0.0005__UPDATE_EVERY_10__BUFFER_SIZE_100000__BATCH_SIZE_64__TAU_0.001.pth (torch, 308311 bytes, 6 tensors)

hidden_layers.0.weight f4 [256, 37]
-0.09418947 -0.00073126896 -0.009816869 -0.07998458 -0.2005144 -0.44826987 0.040444303 0.070160225
-0.05291504 0.16711237 -0.047962233 -0.16110379 0.075616755 0.0025948235 0.16578946 -0.31059256
0.15607066 -0.020311855 -0.055690713 -0.20828888 -0.16946179 -0.20229587 -0.16333883 0.055636
0.1758425 -0.41834608 -0.016903453 -0.15165222 -0.0047266404 -0.08486207 -0.21003073 -0.17633066
-0.10157071 0.12802221 0.5139317 -0.004151486 -0.019415218 0.11565404 0.011957991 -0.039544776
-0.1400335 0.03284647 -0.14232463 -0.020611433 -0.029727546 -0.01086542 0.09598124 -0.057933643
0.25928503 -0.12625125 -0.06375082 -0.16022642 -0.14011668 -0.096525244 -0.0841131 -0.0635637
-0.28410017 0.06885215 -0.32935813 0.12818657 -0.18788567 -0.7432145 -0.15368666 0.017903049
0.23204803 -0.07661829 -0.115818284 0.10524301 -0.28425992 -0.051140994 -0.3332058 -0.26083994
-0.10487516 -0.08757397 0.17053275 -0.080094695 -0.123027116 -0.13048087 0.22390474 -0.11385252
-0.14645806 -0.079845324 -0.105677776 0.09952988 -0.12119142 -0.09010553 0.0135749355 -0.09353046
0.16223343 -0.5260308 0.25282085 0.063883625 -0.021954957 -0.26996717 -0.277186 0.105725884
-0.10063007 0.07846451 -0.12571837 -0.10045231 -0.0041192826 -0.041950155 -0.024413653 0.27409232
-0.10887053 -0.017066766 -0.007324045 0.006316484 0.18092749 -0.010544461 -0.04217613 0.035600867
0.048721865 0.04340094 0.042382445 -0.057966102 0.082269646 -0.46273828 0.017267272 -0.3397926
-2.4173434 0.0011174363 0.027063811 -0.05341214 -0.0051593967 -0.046432227 0.0840146 0.07210897
0.035755716 0.08506774 -0.0015784116 0.037811942 0.004413608 0.05959094 0.015165848 0.012023985
-0.021692676 -0.07855498 -0.051315956 -0.030829836 0.02619748 0.11919331 0.0601657 0.08822586
0.04100971 0.032872036 -0.01126833 0.014117241 -0.1857412 -0.046664495 -0.30065235 0.014590264
-0.21262835 -0.42656913 -0.17132814 0.01740101 -0.030942477 -0.7526078 -0.23185265 -0.32579404
0.14937787 -0.32617557 -1.2722743 -0.17484851 -0.14176059 -0.10848158 -0.26035473 0.010896941
-0.28762135 -0.22743136 0.11949645 -0.20672962 -1.3087234 -0.19579908 -0.1838839 -0.08304953
-0.34220004 0.045841057 -0.21270153 -0.16457595 0.13739917 -0.1463169 -0.9946109 -0.11620021
0.040246528 -0.04473376 0.03462744 -0.1664459 0.16091156 -0.015982924 0.06049517 -0.0665995
-0.4042611 -0.12576969 -0.38937464 -0.3524071 -0.27367485 -0.02166531 -0.09473905 -0.0037875536
-0.18536235 -0.2264647 -0.0863716 0.052468702 0.07575453 -0.21219334 -0.008508414 0.074025095
-0.104592964 -0.073887035 -0.11761176 -0.20673952 -0.027614966 0.041837245 0.22859319 -0.21809007
-0.052307423 -0.15216354 -0.05480065 0.16559635 -0.049726628 -0.04236114 0.036605936 -0.06975551
-0.08487219 -0.08414851 0.019097468 -0.0003942153 -0.06595944 0.007687205 -0.056948725 -0.14615712
0.040794075 -0.06737902 -0.059415918 -0.069529615 0.040643044 0.0025341427 0.019005153 -0.10482974
-0.22501656 0.11714744 0.111897364 -0.023181794 0.09662679 -0.0044228313 0.017551854 0.12035384
-0.13442107 0.017870244 -0.021317502 -0.010147288 0.16448677 -0.19645716 -0.24892509 -0.18398722
00000000: 69e6 c0bd a1b2 3fba efd6 20bc f5ce a3bd
00000010: a653 4dbe a183 e5be eda8 253d 2ab0 8f3d
00000020: 71bd 58bd 811f 2b3e 0c74 44bd 64f8 24be
00000030: f5dc 9a3d ea0d 2a3b b6c4 293e fd05 9fbe
00000040: fdd0 1f3e 0c65 a6bc f21b 64bd ae49 55be
00000050: 6487 2dbe a626 4fbe 4b42 27be 93e2 633d
00000060: 0e10 343e 7531 d6be 1c79 8abc b84a 1bbe
00000070: efe1 9abb 2acc adbd 4c12 57be 0690 34be
00000080: 4e04 d0bd 4118 033e 0791 033f 3009 88bb
00000090: aa0c 9fbc 06dc ec3d 73eb 433c b4f9 21bd
000000a0: f164 0fbe 058a 063d 8cbd 11be 4fd9 a8bc
000000b0: 2f87 f3bc e004 32bc d091 c43d d44b 6dbd
000000c0: 02c1 843e 0248 01be ca8f 82bd 6512 24be
000000d0: bf7a 0fbe 07af c5bd 7d43 acbd af2d 82bd
000000e0: 9475 91be 5b02 8d3d a1a1 a8be 5743 033e
000000f0: 1a65 40be 4e43 3ebf 0960 1dbe 6aa9 923c
00000100: 009e 6d3e 0dea 9cbd 2332 edbd a689 d73d
00000110: 848a 91be 3879 51bd f399 aabe d08c 85be
00000120: cac8 d6bd fb59 b3bd 23a0 2e3e b008 a4bd
00000130: a4f5 fbbd c79c 05be 4947 653e 832b e9bd
00000140: 1af9 15be f285 a3bd 976d d8bd 52d6 cb3d
00000150: 3533 f8bd 4089 b8bd 6869 5e3c e68c bfbd
00000160: 8520 263e f4a9 06bf bc71 813e 6bd5 823d
00000170: e2da b3bc 2339 8abe 53eb 8dbe d086 d83d
00000180: 2317 cebd 00b2 a03d 51bc 00be f1b9 cdbd
00000190: 0cfb 86bb edd3 2bbd 24ff c7bc d455 8c3e
000001a0: 83f7 debd 9acf 8bbc 8bfe efbb 82fa ce3b
000001b0: 0e45 393e adc2 2cbc e1c0 2cbd 37d2 113d
000001c0: 9490 473d 2fc5 313d 3799 2d3d dd6d 6dbd
000001d0: fd7c a83d 08ec ecbe 1874 8d3c 4cf9 adbe
000001e0: c1b5 1ac0 f176 923a edb4 dd3c b0c6 5abd
000001f0: 2810 a9bb b82f 3ebd d90f ac3d dead 933d
00000200: 9674 123d ff37 ae3d b4e2 ceba b2e0 1a3d
00000210: 07a0 903b a115 743d 2d7a 783c 4000 453c
00000220: d7b4 b1bc 6fe1 a0bd ae30 52bd da8e fcbc
00000230: 199c d63c 9f1b f43d 4f70 763d c2af b43d
00000240: ccf9 273d d4a4 063d cd9e 38bc 004c 673c
00000250: f132 3ebe 4523 3fbd 1bef 99be 010c 6f3c
00000260: 3fbb 59be 4567 dabe a570 2fbe 908c 8e3c
00000270: 147b fdbc e8aa 40bf c86a 6dbe 7ace a6be
00000280: 83f6 183e 7c00 a7be e2d9 a2bf 7d0b 33be
00000290: b029 11be 972b debd 374d 85be 1589 323c
000002a0: 1b43 93be c4e3 68be 8eba f43d eeb0 53be
000002b0: 4084 a7bf 8e7f 48be 104c 3cbe df15 aabd
000002c0: d834 afbe d5c3 3b3d 6ece 59be 9986 28be
000002d0: 5eb2 0c3e 19d4 15be d29e 7ebf 60fa edbd
000002e0: 8bd9 243d bf3a 37bd 81d5 0d3d cb70 2abe
000002f0: 00c6 243e 9fee 82bc c9c9 773d 5265 88bd
00000300: 50fb cebe c5c9 00be 1d5c c7be b46e b4be
00000310: 1c1f 8cbe 737b b1bc 8c06 c2bd 9b38 78bb
00000320: a1cf 3dbe 5de6 67be 98e3 b0bd 6ce9 563d
00000330: 3125 9b3d 3649 59be e066 0bbc 789a 973d
00000340: d634 d6bd 1652 97bd 6fde f0bd 86b3 53be
00000350: c838 e2bc 885d 2b3d 5514 6a3e 0153 5fbe
00000360: 4f40 56bd c2d0 1bbe a576 60bd 1792 293e
00000370: 26ae 4bbd e082 2dbd 1bf0 153d fadb 8ebd
00000380: 79d1 adbd 0e56 acbd 4b72 9c3c afae ceb9
00000390: be15 87bd f3e4 fb3b 1143 69bd 36aa 15be
000003a0: b017 273d 03fe 89bd 1b5e 73bd 8b65 8ebd
000003b0: 5279 263d dc13 263b b2b0 9b3c fab0 d6bd
000003c0: be6a 66be ffea ef3d 722a e53d bfe7 bdbc
000003d0: 44e4 c53d 66ed 90bb e8c8 8f3c 137c f63d
000003e0: ada5 09be 9e64 923c 0ba2 aebc d040 26bc
000003f0: 386f 283e 112c 49be 38e6 7ebe 2567 3cbe

hidden_layers.0.bias f4 [256]
-0.056578126 -0.16531192 -0.1363714 -0.09485427 -0.09577879 -0.11551763 -0.1233862 -0.124171235
-0.13412224 -0.1329181 -0.11317875 -0.2370618 -0.035042286 -0.2989323 -0.25753018 0.015807468
-0.09346953 -0.15738273 0.11083335 0.077087164 0.10752465 -0.044156592 -0.23579617 0.09579864
-0.0078924885 0.061921205 -0.1407791 -0.031341616 -0.25985935 -0.12585461 -0.07051822 0.06688198
-0.09193005 -0.17373443 -0.02309863 -0.0003334236 0.0018903809 -0.0780881 -0.15336716 -0.08617978
-0.2565209 -0.2370581 0.024115182 -0.27458075 -0.059506677 0.052193064 -0.19873695 -0.22640896
0.017523497 -0.040151197 -0.09595041 -0.0643915 -0.107577525 -0.030264236 -0.1237108 -0.27894673
-0.22745258 0.050701007 -0.03457338 -0.0068168226 -0.057005078 -0.07994761 -0.020146064 -0.009043777
0.0028373483 -0.13108371 -0.22613975 -0.23628797 -0.113680534 -0.11693243 -0.108477846 -0.059700627
-0.12897159 0.084041186 -0.2014688 -0.26938096 -0.06420192 -0.0994063 -0.10950498 -0.13369009
0.007566046 -0.11120564 -0.19368152 -0.2316765 -0.14146626 -0.0903317 -0.2664073 0.07186122
-0.10058782 -0.10186987 -0.13380271 -0.23898123 -0.12108404 0.013393302 -0.13541926 -0.3084148
-0.22588766 -0.066301 -0.011653262 -0.27824146 -0.2677334 -0.06952309 -0.19454068 -0.12124542
-0.1503529 -0.06080206 -0.12821725 -0.26888588 0.051205408 -0.20278047 -0.07406911 -0.12568267
-0.18844453 -0.09171257 -0.20318356 -0.038888864 0.08439252 -0.022793328 0.004754886 -0.21656774
0.06259917 -0.21356554 0.044527728 -0.10701339 -0.28058463 -0.1445973 -0.31528947 -0.11156288
-0.022679018 -0.24768083 -0.13515708 -0.18388525 -0.029060723 -0.22247322 0.072258174 -0.15571725
-0.19540583 0.010861828 0.09612597 -0.026183978 -0.12956338 0.10742618 -0.25687724 -0.058065746
-0.1932969 -0.23919629 -0.0122299725 0.015027839 -0.00075064966 -0.21701929 -0.12234483 -0.13012078
-0.093337245 -0.015705809 -0.307393 -0.1035484 0.02197412 -0.27917436 -0.007471519 -0.15620352
-0.13465601 -0.077803664 -0.17928468 -0.0035637564 0.11519835 -0.1388823 -0.27340153 0.018209586
-0.008793911 -0.04520095 -0.34239316 -0.020489248 -0.04145515 -0.10159225 -0.31929046 -0.1630237
-0.10223328 -0.055004098 -0.13115214 -0.013334399 0.019221278 -0.1514474 0.004882976 -0.047300547
-0.15662593 -0.27561718 -0.2862071 -0.17532596 -0.104457244 0.10288323 -0.022449471 -0.13405795
-0.3681113 -0.16282219 -0.040534608 -0.08765474 -0.017449986 -0.27173465 -0.06287228 -0.063482925
-0.056023248 -0.02679228 0.024646385 -0.052455753 0.071922645 -0.044343915 -0.07488739 -0.017706512
-0.10258445 -0.1735799 -0.17966093 -0.08572541 -0.06977891 -0.21407591 0.07422705 -0.20816809
0.059080966 -0.003691307 -0.34651288 -0.09038642 -0.18367782 -0.1083119 0.12287594 -0.11500457
-0.05936147 -0.12059535 -0.20212097 -0.13710433 -0.12686862 -0.11711158 -0.07974561 -0.3275818
-0.08025053 -0.046833724 -0.07546825 -0.21173213 -0.0077873 -0.16269417 -0.23999627 -0.09378601
0.10278751 -0.05887427 -0.22609511 -0.23456302 -0.27462536 0.027681325 -0.055073634 -0.05717709
0.049443528 0.058313474 -0.094849974 0.079544015 0.10674862 -0.044070512 -0.06897116 -0.20009556
00000000: 77be 67bd 8747 29be f2a4 0bbe f542 c2bd
00000010: ac27 c4bd 8294 ecbd e7b1 fcbd 7d4d febd
00000020: 5757 09be af1b 08be 43ca e7bd 54c0 72be
00000030: 8088 0fbd a80d 99be ffda 83be aa7e 813c
00000040: f46c bfbd f028 21be 98fc e23d e0df 9d3d
00000050: e235 dc3d 8bdd 34bd 8d74 71be 1432 c43d
00000060: 7f4f 01bc 17a1 7d3d 6528 10be 1160 00bd
00000070: 490c 85be 08e0 00be db6b 90bd 6bf9 883d
00000080: d245 bcbd 70e7 31be 5739 bdbc 5ccf aeb9
00000090: a8c6 f73a a7ec 9fbd 480c 1dbe 067f b0bd
000000a0: b556 83be 5cbf 72be 348d c53c d995 8cbe
000000b0: 46bd 73bd 65c8 553d b381 4bbe c0d7 67be
000000c0: 708d 8f3c 9575 24bd a681 c4bd b1df 83bd
000000d0: 9b51 dcbd b4ec f7bc 175c fdbd 1bd2 8ebe
000000e0: 54e9 68be dcab 4f3d d19c 0dbd a75f dfbb
000000f0: 287e 69bd 93bb a3bd 5c09 a5bc 5a2c 14bc
00000100: cef2 393b cf3a 06be 2e91 67be 79f5 71be
00000110: 57d1 e8bd 457a efbd a229 debd a588 74bd
00000120: 2111 04be c91d ac3d d64d 4ebe 4dec 89be
00000130: 4c7c 83bd 8895 cbbd 2644 e0bd 0ee6 08be
00000140: 98ec f73b c8bf e3bd 7354 46be 9b3c 6dbe
00000150: 88dc 10be d4ff b8bd 8a66 88be fa2b 933d
00000160: fd00 cebd 27a1 d0bd 9403 09be 7fb7 74be
00000170: e9fa f7bd 956f 5b3c 59ab 0abe 8be8 9dbe
00000180: 184f 67be d2c8 87bd 53ed 3ebc aa75 8ebe
00000190: 5a14 89be 1f62 8ebd ac35 47be 854f f8bd
000001a0: 1cf6 19be 950b 79bd 624b 03be 69ab 89be
000001b0: c3bc 513d afa5 4fbe 8cb1 97bd f5b2 00be
000001c0: 9af7 40be cdd3 bbbd 5a0f 50be ee49 1fbd
000001d0: fcd5 ac3d 13b9 babc e0ce 9b3b efc3 5dbe
000001e0: fe33 803d edb0 5abe b562 363d d629 dbbd
000001f0: caa8 8fbe 5111 14be 9f6d a1be 147b e4bd
00000200: 59c9 b9bc 0ba0 7dbe 9e66 0abe 6a4c 3cbe
00000210: c110 eebc 05d0 63be 18fc 933d 5874 1fbe
00000220: 7718 48be cff5 313c b1dd c43d c87f d6bc
00000230: 43ac 04be 4202 dc3d 6a85 83be 59d6 6dbd
00000240: 9fef 45be dfef 74be 3960 48bc 5337 763c
00000250: 3fc7 44ba 4e3a 5ebe ed8f fabd 623e 05be
00000260: 9927 bfbd 78a9 80bc 9e62 9dbe 2f11 d4bd
00000270: 1203 b43c f1ef 8ebe a5d3 f4bb d1f3 1fbe
00000280: 44e3 09be 8757 9fbd 6796 37be e98d 69bb
00000290: 1ded eb3d 2937 0ebe 49fb 8bbe 452c 953c
000002a0: 5614 10bc a224 39bd 284e afbe 11d9 a7bc
000002b0: e0cc 29bd 990f d0bd 0a7a a3be afef 26be
000002c0: af5f d1bd fa4b 61bd bf4c 06be 8678 5abc
000002d0: f175 9d3c 0715 1bbe 5f01 a03b 38be 41bd
000002e0: 8c62 20be b21d 8dbe bd89 92be a688 33be
000002f0: aeed d5bd 71b4 d23d f4e7 b7bc 7d46 09be
00000300: 1679 bcbe dcba 26be 9e07 26bd 5484 b3bd
00000310: 46f3 8ebc ce20 8bbe 2fc3 80bd 5603 82bd
00000320: a278 65bd 7c7b dbbc 37e7 c93c d8db 56bd
00000330: 2e4c 933d f7a1 35bd 8f5e 99bd 3f0d 91bc
00000340: cc17 d2bd eebe 31be 09f9 37be ce90 afbd
00000350: 3fe8 8ebd b736 5bbe 5a04 983d 042a 55be
00000360: e2fe 713d dbe9 71bb 236a b1be 841c b9bd
00000370: 0a16 3cbe a1d2 ddbd 61a6 fb3d 8487 ebbd
00000380: 0325 73bd b2fa f6bd cdf8 4ebe 1465 0cbe
00000390: d9e9 01be 32d8 efbd ab51 a3bd cdb8 a7be
000003a0: 645a a4bd b8d4 3fbd 198f 9abd 4fd0 58be
000003b0: 9b2c ffbb 4d99 26be 95c1 75be e112 c0bd
000003c0: 4282 d23d 2626 71bd 7a85 67be 4a31 70be
000003d0: b29b 8cbe f2c3 e23c e494 61bd 8632 6abd
000003e0: 4c85 4a3d 1cda 6e3d b440 c2bd f9e7 a23d
000003f0: 059f da3d 4883 34bd c040 8dbd dae5 4cbe

hidden_layers.1.weight f4 [256, 256]
-0.14051405 0.19380125 0.0019191504 0.023338469 0.023927826 0.07956722 0.026601134 -0.03290038
-0.0948091 0.0055235927 0.0330607 -0.23211806 -0.28180358 0.016414355 0.030292857 0.13785602
0.111459434 -0.005986681 0.10305204 -0.041598756 0.0023055032 -0.024055671 0.0014787592 -0.0338383
-0.06502432 0.030328812 0.105419084 -0.006457348 0.0030676522 0.011540277 0.11329288 0.009930235
0.021850215 -0.013153461 -0.07147407 0.051886976 -0.04148801 0.058370426 -0.02993174 0.09543366
0.11253702 0.067564145 0.030716455 0.008900578 -0.09363161 0.086586826 -0.09770247 0.10005922
0.015034071 -0.057235867 -0.008969599 0.112223744 -0.011426186 0.19226675 0.06674862 0.06588688
-0.07904799 0.1665987 -0.020617124 0.20963319 0.11183498 0.06478318 0.030051146 0.14808099
-0.00240436 0.0070394236 -0.077724144 -0.08657368 -0.012006177 -0.026632937 -0.067343146 -0.026700271
-0.06513568 0.03217103 -0.08916289 -0.0735353 -0.08164798 0.019295905 0.11440427 -0.107924856
-0.024208376 0.17500217 0.08552235 -0.023295015 0.041073862 -0.14989856 -0.05494947 0.035183012
-0.017381128 0.06943541 -0.008118211 -0.031777862 -0.053764578 0.09690976 -0.046325892 0.056428626
-0.039136987 0.063520476 -0.07262424 0.046126626 0.0994355 -0.040814534 0.036497902 0.1460616
-0.03987138 -0.07994046 -0.058688536 -0.11396356 -0.026298277 0.005244841 -0.13995948 0.055162903
-0.11750261 -0.016746655 0.0056107854 -0.1384163 -0.014177498 0.05554388 0.068927154 0.10588773
0.0057084723 -0.037941348 -0.06598033 -0.065035716 -0.07658765 0.007335442 0.035657153 0.014994022
0.00018343414 0.10771303 0.061670054 -0.013431149 -0.05928246 -0.026888523 -0.2049255 0.0909202
-0.103096105 -0.026595348 0.04526402 -0.03619107 0.030109366 0.018742565 -0.054835755 -0.14292243
-0.110610366 0.051709443 0.11622428 0.041047253 -0.13382442 -0.104130775 0.088363454 -0.03590274
0.049967777 0.13546336 -0.08335282 0.033377502 -0.018561753 -0.043560974 0.00074577786 0.04111023
-0.048730817 -0.086509064 0.0038619195 0.004580345 -0.031339277 0.015976287 -0.12975125 0.13582543
-0.06914169 -0.11822776 -0.116036244 0.14473629 0.069473855 -0.0067498614 -0.023831166 -0.015125866
-0.06899345 -0.034712616 0.009153184 -0.014708586 -0.054872513 -0.051264092 0.048149303 0.022262635
-0.027530337 -0.012510924 -0.014511467 -0.17994365 -0.078304164 -0.034983307 0.027264485 -0.123724364
-0.021487886 0.000567617 0.11855542 -0.076808356 0.00028536606 -0.077307545 -0.12474689 0.057564307
-0.021750705 -0.045119118 0.14333256 0.118333854 0.089829415 -0.05571614 -0.15885124 0.107225545
-0.03918703 0.03394249 0.052459296 -0.04816702 0.11486362 0.07034805 0.019348823 0.0071378825
0.20838244 0.006060792 -0.09882218 0.041533917 0.05839096 0.19281803 0.120626934 -0.06589225
0.03552683 0.025238337 0.014738369 -0.03615481 -0.04553206 -0.05525364 -0.010193578 -0.11694195
-0.0009362501 -0.09078015 0.020924002 0.01006363 -0.019300591 -0.00343476 -0.011365479 -0.0813466
-0.02866997 0.030044321 -0.07461212 0.016163247 -0.038616993 -0.009807704 0.19352236 -0.07371043
0.020352822 0.038345817 -0.088329665 0.050390374 0.040204383 -0.08589151 -0.011460411 -0.07625121
00000000: eae2 0fbe d673 463e 008c fb3a 5130 bf3c
00000010: 4a04 c43c 23f4 a23d 9fea d93c 8dc2 06bd
00000020: 462b c2bd 41ff b43b a86a 073d 5bb0 6dbe
00000030: 8f48 90be 6677 863c ba28 f83c 212a 0d3e
00000040: d844 e43d ec2b c4bb f30c d33d 7563 2abd
00000050: ed17 173b 6610 c5bc edd2 c13a 079a 0abd
00000060: 782b 85bd 2174 f83c f6e5 d73d 2998 d3bb
00000070: aa0a 493b 6e13 3d3c 1906 e83d 6db2 223c
00000080: 39ff b23c 9d81 57bc ff60 92bd 7087 543d
00000090: 55ef 29bd d415 6f3d 6933 f5bc b972 c33d
000000a0: cf79 e63d 125f 8a3d 13a1 fb3c bbd3 113c
000000b0: eec1 bfbd 6f54 b13d 3c18 c8bd d9eb cc3d
000000c0: 7751 763c 2870 6abd 3af5 12bc 90d5 e53d
000000d0: e634 3bbc 93e1 443e 80b3 883d b3ef 863d
000000e0: eae3 a1bd da98 2a3e 3ee5 a8bc 15aa 563e
000000f0: bd09 e53d 0bad 843d d22d f63c 8ba2 173e
00000100: 7892 1dbb f7aa e63b d62d 9fbd 8b4d b1bd
00000110: 8eb5 44bc 512d dabc 34eb 89bd 87ba dabc
00000120: db65 85bd c5c5 033d 099b b6bd ad99 96bd
00000130: 0e37 a7bd 7212 9e3c c94c ea3d b507 ddbd
00000140: a550 c6bc c533 333e 5826 af3d 30d5 bebc
00000150: 113d 283d 027f 19be b212 61bd 101c 103d
00000160: de62 8ebc 2734 8e3d 3f02 05bc 8129 02bd
00000170: 3f38 5cbd a078 c63d 38c0 3dbd b421 673d
00000180: 1b4e 20bd 0617 823d 04bc 94bd 46ef 3c3d
00000190: d7a4 cb3d 242d 27bd d37e 153d 2c91 153e
000001a0: 2c50 23bd d3b7 a3bd 6463 70bd ba65 e9bd
000001b0: 7c6f d7bc eadc ab3b 8a51 0fbe 7ff2 613d
000001c0: 35a5 f0bd 4830 89bc aeda b73b 01bd 0dbe
000001d0: bd48 68bc fb81 633d ae29 8d3d abdb d83d
000001e0: 230e bb3b 6368 1bbd b220 87bd 7231 85bd
000001f0: fcd9 9cbd 265e f03b 3c0d 123d 7da9 753c
00000200: 3a58 4039 a698 dc3d bd99 7c3d 520e 5cbc
00000210: 2ad2 72bd 5245 dcbc fed7 51be 5f34 ba3d
00000220: 0d24 d3bd 7dde d9bc c466 393d 163d 14bd
00000230: eba7 f63c 028a 993c 759b 60bd 425a 12be
00000240: b087 e2bd 48cd 533d ff06 ee3d 2a21 283d
00000250: 4509 09be 8442 d5bd e6f7 b43d c00e 13bd
00000260: 03ab 4c3d e8b6 0a3e e2b4 aabd d9b6 083d
00000270: d10e 98bc fe6c 32bd 4e80 433a 3363 283d
00000280: f799 47bd aa2b b1bd 4218 7d3b b816 963b
00000290: 9d5d 00bd b4e0 823c 83dd 04be d215 0b3e
000002a0: 299a 8dbd 6521 f2bd 69a4 edbd c035 143e
000002b0: 4f48 8e3d f12d ddbb 9439 c3bc 7bd2 77bc
000002c0: 704c 8dbd d12e 0ebd 3cf7 153c 48fc 70bc
000002d0: 00c2 60bd 4cfa 51bd 3438 453d 2160 b63c
000002e0: 4d87 e1bc 9efa 4cbc 81c1 6dbc 2643 38be
000002f0: ef5d a0bd a84a 0fbd c559 df3c 3363 fdbd
00000300: 5d07 b0bc 22cc 143a 2fcd f23d b34d 9dbd
00000310: 2f9d 9539 6b53 9ebd 4c7b ffbd 8dc8 6b3d
00000320: 892e b2bc d3ce 38bd c5c5 123e 0559 f23d
00000330: 7cf8 b73d 9b36 64bd e6a9 22be 1199 db3d
00000340: 9482 20bd 4807 0b3d 8fdf 563d c84a 45bd
00000350: 9e3d eb3d a312 903d 6c81 9e3c e6e4 e93b
00000360: 3562 553e 9c99 c63b 4863 cabd 781f 2a3d
00000370: 5c2b 6f3d 1772 453e 410b f73d 84f2 86bd
00000380: 9584 113d a1c0 ce3c 3379 713c 1117 14bd
00000390: d37f 3abd a451 62bd f702 27bc 437f efbd
000003a0: ae6e 75ba f1ea b9bd d068 ab3c ece1 243c
000003b0: 461c 9ebc b619 61bb 4636 3abc 0c99 a6bd
000003c0: 49dd eabc 821f f63c 3dce 98bd c968 843c
000003d0: da2c 1ebd 7eb0 20bc ba2a 463e 7ef5 96bd
000003e0: f6ba a63c 8110 1d3d 2fe6 b4bd 2366 4e3d
000003f0: 5aad 243d e3e7 afbd 73c4 3bbc 9829 9cbd

hidden_layers.1.bias f4 [256]
0.17734036 0.20753092 0.20241828 0.1277599 0.11243632 0.13661493 0.067253776 0.15265743
-0.05611239 0.16906647 0.16344818 0.19974296 0.042890992 -0.10853807 0.031166693 0.14684103
-0.07171778 0.16087039 -0.12956268 -0.06369018 0.18565927 0.21566378 -0.110771775 0.09294373
0.12700747 0.1551715 0.16607673 0.18110712 0.13272096 0.10981326 0.019062726 0.1563282
-0.106206104 0.19177082 0.23134646 0.14829266 -0.098566346 0.112809576 -0.08849701 0.13910568
0.15119253 -0.04318339 0.21347585 -0.084807396 0.07179959 -0.0842334 0.020086667 0.20831923
0.22242263 0.104932435 -0.0032103208 0.16831592 -0.1040293 0.15203024 0.104685925 0.110674694
-0.034673393 0.03945439 0.06187452 0.20743826 0.15900595 0.08808431 -0.09022406 0.12130764
0.13596618 0.17323212 0.13001628 0.1415681 -0.24282801 0.19087751 0.1177956 -0.11504637
0.059663877 -0.35366115 -0.28142467 -0.014202067 0.19838573 -0.118079625 0.061615948 0.17571515
-0.08690418 -0.07200412 0.09820548 0.14273521 0.1989808 -0.023397658 0.17416877 -0.10209746
-0.012018399 -0.014865864 0.154587 0.078742266 0.1362188 0.15710147 -0.071994804 0.20868005
0.08957441 -0.11503677 0.0045698164 0.1834829 0.047939498 0.20577897 0.19479449 -0.08951107
-0.20410106 -0.45794863 0.19868873 0.06721332 -0.12578191 0.2145985 0.19122791 -0.15774372
0.17937817 -0.1286679 -0.11249578 -0.43203092 -0.066146486 0.17484447 0.22179358 0.1383521
0.19373378 -0.07319686 -0.11594603 0.15772596 0.15250789 0.0004015289 0.22218959 -0.091589294
0.08880542 -0.11857398 0.05156761 0.18890512 -0.06811096 0.21184626 0.12698366 0.19505703
-0.088952765 0.17462479 -0.10772251 0.14513488 0.15662989 -0.058172394 -0.09526716 0.1490454
0.13613334 0.16649553 0.07919094 -0.13276736 0.1852485 -0.14442863 -0.041876208 0.17468213
0.18929335 0.054518558 -0.10821119 0.214107 0.21285537 0.19390413 -0.11063516 -0.11978736
0.15224048 -0.10300985 0.16712207 0.16796432 -0.089315645 0.12623514 0.19492653 0.15652086
0.17152242 0.15258835 0.07374518 -0.17008717 0.19730297 0.13928494 0.21496455 0.1236212
0.1516154 -0.07247694 0.12865767 -0.10120198 0.19723094 -0.10713981 0.19425681 0.049013384
0.14744686 0.12714563 0.098903775 0.1688633 0.06774769 -0.23073906 0.076616555 -0.10409406
0.100363605 -0.0060034245 -0.14289956 -0.09643087 0.14243294 0.17339411 0.17427097 0.18710607
-0.054156978 0.15327293 -0.11438283 -0.07462802 -0.32898927 -0.22145434 0.17656654 0.1428241
0.18091702 0.12981011 -0.13617037 0.16679735 0.17454518 -0.061954297 0.15272586 0.16614895
0.20674479 0.14469372 0.24052873 0.17171136 -0.024730654 -0.080814116 0.08145105 0.20683284
0.061751228 0.15160596 0.2304507 0.11584799 -0.26592973 0.12345276 0.1905951 0.09646389
0.17976265 0.16268347 0.20831804 0.105536185 0.15556619 0.110200755 0.15167671 0.10012503
0.107864745 0.22714116 0.1610115 0.12307081 -0.035670858 0.009369303 0.13655195 0.15941796
0.048087098 0.14572746 0.071357794 0.11857067 -0.10497011 -0.07528465 0.15534909 0.1657266
00000000: b698 353e fc82 543e bd46 4f3e 7ed3 023e
00000010: 0345 e63d c9e4 0b3e 59bc 893d 3b52 1c3e
00000020: 1bd6 65bd c31f 2d3e f65e 273e 6b89 4c3e
00000030: 77ae 2f3d 3549 debd 4b51 ff3c 7f5d 163e
00000040: c5e0 92bd 35bb 243e 14ac 04be ff6f 82bd
00000050: 771d 3e3e f7d6 5c3e 50dc e2bd 4859 be3d
00000060: 3f0e 023e 47e5 1e3e 0510 2a3e 2574 393e
00000070: 01e8 073e c6e5 e03d 6f29 9c3c 8014 203e
00000080: 9682 d9bd 925f 443e 16e6 6c3e 08da 173e
00000090: 27dd c9bd b508 e73d ec3d b5bd b871 0e3e
000000a0: 37d2 1a3e 11e1 30bd 6a99 5a3e 80af adbd
000000b0: aa0b 933d 9082 acbd cb8c a43c a351 553e
000000c0: c2c2 633e d1e6 d63d 3f64 52bb 025b 2c3e
000000d0: 500d d5bd d1ad 1b3e 9365 d63d 6aa9 e23d
000000e0: b005 0ebd ed9a 213d 2370 7d3d b26a 543e
000000f0: 75d2 223e 8c65 b43d 64c7 b8bd 2470 f83d
00000100: b83a 0b3e c363 313e fd22 053e 3af7 103e
00000110: e8a7 78be 6575 433e d23e f13d 6e9d ebbd
00000120: 1c62 743d 1313 b5be e516 90be c9af 68bc
00000130: a125 4b3e bbd3 f1bd 0161 7c3d acee 333e
00000140: d2fa b1bd e576 93bd f41f c93d 2e29 123e
00000150: 9fc1 4b3e 72ac bfbc 4c59 323e 7918 d1bd
00000160: d2e8 44bc f48f 73bc 0e4c 1e3e a043 a13d
00000170: f17c 0b3e 35df 203e 0372 93bd 39b0 553e
00000180: ca72 b73d 6698 ebbd 66be 953b f1e2 3b3e
00000190: 355c 443d b9b7 523e 3578 473e 9451 b7bd
000001a0: deff 50be 3e78 eabe 0f75 4b3e 23a7 893d
000001b0: f9cc 00be b6bf 5b3e 40d1 433e 9287 21be
000001c0: e9ae 373e 85c1 03be 3064 e6bd 2833 ddbe
000001d0: cf77 87bd 6e0a 333e db1d 633e 2cac 0d3e
000001e0: 2662 463e 3ce8 95bd 1d75 edbd ea82 213e
000001f0: 072b 1c3e 4c84 d239 ab85 633e 2b93 bbbd
00000200: 9edf b53d ead6 f2bd 8f38 533d 5870 413e
00000210: c27d 8bbd 3aee 583e 0108 023e 08bd 473e
00000220: de2c b6bd d7d0 323e 9f9d dcbd 3d9e 143e
00000230: 9663 203e 2d46 6ebd 6e1b c3bd 5b9f 183e
00000240: 8a66 0b3e ce7d 2a3e dc2e a23d 2bf4 07be
00000250: c8b1 3d3e 19e5 13be 6386 2bbd dfdf 323e
00000260: 1ed6 413e da4e 5f3d d49d ddbd de3e 5b3e
00000270: c2f6 593e ce8e 463e b094 e2bd 1353 f5bd
00000280: eee4 1b3e d4f6 d2bd 0c22 2b3e d7fe 2b3e
00000290: 1feb b6bd c943 013e d29a 473e 0147 203e
000002a0: 93a3 2f3e 1f40 1c3e b707 973d 552b 2ebe
000002b0: ca09 4a3e b6a0 0e3e ab1f 5c3e 1d2d fd3d
000002c0: 1141 1b3e ca6e 94bd d6be 033e fc42 cfbd
000002d0: e8f6 493e 1e6c dbbd 42eb 463e 42c2 483d
000002e0: 4ffc 163e 7732 023e 108e ca3d 80ea 2c3e
000002f0: 4dbf 8a3d dc46 6cbe 24e9 9c3d 442f d5bd
00000300: 6f8b cd3d 60b8 c4bb 4354 12be 8c7d c5bd
00000310: f1d9 113e 3a8e 313e 1774 323e bc98 3f3e
00000320: b5d3 5dbd 94f3 1c3e 8c41 eabd 93d6 98bd
00000330: 4871 a8be edc4 62be dccd 343e 7b40 123e
00000340: 5042 393e f1ec 043e 3f70 0bbe edcc 2a3e
00000350: f9bb 323e cac3 7dbd 2b64 1c3e f322 2a3e
00000360: e8b4 533e 972a 143e 2a4d 763e 1ad5 2f3e
00000370: f197 cabc df81 a5bd cfcf a63d fdcb 533e
00000380: dbee 7c3d 983e 1b3e 45fb 6b3e b641 ed3d
00000390: f127 88be cdd4 fc3d 5d2b 433e dc8e c53d
000003a0: b313 383e 7f96 263e 5351 553e 5b23 d83d
000003b0: be4c 1f3e efb0 e13d 2451 1b3e 5a0e cd3d
000003c0: 31e8 dc3d b197 683e 33e0 243e 8d0c fc3d
000003d0: 9b1b 12bd b481 193c 46d4 0b3e 763e 233e
000003e0: faf6 443d 9439 153e 0924 923d 2ed5 f23d
000003f0: 92fa d6bd d72e 9abd d513 1f3e 3cb4 293e

output.weight f4 [4, 256]
0.021977028 0.046162847 0.05406219 -0.11406974 -0.04232723 -0.10743594 -0.08850317 0.03612087
-0.020852918 0.02662118 0.026815334 0.0455938 0.028957237 0.008980487 0.03067489 -0.09984183
0.027563168 0.036609463 -0.033582173 -0.001504134 0.044217605 0.037258737 -0.2556723 -0.007837994
-0.10149878 0.04707454 0.026415953 -0.066647895 -0.14275554 -0.0065136957 -0.1408286 0.027427569
-0.0023950231 0.027694752 0.05235718 0.03981595 -0.026199508 -0.008713725 -0.0032603329 -0.092340685
0.02980513 -0.28997824 0.023383081 0.012258197 0.04607925 0.0022329204 0.036684614 0.038847487
0.03297101 -0.03933885 -0.18650444 -0.076592624 -0.01078012 0.023220178 0.032769162 -0.031270664
-0.15605895 -0.03078212 0.067141764 0.039220996 0.028572554 0.035005767 -0.023697808 -0.29073462
-0.15999198 0.061264236 0.03580522 0.034295455 -0.037793964 0.024027107 0.03265961 -0.14200445
0.041450255 -0.116043776 -0.10518218 -0.039545443 0.040118784 0.0052265944 -0.055336658 0.03858886
-4.1106192e-05 -0.0058962787 -0.029328417 -0.034445073 0.04090454 -0.062271245 0.026175588 -0.011333595
-0.18139581 0.057288397 0.028428975 -0.065707184 0.027402636 0.023755554 -0.01789 0.037526004
-0.07546545 -0.01936482 -0.0069645345 0.024221163 0.010995304 0.038288236 0.030013721 -0.18464014
-0.02183358 -0.24165867 0.041488484 -0.026844576 -0.026746035 0.049014743 0.063688524 -0.020950079
0.040152617 0.0017117584 0.017444333 -0.23296694 -0.02466141 -0.059055433 0.043800708 -0.04792604
0.028726414 -0.030335313 -0.1774744 -0.039747514 -0.06440362 0.08267465 0.046120416 -0.045368485
-0.042991914 0.013672383 0.038888745 0.02456173 -0.16598806 0.041749958 0.047519557 0.026450843
-0.082300745 0.026391003 -0.085969076 0.026929002 0.040744226 -0.07733472 -0.014225833 0.03592044
-0.03593616 -0.083734624 -0.050060254 -0.20256676 0.039092403 -0.084808014 -0.0405362 0.026207449
0.026846668 -0.024656892 0.04215452 0.026466273 0.05046369 0.04032357 0.0027405748 0.026023421
-0.097300395 0.0028732594 0.02474409 -0.032029603 -0.011071522 -0.070752814 0.039734654 0.055161305
0.029244639 -0.11807642 0.063163966 -0.06795066 0.026290096 0.04090324 0.067911565 -0.02358569
-0.020890288 -0.05949486 -0.15230615 -0.00313737 0.041305788 -0.011658361 0.040941846 0.036247108
-0.048904058 -0.05591668 0.029211145 0.026593303 0.036164377 0.048503965 0.03248074 -0.006386666
-0.18199585 -0.13549685 -0.017248822 0.0042300825 -0.022134088 0.04616023 0.029100312 0.036898855
0.0021716107 0.024934283 -0.004194454 0.0025603815 -0.068659365 -0.0070971996 0.033830777 0.029595647
0.030709058 0.036584225 0.045487486 0.02362523 0.028101334 -0.005813906 0.049571615 0.027173972
0.04352394 0.042521052 0.04334591 0.02279688 -0.26587892 -0.01608821 0.027634958 0.042114023
-0.027693981 0.032906618 0.031452898 0.036338147 -0.14132714 -0.12907237 0.017247953 -0.030056404
0.02100296 0.021629974 0.034394234 0.03929081 -0.104157574 0.07082316 -0.044318005 -0.096489996
0.023657657 0.03726864 0.026740767 -0.101255536 0.031412736 -0.03206527 0.02684842 0.031935204
-0.32410717 0.022006877 0.05305928 0.03539262 -0.03472159 -0.002104821 0.02910252 0.037388623
00000000: 2b09 b43c 4115 3d3d 5170 5d3d 659d e9bd
00000010: 515f 2dbd 6007 dcbd 2641 b5bd 7af3 133d
00000020: bdd3 aabc a914 da3c d5ab db3c 90c0 3a3d
00000030: ba37 ed3c e422 133c e849 fb3c e079 ccbd
00000040: 27cc e13c cef3 153d 768d 09bd 5d26 c5ba
00000050: 851d 353d 9e9c 183d 7be7 82be ee6a 00bc
00000060: 98de cfbd 3cd1 403d 4566 d83c b17e 88bd
00000070: 822e 12be d770 d5bb 5f35 10be c8af e03c
00000080: d2f5 1cbb 1be0 e23c 7b74 563d 0d16 233d
00000090: 5aa0 d6bc 03c4 0ebc 4fab 55bb 1d1d bdbd
000000a0: e329 f43c 0778 94be e08d bf3c 9bd6 483c
000000b0: 98bd 3c3d 3056 123b 9b42 163d 8b1e 1f3d
000000c0: 9c0c 073d c621 21bd 05fb 3ebe 98dc 9cbd
000000d0: 1a9f 30bc 3e38 be3c f538 063d ab15 00bd
000000e0: ebcd 1fbe c92a fcbc 9f81 893d 32a6 203d
000000f0: fd10 ea3c 3562 0f3d e821 c2bc 2bdb 94be
00000100: f0d4 23be 35f0 7a3d 7fa8 123d 6479 0c3d
00000110: d8cd 1abd 7fd4 c43c 15c6 053d 9d69 11be
00000120: bec7 293d 5ca8 edbd c169 d7bd 67fa 21bd
00000130: 9853 243d da43 ab3b b1a8 62bd 5a0f 1e3d
00000140: 7069 2cb8 9235 c1bb 2642 f0bc 4716 0dbd
00000150: 858b 273d 2210 7fbd 306e d63c 8bb0 39bc
00000160: d3bf 39be 3da7 6a3d e2e3 e83c 7d91 86bd
00000170: 7e7b e03c 029b c23c 0d8e 92bc deb4 193d
00000180: a18d 9abd f9a2 9ebc c036 e4bb 766b c63c
00000190: a625 343c 20d4 1c3d 56df f53c 4e12 3dbe
000001a0: 56dc b2bc 5f75 77be d4ef 293d 28e9 dbbc
000001b0: 801a dbbc afc3 483d 216f 823d 809f abbc
000001c0: 1277 243d 155d e03a 6be7 8e3c e38e 6ebe
000001d0: ba06 cabc 1ce4 71bd 5f68 333d 184e 44bd
000001e0: a853 eb3c c381 f8bc d9bb 35be 4ace 22bd
000001f0: 0ce6 83bd 5451 a93d c3e8 3c3d 4ed4 39bd
00000200: 4a18 30bd 2102 603c ce49 1f3d ae35 c93c
00000210: c6f8 29be 0102 2b3d dea3 423d 70af d83c
00000220: 4b8d a8bd f231 d83c 8e10 b0bd 369a dc3c
00000230: 6be3 263d aa61 9ebd 7813 69bc 5021 133d
00000240: cb31 13bd 0f7d abbd fb0b 4dbd a96d 4fbe
00000250: 5b1f 203d d3af adbd 4909 26bd 01b1 d63c
00000260: 8bed db3c 40fd c9bc 38aa 2c3d cccf d83c
00000270: 04b3 4e3d 542a 253d 379b 333b 122f d53c
00000280: 6e45 c7bd 4b4d 3c3b 1eb4 ca3c 7931 03bd
00000290: 5465 35bc dae6 90bd cec0 223d d2f0 613d
000002a0: 7492 ef3c 0dd2 f1bd 1c5c 813d b729 8bbd
000002b0: 545e d73c 288a 273d 3815 8b3d c736 c1bc
000002c0: 1c22 abbc e2b0 73bd 25f6 1bbe 569c 4dbb
000002d0: 4230 293d b602 3fbc a3b2 273d d977 143d
000002e0: 9f4f 48bd e308 65bd 364c ef3c 33da d93c
000002f0: 1921 143d 18ac 463d 860a 053d 3d47 d1bb
00000300: 1f5d 3abe b0bf 0abe 674d 8dbc 819c 8a3b
00000310: 8c52 b5bc 8212 3d3d c763 ee3c 4123 173d
00000320: 9551 0e3b fb42 cc3c a171 89bb 13cc 273b
00000330: 489d 8cbd a08f e8bb 2492 0a3d 9272 f23c
00000340: 9091 fb3c 57d9 153d 1651 3a3d b389 c13c
00000350: c534 e63c 9482 bebb 9b0b 4b3d f39b de3c
00000360: 2946 323d 8e2a 2e3d 7b8b 313d 86c0 ba3c
00000370: 4821 88be 6ccb 83bc b562 e23c c17f 2c3d
00000380: 7dde e2bc 17c9 063d c1d4 003d 4fd7 143d
00000390: 10b8 10be 8c2b 04be 944b 8d3c d938 f6bc
000003a0: 660e ac3c 5831 b13c f8e0 0c3d 66ef 203d
000003b0: 9150 d5bd bc0b 913d cc86 35bd 8c9c c5bd
000003c0: b4cd c13c 00a7 183d 740f db3c 105f cfbd
000003d0: a4aa 003d df56 03bd 38f1 db3c 7dce 023d
000003e0: 60f1 a5be c447 b43c b054 593d daf7 103d
000003f0: 3a38 0ebd 09f1 09bb 6868 ee3c d024 193d

output.bias f4 [4]
1.5943937 1.2923574 1.3931133 1.3771988
00000000: 1815 cc3f f86b a53f 8951 b23f 0d48 b03f
