checkpoints/state_size_37__action_size_4__hidden_layers_[256-256]__drop_p_0.0__seed_0__GAMMA_0.99__LR_0.0005__UPDATE_EVERY_50__BUFFER_SIZE_10000__BATCH_SIZE_64__TAU_0.001.pth (torch, 308311 bytes, 6 tensors)

hidden_layers.0.weight f4 [256, 37]
0	0xbe0d9cc9	-0.1382934
1	0x3e126583	0.14296536
2	0xbda15a86	-0.07878594
3	0xbdce4fc7	-0.1007381
4	0xbde7203a	-0.112854436
5	0xbdf7ac54	-0.12093416
6	0xbd1eab7d	-0.038737763
7	0x3d8fe9ac	0.07026991
8	0x3e4528dc	0.19253868
9	0x3f681ec3	0.9067194
10	0x3d9621c0	0.07330656
11	0xbd6561a4	-0.05600132
12	0x3d8af884	0.06785682
13	0x3d23b1b7	0.039964404
14	0x3cdd3083	0.027000671
15	0x3db00e7d	0.085965134
16	0x3dc8cf6a	0.09805186
17	0xbc2084b6	-0.009797266
18	0x3d8ccfd4	0.068755776
19	0xbde6863d	-0.11256073
20	0xbbc9debb	-0.0061605847
21	0xbd34a4ec	-0.044102594
22	0xbcc1d3d9	-0.023660587
23	0x3d7fe36b	0.062472742
24	0x3e094fec	0.13409394
25	0x3db8ff66	0.090330884
26	0x3beebea7	0.007285911
27	0x3c0feb67	0.008784152
28	0x3e282725	0.16421182
29	0x3e51da5e	0.20493457
30	0xbd0412ca	-0.03224448
31	0xbe4589ec	-0.19290894
32	0xbe316399	-0.1732315
33	0xbd2fb8b1	-0.042900745
34	0xbd221f31	-0.039580528
35	0x3dbf8249	0.09351022
36	0x3d1a4c4b	0.037670415
37	0x3c060cb1	0.008181737
38	0xbe33682d	-0.17520209
39	0x3d0572b6	0.0325801
40	0xbddf5e2a	-0.10906632
41	0x3e317468	0.17329562
42	0xbda09eb3	-0.078427695
43	0xbe4297b3	-0.19003181
44	0x3e42e3dc	0.19032234
45	0x3da9aea6	0.08285265
46	0xbe174334	-0.1477173
47	0xbe61e8c3	-0.22061448
48	0x3c13242c	0.008980792
49	0xbdbf27c0	-0.093337536
50	0xbd971769	-0.07377512
51	0xbd02ff07	-0.031981494
52	0x3da54825	0.08070401
53	0xbd883647	-0.066509776
54	0xbbe5dc79	-0.007014808
55	0xbda8a3ea	-0.08234389
56	0x3de2c567	0.11072808
57	0xbe24f7d2	-0.16110161
58	0xbe1bd5cb	-0.15218274
59	0x3d271a44	0.040796533
60	0xbe073569	-0.13203968
61	0xbe03dc15	-0.12876923
62	0x3cce357c	0.025171988
63	0xbe93f47d	-0.28897467
64	0xbe1f7df0	-0.15575385
65	0xbd695a43	-0.056970846
66	0x3d611596	0.054952227
67	0xbe412cd2	-0.18864754
68	0xbdc7c6c1	-0.09754706
69	0xbe0b7333	-0.13618164
70	0x3e3b3a33	0.1828392
71	0x3ce97a3b	0.028500667
72	0x3e28e416	0.16493258
73	0xbca5b0c7	-0.020225896
74	0x3d0e1e17	0.034696665
75	0xbe1c1733	-0.15243225
76	0x3b8ee70e	0.00436104
77	0x3db544a2	0.08850981
78	0x3e273e1a	0.16332284
79	0xbd213ec1	-0.039366487
80	0x3de25b01	0.11052514
81	0x3d91412e	0.0709251
82	0xbe1680c9	-0.14697565
83	0x37c5a52e	2.3561148e-05
84	0xbdc97cd6	-0.09838264
85	0x3dc436e8	0.09580785
86	0x3d5cbe23	0.053892266
87	0x3cefccf5	0.029272536
88	0x3d08334b	0.03325204
89	0x3e06ee1f	0.13176773
90	0xbdb587f5	-0.08863822
91	0x3ddd0af8	0.10793108
92	0xbe3f525f	-0.18683766
93	0x3e255c20	0.16148424
94	0x3e2d0af5	0.16898711
95	0xbd564c41	-0.052318815
96	0x3d295f67	0.04135075
97	0x3d9c7cf7	0.07641023
98	0x3e7003b7	0.23438917
99	0xbc9e2afa	-0.019307602
100	0xbdfac71c	-0.12245008
101	0xbdc06303	-0.09393885
102	0x3de8fb7d	0.113760926
103	0x3dd36b38	0.10323185
104	0x3cf95ac0	0.03043878
105	0x3d7df8e9	0.062004957
106	0x3d93b4d8	0.072122276
107	0xbe0d0b5e	-0.13773867
108	0x3f0179ab	0.50576276
109	0xbdb0c902	-0.08632089
110	0xba9d0062	-0.0011978264
111	0x3db83979	0.08995337
112	0x3ddb640f	0.10712444
113	0xbe7698bc	-0.24081701
114	0xbccffa34	-0.02538786
115	0xbe4135e5	-0.18868215
116	0xbe0fe6cc	-0.14052886
117	0x3d14ca8c	0.036325976
118	0xbd1bb4b0	-0.038014114
119	0x3e46af2a	0.19402757
120	0xbb1b1373	-0.0023662716
121	0x3d974d48	0.07387787
122	0xbc175053	-0.009235459
123	0x3da55707	0.0807324
124	0x3d6ccc96	0.057812296
125	0x3d85d7de	0.06535314
126	0x3e6cc404	0.23121649
127	0xbec0f77a	-0.3768881
128	0xbe142373	-0.14466648
129	0xbe7dafef	-0.24774145
130	0xbf18319a	-0.59450686
131	0x3bb693ad	0.0055718035
132	0xbdb08792	-0.08619608
133	0x3dfd033a	0.12354131
134	0x3a544809	0.0008097892
135	0xbd8d1898	-0.068894565
136	0xbe8d4375	-0.27590528
137	0x3e20987f	0.15683173
138	0x3e22cb2d	0.15897818
139	0xbdc9808c	-0.098389715
140	0x3e6f0c69	0.23344578
141	0xbdd92277	-0.10602277
142	0x3dabaa2f	0.08382069
143	0xbd4e100b	-0.05030827
144	0x3d1803f3	0.03711314
145	0x3df8fde7	0.12157803
146	0x3d203bed	0.03911965
147	0xbc25432d	-0.010086817
148	0xbd462678	-0.04837653
149	0x3db89941	0.09013606
150	0xbd4e49f8	-0.05036351
151	0xbda7ca30	-0.08192861
152	0xbd9c3295	-0.07626835
153	0x3d2ed4f0	0.04268354
154	0xbba638f6	-0.0050727082
155	0xbda349b2	-0.07973041
156	0xbdf2a451	-0.11847747
157	0xbe1b6df0	-0.15178657
158	0x3db807f4	0.08985892
159	0xbe0251ff	-0.12726592
160	0x3ca1f444	0.019769795
161	0xbdb38dbb	-0.08767267
162	0xbe384521	-0.1799512
163	0x3cc2633a	0.023728956
164	0xbdd4272f	-0.10359036
165	0x3ccdaa1f	0.025105534
166	0x3d47f940	0.048821688
167	0x3c2bbbbc	0.010481771
168	0x3e2b7816	0.16745028
169	0x3d926b0b	0.07149323
170	0xbd308f81	-0.043105606
171	0x3db94f4a	0.09048326
172	0xbeba540e	-0.36392254
173	0xbd878368	-0.06616861
174	0x3d2c5301	0.042071346
175	0xbdf42c6b	-0.119225346
176	0x3e126d81	0.14299585
177	0x3d781f0a	0.060576476
178	0x3c87f80a	0.016597766
179	0x3e55df95	0.20886071
180	0x3d8c2c08	0.06844336
181	0x3c137efd	0.009002444
182	0x3df9d63e	0.121990666
183	0xbb7ef433	-0.0038902878
184	0xbcc16d91	-0.023611816
185	0xbdf207f9	-0.11817927
186	0xbd861d38	-0.06548542
187	0xbb034b19	-0.0020033775
188	0xbe2fc442	-0.1716471
189	0xbddede66	-0.10882263
190	0x3e0121bc	0.12610525
191	0x3e0f1d01	0.13975908
192	0x3db3cc21	0.08779169
193	0x3df53f43	0.11974957
194	0xbe16f721	-0.1474271
195	0xbdb57ab5	-0.08861295
196	0x3d429b68	0.04751149
197	0xbdbe2d47	-0.0928598
198	0xbcea7044	-0.028617986
199	0x3e116105	0.14197166
200	0xbe7dc6f8	-0.24782932
201	0xbba48008	-0.0050201453
202	0xbd612826	-0.05496993
203	0xbd59d204	-0.053178802
204	0xbd855d11	-0.06511892
205	0xbdbf028d	-0.093266584
206	0xbe28201a	-0.16418496
207	0x3d77100f	0.06031805
208	0x3c07d332	0.008290099
209	0x3d12be8f	0.035826262
210	0x3dbbfdf7	0.09179299
211	0x3e14c816	0.14529452
212	0xbd64dceb	-0.055874746
213	0x3c9dd3e1	0.01926607
214	0x3d5a2f45	0.053267736
215	0xbe67203a	-0.22570887
216	0xbe863577	-0.26212665
217	0x3dce9f8d	0.10089026
218	0x3e3d45c5	0.18483646
219	0x3dd51268	0.10403901
220	0xbe0d25e6	-0.13783988
221	0xbd8947be	-0.06703137
222	0xbdd9934c	-0.10623798
223	0xbd6ca4bd	-0.057774294
224	0x3de1572b	0.11002954
225	0xbde444f6	-0.11145966
226	0xbe2e2110	-0.170048
227	0xbbe37d07	-0.0069423947
228	0xbd02a4cb	-0.03189544
229	0xbccac2ac	-0.02475103
230	0xbe04e8da	-0.12979451
231	0xbd0f2012	-0.034942694
232	0x3d123db1	0.035703365
233	0xbe322326	-0.1739622
234	0xbd944c79	-0.072411485
235	0xbde7ed19	-0.1132452
236	0x3db01147	0.085970454
237	0x3db7202c	0.08941683
238	0x3de73244	0.11288884
239	0x3d851b4a	0.064993456
240	0x3df23386	0.118262336
241	0xbd2b373b	-0.04180072
242	0xbe1378ef	-0.14401601
243	0x3cee7ed7	0.029113216
244	0x3d83329c	0.06406137
245	0xbe71c8e4	-0.2361179
246	0x3b008ea0	0.001961626
247	0xbcdd3362	-0.02700204
248	0xbe10a0a9	-0.14123787
249	0xbdabc3ab	-0.0838693
250	0xbd2b2ae1	-0.04178894
251	0xbcea1101	-0.028572561
252	0x3d80810e	0.06274615
253	0xbe1e86e2	-0.15481141
254	0xbe459cd4	-0.19298106
255	0xbdbb1c3a	-0.09136243

hidden_layers.0.bias f4 [256]
0	0xbd51c91c	-0.051217183
1	0x3d8cba14	0.06871429
2	0xbddf2c59	-0.108971305
3	0xbcd88f02	-0.026435379
4	0x3dbbb4d9	0.09165353
5	0xbe04f148	-0.12982666
6	0x3b1b058e	0.0023654434
7	0xbe507f79	-0.20361127
8	0x3d8274a8	0.06369907
9	0xbd9318b5	-0.07182447
10	0xbdd065c0	-0.10175657
11	0x3cb15385	0.02164627
12	0xbe00ac13	-0.12565641
13	0x3cec3f96	0.028838914
14	0x3e3f5e80	0.18688393
15	0xbe168295	-0.1469825
16	0x3d2b7e77	0.041868653
17	0xbc3ead19	-0.011637949
18	0xbe530a61	-0.20609428
19	0xbce54647	-0.027987612
20	0xbe1ae1ea	-0.15125242
21	0xbd934f70	-0.07192886
22	0x3d4e8b75	0.050425965
23	0xbe18b327	-0.14912091
24	0x3cd2d336	0.025735479
25	0x3d33345f	0.043751117
26	0xbc5c3a24	-0.013441596
27	0xbda7c6e3	-0.081922315
28	0xbe12555a	-0.14290372
29	0xbce6eedb	-0.028190067
30	0xbdc38833	-0.09547462
31	0xbc9d5d7c	-0.019209616
32	0x3dc20326	0.09473257
33	0xbd749db4	-0.05972071
34	0xbdb339b0	-0.087512374
35	0xbe5b158e	-0.21394941
36	0xbd182b3d	-0.03715061
37	0x3d80c64c	0.06287822
38	0xbd7dfb48	-0.06200722
39	0xbd347a36	-0.044061862
40	0x3dabe603	0.08393481
41	0x3d7f8c55	0.06238969
42	0xbc1c82a7	-0.009552634
43	0xbd4d2648	-0.050085336
44	0x3e051fbf	0.13000391
45	0xbd051866	-0.03249397
46	0x3c526e24	0.012843642
47	0xbe081e52	-0.13292816
48	0xbdc4ff01	-0.09618951
49	0xbd92ff24	-0.071775705
50	0x3d415ae1	0.04720581
51	0xbdce7a76	-0.10081951
52	0xbd916071	-0.07098473
53	0xbd8a4b6d	-0.067526676
54	0x3d3b1f25	0.045684
55	0xbdcc1459	-0.099648185
56	0x3e138166	0.1440483
57	0x3d33fcf0	0.043942392
58	0xbda7a86f	-0.08186423
59	0x3c34b5ea	0.0110297
60	0xbceacf49	-0.028663294
61	0xbe00c66b	-0.1257569
62	0x3d4bc83c	0.049751505
63	0xbc823fdf	-0.015899597
64	0xbb94c519	-0.0045400974
65	0x3d9a9d66	0.075495526
66	0xbddb4afd	-0.10707662
67	0x3ca06749	0.0195805
68	0x3d9963f2	0.07489766
69	0xbba3fe7b	-0.0050047017
70	0xbddb218d	-0.10699759
71	0x3e063af6	0.1310843
72	0x3da771b6	0.081759855
73	0x3d92ad59	0.0716197
74	0xbcd49b5a	-0.025952984
75	0xbe805b25	-0.25069538
76	0xbdf4b26d	-0.119480945
77	0x3dc4ae1b	0.096035205
78	0xbdac6b54	-0.08418909
79	0xbe1d2724	-0.15346962
80	0xbce98b22	-0.028508727
81	0xbe0610e2	-0.13092378
82	0xbd8bb285	-0.06821159
83	0xbe06fa65	-0.13181455
84	0x3d80ead1	0.06294788
85	0xbe27c584	-0.1638394
86	0xbe255417	-0.16145359
87	0x3b928904	0.0044719
88	0xbdab1f1f	-0.08355545
89	0x3dfa1531	0.12211073
90	0xbd80daf6	-0.062917635
91	0x3e05add4	0.13054591
92	0x3e323164	0.17401654
93	0x3d4fa884	0.05069782
94	0xbcc9bb4c	-0.024625443
95	0xbe44c7a1	-0.19216777
96	0xbd1dab98	-0.038493723
97	0xbdd58417	-0.10425585
98	0xbd17720a	-0.03697399
99	0xbd5cff37	-0.05395433
100	0xbe3b7e01	-0.18309785
101	0xbdcd25bf	-0.10016965
102	0x3db58e55	0.08865038
103	0x3d8ef167	0.069796376
104	0xbc3bc6be	-0.011460958
105	0xbe17a1ac	-0.14807767
106	0xbe5ab2f9	-0.21357335
107	0x3dafaac3	0.08577492
108	0xbc61f35c	-0.013790932
109	0x3d23262e	0.039831333
110	0x3da58c06	0.08083348
111	0xbe157899	-0.14596786
112	0x3e263df3	0.16234569
113	0xbdf1a484	-0.11798957
114	0x3d2cf82d	0.042228866
115	0x3da4d15f	0.08047747
116	0xbd4dfba0	-0.050288796
117	0xbdcce648	-0.1000486
118	0xbdd4d1e1	-0.10391594
119	0xbd8448cc	-0.064591974
120	0xbe220df4	-0.15825635
121	0x3caa14e4	0.020761915
122	0xbe56c838	-0.20974815
123	0xbd9611f4	-0.07327643
124	0x3df97acf	0.12181627
125	0x3b851011	0.004060753
126	0x3d722e17	0.059125986
127	0x3c36f1fb	0.011166091
128	0xbd0d60d8	-0.034516186
129	0xbb3dd285	-0.002896459
130	0xbe27bcf8	-0.1638068
131	0xbe848652	-0.25883728
132	0xbcf44809	-0.029819505
133	0x3cf8a082	0.030349974
134	0x3ca87f51	0.020568522
135	0x3e2c25e3	0.16811328
136	0xbd8bf62f	-0.06834065
137	0x3c46ed32	0.012141513
138	0xbe6e4c65	-0.2327133
139	0xbe268bf9	-0.16264333
140	0xbda29389	-0.07938296
141	0x3c1b7281	0.009487749
142	0x3d5a8205	0.053346653
143	0xbdccb694	-0.099957615
144	0xbe0ad14d	-0.13556404
145	0xbe132b77	-0.1437205
146	0xbda3582d	-0.079758026
147	0x3de0a556	0.10969035
148	0x3d1ee506	0.038792633
149	0x3e424043	0.18969826
150	0xbd62cb76	-0.055369817
151	0x3dd19ae0	0.10234618
152	0x3d62c50e	0.055363707
153	0xbe6b2e6b	-0.22966926
154	0x3e0407cb	0.12893598
155	0x3c6d2679	0.014474505
156	0xbd6fbb52	-0.058528252
157	0xbe1c1bbf	-0.1524496
158	0xbd599c6d	-0.053127695
159	0x3d593bd3	0.05303557
160	0xbdc8486f	-0.097794406
161	0x3dffcb53	0.12489953
162	0x3d8bd71e	0.0682814
163	0x3d2d95ee	0.042379312
164	0xbe4e39fc	-0.20139307
165	0x3d09b705	0.033621807
166	0xbd48b012	-0.04899604
167	0xbe14a471	-0.14515854
168	0xbb34f9fa	-0.0027614818
169	0xbce25871	-0.027630063
170	0x3de0c06f	0.10974204
171	0xbe00d130	-0.12579799
172	0xbd2c5dfb	-0.042081814
173	0xbce3d370	-0.027810782
174	0x3d025e40	0.031828165
175	0xbe10f7c0	-0.14157009
176	0xbdb187f1	-0.08668507
177	0xbcdbed86	-0.026846658
178	0xbdc2118d	-0.09476004
179	0xbd7c1471	-0.061542932
180	0xbb25dd50	-0.0025308914
181	0xbc8c3ebf	-0.017119763
182	0x3e0e6bf3	0.13908367
183	0x3d5ceb29	0.053935204
184	0xbcae6e3b	-0.021292796
185	0xbe45b76f	-0.19308256
186	0x3c95b37d	0.018274063
187	0xbe38c742	-0.18044761
188	0xbe0d46fc	-0.1379661
189	0x3df359c7	0.11882358
190	0xbcd607c8	-0.026126757
191	0x3bc9d1aa	0.006159027
192	0x3c5cfd0d	0.013488066
193	0xbe1fe8f6	-0.15616211
194	0xbb31d487	-0.0027134733
195	0xbccbdcd9	-0.024885582
196	0xbda589d4	-0.08082929
197	0xbc670f3b	-0.014102752
198	0xbddd6a01	-0.10811234
199	0x3dd2eddf	0.102992766
200	0xbe2b51f6	-0.16730484
201	0xbdb9234f	-0.09039938
202	0x3d93db29	0.07219536
203	0xbe0734d6	-0.13203749
204	0xbd3b931b	-0.045794588
205	0x3df6709e	0.12033199
206	0xbe148854	-0.1450513
207	0x3d9d765b	0.0768859
208	0x3d45ff98	0.048339456
209	0xbe7bf40e	-0.24604818
210	0xbe39cd83	-0.18144803
211	0xbb1817fd	-0.0023207658
212	0x3b561893	0.0032668456
213	0xbd5c373f	-0.053763624
214	0xbda1db33	-0.07903137
215	0xbe4c5c45	-0.19957073
216	0x3d876ef4	0.066129595
217	0x3d150fa6	0.036391877
218	0xbe1fb51e	-0.15596434
219	0xbdd562cd	-0.104192354
220	0xbdfb309b	-0.1226513
221	0xbc86a8d3	-0.016437924
222	0xbdaed961	-0.085375555
223	0xbe4c0ecf	-0.19927524
224	0x3db8c223	0.09021404
225	0x3c22de57	0.009940705
226	0x3dd83f82	0.10558988
227	0x3c99954a	0.018747944
228	0xbb1df496	-0.0024102083
229	0xbcc45f9d	-0.023971373
230	0xbe18eac3	-0.14933304
231	0xbe8bed4f	-0.2732949
232	0xbe51e2ed	-0.20496722
233	0xbc70bccb	-0.014693449
234	0xbdefa714	-0.117017895
235	0xbd8bd4fe	-0.068277344
236	0x3b2937e0	0.0025820658
237	0x3c264889	0.01014913
238	0x3d5644f2	0.052311845
239	0xbdf216fb	-0.118207894
240	0xbe188f93	-0.14898519
241	0x3d50934c	0.050921723
242	0xbe8afe33	-0.27147064
243	0x3dbfaf2a	0.09359582
244	0xbdeffc06	-0.117179915
245	0xbe1223b0	-0.14271426
246	0xbe135714	-0.14388686
247	0xbe3bf66e	-0.18355724
248	0x3ddefeb8	0.108884275
249	0xbe0f3b8d	-0.1398756
250	0xbda133bd	-0.078711964
251	0xbdcff4d3	-0.101541184
252	0xbda61dd6	-0.081111595
253	0x3cbc0c86	0.02295519
254	0xbdcccadd	-0.099996306
255	0xbd525833	-0.051353645

hidden_layers.1.weight f4 [256, 256]
0	0xbdca0bb6	-0.09865515
1	0xbc75672d	-0.014978212
2	0xbd226b09	-0.039652858
3	0x3b3467b7	0.002752764
4	0xbd8b4677	-0.068005495
5	0xbdb42dc2	-0.0879779
6	0x3d9e52df	0.0773065
7	0xbd9a04df	-0.0752046
8	0x3d11d928	0.035607487
9	0xbd0e47dd	-0.034736503
10	0x3d7267c4	0.05918099
11	0xbc41f52e	-0.011838241
12	0xbc4b7b85	-0.012419586
13	0x3a9c3f9d	0.0011920814
14	0xbcea342c	-0.02858933
15	0xbdbf421f	-0.093387835
16	0x3d9ed905	0.07756237
17	0x3ca8c75a	0.02060287
18	0xbc872cf6	-0.016500931
19	0xbd1ce43e	-0.038303606
20	0xbc27aabc	-0.010233577
21	0xbc59fef2	-0.013305413
22	0xbd5f733e	-0.054553263
23	0xbd96fdf9	-0.0737266
24	0x3dbfa0dd	0.09356854
25	0xbbafff51	-0.0053710123
26	0xbc523640	-0.012830317
27	0x3d8b1926	0.06791906
28	0xbddb8d15	-0.10720269
29	0xbcec13eb	-0.028818091
30	0xbdde255a	-0.10846968
31	0xbc47fb1a	-0.012205863
32	0xbd3f9a80	-0.046778202
33	0x3d41ffe7	0.047363188
34	0x3c103d3c	0.008803662
35	0xbbef3413	-0.007299909
36	0x3c88a2f7	0.01667927
37	0xbb87d1eb	-0.004144897
38	0xbd5c5c41	-0.053798918
39	0xbd746a2a	-0.05967156
40	0xbd7cd12b	-0.061722916
41	0xbc1e22c8	-0.009651847
42	0xbd232343	-0.03982855
43	0xbd1a31d0	-0.03764516
44	0x3d7e333e	0.062060587
45	0x3db3fdda	0.08788653
46	0xbda32a8b	-0.07967099
47	0xba959c2c	-0.0011414341
48	0xbc80292b	-0.01564463
49	0xbd1e1d79	-0.038602326
50	0xbd307b51	-0.043086354
51	0x3d2ce5e1	0.042211417
52	0xbc8ccea1	-0.017188372
53	0xbba09851	-0.00490097
54	0x3ca8ae5f	0.02059096
55	0x3dc4f1a6	0.09616403
56	0xbd31b6f1	-0.043387357
57	0x3dd4b0db	0.10385295
58	0x3d76805a	0.060181
59	0x3de2f481	0.11081792
60	0xbd2ae187	-0.041718986
61	0xbd815f81	-0.06317044
62	0xbd48f7b7	-0.049064364
63	0x3da6ccba	0.08144517
64	0x3d2e1ef4	0.042509988
65	0xbda855cc	-0.082194895
66	0xbd3c4a8f	-0.045969542
67	0xbd1a9448	-0.03773907
68	0xbd8853aa	-0.06656583
69	0xbd18637d	-0.037204254
70	0xbda993dd	-0.08280156
71	0xbd5bc1e9	-0.053651724
72	0xbd10bff2	-0.035339303
73	0x3ca6beff	0.020354746
74	0xbbec37b4	-0.007208789
75	0x3d06ed92	0.03294141
76	0x3d556aa1	0.052103642
77	0xbcb2d9ad	-0.021832312
78	0x3da1d062	0.07901074
79	0x3a6523de	0.00087410014
80	0xbd45b1f2	-0.048265405
81	0x3cfbaccc	0.030722044
82	0xbd0ef993	-0.03490598
83	0xbd29ea2c	-0.04148309
84	0x3dfa0abf	0.12209081
85	0xbd74c4c0	-0.059757948
86	0xbd23db62	-0.04000414
87	0xbd9ce21b	-0.07660314
88	0xbd44b093	-0.048019957
89	0x3cc9a2dd	0.024613792
90	0x3d38040e	0.04492574
91	0xbced2ce1	-0.028952064
92	0x3d99d6b0	0.075116515
93	0xbd9f20ba	-0.07769914
94	0xbe058833	-0.13040237
95	0xbc444cb0	-0.011981174
96	0xbd845088	-0.064606726
97	0xbcbad2b9	-0.022805559
98	0xbcb63d4a	-0.022246022
99	0xbd622b76	-0.05521723
100	0xbc65aaeb	-0.014017801
101	0xbd4a4583	-0.049382698
102	0xbda6d8be	-0.08146809
103	0x3be4a170	0.0069772527
104	0xbdab1df3	-0.08355322
105	0xbd6ce805	-0.05783846
106	0xbcd6ee98	-0.026236817
107	0x3dc193ba	0.09452005
108	0xbd36b824	-0.044609204
109	0x3c88368a	0.016627569
110	0x3c404b1c	0.0117366575
111	0xbc7cac2e	-0.01542191
112	0xbd9d0717	-0.07667368
113	0xbcf8a6da	-0.030352999
114	0x3c355eba	0.011069948
115	0xbc4b6eb1	-0.012416528
116	0xbaf115d0	-0.0018393341
117	0xbc3dc575	-0.011582722
118	0xbe007b3a	-0.12547007
119	0xbca98ddb	-0.020697525
120	0x3d1c8cff	0.0382204
121	0xbba58d65	-0.005052256
122	0xbdcd3371	-0.10019577
123	0xbbd12501	-0.006382585
124	0x3d3de5ae	0.046361618
125	0x3d8ab470	0.06772697
126	0x3c9a44a4	0.018831559
127	0x3d1c2181	0.03811789
128	0xbcee9f1f	-0.02912861
129	0xbd6aae26	-0.057294987
130	0x3c48273c	0.012216385
131	0xbcd1f7d4	-0.025630869
132	0x3d5ffded	0.054685522
133	0x3c90d348	0.017678872
134	0x3ca7792c	0.020443521
135	0x3cbaa6a1	0.022784533
136	0xbde718a4	-0.11283997
137	0x3d84878c	0.06471166
138	0xbcbcf80e	-0.0230675
139	0xbcf916d5	-0.030406395
140	0xbd18a132	-0.037263103
141	0x3c328c6d	0.010897738
142	0x3dca2529	0.09870369
143	0x3d924710	0.0714246
144	0xbd81ba07	-0.0633431
145	0x3c51ce50	0.012805536
146	0xbd2c9ee5	-0.04214372
147	0x3da2aa20	0.07942605
148	0x3ca3d5c4	0.019999392
149	0x3d3829fd	0.04496192
150	0x3d7008eb	0.058602255
151	0xbca2c0d8	-0.019867346
152	0xbda902ab	-0.08252462
153	0xbd78faf0	-0.060786188
154	0x392c31f5	0.00016421809
155	0xbcbd27b5	-0.023090223
156	0xbd43eda6	-0.04783406
157	0xbd3f3446	-0.04668071
158	0x3d419b71	0.04726738
159	0xbd69970c	-0.057028815
160	0xbbfd6d52	-0.0077339793
161	0x3d7370cb	0.05943374
162	0xbba7d287	-0.0051215324
163	0xbd133ab3	-0.03594465
164	0xbb9f79f6	-0.004866834
165	0x3c89f784	0.016841657
166	0xbd097748	-0.03356102
167	0xbd664f21	-0.056227807
168	0xbc79e16d	-0.0152515
169	0x3d9105d8	0.07081193
170	0x3bd6aca7	0.0065513435
171	0xbc5d03df	-0.0134896925
172	0xbd844f86	-0.064604804
173	0x3bc3e9f9	0.0059788194
174	0xbd660881	-0.056160454
175	0x3c3e8ea5	0.011630689
176	0xbd0e04ea	-0.034672655
177	0x3bfd0848	0.0077219345
178	0xbd53c257	-0.05169901
179	0x3dd74696	0.1051151
180	0xbc8dbc3e	-0.017301675
181	0xbc189aa1	-0.00931421
182	0xbb64dc8f	-0.0034921502
183	0xbdebff1d	-0.11523268
184	0xbc093e6f	-0.008376702
185	0xbd284b3a	-0.041087367
186	0x3d525829	0.051353607
187	0xbd7dd7dc	-0.061973438
188	0x3d85e5c4	0.06537965
189	0x3d386c61	0.045025233
190	0xbd987582	-0.07444288
191	0x3d86a317	0.06574076
192	0x3da3604c	0.079773515
193	0xbd8d21a3	-0.06891181
194	0xbbe915d9	-0.0071132
195	0x3cd25493	0.025675094
196	0xbd61cc83	-0.05512668
197	0xbc7d2d3f	-0.015452682
198	0xbc9a85b6	-0.018862586
199	0xbca89e3e	-0.020583268
200	0x3d264ea2	0.040602334
201	0xbce3a655	-0.027789274
202	0xbcd10020	-0.025512755
203	0xbd28b000	-0.04118347
204	0xbd7ac373	-0.06122155
205	0x3c08618d	0.008324039
206	0xbd6648d5	-0.0562218
207	0xbc1327f1	-0.008981691
208	0x3ce51900	0.027966022
209	0x3b45e889	0.0030198416
210	0xbd9937d5	-0.07481352
211	0xba8ee515	-0.0010902012
212	0x3d0b4dce	0.034009747
213	0xbce6ab23	-0.028157776
214	0xbd10f4a0	-0.035389543
215	0xbd4d14a9	-0.05006853
216	0x3c309fb4	0.010780264
217	0xbca17292	-0.019707952
218	0x3da96644	0.08271459
219	0x3d2513ef	0.040302213
220	0x3b20691d	0.0024476715
221	0xbd1dc14f	-0.03851443
222	0x3d862402	0.06549837
223	0x3ca32302	0.019914154
224	0xba2c15bc	-0.0006564518
225	0x3cd168ea	0.025562722
226	0x3c3bb6ab	0.011457126
227	0x3c038d48	0.00802929
228	0xbd460ff7	-0.04835507
229	0xbba872c6	-0.005140635
230	0x3cfe0dbd	0.03101241
231	0xbd8e89f5	-0.06959907
232	0x3c94211d	0.018082196
233	0xbd5465c7	-0.051854875
234	0xba6a0552	-0.00089271844
235	0xbe10102e	-0.14068672
236	0x3ce66f92	0.028129373
237	0x3bd809f2	0.0065929824
238	0x3dc00530	0.093759894
239	0xbc0802e6	-0.008301472
240	0xbac12f97	-0.0014738914
241	0xbc0832f0	-0.008312926
242	0x3c6bb999	0.014387512
243	0xbbf0f12a	-0.0073529677
244	0x3d1842e3	0.037173163
245	0x3d106403	0.03525163
246	0xbce6b1ec	-0.028161012
247	0x3ca299c5	0.019848714
248	0x3ae7e607	0.0017692455
249	0xbd87b8c0	-0.06627035
250	0xbc9bb251	-0.019005926
251	0xbd1ac81c	-0.037788495
252	0x3bd4d7f7	0.0064954716
253	0xbc69a289	-0.014259943
254	0xbd857e0d	-0.06518183
255	0xbb052322	-0.002031513

hidden_layers.1.bias f4 [256]
0	0x3b13012e	0.0022431123
1	0x3c6e488b	0.014543663
2	0xbcbc16d2	-0.0229601
3	0xbd9b42d7	-0.07581108
4	0x3c903324	0.01760251
5	0x3c319de0	0.010840863
6	0x3d82b1e8	0.06381589
7	0xbd0d3acd	-0.034479905
8	0x3c101148	0.008793183
9	0xbb952963	-0.004552053
10	0xbdaec343	-0.08533337
11	0xbd009163	-0.03138865
12	0xbd8dd572	-0.06925477
13	0xbd741a28	-0.059595257
14	0xbc98f08f	-0.018669395
15	0xbd7ca972	-0.061685033
16	0x3d856818	0.06513995
17	0x3cfdac7b	0.030966034
18	0xbcfdfd5c	-0.0310046
19	0xbd1d87cb	-0.03845958
20	0x3d2894e2	0.04115761
21	0xbd932c31	-0.07186163
22	0x3dd66774	0.10468951
23	0xbd969b78	-0.07353872
24	0x3d58f7e2	0.052970774
25	0xbb5168c5	-0.0031953317
26	0x3d099557	0.033589687
27	0x3c8b8672	0.017031882
28	0xbb5bf2d4	-0.0033561485
29	0xbc1a2a7c	-0.009409543
30	0xbc2935e6	-0.010327792
31	0xbd534fc4	-0.051589742
32	0xbc520836	-0.01281934
33	0x3c9e3cfc	0.019316189
34	0xbb5dabf7	-0.0033824423
35	0xbd907886	-0.07054238
36	0xbda38251	-0.0798384
37	0xbc09173a	-0.008367354
38	0xbcf967f2	-0.030445073
39	0x3cc9e940	0.024647355
40	0xbd864ee2	-0.065580145
41	0xbc16850f	-0.009186997
42	0x3d1cc228	0.0382711
43	0x3d1dbbb0	0.03850907
44	0x3c3f3da4	0.011672411
45	0xbd1f2366	-0.038852118
46	0xbd342eb5	-0.043989856
47	0x3c800cd0	0.01563111
48	0xbd29366b	-0.041311663
49	0xbd0ea639	-0.03482649
50	0xbb14c8bf	-0.0022702662
51	0x3c50661a	0.012719655
52	0xbce15542	-0.027506474
53	0xbc4a2183	-0.012337091
54	0x3ca09269	0.019601064
55	0x3a555e8d	0.00081393943
56	0xbd53137d	-0.051532257
57	0xbd7e7671	-0.062124673
58	0x3bc7865d	0.0060890154
59	0xbd29de1b	-0.041471582
60	0xbd6d35ce	-0.05791264
61	0xbcc4d8c5	-0.024029145
62	0xbdb75862	-0.089524046
63	0xbd8e9a02	-0.069629684
64	0xbcdfaea4	-0.027304955
65	0xbddde5a1	-0.10834814
66	0xbc240890	-0.010011807
67	0xbcf5398f	-0.029934673
68	0xbc0527a1	-0.008127124
69	0x3d5c6a03	0.05381204
70	0x3ccfec14	0.025381126
71	0xbc23a516	-0.00998809
72	0x3cc64866	0.024204444
73	0x3b018d73	0.0019768148
74	0x3c9d8c15	0.019231835
75	0xbc63a819	-0.013895058
76	0x3cd38f41	0.025825145
77	0x3d5a5c8d	0.05331092
78	0xbc8697c4	-0.01642979
79	0x3caa3a53	0.020779764
80	0xbcf23cf5	-0.029570082
81	0xbd9fc7d8	-0.07801789
82	0xbd12e9a0	-0.035867333
83	0xbdb41a9c	-0.08794138
84	0xbc8c906d	-0.017158711
85	0x3cefe722	0.029285017
86	0xbd1bcff2	-0.03804011
87	0xbdccf797	-0.100081615
88	0xbcd4da08	-0.025982872
89	0x3cbe8efa	0.023261536
90	0x3bf75b2e	0.0075487113
91	0x3cb0ee7b	0.021598091
92	0xb992d1d3	-0.0002800362
93	0xbda011a3	-0.07815864
94	0xbcb184bc	-0.021669738
95	0x3cfc2278	0.030778155
96	0xbcc230f3	-0.023704981
97	0x3b2ac883	0.0026059456
98	0xbc0b4743	-0.008500877
99	0x3d82dadf	0.063894026
100	0x3d821164	0.06350973
101	0x3d3529eb	0.04422943
102	0x3c74cd7c	0.014941569
103	0x3d515f3b	0.05111621
104	0xbd1e7e3c	-0.038694605
105	0xbda254f8	-0.07926363
106	0xbd937268	-0.07199556
107	0x3aa62eb9	0.0012678719
108	0xbda50952	-0.08058418
109	0xbd477aab	-0.04870097
110	0xbd12aee8	-0.035811335
111	0xbbdd6263	-0.0067561134
112	0xbc8b0960	-0.016972244
113	0x3c3c7a82	0.0115038175
114	0xbc0ac47a	-0.008469695
115	0x3cd9ccb3	0.026586866
116	0x3d8c91cc	0.06863746
117	0xbd8d5534	-0.06901017
118	0x3d363c87	0.044491317
119	0xbad929aa	-0.0016568203
120	0x3d47a4f3	0.048741292
121	0xbd432bc6	-0.047649167
122	0x3d864e66	0.06557922
123	0x3c9a8834	0.018863775
124	0x3ce2e5a4	0.027697392
125	0x3c8692d7	0.01642744
126	0x3c353851	0.01106079
127	0xbd8e606c	-0.06951985
128	0x3bb653b3	0.005564177
129	0xbcc32236	-0.023820024
130	0xbdac3ea0	-0.08410382
131	0xbc10fbc3	-0.008849087
132	0x3cdab149	0.026695864
133	0x3cacdd2b	0.021101555
134	0xbdb3a78a	-0.0877219
135	0x3d204889	0.039131675
136	0xbd370d9c	-0.044690713
137	0x3a3f58c0	0.00072992966
138	0xbc0dbbe0	-0.00865075
139	0xbd50eef8	-0.05100915
140	0xbd282e63	-0.041059863
141	0x3b5d44a5	0.003376284
142	0x3d1820aa	0.037140526
143	0x3bb4201c	0.005496992
144	0xbd59b168	-0.053147703
145	0x3db73929	0.08946449
146	0x3cbee40c	0.0233021
147	0xbd3466e9	-0.044043455
148	0xbd9dcbbd	-0.077048756
149	0xbda9c574	-0.08289614
150	0xbd93d73d	-0.07218788
151	0x3da199f1	0.0789069
152	0x3c2fcdf2	0.0107302535
153	0xbd6055f6	-0.05476948
154	0xba054e52	-0.0005085218
155	0xbda5dcf5	-0.08098785
156	0xbc457d71	-0.012053833
157	0x3c9ae50c	0.018908046
158	0x3c921208	0.017830864
159	0x3cde33bd	0.02712428
160	0x3b9ee9c9	0.0048496467
161	0xbc03ac42	-0.008036675
162	0xbd6b2bd5	-0.05741485
163	0xbd11ba0f	-0.03557783
164	0xbd3f475c	-0.046698913
165	0xbd18a1ee	-0.037263803
166	0xbd66c027	-0.056335595
167	0x3debf6c9	0.1152168
168	0xbd9a4f21	-0.07534624
169	0xbd8a9524	-0.067667276
170	0xbd1bc1d0	-0.03802663
171	0x3d4d276a	0.050086416
172	0xbd84bf06	-0.06481747
173	0xbd0f0da3	-0.034925114
174	0x3ce473d9	0.027887272
175	0xbbb325c3	-0.005467148
176	0xbd36eaea	-0.044657625
177	0x3cfc9ca0	0.030836403
178	0x3cdba2cc	0.026811026
179	0xbbdf6b87	-0.006818238
180	0xbd268c0f	-0.040660914
181	0xbd228152	-0.03967411
182	0xbd0c69b6	-0.0342805
183	0xbd5ef1a3	-0.05442966
184	0xbd7d416f	-0.06182998
185	0xbca27605	-0.019831667
186	0xbd786fdd	-0.060653556
187	0xbd758767	-0.059943583
188	0xbd7c084a	-0.061531343
189	0x3d1a37a1	0.037650708
190	0xbd610445	-0.054935712
191	0xbd3240f4	-0.043518975
192	0x3d0c6a1f	0.034280892
193	0xbd4c6497	-0.049900617
194	0xbd3c239b	-0.045932394
195	0xbc54a883	-0.012979629
196	0xbd957b73	-0.07298937
197	0xbd93df6d	-0.072203495
198	0xbc6540c7	-0.013992495
199	0xbd35ac1d	-0.044353593
200	0xbd07c043	-0.03314234
201	0x3d30925b	0.043108325
202	0x3dc61f40	0.09673929
203	0xbd02fdef	-0.03198045
204	0xbd8efaeb	-0.069814526
205	0x3d28ede4	0.041242495
206	0xbd42572d	-0.04744642
207	0x3c21b5dc	0.009870019
208	0x3d5d8ca3	0.0540892
209	0xbceba640	-0.028765798
210	0xbcefb5b0	-0.02926144
211	0x3c66ea7f	0.014093994
212	0xbd3d738c	-0.046252772
213	0xbd074816	-0.03302773
214	0xbda7c9f4	-0.081928164
215	0x3c952007	0.018203748
216	0xbb53ffa5	-0.003234842
217	0xbcf396dd	-0.029735023
218	0xbdaa62cd	-0.08319626
219	0xbc00c0bf	-0.007858454
220	0xbd48efb6	-0.04905673
221	0x3c20f9dc	0.009825196
222	0xbadc60c8	-0.0016813511
223	0xbd35b4d1	-0.044361893
224	0xbc0a671d	-0.008447436
225	0x3d75993f	0.0599606
226	0xbd4cd3af	-0.050006565
227	0xbd8dfe4b	-0.06933268
228	0xbda264e2	-0.07929398
229	0xbdab7d71	-0.083735354
230	0xbca23a23	-0.019803112
231	0xbcf21f37	-0.0295559
232	0xbdab5c5e	-0.08367227
233	0xbd5ce799	-0.053931806
234	0xbd05e4b9	-0.03268883
235	0x3c24ea6d	0.010065657
236	0xbcd0df76	-0.02549718
237	0xbd97d33b	-0.07413336
238	0x3ce38cc5	0.027777085
239	0x3d8017d7	0.06254547
240	0xbd265bdd	-0.04061495
241	0x3d9f01e0	0.077640295
242	0xbd43cde3	-0.04780377
243	0x3a8e1fe1	0.0010843241
244	0xbcf87a50	-0.03033176
245	0x3c810f20	0.015754282
246	0xbd4e0c40	-0.05030465
247	0x3da2d0c3	0.079499744
248	0x3ce234d7	0.027613087
249	0xbc43445a	-0.011918152
250	0x3d84548d	0.06461439
251	0xbd0dd150	-0.034623444
252	0xbd9f2df6	-0.07772438
253	0xbd37f566	-0.044911765
254	0x3a5b56d7	0.0008367127
255	0xbdbc31d0	-0.091891885

output.weight f4 [4, 256]
0	0x3b919aa6	0.0044434844
1	0x3cb1f11a	0.021721411
2	0x3d0cb9d8	0.034356922
3	0xbcc4ea4c	-0.024037503
4	0x3d83b7bf	0.06431531
5	0x3da54fca	0.08071859
6	0x3d916207	0.07098775
7	0x3d032e9c	0.032026872
8	0x3cdcc1fe	0.026947971
9	0xbc7d14de	-0.01544687
10	0x3cb447be	0.022006866
11	0xbd2fdd26	-0.042935513
12	0x3d05555f	0.03255212
13	0xbae52bf0	-0.0017484408
14	0x3d168174	0.03674455
15	0xbc0242da	-0.007950509
16	0x3d0bcf85	0.034133453
17	0xbd7a318c	-0.061082408
18	0x3cfa8014	0.03057865
19	0x3d2cd5d3	0.042196106
20	0x3d89ffff	0.067382805
21	0xbc0b11b8	-0.008488111
22	0x3dac860b	0.08424004
23	0x39a34f89	0.0003114904
24	0x3d9531ce	0.0728489
25	0x3b43bdc7	0.0029867755
26	0xbc2ccd88	-0.010547049
27	0xbc87be41	-0.016570212
28	0xbcc2d5ef	-0.023783652
29	0xbcba2524	-0.022722788
30	0xbcfbbba4	-0.030729122
31	0x3da84c35	0.0821766
32	0x3ab25b37	0.0013607506
33	0xbcd52a78	-0.026021227
34	0xbd38586b	-0.045006197
35	0xbbe7175e	-0.007052346
36	0xbcf7cc53	-0.030248797
37	0xbb86de2c	-0.0041158404
38	0xbce72219	-0.028214501
39	0x3d6802a3	0.05664314
40	0xbcb4f3b2	-0.02208886
41	0x3c720afe	0.014773129
42	0x3c50564e	0.012715889
43	0xbc724cda	-0.014788831
44	0x3c50506a	0.012714485
45	0x3d6f9517	0.058491793
46	0xbc6e2576	-0.014535299
47	0x3d37781a	0.044792272
48	0xbd1c8d94	-0.038220957
49	0xbd37ec0a	-0.04490284
50	0x3ad01b44	0.0015877266
51	0xbcd66c74	-0.026174761
52	0xbc0947ca	-0.008378932
53	0x3d162a08	0.036661178
54	0xbd9a063e	-0.07520722
55	0xbd270208	-0.04077342
56	0xbd645392	-0.05574376
57	0x3b4c86df	0.003120832
58	0xbcfe7d65	-0.031065652
59	0xbdab41fc	-0.08362195
60	0xbcf1de55	-0.029524961
61	0x3d4b02e4	0.049563304
62	0x3cbb390f	0.022854356
63	0xbcd4bb02	-0.025968079
64	0x3ccfadc6	0.025351416
65	0xbcac55c3	-0.021036988
66	0x3c384d36	0.011248877
67	0xbdb8a1b5	-0.09015218
68	0xbe2295c7	-0.15877448
69	0xbe1bea61	-0.15226127
70	0xbcdc9a00	-0.026928902
71	0xbc5b90e8	-0.013401248
72	0xbdbcf6cc	-0.0922676
73	0xbac3658e	-0.0014907585
74	0xbc9fb1cd	-0.019493962
75	0xbd1b2bfd	-0.037883747
76	0x3d92b38d	0.07163153
77	0x3b25f6a5	0.0025324014
78	0xbcbef1b5	-0.023308614
79	0xbcf96b78	-0.030446753
80	0xbc89dc8b	-0.016828796
81	0x3d31c5f5	0.043401677
82	0xbccf100f	-0.025276212
83	0xbc2daf1c	-0.010600831
84	0xbca577cd	-0.020198727
85	0x3c4bd1c3	0.012440148
86	0x3c72a2e8	0.014809348
87	0xbe01417e	-0.1262264
88	0xbb81b0d1	-0.0039578457
89	0x3b970930	0.0046092495
90	0xbd6e8eb1	-0.05824155
91	0x3db878a2	0.09007384
92	0xbb87b1ae	-0.004141054
93	0x3d152cc1	0.036419634
94	0x3d4ea80e	0.05045324
95	0x3d1be9c0	0.03806472
96	0xbcb4106b	-0.021980485
97	0xbbfcb5ab	-0.007712086
98	0x3d1f2c2f	0.038860496
99	0x3d0abfd2	0.03387434
100	0xbd1b7914	-0.037957266
101	0x3d3c7bf3	0.046016645
102	0x3ae0f358	0.0017162366
103	0x3db70f98	0.08938521
104	0xbd2c6984	-0.042092815
105	0x3c5c6202	0.013451101
106	0xbbba2239	-0.005680349
107	0x3ce812c8	0.028329268
108	0x3d40fe2d	0.0471174
109	0x3ccaa711	0.024737867
110	0x3c2ef153	0.010677653
111	0x3cd5e75c	0.026111297
112	0xbd1d8e9d	-0.038466085
113	0xbcf3d9dd	-0.029766971
114	0x3d78c11e	0.060731046
115	0x3d02a41d	0.031894792
116	0x3c53e55f	0.012933104
117	0x3d021ba7	0.031764653
118	0x3d618ae3	0.055064093
119	0x3bd412e1	0.006471977
120	0x3c02dd20	0.007987291
121	0xbce656b2	-0.028117511
122	0x3d72decb	0.059294503
123	0x3d205d56	0.039151512
124	0x3d56ef95	0.052474577
125	0x3db775db	0.08958026
126	0x3a6a8148	0.0008945656
127	0xb94605aa	-0.00018884861
128	0x3b84c579	0.004051861
129	0x3d0e2141	0.034699682
130	0xbd2c7ddd	-0.04211222
131	0x3c00f029	0.007869759
132	0xbcfbebed	-0.030752147
133	0xba60bccc	-0.0008573055
134	0x3ce007ce	0.027347472
135	0x3b8407c8	0.004029248
136	0x3da7f6b9	0.082013555
137	0xbd1af7ff	-0.037834164
138	0xbc3e7a93	-0.011625904
139	0xbd805771	-0.06266678
140	0x3d034bbf	0.03205466
141	0xbc0a711e	-0.008449821
142	0x3d96e560	0.073679686
143	0xbc1cb5a2	-0.009564789
144	0xbc6be7da	-0.014398539
145	0x3cd92403	0.02650643
146	0xbc71c3d9	-0.014756166
147	0xbd0a4926	-0.033761166
148	0x3cbbb508	0.02291347
149	0xbcb5f0a8	-0.02220948
150	0xbc3bfba6	-0.011473572
151	0x3e2bc83b	0.167756
152	0x3da0310b	0.07821854
153	0xbb8e737e	-0.004347264
154	0x3be1180c	0.0068693217
155	0xbd685136	-0.056718074
156	0x3b1f0b4a	0.0024268203
157	0xbc1778e3	-0.00924513
158	0x3c8563ff	0.016283033
159	0xbd0011cf	-0.031266984
160	0x3dd639f5	0.10460273
161	0xbcea22eb	-0.028581103
162	0xbd24ae61	-0.040205363
163	0x3da80cab	0.08205541
164	0x3cfd1fe8	0.030899003
165	0xbd4df222	-0.050279744
166	0x3c7028a8	0.014658131
167	0x3d625506	0.055256866
168	0xbd2b22d8	-0.041781276
169	0xbbef9797	-0.007311772
170	0xbc2bd288	-0.010487206
171	0x3d33fceb	0.043942373
172	0x3c8206d3	0.015872395
173	0x3bb4882a	0.005509396
174	0x3ccb5250	0.024819523
175	0xbca5836e	-0.020204272
176	0xbd06ecf7	-0.03294083
177	0x3d7f2841	0.06229425
178	0x3d50f195	0.05101164
179	0x3d2579cd	0.04039936
180	0xbcc37b93	-0.023862636
181	0xbd666d4c	-0.056256577
182	0xbcf26d4a	-0.029593129
183	0x3d5d2358	0.053988785
184	0xbd0f2464	-0.034946814
185	0x3d76f463	0.06029166
186	0xbd47105d	-0.04859959
187	0x3c5e56c2	0.013570489
188	0xbd0b699e	-0.03403627
189	0x3ddaba08	0.10680014
190	0xbbe036a8	-0.006842453
191	0x3cbf7a9e	0.023373898
192	0xbc98618a	-0.018601198
193	0x3cd40594	0.025881566
194	0xbbf8e638	-0.0075958036
195	0x3cc09593	0.023508823
196	0xbd48ab98	-0.04899177
197	0x3b030e59	0.0019997566
198	0xbb3538f3	-0.0027652353
199	0xbc168c91	-0.009188787
200	0xbd1de16b	-0.038545053
201	0xbd85b358	-0.06528348
202	0x3def6fbf	0.11691236
203	0xbd539b36	-0.051661693
204	0x3b56f941	0.0032802375
205	0x3d03773e	0.03209614
206	0x3d04c16f	0.032411035
207	0x3e01e9a8	0.12686789
208	0x3d3362ca	0.043795384
209	0xbd14e6b4	-0.03635283
210	0x3c857945	0.016293177
211	0x3c2cbe82	0.0105434675
212	0xbbe38273	-0.006943041
213	0x3c501f32	0.01270275
214	0x3b808ba3	0.003922896
215	0x3dc25477	0.09488767
216	0xbd26f4c1	-0.04076076
217	0xbc590586	-0.013245946
218	0xbbe206fb	-0.006897805
219	0xbd0d691a	-0.03452406
220	0xbcd93220	-0.02651316
221	0x3b1c1343	0.0023815192
222	0x3c05e341	0.008171857
223	0xbceefa5f	-0.02917212
224	0xb9cfd719	-0.00039642377
225	0x3df24e80	0.11831379
226	0xbcba0c74	-0.022711016
227	0xbd782265	-0.060579676
228	0xbbe17602	-0.0068805227
229	0x3c8aed47	0.016958846
230	0xbaed4ed5	-0.0018105159
231	0x3c1461cb	0.009056519
232	0xbd3b59e0	-0.04574001
233	0x3ce3c441	0.027803542
234	0xbc0ad81b	-0.008474375
235	0x3d32e56d	0.04367583
236	0xbc8ea728	-0.01741369
237	0xbc69ad71	-0.014262543
238	0xbd6ba220	-0.05752766
239	0xbbfd09ba	-0.0077221068
240	0xbd32cfd0	-0.043655217
241	0x3d316ab4	0.04331465
242	0x3b58d5d1	0.003308643
243	0x3d28f165	0.041245837
244	0x3cf0191c	0.029308848
245	0x3db65af7	0.08904069
246	0x3a569c38	0.00081867306
247	0x3d200b0f	0.039073046
248	0x3d0cccb6	0.034374915
249	0x3cf609a6	0.030033898
250	0x3d214c61	0.03937948
251	0xbcd98269	-0.026551442
252	0x3cdf1054	0.027229466
253	0xbc1dd85a	-0.009634102
254	0xbcd20017	-0.025634808
255	0x3cd94943	0.026524192

output.bias f4 [4]
0	0x3d980bc6	0.074241206
1	0x3d59ea79	0.053202126
2	0x3da90670	0.08253181
3	0x3d7be72f	0.06149977
